toy_its/train_logs/2024-12-01-184840_map=map_rl=ppo-epochs=10-eplen=100_s=9_nt=None/eval/bc_model_1000000.pth (torch, 38914 bytes, 11 tensors)

mlp_extractor.policy_net.0.weight f4 [32, 81]
0	0x3e9d6dc5	0.3074781
1	0xbe6e0a38	-0.23246086
2	0xbc8383e7	-0.016054107
3	0xbd434bb7	-0.04767963
4	0xbe36eecc	-0.17864531
5	0x3d0072bb	0.031359416
6	0x3ce7c8b0	0.028293937
7	0xbe05de66	-0.1307312
8	0xbe6424cc	-0.22279662
9	0x3d10ac5c	0.035320625
10	0xbd0596ca	-0.032614507
11	0xbd6f1836	-0.0583727
12	0xbe0e2a15	-0.1388324
13	0xbebf5b07	-0.37374136
14	0xbdef5c36	-0.1168751
15	0xbe02176b	-0.12704246
16	0x3e1a4c51	0.15068175
17	0x3db1cad1	0.08681262
18	0x3e6eb903	0.23312764
19	0x3df4db0f	0.119558446
20	0x3e4cfe1d	0.20018812
21	0x3e458afd	0.19291301
22	0xbe8a22dd	-0.26979724
23	0xbeaf1cd0	-0.3420167
24	0x3ebfd379	0.37466028
25	0x3dac38d9	0.0840928
26	0x3e2a2e99	0.16619338
27	0xbd3c2681	-0.045935158
28	0x3e923c80	0.28561783
29	0xbe728bc2	-0.23686126
30	0xbe49610b	-0.19665925
31	0xbdd2db11	-0.1029569
32	0xbd625f0f	-0.055266436
33	0xbdae2f37	-0.08505099
34	0x3e0dd87e	0.13852116
35	0x3b9368b7	0.004498567
36	0xbe406b50	-0.18790936
37	0x3e9a3e63	0.30125722
38	0xbe3512cb	-0.1768295
39	0x3d8f9e4c	0.070126146
40	0x3dc8a6b6	0.097974226
41	0xbd1a4569	-0.03766385
42	0xbe0c2aa0	-0.13688135
43	0xbea445d0	-0.32084513
44	0x3e93ae73	0.28844032
45	0xbc5e922d	-0.013584656
46	0xbcd1e84c	-0.025623463
47	0x3e71aed6	0.23601851
48	0xbd182ff9	-0.037155125
49	0xbe3ee01c	-0.18640178
50	0xbd97b2d6	-0.07407157
51	0xbe4ad6e8	-0.19808543
52	0xbde2b182	-0.11069013
53	0xbdcbd73a	-0.099531606
54	0x3dd40ec2	0.10354377
55	0xbd71feeb	-0.059081
56	0x3dadeaeb	0.08492073
57	0x3e703b14	0.23460037
58	0xbc63da32	-0.013907002
59	0xbe099866	-0.13437042
60	0xbd74cf21	-0.059767846
61	0x3cbf0031	0.023315521
62	0x3e0a5cfb	0.13512032
63	0xbca2cc0b	-0.019872686
64	0x3d0dd4cb	0.034626763
65	0xbc84c83d	-0.016208762
66	0xbe870976	-0.26374406
67	0xbd1c8ced	-0.038220335
68	0xbe007d14	-0.12547714
69	0x3cf9a255	0.030472914
70	0x3dde0a56	0.10841815
71	0x3e742df5	0.23845656
72	0x3e1e79c2	0.15476134
73	0xbdd9b34e	-0.10629903
74	0x3e8d9aab	0.27657065
75	0xbd4fb39a	-0.05070839
76	0x3eb45602	0.3522187
77	0x3e41bdcc	0.18920058
78	0x3e04e440	0.12977695
79	0x3d8ac317	0.06775492
80	0x3c8dba3c	0.017300718
81	0x3e99a31b	0.30007252
82	0x3dd1dc32	0.10247077
83	0xbec4928c	-0.38393056
84	0x3d3781d7	0.04480156
85	0xbe29205b	-0.16516249
86	0xbd956d18	-0.072961986
87	0x3e2d6857	0.16934334
88	0xbd99e3f0	-0.07514179
89	0x3e791dc0	0.24327755
90	0x3c827fdb	0.015930107
91	0xbd5eab49	-0.05436257
92	0x3e51fd55	0.20506795
93	0x3e0a45bf	0.13503169
94	0xbe38324b	-0.17987935
95	0x3e8c67b7	0.27422878
96	0x3dc79b39	0.09746403
97	0xbea5f8ad	-0.32416287
98	0xbe85629b	-0.26051793
99	0xba9707b4	-0.0011522681
100	0x3cced6c9	0.025248902
101	0xbc4bcf9a	-0.012439633
102	0x3c4216f3	0.011846292
103	0x3e773576	0.24141487
104	0xbc8312c3	-0.016000157
105	0x3eb6d485	0.35709015
106	0x3d38c40f	0.04510885
107	0xbe1586dd	-0.14602228
108	0xbe17a4d8	-0.14808977
109	0xbe23e1e1	-0.16004135
110	0x3cd54f58	0.02603881
111	0xbe367915	-0.17819627
112	0x3de9dc1a	0.11418934
113	0x3d425d89	0.047452483
114	0x3cf287d7	0.02960579
115	0xbdf1318a	-0.11777027
116	0xbe18909d	-0.14898916
117	0xbcb8833b	-0.022523513
118	0x3f0d7888	0.5526204
119	0x3c3f5e34	0.011680175
120	0xbd19ac21	-0.03751767
121	0x3e34d83e	0.17660615
122	0xbce2aa06	-0.027668964
123	0xbd9b6180	-0.07586956
124	0xbdb1eec8	-0.08688122
125	0xbc825bd9	-0.015912937
126	0xbbcc25ea	-0.0062301056
127	0xbdbcdb88	-0.0922156
128	0x3e7db621	0.24776508
129	0x3e12f719	0.14352073
130	0xbcea0dde	-0.028571066
131	0x3db9f7c8	0.09080464
132	0x3e126b74	0.14298803
133	0xbe5af7bb	-0.21383564
134	0x3e61e70b	0.22060792
135	0x3d8b61ac	0.06805739
136	0xbc7e4351	-0.015518979
137	0x3e09d2fc	0.1345939
138	0xbe8e4e7b	-0.2779425
139	0x3e170cd2	0.14750984
140	0xbd9eee91	-0.07760347
141	0x3ea544bf	0.32279012
142	0x3d87f8f9	0.06639285
143	0xbe0e5d04	-0.1390267
144	0xbe565fef	-0.20935033
145	0xbe8813ce	-0.2657761
146	0x3d5076dd	0.050894607
147	0x3d2d6869	0.0423359
148	0x3e29c964	0.1658073
149	0xbc8464e1	-0.016161384
150	0xbe1d4f7a	-0.15362349
151	0xbd96ed49	-0.07369477
152	0xbe571ca0	-0.21007013
153	0x3e376ac9	0.17911829
154	0xbd035436	-0.03206273
155	0xbe6a8467	-0.2290207
156	0xbd91e8f8	-0.071245134
157	0xbc14c89d	-0.009081033
158	0x3e823edc	0.25438583
159	0x3dd55e2a	0.10418351
160	0xbe1a9c2a	-0.15098634
161	0xbe706bac	-0.23478574
162	0x3e2861f9	0.16443624
163	0xbd4cb387	-0.049975898
164	0xbe307af2	-0.172344
165	0xbe347b02	-0.17625049
166	0xbb9784af	-0.0046239714
167	0xbe6d368e	-0.23165342
168	0xbee02b9d	-0.43783274
169	0xbdcb5119	-0.099275775
170	0x3bfae54e	0.00765673
171	0xbe271a31	-0.16318585
172	0xbdd2d42b	-0.10294374
173	0x3de34b91	0.110983975
174	0x3d27c9c3	0.0409639
175	0x3dfb8b48	0.12282425
176	0x3b23c693	0.0024990186
177	0x3d3e7efd	0.046507824
178	0xbd69d850	-0.057091057
179	0xbe326cab	-0.17424266
180	0xbd80d9dd	-0.06291554
181	0xbc6dd326	-0.014515674
182	0xbd12f417	-0.035877313
183	0x3e53f3ca	0.20698467
184	0x3e8c236e	0.2737078
185	0x3d216fe0	0.039413333
186	0x3df60f35	0.12014619
187	0xbe80c003	-0.25146493
188	0x3dc8fcda	0.098138526
189	0xbda9c23e	-0.08289002
190	0x3e2b4602	0.16725925
191	0x3e748dd7	0.23882233
192	0xbd405c1f	-0.046962854
193	0xbec01ef4	-0.37523615
194	0xbdf5b350	-0.11997092
195	0x3e1be465	0.15223844
196	0xbe0b20a9	-0.13586678
197	0x3e1a6bb1	0.15080144
198	0x3ca7d84a	0.020488877
199	0xbe097c71	-0.13426377
200	0x3e651392	0.22370747
201	0x3d8a8da6	0.067652985
202	0xbe8ca252	-0.2746759
203	0xbdae44ee	-0.08509241
204	0x3d8ca930	0.068682075
205	0x3e7e339c	0.24824375
206	0x3efaddc6	0.48997325
207	0x3dde76e5	0.10862521
208	0x3e81ef62	0.25377947
209	0xbed35334	-0.41274416
210	0xbe635352	-0.22199753
211	0x3bc367c1	0.005963296
212	0x3e8d8e11	0.2764745
213	0x3eda20ad	0.42603055
214	0x3e4d7171	0.20062806
215	0x3e43a7c8	0.19106972
216	0xbe01a4f8	-0.12660587
217	0x3d4129b2	0.047158904
218	0x3e752452	0.23939636
219	0x3e5f52e7	0.21808968
220	0xbed0e078	-0.40796256
221	0xbd7573ed	-0.05992501
222	0x3eef950e	0.46793407
223	0x3d3e1a86	0.046412013
224	0x3e72784f	0.23678707
225	0xbdb7de54	-0.089779526
226	0x3e3046ea	0.17214552
227	0xbc0278d0	-0.007963374
228	0x3cd04ad0	0.025426298
229	0xbef251a2	-0.47327906
230	0x3e33129c	0.17487568
231	0x3e25bbaa	0.1618487
232	0x3da12df7	0.07870095
233	0xbd23936c	-0.039935514
234	0x3dde2c8f	0.108483426
235	0xbdc8a6cb	-0.09797438
236	0x3bac6a8f	0.005261726
237	0xbbcc8c67	-0.006242323
238	0x3e1917a4	0.14950424
239	0x3e94d5c0	0.29069328
240	0x3e7694a2	0.24080136
241	0x3d85ca93	0.065327786
242	0x3cc265cf	0.023730187
243	0xbe45e1f8	-0.19324481
244	0xbcd4fd6f	-0.025999753
245	0x3e4f5917	0.20248829
246	0x3e2efefd	0.17089458
247	0xbe9eab67	-0.30990145
248	0xbd0cbab6	-0.03435775
249	0x3eb5d91d	0.35517207
250	0x3d7e2e07	0.062055614
251	0x3c368d96	0.011142155
252	0x3cfb1e57	0.030654116
253	0xbeb41e64	-0.35179436
254	0x3dd8ff78	0.10595602
255	0xbcd24e30	-0.025672048

mlp_extractor.policy_net.0.bias f4 [32]
0	0x3d5e3327	0.054248
1	0x3b6ff976	0.0036617196
2	0xbdae2459	-0.085030265
3	0xbdcb6a1a	-0.09932347
4	0xbcb9d11d	-0.02268272
5	0x3cffe4a2	0.03123695
6	0x3c918d97	0.01776771
7	0xbd8e1aff	-0.06938743
8	0x3ca929e1	0.020649852
9	0xbc089a19	-0.008337521
10	0x3cac2e17	0.021018071
11	0x3d0d134e	0.03444224
12	0xbda83723	-0.082136415
13	0xbcef140f	-0.02918437
14	0x3ce749b7	0.028233392
15	0xbd16538b	-0.036700767
16	0xbcd2edb4	-0.025748111
17	0xbb3b2f40	-0.0028562099
18	0xbb9d81fb	-0.0048067546
19	0x3da182a9	0.078862496
20	0x3db98d45	0.09060148
21	0x3c5e5ca8	0.013571896
22	0x3cbd650a	0.023119468
23	0x3ccacb32	0.024755094
24	0x3d67b0d8	0.056565136
25	0x3da1d321	0.07901598
26	0x3b9c2943	0.004765661
27	0xbaf4ac25	-0.0018667026
28	0x3d1a4cf2	0.037671037
29	0xbcc0401b	-0.023468068
30	0xbc87e8ce	-0.016590502
31	0xbd4ce137	-0.05001947

mlp_extractor.policy_net.2.weight f4 [32, 32]
0	0xbf2702e4	-0.65238786
1	0xbe13283f	-0.14370821
2	0x3e8ee0c5	0.2790586
3	0x3ee6b0ec	0.45056856
4	0xbd3a2241	-0.045442823
5	0xbe93d29f	-0.2887163
6	0x3ee07be8	0.43844533
7	0x3ed73e06	0.42039508
8	0x3ee15166	0.44007415
9	0x3eaf6e17	0.3426368
10	0xbeb2d14a	-0.349253
11	0xbd863eaa	-0.06554921
12	0x3f0f754a	0.56038344
13	0xbe1baeab	-0.1520335
14	0xbe491426	-0.19636592
15	0x3ee551d6	0.44788998
16	0x3ac17c9c	0.0014761868
17	0x3e83edd9	0.257674
18	0xbe8b158d	-0.2716488
19	0xbda42535	-0.08014909
20	0x3e2c69e8	0.16837275
21	0x3f01898a	0.5060049
22	0x3da655e3	0.0812185
23	0xbd294bd7	-0.041332092
24	0x3e8084c7	0.251013
25	0xbf4565b0	-0.7710829
26	0xbefefb7e	-0.49801248
27	0xbd98bf2f	-0.074583404
28	0xbefe171c	-0.49627006
29	0xbd2e85ad	-0.042607952
30	0xbee8c8ae	-0.45465606
31	0x3e33ab15	0.17545731
32	0xbeaaf56b	-0.33390364
33	0x3d5c38b3	0.05376501
34	0xbe01edd9	-0.12688388
35	0xbe34159f	-0.17586373
36	0x3f2695ab	0.65072125
37	0x3e8a625f	0.27028176
38	0xbe812a05	-0.2522737
39	0x3e97d345	0.29653373
40	0xbe9f8389	-0.3115504
41	0x3e1daf3b	0.15398876
42	0x3e936f63	0.2879592
43	0xbd99a9f2	-0.075031176
44	0xbd4a23ae	-0.049350433
45	0x3e20e580	0.15712547
46	0xbe916589	-0.28397778
47	0x3d7f702f	0.062362846
48	0x3ca372f4	0.019952275
49	0x3ea76fa9	0.32702377
50	0x3ec7aced	0.3899912
51	0xbf3dcd9d	-0.74141866
52	0xbe198488	-0.14991963
53	0xbf339abc	-0.7015798
54	0x3f0eeb0e	0.55827415
55	0xbe236e4e	-0.15960047
56	0x3d595eb8	0.053068846
57	0xbf04aa16	-0.5182203
58	0x3f0ec6a0	0.5577183
59	0x3cd4baa4	0.025967903
60	0xbdc163b8	-0.09442848
61	0xbe8e8b42	-0.2784062
62	0xbe4589e6	-0.19290885
63	0x3f10fd29	0.5663629
64	0xbedcf73b	-0.43157372
65	0xbea05d48	-0.31321168
66	0xbf0b873e	-0.5450324
67	0xbe97bd22	-0.29636484
68	0x3ea9aa04	0.33137524
69	0x3f34e892	0.70667374
70	0x3d5bb4a4	0.05363907
71	0x3ebfd939	0.37470415
72	0xbe1009b6	-0.14066204
73	0x3e6563c4	0.22401339
74	0xbdc0cda5	-0.094142236
75	0x3e1a105e	0.15045306
76	0xbde0c17b	-0.109744035
77	0xbdbf7fdb	-0.09350558
78	0x3deb1d4c	0.11480197
79	0x3ec03376	0.37539262
80	0x3e95d345	0.29262748
81	0xbd09f4df	-0.033680793
82	0x3d8ebbd5	0.0696942
83	0xbe24f08a	-0.16107383
84	0xbd4d3b63	-0.050105464
85	0x3dcdda23	0.10051372
86	0x3ecf65cd	0.40507355
87	0xbf021ed4	-0.5082829
88	0xbe1e85ee	-0.15480778
89	0xbf1b9c43	-0.6078531
90	0x3bd70ff9	0.0065631834
91	0x3d406a54	0.046976402
92	0x3f0ff026	0.5622581
93	0xbee54e7e	-0.44786447
94	0x3eb1d60d	0.3473362
95	0x3ed3b25f	0.41347024
96	0xbdaab176	-0.08334629
97	0xbdd42b40	-0.10359812
98	0x3e8e9bbc	0.2785319
99	0xbeb4cc2b	-0.35312018
100	0xbd00581e	-0.031334035
101	0xbe6dbcd4	-0.23216563
102	0x3eb29b3a	0.34884053
103	0xbe6da13d	-0.23206039
104	0x3ea65628	0.32487607
105	0xbf24c0f4	-0.64356923
106	0xbf35c394	-0.71001554
107	0x3ee44358	0.4458263
108	0x3e11d7c5	0.14242466
109	0xbd3776e3	-0.044791114
110	0xbe59a001	-0.21252443
111	0x3e6b1a76	0.22959313
112	0x3cec2bc6	0.028829467
113	0xbe9e9372	-0.30971867
114	0xbdf003b3	-0.117194556
115	0x3e4faf49	0.2028171
116	0xbeab085f	-0.33404824
117	0xbeb2eadc	-0.34944808
118	0xbea7924b	-0.327288
119	0x3f0f9b5c	0.56096435
120	0xbeb67249	-0.35634068
121	0x3d8cd05e	0.068756804
122	0xbe9d1ee0	-0.30687618
123	0xbdf30e01	-0.118679054
124	0xbf093ce1	-0.5360852
125	0x3d1aac98	0.037762254
126	0x3e6f3d2e	0.23363182
127	0x3df8f592	0.12156214
128	0x3e50769d	0.20357747
129	0xbb826710	-0.003979571
130	0x3f0d0367	0.55083317
131	0xbe8b5dac	-0.27219903
132	0xbe767bb1	-0.24070622
133	0x3e612ecb	0.21990506
134	0x3eb0ae69	0.34508064
135	0xbf1f4497	-0.62214035
136	0xbf2bdb64	-0.6713164
137	0x3e3fa259	0.18714274
138	0xbd68c701	-0.05683041
139	0x3f17ab6a	0.5924593
140	0xbeafabaf	-0.34310672
141	0x3e9b1a03	0.30293283
142	0x3d804a2b	0.062641464
143	0xbec86e1b	-0.39146504
144	0x39422572	0.00018515231
145	0xbe89aa7f	-0.2688789
146	0x3c6422e0	0.0139243305
147	0x3e991f6f	0.29906794
148	0x3e81198e	0.2521481
149	0xbe78ba50	-0.24289823
150	0xbe08212d	-0.13293906
151	0x3e4cc783	0.19997983
152	0xbc39e3ff	-0.011345862
153	0x3d6457fb	0.055747967
154	0xbe54c4c1	-0.2077818
155	0xbee47e18	-0.44627452
156	0xbb2612a1	-0.0025340694
157	0x3f094850	0.53625965
158	0xbdfcb1fc	-0.12338635
159	0xbec10e2c	-0.37706125
160	0x3d11630a	0.03549484
161	0xbe856306	-0.2605211
162	0x3f27f418	0.6560683
163	0xbd3633dc	-0.04448305
164	0x3e92b7cf	0.2865586
165	0xbe0971ad	-0.1342227
166	0xbf0a0448	-0.5391278
167	0x3e219d4a	0.15782657
168	0xbf194b77	-0.59880775
169	0xbed297fd	-0.41131583
170	0xbf0e9c06	-0.5570682
171	0xbf229704	-0.6351168
172	0x3ea23893	0.31683788
173	0xbf1bf09c	-0.60914016
174	0xbdba90fa	-0.09109683
175	0x3eab3e06	0.33445758
176	0x3eb860df	0.36011407
177	0x3e8b7ea9	0.27245072
178	0xbcda16a7	-0.02662213
179	0x3e5a3436	0.2130898
180	0xbf1712e2	-0.5901319
181	0xba9b93c6	-0.0011869601
182	0xbe38afb8	-0.18035781
183	0xbe3c93d9	-0.18415774
184	0xbde4ba2c	-0.11168322
185	0xbee82fb3	-0.45348892
186	0xbe62373b	-0.22091381
187	0xbd6e1435	-0.05812474
188	0x3e33ae87	0.17547046
189	0xbdba782b	-0.091049515
190	0x3d9e4aeb	0.07729133
191	0x3d2378d8	0.039910167
192	0xbea23ed5	-0.31688562
193	0x3e93adf0	0.2884364
194	0x3da0aefc	0.078458756
195	0xbedcb4b9	-0.4310663
196	0xbebb814f	-0.36622092
197	0x398d22e5	0.00026919614
198	0xbe0d438e	-0.13795301
199	0x3dbe1d0e	0.092828855
200	0xbe293593	-0.16524343
201	0xbd953571	-0.07285584
202	0x3f0f8635	0.5606416
203	0x3f264191	0.64943796
204	0xbea25276	-0.31703538
205	0x3edc4e2b	0.43028387
206	0x3ea515d6	0.32243222
207	0x3e9cddee	0.3063807
208	0xbf3adff4	-0.72997975
209	0xbda6fff8	-0.08154291
210	0xbe8d6b79	-0.27621058
211	0xbcc49d3b	-0.024000755
212	0x3eaa5b59	0.33272818
213	0x3e565146	0.20929441
214	0xbd9abbfd	-0.07555387
215	0xbaf72bf7	-0.0018857707
216	0x3f3a6a7f	0.7281875
217	0x3eff6a84	0.49885952
218	0xbdff9b7c	-0.12480828
219	0x3de8f679	0.11375136
220	0xbd4bd8fc	-0.04976748
221	0x3dcce077	0.10003751
222	0xbd2346ec	-0.03986256
223	0x3ea02494	0.31277907
224	0xbe178fdf	-0.14800976
225	0x3e8d28ec	0.27570283
226	0xbe73e8d7	-0.2381929
227	0x3e9364bc	0.28787792
228	0x3f0f17f3	0.5589592
229	0x3c808acb	0.015691182
230	0x3e1e5320	0.15461397
231	0x3c3d9788	0.011571772
232	0xbe8eeafe	-0.2791366
233	0xbf198657	-0.5997061
234	0x3cc3c8c8	0.02389945
235	0xbdff8fa4	-0.12478569
236	0xbe96912e	-0.29407638
237	0x3e457c89	0.19285788
238	0xbe14dc7c	-0.14537233
239	0xbed6d9ff	-0.41963193
240	0x3dfb6d24	0.12276676
241	0xbeaff5b4	-0.34367144
242	0x3cbc4aa5	0.022984812
243	0x3cc7a7ee	0.024372067
244	0x3f1affd4	0.6054661
245	0xbf0a262e	-0.5396451
246	0xbdbc0349	-0.09180314
247	0xbeb99ffe	-0.36254877
248	0x3dd4b826	0.10386686
249	0x3cc7bafc	0.024381153
250	0xbe38b5eb	-0.18038146
251	0xbe6185ea	-0.2202374
252	0x3e961f59	0.2932079
253	0x3ebe90b0	0.37219763
254	0x3f0d5423	0.5520651
255	0x3f3ffce0	0.7499523

mlp_extractor.policy_net.2.bias f4 [32]
0	0xbc339640	-0.010961115
1	0xbd0e67a3	-0.034766804
2	0xbc7efa6f	-0.015562638
3	0xbda8a029	-0.08233673
4	0x3df7806e	0.12085043
5	0x3d2ae7d8	0.04172501
6	0xbd8624f6	-0.065500185
7	0xbe601d1a	-0.21886101
8	0x3d6cb805	0.057792682
9	0x3dbd1685	0.09232811
10	0x3da7c1dd	0.08191273
11	0x3d5cb1e2	0.05388058
12	0x3d5f16bc	0.05446504
13	0xbd331a44	-0.04372622
14	0xbe820fd2	-0.25402695
15	0xbcf56afb	-0.029958239
16	0x3b38e5c8	0.0028213132
17	0x3e1c1717	0.15243183
18	0x3ce3c6f5	0.027804831
19	0xbe3e43f7	-0.18580614
20	0x3cc97ad7	0.024594707
21	0xbdcc5959	-0.09977979
22	0x3d8c935a	0.068640426
23	0x3d5bc711	0.05365664
24	0x3d8f6f72	0.070036784
25	0xbe139f11	-0.14416148
26	0xbe05920a	-0.1304399
27	0x3b80d0ae	0.0039311266
28	0xbd3d0e75	-0.046156365
29	0x3da9b94e	0.08287297
30	0xbde7ad8f	-0.113124005
31	0x3e1c2512	0.15248516

mlp_extractor.value_net.0.weight f4 [32, 81]
0	0x3e39e756	0.18154654
1	0xbd67b893	-0.056572508
2	0xbe4814ea	-0.19539228
3	0xbd62a051	-0.05532867
4	0xbdb7678f	-0.08955299
5	0xbdb2be71	-0.0872773
6	0xbeaf2be5	-0.34213176
7	0x3ebf5ce0	0.37375546
8	0x3cdd4f46	0.02701534
9	0xbcca24dc	-0.024675779
10	0xbe8848ae	-0.2661795
11	0x3e3e1406	0.18562326
12	0x3d9e19fe	0.07719801
13	0xbd1cfcb0	-0.03832692
14	0xbe0e3290	-0.13886476
15	0xbcedc25d	-0.029023344
16	0x3d9c166f	0.07621466
17	0xbe231d19	-0.15929069
18	0x3dcc52b6	0.09976713
19	0xbec7b85b	-0.3900784
20	0x3e3b432a	0.1828734
21	0x3d607d07	0.054806735
22	0xbd04f822	-0.0324632
23	0xbcd45f48	-0.02592434
24	0xbe08d04a	-0.13360706
25	0x3e374134	0.17895967
26	0x3e3f7b9e	0.186995
27	0x3ea31279	0.3185003
28	0x3e3b908a	0.18316856
29	0xbe7acfc9	-0.24493326
30	0x3db1368c	0.08652982
31	0xbd6a6892	-0.057228632
32	0xbd39bd01	-0.045346264
33	0xbe960113	-0.29297695
34	0x3e4a7f1e	0.19775054
35	0xbe5209bf	-0.2051153
36	0xbe7959e3	-0.24350695
37	0x3d938dd1	0.07204784
38	0xbe803d37	-0.25046703
39	0x3bf695fb	0.0075252033
40	0x3c0eaa76	0.008707633
41	0xbdb3e0cb	-0.0878311
42	0x3e82e288	0.25563455
43	0xbd5a00e5	-0.05322351
44	0x3d2d7f47	0.04235771
45	0x3e20d8d4	0.15707713
46	0xbd2da687	-0.04239514
47	0xbdeead88	-0.11654192
48	0xbe3409e4	-0.17581898
49	0x3db6af6e	0.08920179
50	0xbdaac07d	-0.083374955
51	0xbe0279b6	-0.12741742
52	0x3ddadfce	0.106872186
53	0xbc22d22c	-0.009937804
54	0x3e2e34ad	0.17012282
55	0x3dfd7ba8	0.12377101
56	0xbd825716	-0.063642666
57	0xbc7ee659	-0.015557849
58	0xbc694cd0	-0.014239505
59	0xbd539338	-0.05165407
60	0x3da13471	0.078713305
61	0x3e64d7a8	0.22347891
62	0x3d972f75	0.073820986
63	0x3ebeddc5	0.37278572
64	0xbdcce3b5	-0.10004369
65	0xbe240f13	-0.16021375
66	0x3e299fd6	0.16564879
67	0xbe0a15aa	-0.13484827
68	0x3dcdfb98	0.10057753
69	0xbe18e2ca	-0.14930263
70	0xbcec6a9b	-0.028859427
71	0xbe1df16d	-0.15424128
72	0xbe5426c7	-0.20717917
73	0xbe512698	-0.20424879
74	0x3d8033a4	0.0625985
75	0x3cbee364	0.023301788
76	0x3d891803	0.06694033
77	0xbe00814f	-0.12549327
78	0xbd4d361a	-0.050100423
79	0x3bf594ae	0.0074945306
80	0x3d8191f9	0.0632667
81	0x3c0cdeaf	0.008598014
82	0x3cbcbe5b	0.023039987
83	0x3c8da6ef	0.017291514
84	0x3cac0498	0.020998284
85	0xbdd0fcc5	-0.10204462
86	0x3dfd7f17	0.12377756
87	0x3e7ea779	0.24868573
88	0x3d79e349	0.06100777
89	0xbd63f7da	-0.05565629
90	0x3eaa9c9c	0.33322608
91	0x3cd3ff2a	0.025878508
92	0xbd9e3d2c	-0.07726511
93	0xbe1c26d9	-0.15249194
94	0x3ddfb60c	0.109233946
95	0xbd9ad5bd	-0.075602986
96	0x3cce784b	0.025203845
97	0xbdc6beda	-0.09704371
98	0xbdc202f0	-0.094732165
99	0xbd486fc4	-0.048934713
100	0xbdc7702b	-0.09738191
101	0x3e0b5623	0.13607077
102	0x3e125154	0.14288837
103	0x3d6e510c	0.05818276
104	0x3e20ebc6	0.1571494
105	0x3c6824bf	0.014168917
106	0xbe1e46c3	-0.15456681
107	0x3d05ca82	0.03266383
108	0x3e5718b9	0.21005525
109	0xbe436af8	-0.19083774
110	0xbd338a03	-0.04383279
111	0xbb037d23	-0.00200636
112	0xbcb7888d	-0.02240398
113	0x3dea202d	0.11431918
114	0xbde35dad	-0.111018516
115	0xbe3091fe	-0.17243192
116	0x3e366712	0.17812756
117	0xbce22a84	-0.027608164
118	0x3d1cfb63	0.03832568
119	0xbdff5c50	-0.12468779
120	0x3e90937c	0.28237522
121	0xbec273c8	-0.3797896
122	0xbec09e57	-0.37620804
123	0xbe39cdd3	-0.18144922
124	0x3d690566	0.056889914
125	0x3e0e6293	0.1390479
126	0x3e0733ef	0.13203405
127	0xbce71ba4	-0.028211422
128	0xbea9b7ba	-0.33147985
129	0xbe7d2480	-0.24720955
130	0xbd7b3017	-0.06132516
131	0x3c51f3bb	0.0128144575
132	0xbdab5254	-0.08365312
133	0x3e47773e	0.19479081
134	0x3ca49487	0.020090355
135	0x3dfae0ef	0.12249934
136	0x3d97d127	0.074129395
137	0xbadfc0ad	-0.0017070972
138	0x3e10a525	0.14125498
139	0x3e3d6e7b	0.18499176
140	0x3d59d146	0.053178094
141	0x3e1bcbe9	0.15214504
142	0xbcd1e3ce	-0.025621321
143	0xbe4ec121	-0.2019086
144	0xbb8e4c46	-0.0043425886
145	0xbd8d8f4e	-0.06912099
146	0x3e383d31	0.17992093
147	0xbe1b72b8	-0.1518048
148	0x3e169923	0.14706855
149	0xbddc9772	-0.107710734
150	0x3dc6953d	0.09696434
151	0x3c0d50f9	0.008625262
152	0xbea29489	-0.31753948
153	0x3e38ddb5	0.18053325
154	0x3e802630	0.25029135
155	0xbe2906b7	-0.16506468
156	0xbd35ba72	-0.04436726
157	0x3dc9daf4	0.09856215
158	0xbe3a9400	-0.1822052
159	0x3e94a8ca	0.29035026
160	0x3ea8cc85	0.32968536
161	0x3e86cb10	0.263268
162	0x3d34f630	0.044180095
163	0xbd541f27	-0.05178752
164	0x3c907ec8	0.017638579
165	0x3e18edc9	0.14934458
166	0xbe148fe8	-0.14508021
167	0xbe025239	-0.12726678
168	0xbdc68bd0	-0.09694636
169	0x3de3c7c4	0.11122087
170	0xbdd58df9	-0.1042747
171	0x3b0314c7	0.0020001398
172	0xbe1317d3	-0.14364557
173	0x3b0e7467	0.0021736862
174	0x3dd26020	0.10272241
175	0x3ac87b64	0.0015295562
176	0x3e885d21	0.26633552
177	0x3c2a88d2	0.010408597
178	0x3c34519c	0.011005785
179	0x3e05361c	0.13008922
180	0x3eba7733	0.36419067
181	0x3d1ae116	0.037812315
182	0xbddc49b7	-0.107562475
183	0x3d6a2be9	0.057170782
184	0x3e9c0368	0.3047135
185	0xbe464906	-0.19363794
186	0xbca82c64	-0.02052898
187	0xbe7732b5	-0.24140437
188	0x3d1c3033	0.038131904
189	0xbd82dd5c	-0.06389877
190	0xbc7f8512	-0.015595691
191	0x3e18163b	0.1485223
192	0xbe589711	-0.21151377
193	0x3e64a98f	0.22330306
194	0xbe22edfe	-0.159111
195	0xbe29edc6	-0.1659461
196	0x3d34b67e	0.04411935
197	0x3e851906	0.25995654
198	0x3e897fba	0.2685526
199	0x3ea35f9a	0.31908876
200	0x3e1dbead	0.15404768
201	0x3e4f7607	0.20259868
202	0xbe4d33d0	-0.20039296
203	0x3c925818	0.017864272
204	0xbcb5f406	-0.022211086
205	0x3e6c25f3	0.23061351
206	0xbc243b6a	-0.010023931
207	0x3dd377b4	0.10325566
208	0x3e02344d	0.12715264
209	0xbe166851	-0.14688231
210	0x3dbdc4dc	0.092660636
211	0x3d27ad08	0.0409365
212	0xbadf5aab	-0.0017040571
213	0xbd098149	-0.03357056
214	0xbd9df8bb	-0.07713457
215	0x3eadc5a0	0.33939838
216	0xbd56d5b7	-0.052449908
217	0x3e258b06	0.16166314
218	0xbde6cd7a	-0.1126966
219	0x3dfc4715	0.12318245
220	0x3e27f30d	0.1640131
221	0x3e272501	0.1632271
222	0x3ddc1b02	0.10747339
223	0xbe2781e8	-0.16358149
224	0x3d3fb003	0.046798717
225	0xbac986de	-0.0015375277
226	0xbd4ec7b3	-0.050483417
227	0xbe9cab40	-0.30599403
228	0x3ebb14a2	0.3653918
229	0xbe7cec46	-0.24699506
230	0x3cd50bf8	0.026006684
231	0x3d1b2cf0	0.037884653
232	0x3ea978fb	0.33100113
233	0xbc364513	-0.011124867
234	0xbd97b730	-0.07407987
235	0xbdd0272d	-0.10163722
236	0xbd565d4b	-0.052335065
237	0xbdd70a31	-0.10499991
238	0xbe04deef	-0.12975667
239	0x3e50270f	0.203274
240	0x3d7015cc	0.058614537
241	0xbdd6b117	-0.10482996
242	0x3e35943e	0.17732331
243	0xbdcfcb0a	-0.101461485
244	0x3b7dc683	0.0038723059
245	0xbce7c7b2	-0.028293464
246	0x3c8c9c50	0.01716438
247	0xbe37cc1c	-0.17948955
248	0xbe694ca0	-0.22783136
249	0x3e9d0ee2	0.30675417
250	0xbd544d8f	-0.05183178
251	0xbd911291	-0.070836194
252	0x3cf95ebd	0.030440683
253	0x3d4ef06f	0.050522264
254	0x3c9a5c3c	0.018842809
255	0x3c4cc317	0.012497685

mlp_extractor.value_net.0.bias f4 [32]
0	0x00000000	0.0
1	0x00000000	0.0
2	0x00000000	0.0
3	0x00000000	0.0
4	0x00000000	0.0
5	0x00000000	0.0
6	0x00000000	0.0
7	0x00000000	0.0
8	0x00000000	0.0
9	0x00000000	0.0
10	0x00000000	0.0
11	0x00000000	0.0
12	0x00000000	0.0
13	0x00000000	0.0
14	0x00000000	0.0
15	0x00000000	0.0
16	0x00000000	0.0
17	0x00000000	0.0
18	0x00000000	0.0
19	0x00000000	0.0
20	0x00000000	0.0
21	0x00000000	0.0
22	0x00000000	0.0
23	0x00000000	0.0
24	0x00000000	0.0
25	0x00000000	0.0
26	0x00000000	0.0
27	0x00000000	0.0
28	0x00000000	0.0
29	0x00000000	0.0
30	0x00000000	0.0
31	0x00000000	0.0

mlp_extractor.value_net.2.weight f4 [32, 32]
0	0x3ebea7ea	0.37237483
1	0xbd533d43	-0.051572096
2	0x3e945668	0.28972173
3	0x3f059be4	0.52190995
4	0xbd9eb6cb	-0.07749709
5	0xbe8e590e	-0.27802318
6	0xbe7a09e0	-0.2441783
7	0x3f093727	0.5359978
8	0xbe700d4d	-0.23442574
9	0x3e254617	0.16140018
10	0x3e7485fc	0.23879236
11	0xbe97154e	-0.29508442
12	0x3df900d4	0.12158361
13	0x3eca1753	0.3947092
14	0xbe06dbb5	-0.13169749
15	0xbeb6a122	-0.3566981
16	0x3dfd8fd1	0.123809464
17	0xbe9bdf29	-0.30443695
18	0x3d8819db	0.066455565
19	0x3ed9abf5	0.42514005
20	0xbe68a525	-0.22719248
21	0xbdd9d962	-0.106371656
22	0xbd996524	-0.07489994
23	0x3e291a7b	0.16514008
24	0xbdea4318	-0.11438578
25	0xbe020827	-0.12698422
26	0x3dd36e8a	0.10323818
27	0xbda56d47	-0.080774836
28	0x3df82936	0.12117235
29	0xbdeaf279	-0.11472029
30	0xbdc185f7	-0.0944938
31	0x3e7a3fcf	0.24438404
32	0x3e31a0b1	0.17346455
33	0x3cf17f4a	0.029479641
34	0xbde24214	-0.1104776
35	0x3ed48dbd	0.41514388
36	0xbe0cdd41	-0.13756277
37	0x3cb683a2	0.022279564
38	0xbde305fa	-0.11085124
39	0xbefa3296	-0.4886672
40	0xbe7198fc	-0.23593515
41	0xbf2a5f73	-0.66551894
42	0x3ee7f571	0.45304444
43	0xbe9f7159	-0.31141165
44	0x3f0ec3f3	0.55767745
45	0xbe8f4552	-0.27982575
46	0x3ebad38b	0.3648952
47	0xbdd4a598	-0.10383147
48	0xbd8dfd58	-0.06933087
49	0x3deeba44	0.11656621
50	0x3d5a8ab1	0.053354923
51	0x3c9ffde7	0.01953025
52	0xbd73f25e	-0.05955731
53	0x3e302b35	0.17203982
54	0x3ddbd011	0.10733045
55	0xbe0ea9fb	-0.1393203
56	0x3e338fa2	0.1753526
57	0xbc630f7b	-0.013858671
58	0x3b5835a9	0.0032990968
59	0xbddcae5b	-0.10775443
60	0xbe5f3e1c	-0.21801037
61	0xbd2282f1	-0.039675657
62	0x3d098f31	0.033583824
63	0xbd1c30ae	-0.038132362
64	0xbf3037a3	-0.68834895
65	0x3e2d09e3	0.16898303
66	0xbe4b2c7b	-0.19841187
67	0x3d8c3ec6	0.068479106
68	0xbe46fbc3	-0.19431977
69	0x3c983b4b	0.01858296
70	0xbeac35b3	-0.3363472
71	0x3e24b72a	0.16085497
72	0x3ecabb8c	0.39596212
73	0xbe30729b	-0.17231219
74	0x3c95ea51	0.018300207
75	0xbeacdc60	-0.33761883
76	0x3cea97b0	0.028636783
77	0xbe8a2c5b	-0.26986966
78	0xbe9bf196	-0.30457753
79	0x3e09b630	0.13448405
80	0xbe92da00	-0.28681946
81	0xbd856e19	-0.0651514
82	0x3da0d9fa	0.07854076
83	0x3ea01f7b	0.31274018
84	0xbd1a4c4c	-0.03767042
85	0x3e3cbced	0.18431444
86	0x3e4ccb03	0.19999318
87	0x3e322be9	0.17399563
88	0xbe3f11ee	-0.18659183
89	0xbe812b7a	-0.25228482
90	0xbec278bf	-0.37982747
91	0x3e4e2d03	0.20134358
92	0xba8e76cb	-0.0010869143
93	0x3d314cdb	0.043286186
94	0xbe754380	-0.2395153
95	0x3ec7ef80	0.39049911
96	0xbd4649bd	-0.048410166
97	0xbdb0799a	-0.08616944
98	0xbf13b038	-0.57690763
99	0xbe866bad	-0.26254025
100	0xbe0efe99	-0.13964309
101	0xbc69d4c1	-0.014271916
102	0xbf02464d	-0.5088852
103	0x3e407ae7	0.18796884
104	0xbe6e1ad3	-0.2325242
105	0x3e62a211	0.22132136
106	0x3e49c0f3	0.1970251
107	0x3daab654	0.083355576
108	0x3d816b53	0.063192986
109	0xbdb23496	-0.08701436
110	0x3e176593	0.14784841
111	0x3e0cd6bd	0.13753791
112	0x3eadb515	0.33927217
113	0x3d8ad56b	0.067789875
114	0xbe828eb6	-0.25499505
115	0x3e18964c	0.14901084
116	0x3dab9131	0.083773024
117	0x3d957950	0.07298529
118	0x3ebcedf6	0.369003
119	0x3e459f3e	0.19299027
120	0x3df612b7	0.12015288
121	0x3f1b47ce	0.6065644
122	0x3d83d4e3	0.06437089
123	0xbec65dcd	-0.3874344
124	0x3e553d6c	0.20824212
125	0xbe41dd25	-0.18932016
126	0xbe823866	-0.25433654
127	0xbc42dd32	-0.011893557
128	0xbdb871f0	-0.09006107
129	0x3e5495ad	0.20760222
130	0x3e212ce1	0.15739776
131	0xbe2030e1	-0.15643646
132	0xbe43fd9b	-0.19139712
133	0xbcfa2245	-0.03053392
134	0x3d0fe68a	0.03513197
135	0xbddda098	-0.108216465
136	0x3eaca111	0.33716634
137	0xbdd22be6	-0.10262279
138	0x3ed3845d	0.41311923
139	0xbe189a37	-0.14902578
140	0xbec07a85	-0.37593475
141	0x3ea001fd	0.31251517
142	0x3ea98099	0.33105925
143	0xbdd6b156	-0.10483043
144	0xbd8bb256	-0.06821124
145	0xbe65796a	-0.22409597
146	0xbf05842d	-0.5215481
147	0xbdc627ab	-0.09675535
148	0x3cc0bbb3	0.023527002
149	0xbe3fdee0	-0.18737364
150	0xbdcdb480	-0.10044193
151	0x3e2716f4	0.1631735
152	0x3ea17c42	0.31540114
153	0x3e1c0eb7	0.15239988
154	0x3d923fec	0.071410984
155	0x3ee83d28	0.4535916
156	0xbe8c588a	-0.274113
157	0xbf0efc27	-0.55853504
158	0xbe52dafc	-0.20591348
159	0x3cd77299	0.026299762
160	0x3e8263d6	0.25466794
161	0xbd05fd00	-0.032711983
162	0xbe165c8f	-0.14683746
163	0xbdf63329	-0.12021477
164	0x3ead75ae	0.33878845
165	0x3dc60102	0.09668161
166	0x3d6ddf79	0.05807445
167	0x3dd96865	0.10615615
168	0x3eae76d6	0.3407504
169	0xbd001c74	-0.031277135
170	0xbe9914b8	-0.2989862
171	0xbb51b234	-0.0031997086
172	0x3e8df6db	0.27727398
173	0xbcab8256	-0.020936172
174	0x3ed52ab9	0.41634157
175	0xbc080728	-0.008302487
176	0x3e97d6d8	0.296561
177	0x3e6ba9bf	0.23013972
178	0x3b31d69b	0.0027135971
179	0x3cc9439a	0.024568368
180	0xbdf7ee4d	-0.12105999
181	0xbf257405	-0.64630157
182	0x3f0998b1	0.53748614
183	0x3e3990ed	0.18121691
184	0xbc61d97c	-0.0137847625
185	0xbee58dee	-0.44834846
186	0x3d28906a	0.04115335
187	0x3c1579bf	0.009123265
188	0xbe753d79	-0.23949231
189	0xbd4c2e44	-0.04984881
190	0xbe24c857	-0.16092049
191	0x3eafaeb0	0.34312963
192	0x3ddf9155	0.10916392
193	0xbe018959	-0.1265005
194	0xbe997482	-0.299717
195	0x3e1b8355	0.15186818
196	0xbed08676	-0.40727586
197	0xbc499ccb	-0.012305449
198	0xbe510ab4	-0.20414239
199	0xbe4e17f6	-0.20126328
200	0xbe9da530	-0.3079009
201	0xbea613fb	-0.3243712
202	0xbed4ded9	-0.4157627
203	0xbe36a5a4	-0.17836624
204	0xbe9767e1	-0.2957144
205	0x3eb924bf	0.36160848
206	0xbe5d2425	-0.2159582
207	0x3df28f39	0.11843724
208	0x3e01eb47	0.12687407
209	0x3f12de14	0.57370114
210	0x3d1f19e4	0.03884305
211	0x3e3e64df	0.18593167
212	0x3d8e2027	0.06939726
213	0xbe6be51f	-0.23036622
214	0x3d10e5d4	0.03537543
215	0x3d54692e	0.05185812
216	0x3c1a4118	0.009414934
217	0xbe076c1c	-0.13224834
218	0x3deccf78	0.11563009
219	0x3f0abd6f	0.541953
220	0x3e990e61	0.29893783
221	0xbe19222e	-0.14954445
222	0x3db2222b	0.08697923
223	0xbe4da193	-0.20081167
224	0x3e43e9ef	0.19132207
225	0xbd680929	-0.05664936
226	0x3decf503	0.1157017
227	0xbe13f7cf	-0.1445
228	0x3c7aeb3c	0.015314873
229	0xbedda4c7	-0.43289778
230	0xbe556b7e	-0.20841786
231	0xbed23518	-0.41056132
232	0x3d844fc5	0.06460527
233	0x3e4e8539	0.20168008
234	0x3df7744f	0.12082731
235	0xbe0e89da	-0.13919774
236	0xbe5ce18b	-0.21570413
237	0xbdb38565	-0.08765677
238	0xbe554aa8	-0.2082926
239	0x3db170fe	0.0866413
240	0x3dcbf4f6	0.09958832
241	0x3d8dda68	0.06926423
242	0x3e7211a8	0.23639548
243	0xbe39542a	-0.18098512
244	0xbe15392b	-0.14572589
245	0x3e8558dc	0.26044357
246	0x3e73a10b	0.23791902
247	0xbd1d69fa	-0.038431145
248	0xbe47d526	-0.19514903
249	0x3e21153e	0.1573076
250	0x3f2fcd0c	0.6867225
251	0x3e95443c	0.2915362
252	0xbea770fe	-0.32703394
253	0x3ebd5157	0.3697612
254	0xbea8f025	-0.32995716
255	0x3eb1496a	0.34626323

mlp_extractor.value_net.2.bias f4 [32]
0	0x00000000	0.0
1	0x00000000	0.0
2	0x00000000	0.0
3	0x00000000	0.0
4	0x00000000	0.0
5	0x00000000	0.0
6	0x00000000	0.0
7	0x00000000	0.0
8	0x00000000	0.0
9	0x00000000	0.0
10	0x00000000	0.0
11	0x00000000	0.0
12	0x00000000	0.0
13	0x00000000	0.0
14	0x00000000	0.0
15	0x00000000	0.0
16	0x00000000	0.0
17	0x00000000	0.0
18	0x00000000	0.0
19	0x00000000	0.0
20	0x00000000	0.0
21	0x00000000	0.0
22	0x00000000	0.0
23	0x00000000	0.0
24	0x00000000	0.0
25	0x00000000	0.0
26	0x00000000	0.0
27	0x00000000	0.0
28	0x00000000	0.0
29	0x00000000	0.0
30	0x00000000	0.0
31	0x00000000	0.0

action_net.weight f4 [5, 32]
0	0xbe951bd5	-0.29122797
1	0x3d0e7897	0.034782972
2	0x3c4c3af6	0.012465229
3	0xbe3a24f0	-0.18178153
4	0x3e39689b	0.1810631
5	0xbea4ffc9	-0.322264
6	0x3e8d514f	0.27601096
7	0x3eae3bfb	0.34030136
8	0xbeb2a5d4	-0.34892142
9	0x3e56f3a1	0.20991375
10	0x3dcace4c	0.09902629
11	0xbd071885	-0.032982368
12	0xbea6d1f0	-0.32582045
13	0xbe6801af	-0.22656892
14	0xbd481f5d	-0.048858035
15	0x3ecd21ca	0.40064842
16	0x3e7473ac	0.2387225
17	0x3cef3440	0.02919972
18	0xbe8653a8	-0.262357
19	0xbe49b2ce	-0.19697115
20	0xbea00840	-0.31256294
21	0xbe6138f5	-0.21994384
22	0x3e858249	0.26075962
23	0x3ea8047c	0.3281592
24	0xbd82ef37	-0.06393283
25	0xbdcbbc33	-0.099480055
26	0x3ea0a9a5	0.31379429
27	0xbe96c737	-0.29448864
28	0xbe9bb832	-0.30413967
29	0xbebac87c	-0.36481082
30	0xbd8722c2	-0.065984264
31	0x3e3c054c	0.18361396
32	0xbe818642	-0.25297743
33	0xbe8bf7b3	-0.27337417
34	0xbe884523	-0.26615247
35	0x3ec86e94	0.39146864
36	0x3e50ce97	0.20391308
37	0x3e89d04d	0.26916733
38	0xbe36c559	-0.1784872
39	0x3dda7723	0.10667255
40	0x3ec914f1	0.3927379
41	0x3e7194a8	0.23591864
42	0x3e973a73	0.2953678
43	0x3e9217ce	0.28533787
44	0x3e837211	0.25672963
45	0x3eb0e3fa	0.34548932
46	0x3eeda0be	0.464117
47	0x3eb04f7b	0.3443564
48	0x3e5286c3	0.2055922
49	0x3e7d6a4a	0.24747577
50	0xbeda8f8e	-0.4268765
51	0xbe4c845e	-0.19972369
52	0x3e9411f3	0.28919944
53	0x3ebcd8fb	0.36884293
54	0xbeb94117	-0.36182472
55	0x3ea59882	0.32342917
56	0x3e8677db	0.26263317
57	0xbe6e798d	-0.23288555
58	0x3ee49014	0.44641173
59	0x3e9e3de5	0.30906597
60	0xbe8966c1	-0.26836208
61	0x3eb03498	0.34415126
62	0x3ee24cdc	0.44199264
63	0x3e53a100	0.20666885
64	0x3c2e446e	0.010636432
65	0xbe8813b6	-0.26577538
66	0xbeaa66b3	-0.33281478
67	0x3e995b7c	0.2995261
68	0x3e489178	0.19586742
69	0xbe87c15b	-0.26514706
70	0x3e95083e	0.2910785
71	0xbe389371	-0.18024994
72	0xbed2b0cb	-0.41150507
73	0x3e4065aa	0.18788782
74	0x3e8d9fbc	0.2766093
75	0x3e9ca0c3	0.305914
76	0xbe8c92b4	-0.27455676
77	0x3e9a785e	0.30169958
78	0xbde3eccf	-0.11129152
79	0xbe52a627	-0.20571195
80	0x3e36cc24	0.17851311
81	0xbedef680	-0.4354744
82	0x3e3b7f29	0.18310227
83	0xbe45057b	-0.19240372
84	0xbe922848	-0.28546357
85	0x3e852f6d	0.26012745
86	0xbe97974b	-0.29607615
87	0xbe244fe0	-0.16046095
88	0x3e8c014d	0.27344742
89	0xbe6b04be	-0.22951028
90	0xbe8292d7	-0.25502655
91	0xbea90ca1	-0.33017448
92	0x3d388923	0.04505266
93	0xbe97490e	-0.29547924
94	0xbe170057	-0.14746223
95	0x3e45b5ef	0.19307683
96	0x3e3269ef	0.17423223
97	0x3e25df17	0.16198383
98	0x3e705481	0.23469736
99	0xbe580b82	-0.2109814
100	0xbe3251c8	-0.1741401
101	0x3e4c0177	0.19922434
102	0xbe4bb5ed	-0.19893618
103	0xbe40704e	-0.18792841
104	0x3e8f7b95	0.28023973
105	0xbe46ecdb	-0.1942629
106	0xbe706c1c	-0.2347874
107	0xbe4cb90d	-0.19992466
108	0x3e489720	0.195889
109	0xbe312bfc	-0.17301935
110	0xbe2b866a	-0.16750494
111	0xbe61da28	-0.22055876
112	0xbe520562	-0.20509866
113	0x3e4438f1	0.19162346
114	0x3e73b852	0.23800781
115	0x3e2c4b5a	0.1682562
116	0x3e2438ac	0.16037244
117	0xbe3cfa26	-0.18454799
118	0x3e3a2ba3	0.18180709
119	0xbe368887	-0.17825519
120	0xbe269b95	-0.16270287
121	0x3e2debf4	0.1698454
122	0xbe69b495	-0.22822793
123	0x3e3e25f4	0.18569165
124	0x3e2f5e8a	0.17125908
125	0x3e6b1481	0.2295704
126	0xbe37835b	-0.17921202
127	0xbe2ebaa7	-0.1706339
128	0xbcf26c9a	-0.0295928
129	0xbd71cafb	-0.059031468
130	0xbc81321b	-0.015770962
131	0x3e51934f	0.2046635
132	0xbda66f65	-0.081267156
133	0xbe0160de	-0.12634608
134	0x3d67684e	0.056495957
135	0x3e92cf95	0.28673998
136	0xbe179a85	-0.14805038
137	0xbd9634fd	-0.073343255
138	0x3c0c0867	0.008546925
139	0x3d62a65e	0.05533444
140	0xbd8c4a0d	-0.068500616
141	0x3e5ed066	0.21759185
142	0x3e9c01d6	0.3047015
143	0x3dcb1a0d	0.09917078
144	0xbc85b597	-0.01632194
145	0xbe827654	-0.25480902
146	0xbe9a67e4	-0.30157387
147	0x3d6c2d51	0.057660405
148	0xbdbeac3a	-0.09310193
149	0x3e4491e3	0.19196276
150	0xbe8af9f1	-0.27143815
151	0x3d951cc7	0.072808795
152	0x3d3db5d5	0.046315987
153	0x3c89508e	0.016762044
154	0x3e7348a0	0.23758173
155	0xbdb9ef12	-0.09078802
156	0xbd11d321	-0.03560174
157	0xbe0bcad8	-0.13651597
158	0x3eb15a6d	0.34639302
159	0xbd73b5e9	-0.059499655

action_net.bias f4 [5]
0	0xbba7d141	-0.0051213806
1	0xbbe63188	-0.0070249476
2	0x3c6c24d9	0.014413082
3	0x3e02ca7c	0.12772554
4	0xbec386cd	-0.38188782

value_net.weight f4 [1, 32]
0	0xbe17aa18	-0.1481098
1	0xbb00a933	-0.00196321
2	0x3cfc5d4d	0.030806208
3	0xbcdde372	-0.027085993
4	0xbc1e9de5	-0.0096812
5	0xbe279ff5	-0.16369613
6	0xbeb4f6ff	-0.35344693
7	0x3d94a0a9	0.07257206
8	0x3e0a3c10	0.13499475
9	0x3cacf7a0	0.02111417
10	0xbea1889e	-0.31549543
11	0x3db554a7	0.08854037
12	0xbe85d210	-0.26136827
13	0xbd7e8c55	-0.06214555
14	0xbd916200	-0.0709877
15	0xbe7729fd	-0.24137111
16	0xbe45357d	-0.19258685
17	0xbd92ec85	-0.07174019
18	0x3e1d9066	0.15387115
19	0x3da295f6	0.07938759
20	0xbd685d7d	-0.056729782
21	0xbe729e80	-0.23693275
22	0xbdd7b302	-0.1053219
23	0xbec0781a	-0.3759163
24	0x3e967472	0.29385716
25	0xbea0dbde	-0.31417745
26	0x3e91e8bf	0.28497884
27	0xbd17b0ac	-0.03703372
28	0xbcde498b	-0.027134677
29	0xbd2a26a1	-0.041540746
30	0x3d766e4f	0.060163792
31	0x3c0bbaad	0.008528394
