toy_its/train_logs/2024-12-01-184840_map=map_rl=ppo-epochs=10-eplen=100_s=9_nt=None/eval/bc_model_2000000.pth (torch, 38914 bytes, 11 tensors)

mlp_extractor.policy_net.0.weight f4 [32, 81]
0.3074781 -0.23246086 -0.016054107 -0.0072555766 -0.17864531 0.22450167 0.18559456 -0.264732
-0.22279662 0.035320625 -0.032614507 -0.0583727 -0.09840819 -0.37377855 -0.14328144 -0.07664624
0.20970896 0.08681262 0.23312764 0.23549785 0.23931488 0.22403027 -0.27253982 -0.21978699
0.38923183 -0.09836787 0.1919571 -0.045935158 0.06579534 -0.23686618 -0.15623538 -0.1029569
-0.13380149 -0.2926199 0.13852116 0.004498567 -0.1474855 -0.025575424 -0.13640563 0.11055035
0.13839808 0.0027602138 -0.15912452 -0.28042102 0.32886443 -0.013584656 -0.16516939 -0.081735596
0.0032689422 -0.18640178 0.08496385 -0.17181747 -0.11069013 -0.099531606 0.10354377 -0.059081
0.08498425 0.2519645 0.0074961497 -0.2000693 -0.05983483 0.023315521 0.13512032 -0.019872686
0.034626763 -0.016208762 -0.22332019 -0.038323533 -0.12547714 0.21269564 0.10841815 0.23845656
0.15476134 -0.10629903 0.27657065 -0.010284337 0.35222256 0.18921621 0.12970741 0.06775492
0.017300718 0.30007252 0.10247077 -0.38393056 0.014979524 -0.16516249 -0.11665792 0.26335892
-0.21943755 0.24327755 0.015930107 -0.05436257 0.20506795 0.10520966 -0.17989123 0.3190936
0.16206577 -0.2968648 -0.26051793 -0.0011522681 -0.08242805 -0.06387239 -0.033459462 -0.066611804
-0.078404866 0.3356595 0.108192734 -0.1108164 -0.14808977 -0.043864664 0.026110917 -0.20801827
0.11418934 0.07515924 0.11820247 -0.11777027 -0.14898916 -0.052345548 0.4545925 -0.018141849
-0.067339696 0.14678414 -0.057490997 -0.026812576 -0.1167033 -0.045734968 -0.0062301056 -2.1482352e-05
-0.035900652 0.113698706 -0.028571066 0.04459428 0.12033101 -0.21383564 0.22060792 0.06805739
-0.015518979 0.13454269 -0.3130717 -0.072258 -0.14664951 0.32276 0.06639285 -0.1390267
-0.20935033 -0.2657761 0.050894607 0.012513868 0.16555162 -0.016161384 -0.10831174 -0.07369477
-0.21007013 0.17911829 -0.03206273 -0.2290207 -0.10106717 -0.009092913 0.2543134 0.10414818
-0.15098634 -0.23478574 0.16443624 -0.049975898 -0.172344 -0.27001932 -0.0046239714 -0.13745058
-0.6843726 -0.015609743 0.00765673 -0.16318585 -0.10294374 0.110983975 -0.052805018 0.122881755
0.034276742 0.1144562 0.042905714 -0.17424266 -0.06291554 0.048444796 -0.027907858 0.21123844
0.39198774 0.11678916 0.15897384 -0.13801925 0.040903233 -0.08289002 0.021215362 0.23889968
-0.14073192 -0.37523615 -0.031973574 0.15375593 -0.13586678 0.15080144 -0.07328001 -0.10898399
0.12993844 -0.026115926 -0.36844477 -0.17886144 0.16312334 0.1544747 0.39620438 0.10862521
0.1948338 -0.20061585 -0.31576636 0.005963296 0.326502 0.4408664 0.20062806 0.19106972
-0.12660587 0.047158904 0.23948197 0.21931843 -0.1728731 -0.008561217 0.46811333 0.046412013
0.23678707 -0.089779526 0.17214552 -0.007963374 -0.06834258 -0.4733906 0.17487568 0.3122457
0.07870095 -0.039935514 0.108483426 -0.09797438 0.005261726 -0.100011215 0.14957316 0.29084122
0.24090077 0.065327786 0.023730187 -0.19324481 -0.025999753 0.20248829 0.18441746 -0.30990145
-0.13381507 0.24287377 0.20075518 0.011142155 0.030654116 -0.35179436 0.10595602 -0.012148873
00000000: c56d 9d3e 380a 6ebe e783 83bc 30c0 edbb
00000010: ccee 36be c4e3 653e 800c 3e3e f48a 87be
00000020: cc24 64be 5cac 103d ca96 05bd 3618 6fbd
00000030: 3c8a c9bd e75f bfbe 5fb8 12be b4f8 9cbd
00000040: f2bd 563e d1ca b13d 03b9 6e3e 5926 713e
00000050: f60e 753e 3168 653e 578a 8bbe d70f 61be
00000060: 6549 c73e 1875 c9bd 6790 443e 8126 3cbd
00000070: b5bf 863d 0c8d 72be 2bfc 1fbe 11db d2bd
00000080: 4203 09be 47d2 95be 7ed8 0d3e b768 933b
00000090: 7006 17be 8d83 d1bc ebad 0bbe 3968 e23d
000000a0: 3ab8 0d3e b4e4 343b 8af1 22be 5893 8fbe
000000b0: eb60 a83e 2d92 5ebc 2a22 29be fe64 a7bd
000000c0: c03b 563b 1ce0 3ebe 8701 ae3d ebf0 2fbe
000000d0: 82b1 e2bd 3ad7 cbbd c20e d43d ebfe 71bd
000000e0: 390c ae3d 7e01 813e 43a2 f53b f7de 4cbe
000000f0: 5e15 75bd 3100 bf3c fb5c 0a3e 0bcc a2bc
00000100: cbd4 0d3d 3dc8 84bc 0cae 64be 23f9 1cbd
00000110: 147d 00be e3cc 593e 560a de3d f52d 743e
00000120: c279 1e3e 4eb3 d9bd ab9a 8d3e a37f 28bc
00000130: 8456 b43e e5c1 413e 05d2 043e 17c3 8a3d
00000140: 3cba 8d3c 1ba3 993e 32dc d13d 8c92 c4be
00000150: ad6c 753c 5b20 29be 59ea eebd fbd6 863e
00000160: 3db4 60be c01d 793e db7f 823c 49ab 5ebd
00000170: 55fd 513e 2a78 d73d 6835 38be 3d60 a33e
00000180: 92f4 253e aafe 97be 9b62 85be b407 97ba
00000190: 0ad0 a8bd 87cf 82bd ca0c 09bd c56b 88bd
000001a0: bb92 a0bd 90db ab3e 2794 dd3d b5f3 e2bd
000001b0: d8a4 17be 6fab 33bd 90e6 d53c be02 55be
000001c0: 1adc e93d 16ed 993d 2314 f23d 8a31 f1bd
000001d0: 9d90 18be 4968 56bd 59c0 e83e 379e 94bc
000001e0: 65e9 89bd 954e 163e ae7b 6bbd 0ca6 dbbc
000001f0: 2402 efbd 9754 3bbd ea25 ccbb 0035 b4b7
00000200: 900c 13bd deda e83d de0d eabc 7ea8 363d
00000210: 1b70 f63d bbf7 5abe 0be7 613e ac61 8b3d
00000220: 5143 7ebc 8fc5 093e ef4a a0be 01fc 93bd
00000230: 4a2b 16be cc40 a53e f9f8 873d 045d 0ebe
00000240: ef5f 56be ce13 88be dd76 503d f706 4d3c
00000250: 5d86 293e e164 84bc 8cd2 ddbd 49ed 96bd
00000260: a01c 57be c96a 373e 3654 03bd 6784 6abe
00000270: 4efc cebd 71fa 14bc 5e35 823e a44b d53d
00000280: 2a9c 1abe ac6b 70be f961 283e 87b3 4cbd
00000290: f27a 30be f93f 8abe af84 97bb d8bf 0cbe
000002a0: 0b33 2fbf 02c0 7fbc 4ee5 fa3b 311a 27be
000002b0: 2bd4 d2bd 914b e33d 134a 58bd 6ea9 fb3d
000002c0: c565 0c3d 0368 ea3d e7bd 2f3d ab6c 32be
000002d0: ddd9 80bd 0d6e 463d 059f e4bc e44e 583e
000002e0: 9eb2 c83e 282f ef3d 0aca 223e eb54 0dbe
000002f0: 268a 273d 3ec2 a9bd d7cb ad3c 1ea2 743e
00000300: 071c 10be f41e c0be b9f6 02bd 3272 1d3e
00000310: a920 0bbe b16b 1a3e d413 96bd 0033 dfbd
00000320: 950e 053e 11f1 d5bc cba4 bcbe 7427 37be
00000330: ce09 273e 9e2e 1e3e 4ddb ca3e e576 de3d
00000340: 8382 473e 3e6e 4dbe 21ac a1be c167 c33b
00000350: 452b a73e 3eb9 e13e 7171 4d3e c8a7 433e
00000360: f8a4 01be b229 413d c33a 753e 0395 603e
00000370: a505 31be 5944 0cbc 8dac ef3e 861a 3e3d
00000380: 4f78 723e 54de b7bd ea46 303e d078 02bc
00000390: 32f7 8bbd 4160 f2be 9c12 333e abde 9f3e
000003a0: f72d a13d 6c93 23bd 8f2c de3d cba6 c8bd
000003b0: 8f6a ac3b aed2 ccbd b529 193e 24e9 943e
000003c0: b1ae 763e 93ca 853d cf65 c23c f8e1 45be
000003d0: 6ffd d4bc 1759 4f3e eed7 3c3e 67ab 9ebe
000003e0: d106 09be e7b3 783e c492 4d3e 968d 363c
000003f0: 571e fb3c 641e b4be 78ff d83d 110c 47bc

mlp_extractor.policy_net.0.bias f4 [32]
0.013823934 0.033483747 0.008738671 -0.11284675 0.004895477 0.02345709 0.0011699481 -0.057530526
0.104126684 0.024168175 -0.01632855 0.07570714 -0.037769824 -0.017498692 0.015748477 0.011505911
-0.05624661 -0.028342105 0.05504439 0.083289616 0.13953324 0.047306996 0.01868049 0.04821144
0.067083195 0.082048066 -0.021275459 0.035065215 0.13704412 -0.027594266 0.00441142 -0.049626395
00000000: c87d 623c 4126 093d a52c 0f3c 321c e7bd
00000010: 3d6a a03b 1529 c03c f258 993a 21a5 6bbd
00000020: 5f40 d53d 56fc c53c 74c3 85bc 580c 9b3d
00000030: 88b4 1abd 6b59 8fbc f302 813c 4a83 3c3c
00000040: d862 66bd b42d e8bc 3a76 613d bf93 aa3d
00000050: cde1 0e3e fbc4 413d d407 993c 5c79 453d
00000060: ea62 893d d108 a83d df49 aebc 8ba0 0f3d
00000070: 4b55 0c3e 5f0d e2bc ac8d 903b 0c45 4bbd

mlp_extractor.policy_net.2.weight f4 [32, 32]
-0.83908755 -0.26352125 0.4238779 0.27337632 -0.15138261 -0.39544594 0.35637456 0.37756488
0.45924604 0.44632635 -0.34848204 -0.19643041 0.5180929 -0.232631 -0.30001238 0.59211016
-0.15590058 0.2931257 -0.26336747 -0.07184778 0.3412217 0.4809681 -0.08645484 -0.11581808
0.23189798 -0.6736878 -0.7080597 -0.04887747 -0.4231167 0.043096256 -0.52958405 0.07666517
-0.24494115 0.19345404 -0.011604515 -0.14654401 0.7515489 0.4227774 -0.20208092 0.3490889
-0.22707313 0.2946251 0.16653745 -0.16867924 0.018248243 0.18255559 -0.09527565 -0.13397253
-0.12142426 0.28923577 0.4630661 -0.74239856 -0.32630256 -0.6065837 0.45974883 -0.26223516
0.07672627 -0.7035527 0.6444585 0.032285668 -0.0997481 -0.22644785 -0.14779799 0.7137371
-0.31153998 -0.15642132 -0.49926177 -0.22575037 0.40997815 0.8565464 0.11171626 0.2813622
-0.06242647 0.2721948 -0.20685305 0.10848335 -0.07940219 -0.06465022 0.3602782 0.18057956
0.2033779 -0.11574398 0.007281804 -0.14144914 -0.24578528 0.13783136 0.34199184 -0.45944327
-0.1684819 -0.7527846 0.2457996 0.08689851 0.5328265 -0.4168298 0.39290708 0.5482277
-0.19561476 -0.2285725 0.18778338 -0.3622593 0.01320303 -0.39658663 0.37526694 -0.117634766
0.22563522 -0.7582975 -0.6114641 0.46765727 0.20599589 -0.13037845 -0.4234518 0.3305395
0.014301614 -0.24051267 -0.15727481 0.12998028 -0.14488134 -0.49945366 -0.26682818 0.54318684
-0.42155656 0.25570813 -0.5517985 -0.21816462 -0.5915817 0.005785679 0.24590775 -0.02288328
0.34781814 0.056748874 0.44118038 -0.17621048 -0.275219 0.0011551924 0.39664465 -0.4983299
-0.71144295 0.10146575 0.0070035006 0.77825755 -0.3578497 0.4576994 0.013455669 -0.24021946
0.16493468 -0.40806335 0.018389942 0.27890545 0.13406177 -0.15513764 -0.007337625 0.27537382
0.025318483 0.1853133 -0.18279153 -0.48260143 -0.0663639 0.43447685 -0.13507237 -0.5190017
-0.1104695 -0.23307437 0.6670089 -0.1253136 0.49428728 -0.044613905 -0.6024761 0.019340454
-0.59642667 -0.58099174 -0.6109506 -0.6407776 0.3665614 -0.7746155 -0.09586517 0.050735064
0.2139406 0.52505577 -0.020857947 0.25518247 -0.41846046 -0.16848655 -0.20360254 -0.100556396
-0.23732536 -0.51217514 -0.23598905 -0.008875531 0.18306737 -0.093031496 0.05564439 0.14116761
-0.15483454 0.17677721 -0.043283224 -0.27293995 -0.5398214 -0.017214488 -0.0315103 0.15967593
-0.25632858 0.098541684 0.60933477 0.7590146 -0.341027 0.36065796 0.56993747 0.49595553
-0.5201016 -0.3300941 -0.28071138 -0.050077934 0.31287566 0.36831823 -0.13123876 0.045801148
0.8672722 0.47413284 -0.055392772 0.020961067 -0.065846965 0.18969567 0.0059262333 0.32365397
-0.23403808 0.3031482 -0.17778212 0.41729385 0.6231539 0.042623226 0.25123748 0.07568993
-0.250035 -0.634601 0.0924071 -0.20904817 -0.17787458 0.20700258 -0.24438342 -0.43335423
0.11167678 -0.47736496 -0.08607293 -0.06750056 0.46688408 -0.5201799 -0.06828651 -0.38774803
-0.029733332 0.025611794 -0.2507419 -0.29670376 0.19002397 0.271584 0.6434622 0.6424719
00000000: 71ce 56bf 42ec 86be 8606 d93e fbf7 8b3e
00000010: 0b04 1bbe e477 cabe ba76 b63e 2f50 c13e
00000020: 4c22 eb3e e384 e43e 3d6c b2be 0e25 49be
00000030: bca1 043f d236 6ebe 399b 99be 8894 173f
00000040: 67a4 1fbe 9214 963e 1ad8 86be ee24 93bd
00000050: 9cb4 ae3e 7341 f63e 3c0f b1bd 0832 edbd
00000060: aa76 6d3e ce76 2cbf 6743 35bf be33 48bd
00000070: c1a2 d8be b385 303d d292 07bf a102 9d3d
00000080: dad1 7abe d118 463e dd20 3ebc a20f 16be
00000090: 8265 403f 4876 d83e 4dee 4ebe c8bb b23e
000000a0: dc85 68be 1ad9 963e cb88 2a3e 40ba 2cbe
000000b0: 577d 953c daef 3a3e e11f c3bd 1830 09be
000000c0: 48ad f8bd b616 943e 0017 ed3e d50d 3ebf
000000d0: 2111 a7be 1249 1bbf 3364 eb3e b043 86be
000000e0: aa22 9d3d 081c 34bf 3bfb 243f fa3d 043d
000000f0: bb48 ccbd f2e1 67be 5b58 17be 79b7 363f
00000100: 2b82 9fbe e92c 20be 3d9f ffbe 1b2b 67be
00000110: a8e8 d13e a046 5b3f 7fcb e43d b50e 903e
00000120: e6b2 7fbd 1e5d 8b3e 49d1 53be 852c de3d
00000130: 9e9d a2bd 5667 84bd 6276 b83e d9e9 383e
00000140: 4c42 503e 2e0b edbd 339c ee3b 0bd8 10be
00000150: 23af 7bbe aa23 0d3e 8e19 af3e 263c ebbe
00000160: 8586 2cbe 7eb6 40bf e4b2 7b3e d9f7 b13d
00000170: 5167 083f b76a d5be 1e2b c93e a758 0c3f
00000180: 3c4f 48be e90e 6abe 494a 403e 0d7a b9be
00000190: 8651 583c 670d cbbe fd22 c03e 7fea f0bd
000001a0: eb0c 673e c91f 42bf e988 1cbf c670 ef3e
000001b0: 96f0 523e ee81 05be adce d8be 793c a93e
000001c0: 5151 6a3c f448 76be a60c 21be 8d19 053e
000001d0: c65b 14be 64b8 ffbe b49d 88be 4b0e 0b3f
000001e0: 43d6 d7be 2dec 823e ab42 0dbf 8c66 5fbe
000001f0: e671 17bf cb95 bd3b 3ecf 7b3e b775 bbbc
00000200: 3815 b23e 8271 683d 65e2 e13e 8570 34be
00000210: 81e9 8cbe d369 973a 0215 cb3e 1925 ffbe
00000220: 2021 36bf 46cd cf3d 9f7d e53b e33b 473f
00000230: 1338 b7be 9357 ea3e 2b75 5c3c 17fc 75be
00000240: a3e4 283e aeed d0be 81a6 963c b2cc 8e3e
00000250: 7d47 093e 67dc 1ebe 7670 f0bb ccfd 8c3e
00000260: b568 cf3c c5c2 3d3e b42d 3bbe 8917 f7be
00000270: cce9 87bd c073 de3e 6950 0abe 4cdd 04bf
00000280: d53d e2bd 0cab 6ebe 18c1 2a3f 3552 00be
00000290: 3913 fd3e 12bd 36bd e03b 1abf df6f 9e3c
000002a0: 6baf 18bf e0bb 14bf 4267 1cbf 000a 24bf
000002b0: f0ad bb3e 344d 46bf f554 c4bd 92cf 4f3d
000002c0: 3f13 5b3e 0e6a 063f 49de aabc 47a7 823e
000002d0: 7340 d6be bd87 2cbe 2f7d 50be 83f0 cdbd
000002e0: 6b05 73be e91d 03bf 1da7 71be ad6a 11bc
000002f0: 0376 3b3e 4c87 bebd 5feb 633d 3e8e 103e
00000300: f28c 1ebe 1605 353e c049 31bd c9be 8bbe
00000310: bc31 0abf 6605 8dbc f210 01bd 1682 233e
00000320: 803d 83be 39d0 c93d 5dfd 1b3f c84e 423f
00000330: 179b aebe 29a8 b83e 6ce7 113f e2ed fd3e
00000340: 6125 05bf 1802 a9be 67b9 8fbe 851e 4dbd
00000350: 3d31 a03e 3594 bc3e 7463 06be fc99 3b3d
00000360: 8d05 5e3f 8ac1 f23e 88e3 62bd 8bb6 ab3c
00000370: c6da 86bd 953f 423e d930 c23b f9b5 a53e
00000380: aea7 6fbe 3e36 9b3e 840c 36be 8aa7 d53e
00000390: 0487 1f3f b195 2e3d 33a2 803e 5203 9b3d
000003a0: 9604 80be 3675 22bf ef3f bd3d b910 56be
000003b0: c124 36be 7cf8 533e a63f 7abe 9be0 ddbe
000003c0: ccb6 e43d 2e69 f4be 0147 b0bd bc3d 8abd
000003d0: 6e0b ef3e 832a 05bf ccd9 8bbd e986 c6be
000003e0: 5193 f3bc d3cf d13c 3e61 80be 8ee9 97be
000003f0: a595 423e 0f0d 8b3e f0b9 243f 0a79 243f

mlp_extractor.policy_net.2.bias f4 [32]
0.028656388 -0.068524204 -0.03641951 -0.13499373 0.11064714 0.08268135 -0.106497824 -0.31470218
0.0282595 0.016691586 0.10333834 0.044350617 0.012019677 -0.0026284906 -0.27623338 -0.17880677
0.08764379 0.2614657 0.05975135 -0.13066411 0.048490662 -0.056412194 0.05247001 0.054687418
-0.008322235 -0.2268313 -0.14891967 0.059457168 -0.02647737 0.08156896 -0.12542024 0.20831881
00000000: cdc0 ea3c 6b56 8cbd a02c 15bd cc3b 0abe
00000010: f89a e23d d754 a93d 881b dabd a520 a1be
00000020: 7880 e73c cbbc 883c 0da3 d33d fea8 353d
00000030: 2eee 443c c142 2cbb 766e 8dbe 1f19 37be
00000040: 967e b33d d5de 853e d5bd 743d d0cc 05be
00000050: 259e 463d 7910 67bd cbea 563d eaff 5f3d
00000060: fc59 08bc 7746 68be 667e 18be 5c89 733d
00000070: 12e7 d8bc a00d a73d 2a6e 00be 8751 553e

mlp_extractor.value_net.0.weight f4 [32, 81]
0.18154654 -0.056572508 -0.19539228 -0.05532867 -0.08955299 -0.0872773 -0.34213176 0.37375546
0.02701534 -0.024675779 -0.2661795 0.18562326 0.07719801 -0.03832692 -0.13886476 -0.029023344
0.07621466 -0.15929069 0.09976713 -0.3900784 0.1828734 0.054806735 -0.0324632 -0.02592434
-0.13360706 0.17895967 0.186995 0.3185003 0.18316856 -0.24493326 0.08652982 -0.057228632
-0.045346264 -0.29297695 0.19775054 -0.2051153 -0.24350695 0.07204784 -0.25046703 0.0075252033
0.008707633 -0.0878311 0.25563455 -0.05322351 0.04235771 0.15707713 -0.04239514 -0.11654192
-0.17581898 0.08920179 -0.083374955 -0.12741742 0.106872186 -0.009937804 0.17012282 0.12377101
-0.063642666 -0.015557849 -0.014239505 -0.05165407 0.078713305 0.22347891 0.073820986 0.37278572
-0.10004369 -0.16021375 0.16564879 -0.13484827 0.10057753 -0.14930263 -0.028859427 -0.15424128
-0.20717917 -0.20424879 0.0625985 0.023301788 0.06694033 -0.12549327 -0.050100423 0.0074945306
0.0632667 0.008598014 0.023039987 0.017291514 0.020998284 -0.10204462 0.12377756 0.24868573
0.06100777 -0.05565629 0.33322608 0.025878508 -0.07726511 -0.15249194 0.109233946 -0.075602986
0.025203845 -0.09704371 -0.094732165 -0.048934713 -0.09738191 0.13607077 0.14288837 0.05818276
0.1571494 0.014168917 -0.15456681 0.03266383 0.21005525 -0.19083774 -0.04383279 -0.00200636
-0.02240398 0.11431918 -0.111018516 -0.17243192 0.17812756 -0.027608164 0.03832568 -0.12468779
0.28237522 -0.3797896 -0.37620804 -0.18144922 0.056889914 0.1390479 0.13203405 -0.028211422
-0.33147985 -0.24720955 -0.06132516 0.0128144575 -0.08365312 0.19479081 0.020090355 0.12249934
0.074129395 -0.0017070972 0.14125498 0.18499176 0.053178094 0.15214504 -0.025621321 -0.2019086
-0.0043425886 -0.06912099 0.17992093 -0.1518048 0.14706855 -0.107710734 0.09696434 0.008625262
-0.31753948 0.18053325 0.25029135 -0.16506468 -0.04436726 0.09856215 -0.1822052 0.29035026
0.32968536 0.263268 0.044180095 -0.05178752 0.017638579 0.14934458 -0.14508021 -0.12726678
-0.09694636 0.11122087 -0.1042747 0.0020001398 -0.14364557 0.0021736862 0.10272241 0.0015295562
0.26633552 0.010408597 0.011005785 0.13008922 0.36419067 0.037812315 -0.107562475 0.057170782
0.3047135 -0.19363794 -0.02052898 -0.24140437 0.038131904 -0.06389877 -0.015595691 0.1485223
-0.21151377 0.22330306 -0.159111 -0.1659461 0.04411935 0.25995654 0.2685526 0.31908876
0.15404768 0.20259868 -0.20039296 0.017864272 -0.022211086 0.23061351 -0.010023931 0.10325566
0.12715264 -0.14688231 0.092660636 0.0409365 -0.0017040571 -0.03357056 -0.07713457 0.33939838
-0.052449908 0.16166314 -0.1126966 0.12318245 0.1640131 0.1632271 0.10747339 -0.16358149
0.046798717 -0.0015375277 -0.050483417 -0.30599403 0.3653918 -0.24699506 0.026006684 0.037884653
0.33100113 -0.011124867 -0.07407987 -0.10163722 -0.052335065 -0.10499991 -0.12975667 0.203274
0.058614537 -0.10482996 0.17732331 -0.101461485 0.0038723059 -0.028293464 0.01716438 -0.17948955
-0.22783136 0.30675417 -0.05183178 -0.070836194 0.030440683 0.050522264 0.018842809 0.012497685
00000000: 56e7 393e 93b8 67bd ea14 48be 51a0 62bd
00000010: 8f67 b7bd 71be b2bd e52b afbe e05c bf3e
00000020: 464f dd3c dc24 cabc ae48 88be 0614 3e3e
00000030: fe19 9e3d b0fc 1cbd 9032 0ebe 5dc2 edbc
00000040: 6f16 9c3d 191d 23be b652 cc3d 5bb8 c7be
00000050: 2a43 3b3e 077d 603d 22f8 04bd 485f d4bc
00000060: 4ad0 08be 3441 373e 9e7b 3f3e 7912 a33e
00000070: 8a90 3b3e c9cf 7abe 8c36 b13d 9268 6abd
00000080: 01bd 39bd 1301 96be 1e7f 4a3e bf09 52be
00000090: e359 79be d18d 933d 373d 80be fb95 f63b
000000a0: 76aa 0e3c cbe0 b3bd 88e2 823e e500 5abd
000000b0: 477f 2d3d d4d8 203e 87a6 2dbd 88ad eebd
000000c0: e409 34be 6eaf b63d 7dc0 aabd b679 02be
000000d0: cedf da3d 2cd2 22bc ad34 2e3e a87b fd3d
000000e0: 1657 82bd 59e6 7ebc d04c 69bc 3893 53bd
000000f0: 7134 a13d a8d7 643e 752f 973d c5dd be3e
00000100: b5e3 ccbd 130f 24be d69f 293e aa15 0abe
00000110: 98fb cd3d cae2 18be 9b6a ecbc 6df1 1dbe
00000120: c726 54be 9826 51be a433 803d 64e3 be3c
00000130: 0318 893d 4f81 00be 1a36 4dbd ae94 f53b
00000140: f991 813d afde 0c3c 5bbe bc3c efa6 8d3c
00000150: 9804 ac3c c5fc d0bd 177f fd3d 79a7 7e3e
00000160: 49e3 793d daf7 63bd 9c9c aa3e 2aff d33c
00000170: 2c3d 9ebd d926 1cbe 0cb6 df3d bdd5 9abd
00000180: 4b78 ce3c dabe c6bd f002 c2bd c46f 48bd
00000190: 2b70 c7bd 2356 0b3e 5451 123e 0c51 6e3d
000001a0: c6eb 203e bf24 683c c346 1ebe 82ca 053d
000001b0: b918 573e f86a 43be 038a 33bd 237d 03bb
000001c0: 8d88 b7bc 2d20 ea3d ad5d e3bd fe91 30be
000001d0: 1267 363e 842a e2bc 63fb 1c3d 505c ffbd
000001e0: 7c93 903e c873 c2be 579e c0be d3cd 39be
000001f0: 6605 693d 9362 0e3e ef33 073e a41b e7bc
00000200: bab7 a9be 8024 7dbe 1730 7bbd bbf3 513c
00000210: 5452 abbd 3e77 473e 8794 a43c efe0 fa3d
00000220: 27d1 973d adc0 dfba 25a5 103e 7b6e 3d3e
00000230: 46d1 593d e9cb 1b3e cee3 d1bc 21c1 4ebe
00000240: 464c 8ebb 4e8f 8dbd 313d 383e b872 1bbe
00000250: 2399 163e 7297 dcbd 3d95 c63d f950 0d3c
00000260: 8994 a2be b5dd 383e 3026 803e b706 29be
00000270: 72ba 35bd f4da c93d 0094 3abe caa8 943e
00000280: 85cc a83e 10cb 863e 30f6 343d 271f 54bd
00000290: c87e 903c c9ed 183e e88f 14be 3952 02be
000002a0: d08b c6bd c4c7 e33d f98d d5bd c714 033b
000002b0: d317 13be 6774 0e3b 2060 d23d 647b c83a
000002c0: 215d 883e d288 2a3c 9c51 343c 1c36 053e
000002d0: 3377 ba3e 16e1 1a3d b749 dcbd e92b 6a3d
000002e0: 6803 9c3e 0649 46be 642c a8bc b532 77be
000002f0: 3330 1c3d 5cdd 82bd 1285 7fbc 3b16 183e
00000300: 1197 58be 8fa9 643e feed 22be c6ed 29be
00000310: 7eb6 343d 0619 853e ba7f 893e 9a5f a33e
00000320: adbe 1d3e 0776 4f3e d033 4dbe 1858 923c
00000330: 06f4 b5bc f325 6c3e 6a3b 24bc b477 d33d
00000340: 4d34 023e 5168 16be dcc4 bd3d 08ad 273d
00000350: ab5a dfba 4981 09bd bbf8 9dbd a0c5 ad3e
00000360: b7d5 56bd 068b 253e 7acd e6bd 1547 fc3d
00000370: 0df3 273e 0125 273e 021b dc3d e881 27be
00000380: 03b0 3f3d de86 c9ba b3c7 4ebd 40ab 9cbe
00000390: a214 bb3e 46ec 7cbe f80b d53c f02c 1b3d
000003a0: fb78 a93e 1345 36bc 30b7 97bd 2d27 d0bd
000003b0: 4b5d 56bd 310a d7bd efde 04be 0f27 503e
000003c0: cc15 703d 17b1 d6bd 3e94 353e 0acb cfbd
000003d0: 83c6 7d3b b2c7 e7bc 509c 8c3c 1ccc 37be
000003e0: a04c 69be e20e 9d3e 8f4d 54bd 9112 91bd
000003f0: bd5e f93c 6ff0 4e3d 3c5c 9a3c 17c3 4c3c

mlp_extractor.value_net.0.bias f4 [32]
0.0 0.0 0.0 0.0 0.0 0.0 0.0 0.0
0.0 0.0 0.0 0.0 0.0 0.0 0.0 0.0
0.0 0.0 0.0 0.0 0.0 0.0 0.0 0.0
0.0 0.0 0.0 0.0 0.0 0.0 0.0 0.0
00000000: 0000 0000 0000 0000 0000 0000 0000 0000
00000010: 0000 0000 0000 0000 0000 0000 0000 0000
00000020: 0000 0000 0000 0000 0000 0000 0000 0000
00000030: 0000 0000 0000 0000 0000 0000 0000 0000
00000040: 0000 0000 0000 0000 0000 0000 0000 0000
00000050: 0000 0000 0000 0000 0000 0000 0000 0000
00000060: 0000 0000 0000 0000 0000 0000 0000 0000
00000070: 0000 0000 0000 0000 0000 0000 0000 0000

mlp_extractor.value_net.2.weight f4 [32, 32]
0.37237483 -0.051572096 0.28972173 0.52190995 -0.07749709 -0.27802318 -0.2441783 0.5359978
-0.23442574 0.16140018 0.23879236 -0.29508442 0.12158361 0.3947092 -0.13169749 -0.3566981
0.123809464 -0.30443695 0.066455565 0.42514005 -0.22719248 -0.106371656 -0.07489994 0.16514008
-0.11438578 -0.12698422 0.10323818 -0.080774836 0.12117235 -0.11472029 -0.0944938 0.24438404
0.17346455 0.029479641 -0.1104776 0.41514388 -0.13756277 0.022279564 -0.11085124 -0.4886672
-0.23593515 -0.66551894 0.45304444 -0.31141165 0.55767745 -0.27982575 0.3648952 -0.10383147
-0.06933087 0.11656621 0.053354923 0.01953025 -0.05955731 0.17203982 0.10733045 -0.1393203
0.1753526 -0.013858671 0.0032990968 -0.10775443 -0.21801037 -0.039675657 0.033583824 -0.038132362
-0.68834895 0.16898303 -0.19841187 0.068479106 -0.19431977 0.01858296 -0.3363472 0.16085497
0.39596212 -0.17231219 0.018300207 -0.33761883 0.028636783 -0.26986966 -0.30457753 0.13448405
-0.28681946 -0.0651514 0.07854076 0.31274018 -0.03767042 0.18431444 0.19999318 0.17399563
-0.18659183 -0.25228482 -0.37982747 0.20134358 -0.0010869143 0.043286186 -0.2395153 0.39049911
-0.048410166 -0.08616944 -0.57690763 -0.26254025 -0.13964309 -0.014271916 -0.5088852 0.18796884
-0.2325242 0.22132136 0.1970251 0.083355576 0.063192986 -0.08701436 0.14784841 0.13753791
0.33927217 0.067789875 -0.25499505 0.14901084 0.083773024 0.07298529 0.369003 0.19299027
0.12015288 0.6065644 0.06437089 -0.3874344 0.20824212 -0.18932016 -0.25433654 -0.011893557
-0.09006107 0.20760222 0.15739776 -0.15643646 -0.19139712 -0.03053392 0.03513197 -0.108216465
0.33716634 -0.10262279 0.41311923 -0.14902578 -0.37593475 0.31251517 0.33105925 -0.10483043
-0.06821124 -0.22409597 -0.5215481 -0.09675535 0.023527002 -0.18737364 -0.10044193 0.1631735
0.31540114 0.15239988 0.071410984 0.4535916 -0.274113 -0.55853504 -0.20591348 0.026299762
0.25466794 -0.032711983 -0.14683746 -0.12021477 0.33878845 0.09668161 0.05807445 0.10615615
0.3407504 -0.031277135 -0.2989862 -0.0031997086 0.27727398 -0.020936172 0.41634157 -0.008302487
0.296561 0.23013972 0.0027135971 0.024568368 -0.12105999 -0.64630157 0.53748614 0.18121691
-0.0137847625 -0.44834846 0.04115335 0.009123265 -0.23949231 -0.04984881 -0.16092049 0.34312963
0.10916392 -0.1265005 -0.299717 0.15186818 -0.40727586 -0.012305449 -0.20414239 -0.20126328
-0.3079009 -0.3243712 -0.4157627 -0.17836624 -0.2957144 0.36160848 -0.2159582 0.11843724
0.12687407 0.57370114 0.03884305 0.18593167 0.06939726 -0.23036622 0.03537543 0.05185812
0.009414934 -0.13224834 0.11563009 0.541953 0.29893783 -0.14954445 0.08697923 -0.20081167
0.19132207 -0.05664936 0.1157017 -0.1445 0.015314873 -0.43289778 -0.20841786 -0.41056132
0.06460527 0.20168008 0.12082731 -0.13919774 -0.21570413 -0.08765677 -0.2082926 0.0866413
0.09958832 0.06926423 0.23639548 -0.18098512 -0.14572589 0.26044357 0.23791902 -0.038431145
-0.19514903 0.1573076 0.6867225 0.2915362 -0.32703394 0.3697612 -0.32995716 0.34626323
00000000: eaa7 be3e 433d 53bd 6856 943e e49b 053f
00000010: cbb6 9ebd 0e59 8ebe e009 7abe 2737 093f
00000020: 4d0d 70be 1746 253e fc85 743e 4e15 97be
00000030: d400 f93d 5317 ca3e b5db 06be 22a1 b6be
00000040: d18f fd3d 29df 9bbe db19 883d f5ab d93e
00000050: 25a5 68be 62d9 d9bd 2465 99bd 7b1a 293e
00000060: 1843 eabd 2708 02be 8a6e d33d 476d a5bd
00000070: 3629 f83d 79f2 eabd f785 c1bd cf3f 7a3e
00000080: b1a0 313e 4a7f f13c 1442 e2bd bd8d d43e
00000090: 41dd 0cbe a283 b63c fa05 e3bd 9632 fabe
000000a0: fc98 71be 735f 2abf 71f5 e73e 5971 9fbe
000000b0: f3c3 0e3f 5245 8fbe 8bd3 ba3e 98a5 d4bd
000000c0: 58fd 8dbd 44ba ee3d b18a 5a3d e7fd 9f3c
000000d0: 5ef2 73bd 352b 303e 11d0 db3d fba9 0ebe
000000e0: a28f 333e 7b0f 63bc a935 583b 5bae dcbd
000000f0: 1c3e 5fbe f182 22bd 318f 093d ae30 1cbd
00000100: a337 30bf e309 2d3e 7b2c 4bbe c63e 8c3d
00000110: c3fb 46be 4b3b 983c b335 acbe 2ab7 243e
00000120: 8cbb ca3e 9b72 30be 51ea 953c 60dc acbe
00000130: b097 ea3c 5b2c 8abe 96f1 9bbe 30b6 093e
00000140: 00da 92be 196e 85bd fad9 a03d 7b1f a03e
00000150: 4c4c 1abd edbc 3c3e 03cb 4c3e e92b 323e
00000160: ee11 3fbe 7a2b 81be bf78 c2be 032d 4e3e
00000170: cb76 8eba db4c 313d 8043 75be 80ef c73e
00000180: bd49 46bd 9a79 b0bd 38b0 13bf ad6b 86be
00000190: 99fe 0ebe c1d4 69bc 4d46 02bf e77a 403e
000001a0: d31a 6ebe 11a2 623e f3c0 493e 54b6 aa3d
000001b0: 536b 813d 9634 b2bd 9365 173e bdd6 0c3e
000001c0: 15b5 ad3e 6bd5 8a3d b68e 82be 4c96 183e
000001d0: 3191 ab3d 5079 953d f6ed bc3e 3e9f 453e
000001e0: b712 f63d ce47 1b3f e3d4 833d cd5d c6be
000001f0: 6c3d 553e 25dd 41be 6638 82be 32dd 42bc
00000200: f071 b8bd ad95 543e e12c 213e e130 20be
00000210: 9bfd 43be 4522 fabc 8ae6 0f3d 98a0 ddbd
00000220: 11a1 ac3e e62b d2bd 5d84 d33e 379a 18be
00000230: 857a c0be fd01 a03e 9980 a93e 56b1 d6bd
00000240: 56b2 8bbd 6a79 65be 2d84 05bf ab27 c6bd
00000250: b3bb c03c e0de 3fbe 80b4 cdbd f416 273e
00000260: 427c a13e b70e 1c3e ec3f 923d 283d e83e
00000270: 8a58 8cbe 27fc 0ebf fcda 52be 9972 d73c
00000280: d663 823e 00fd 05bd 8f5c 16be 2933 f6bd
00000290: ae75 ad3e 0201 c63d 79df 6d3d 6568 d93d
000002a0: d676 ae3e 741c 00bd b814 99be 34b2 51bb
000002b0: dbf6 8d3e 5682 abbc b92a d53e 2807 08bc
000002c0: d8d6 973e bfa9 6b3e 9bd6 313b 9a43 c93c
000002d0: 4dee f7bd 0574 25bf b198 093f ed90 393e
000002e0: 7cd9 61bc ee8d e5be 6a90 283d bf79 153c
000002f0: 793d 75be 442e 4cbd 57c8 24be b0ae af3e
00000300: 5591 df3d 5989 01be 8274 99be 5583 1b3e
00000310: 7686 d0be cb9c 49bc b40a 51be f617 4ebe
00000320: 30a5 9dbe fb13 a6be d9de d4be a4a5 36be
00000330: e167 97be bf24 b93e 2524 5dbe 398f f23d
00000340: 47eb 013e 14de 123f e419 1f3d df64 3e3e
00000350: 2720 8e3d 1fe5 6bbe d4e5 103d 2e69 543d
00000360: 1841 1a3c 1c6c 07be 78cf ec3d 6fbd 0a3f
00000370: 610e 993e 2e22 19be 2b22 b23d 93a1 4dbe
00000380: efe9 433e 2909 68bd 03f5 ec3d cff7 13be
00000390: 3ceb 7a3c c7a4 ddbe 7e6b 55be 1835 d2be
000003a0: c54f 843d 3985 4e3e 4f74 f73d da89 0ebe
000003b0: 8be1 5cbe 6585 b3bd a84a 55be fe70 b13d
000003c0: f6f4 cb3d 68da 8d3d a811 723e 2a54 39be
000003d0: 2b39 15be dc58 853e 0ba1 733e fa69 1dbd
000003e0: 26d5 47be 3e15 213e 0ccd 2f3f 3c44 953e
000003f0: fe70 a7be 5751 bd3e 25f0 a8be 6a49 b13e

mlp_extractor.value_net.2.bias f4 [32]
0.0 0.0 0.0 0.0 0.0 0.0 0.0 0.0
0.0 0.0 0.0 0.0 0.0 0.0 0.0 0.0
0.0 0.0 0.0 0.0 0.0 0.0 0.0 0.0
0.0 0.0 0.0 0.0 0.0 0.0 0.0 0.0
00000000: 0000 0000 0000 0000 0000 0000 0000 0000
00000010: 0000 0000 0000 0000 0000 0000 0000 0000
00000020: 0000 0000 0000 0000 0000 0000 0000 0000
00000030: 0000 0000 0000 0000 0000 0000 0000 0000
00000040: 0000 0000 0000 0000 0000 0000 0000 0000
00000050: 0000 0000 0000 0000 0000 0000 0000 0000
00000060: 0000 0000 0000 0000 0000 0000 0000 0000
00000070: 0000 0000 0000 0000 0000 0000 0000 0000

action_net.weight f4 [5, 32]
-0.40662843 -0.029094402 0.106540285 -0.1962999 0.22977243 -0.45906687 0.32078555 0.316694
-0.55200225 0.24794668 0.23149072 -0.10231436 -0.318197 -0.34915745 -0.124749094 0.4701683
0.28849074 0.118347965 -0.25555527 -0.26802146 -0.3984902 -0.35290334 0.35363013 0.34233478
-0.19745436 0.03840817 0.30292702 -0.40519914 -0.4082192 -0.4255599 0.10335454 0.2020978
-0.32695085 -0.25423133 -0.3433285 0.60531056 0.28655088 0.3644444 -0.31947228 0.08253863
0.45139593 0.27957198 0.40479764 0.25549313 0.23353337 0.2630253 0.46322954 0.38523728
0.22245279 0.24014221 -0.3702858 -0.24258505 0.2658113 0.41553724 -0.39048272 0.4895778
0.33303282 -0.34011877 0.39233342 0.3927992 -0.2887212 0.3534981 0.3207153 0.27383122
0.14780106 -0.35543054 -0.43634686 0.24022728 0.15281165 -0.33339897 0.43059218 -0.17311816
-0.3756775 0.18557836 0.18897536 0.40039724 -0.29159582 0.49190485 -0.018836495 -0.3215571
0.12957707 -0.5804045 0.12807739 -0.16526343 -0.283997 0.43419167 -0.3964206 -0.2884716
0.40671426 -0.39559114 -0.2282186 -0.38274032 0.16473833 -0.28761226 -0.15577477 0.17415914
0.1811114 0.3247311 0.30978492 -0.26655224 -0.22143869 0.46566585 -0.35569352 -0.18889283
0.5380928 -0.2565593 -0.37652355 -0.2465444 0.28722152 -0.17592262 -0.2528293 -0.18494351
-0.20092285 0.37092546 0.28566292 0.2485176 0.32177845 -0.34222358 0.23663446 -0.14697674
-0.23908715 0.3088215 -0.2607137 0.29632133 0.17520522 0.24124406 -0.33430105 -0.20720325
-0.015565293 0.053942323 0.08022904 0.28324455 -0.18027577 -0.11826429 -0.038792327 0.5180763
-0.2592069 -0.27054635 -0.19889797 0.08082808 -0.19714998 0.2860271 0.40210485 -0.016678918
-0.15529163 -0.34184846 -0.49298793 0.20865948 -0.116660066 0.1849116 -0.27167407 0.047610715
-0.0072773374 -0.03898739 0.45927057 0.0541687 0.013594276 0.03590357 0.4189223 -0.20895624
00000000: 9a31 d0be 6257 eebc cb31 da3d d702 49be
00000010: 7749 6b3e d00a ebbe 013e a43e b725 a23e
00000020: 0550 0dbf bce5 7d3e e70b 6d3e 318a d1bd
00000030: b8ea a2be c4c4 b2be 747c ffbd e6b9 f03e
00000040: 0fb5 933e 6b60 f23d 24d8 82be 1c3a 89be
00000050: e806 ccbe bfaf b4be 020f b53e 8146 af3e
00000060: 7a31 4abe e351 1d3d 4019 9b3e 4376 cfbe
00000070: 1b02 d1be fde2 d9be 8cab d33d baf2 4e3e
00000080: 1a66 a7be 9c2a 82be c1c8 afbe a2f5 1a3f
00000090: ccb6 923e 7598 ba3e df91 a3be 030a a93d
000000a0: 5e1d e73e 0f24 8f3e a341 cf3e ffcf 823e
000000b0: 5f23 6f3e 41ab 863e 6c2c ed3e d23d c53e
000000c0: aaca 633e d7e7 753e 1a96 bdbe 3768 78be
000000d0: 6b18 883e 4cc1 d43e 5aed c7be f1a9 fa3e
000000e0: 4783 aa3e 0c24 aebe eddf c83e fa1c c93e
000000f0: 44d3 93be b4fd b43e cc34 a43e 9b33 8c3e
00000100: 2959 173e fefa b5be db68 dfbe 24fe 753e
00000110: a87a 1c3e 45b3 aabe 9476 dc3e e345 31be
00000120: cd58 c0be 4108 3e3e c282 413e de00 cd3e
00000130: 0c4c 95be f4da fb3e fe4e 9abc 22a3 a4be
00000140: daaf 043e 6495 14bf b826 033e d13a 29be
00000150: 0e68 91be 5f4e de3e a4f7 cabe 8db2 93be
00000160: da3c d03e ec8a cabe 23b2 69be 8af6 c3be
00000170: 2ab1 283e ea41 93be 6c83 1fbe c656 323e
00000180: 4475 393e 2843 a63e 219c 9e3e 8979 88be
00000190: d3c0 62be c16b ee3e 761d b6be 1f6d 41be
000001a0: 73c0 093f be5b 83be b2c7 c0be 2376 7cbe
000001b0: b30e 933e 0f25 34be d872 81be d561 3dbe
000001c0: b8be 4dbe f1e9 bd3e 6942 923e 667b 7e3e
000001d0: 25c0 a43e ee37 afbe 4e50 723e 1281 16be
000001e0: 43d3 74be da1d 9e3e 447c 85be 6eb7 973e
000001f0: ff68 333e af08 773e 8229 abbe 172d 54be
00000200: 9205 7fbc a0f2 5c3d 1f4f a43d 6e05 913e
00000210: 369a 38be 8c34 f2bd b4e4 1ebd a6a0 043f
00000220: c4b6 84be 0d85 8abe e9ab 4bbe 3189 a53d
00000230: afe1 49be 2572 923e b0e0 cd3e 3aa2 88bc
00000240: c504 1fbe c306 afbe ea68 fcbe d5aa 553e
00000250: 79eb eebd 7759 3d3e dd18 8bbe 7403 433d
00000260: bb76 eebb 3eb1 1fbd 8325 eb3e 00e0 5d3d
00000270: 87ba 5e3c 9f0f 133d fc7c d63e a0f8 55be

action_net.bias f4 [5]
-0.014104218 0.029039877 0.01028221 0.15684506 -0.57105684
00000000: 6115 67bc 09e5 ed3c b776 283c fe9b 203e
00000010: c830 12bf

value_net.weight f4 [1, 32]
-0.1481098 -0.00196321 0.030806208 -0.027085993 -0.0096812 -0.16369613 -0.35344693 0.07257206
0.13499475 0.02111417 -0.31549543 0.08854037 -0.26136827 -0.06214555 -0.0709877 -0.24137111
-0.19258685 -0.07174019 0.15387115 0.07938759 -0.056729782 -0.23693275 -0.1053219 -0.3759163
0.29385716 -0.31417745 0.28497884 -0.03703372 -0.027134677 -0.041540746 0.060163792 0.008528394
00000000: 18aa 17be 33a9 00bb 4d5d fc3c 72e3 ddbc
00000010: e59d 1ebc f59f 27be fff6 b4be a9a0 943d
00000020: 103c 0a3e a0f7 ac3c 9e88 a1be a754 b53d
00000030: 10d2 85be 558c 7ebd 0062 91bd fd29 77be
00000040: 7d35 45be 85ec 92bd 6690 1d3e f695 a23d
00000050: 7d5d 68bd 809e 72be 02b3 d7bd 1a78 c0be
00000060: 7274 963e dedb a0be bfe8 913e acb0 17bd
00000070: 8b49 debc a126 2abd 4f6e 763d adba 0b3c
