toy_student/bc_train_log/map_realizablility/2024-11-26-134815/imitation_policy.pth (torch, 23106 bytes, 11 tensors)

mlp_extractor.policy_net.0.weight f4 [32, 25]
00000000: dd24 99be 93dc 26bf 2719 93be a68b 1bbd
00000010: b58c 0bbd 9dd2 2e3e fb65 74bc 3566 13be
00000020: 317d 0b3f 2453 713e b776 11bf 1aee b13d
00000030: 1c17 163e ae65 853e 4269 b83e 5cd6 283f
00000040: dd9e 21bd 4ca6 0dbf 5ff8 ab3c d955 8a3d
00000050: 75f5 b43e e314 1e3e df8a 303f 8505 1fbd
00000060: 9ea6 013f dfab 273f 7671 e73e a965 c93e
00000070: 7f9e 3a3f a32f fb3e dc7c 13bf 0672 e43e
00000080: 5c8e 973d 5b29 a4bf 603b ba3e 2bcd 0cbf
00000090: 40ee aabd ae4a 3f3e 2554 c3be 8876 07bf
000000a0: d554 74bf 2c71 3a3f afed f23d f314 66be
000000b0: 1928 bebd 774a 30bf 383c 99bd c7a3 82bf
000000c0: 11f7 293f 605b 823e cd79 a1bd f46a 243f
000000d0: 9366 9ebe 6b05 d13e 4544 d83e 5803 d0be
000000e0: 1985 cd3e 6875 023f aa72 473e 191f 123f
000000f0: c449 8f3e ab7d b9bd cf49 d4be 3889 7e3d
00000100: 7c5b 413f ce92 4e3e 946c c93e f919 ca3e
00000110: 96c3 88be 55f1 643e c3b1 363e 6a89 7e3c
00000120: 239b 423e 3134 de3e b554 8abd 6209 cebe
00000130: e175 903e b540 943e f04d 9b3f e08b 633f
00000140: d2b4 c9bd 0652 3a3f 0c52 02bf eb6d 6abe
00000150: 3734 df3e bfb5 93be 0c2f 8ebe 5009 533e
00000160: f66d a9be eab2 9ebe d8d9 92be 87c8 763f
00000170: 3f06 1f3f 402d bdbc 3e77 afbd fd27 81be
00000180: 0f7e 723e 8246 0ebe 41de 4d3f 63ee 053d
00000190: 8964 a83e d131 043f 9484 c93e 6eb7 8abe
000001a0: d94c a2be 3ac7 a03d 6b71 a9be da5c 4a3e
000001b0: 7f82 77bf 1e84 9d3e a456 af3e 43ee ddbd
000001c0: 12a7 8bbd 3a7c c7be 7ab1 5b3e 3ffe 43bf
000001d0: aa4b 8bbe 843a 913d 5e65 293e 2af1 c73d
000001e0: 44f1 05bf e898 5d3e 7de4 5abf c67c 7cbe
000001f0: e802 94be 3509 373e 3af5 b63f d47f 2abe
00000200: 0e25 0d3f 4805 083f e0b2 2cbf 8685 0c3f
00000210: 49e2 9bbe a8e0 11bf 02af e93d 1b7b 0e3d
00000220: 5da8 a1bd 94bb 28bd d94d c43d 51d4 523e
00000230: 7646 08bf 77ca 093f 2542 243f 7dea ccbe
00000240: a19d 57bd aa3f 85be 084e 2b3e 7753 83bf
00000250: a275 0d3f 5752 8ebd 45c2 363c ab1f ce3e
00000260: 8f97 76bf 9804 a6bf 8769 8fbf 3ef2 813e
00000270: 7731 8bbf e7c9 af3e d913 263f 9372 48bf
00000280: f3f2 353e 091c 233e ebf3 d83d fda5 953e
00000290: 0192 cd3d 6cf4 233f 1278 8dbf 1f72 a13e
000002a0: 6a37 293d 0220 3c3d 4af4 9a3e 15d2 32be
000002b0: adb2 3b3f eb84 85bf 3f23 83bd 1534 013e
000002c0: be61 083e f6a7 823e c493 74bf 373d 4cbf
000002d0: 5d3f b93e 44b2 27bf 59ed d5bd 8f14 84bf
000002e0: 48d1 543d ee25 173f 913e df3d b821 5b3e
000002f0: ac3c aabd 82c2 20bf 3ba3 81bf eca8 8dbf
00000300: a5d5 03be 2eff 0abf 4fa6 163e ea1c 3fbf
00000310: edf3 633e 0013 6abf 9d49 5bbf 4b18 8ebe
00000320: 00ff 863e 50fb 23be d4ae 643e 4373 9abf
00000330: 86d2 4cbf e776 b83e 27d2 2cbf aeeb 833d
00000340: d522 4ebe 5428 8abe 1a40 b6be 75fa 6abe
00000350: 467c 863e cd35 45bf 4f3a d5be d947 43be
00000360: 0191 94bf 9d68 7fbe e5fe 36bf f048 6ebf
00000370: fceb 63be ad8f 1e3d aabf 50be 4aea 9cbf
00000380: df1f cfbe a4c8 f4be c5a9 eb3d 79b1 123f
00000390: b71f 523f f161 0c3f 8f43 163e 12a7 273f
000003a0: 1922 143d b6de 0a3f 53f1 0f3f bcef 44bf
000003b0: 0d42 863e 158a 9fbe 8db3 403f 8fbe 313f
000003c0: cdd6 2c3f 82db 293f cbf6 22be 29f5 323e
000003d0: eb35 ed3d ef98 da3e f0ad de3e df1a fe3e
000003e0: 53da 083f 1849 f03d a0fd 053e a0f3 b13e
000003f0: 949c ab3d ee46 9e3f 7097 723f 5684 3e3e
-0.29910937 -0.6518032 -0.28730127 -0.037974976 -0.034069736 0.1707253 -0.014916892 -0.14394458
0.544879 0.23566872 -0.5682177 0.086879924 0.14657253 0.26054138 0.36017805 0.65952086
-0.039458144 -0.55331874 0.020992456 0.067546554 0.3534352 0.15437655 0.689619 -0.038823623
0.5064486 0.6549663 0.4520375 0.39335373 0.72898096 0.4905978 -0.57612395 0.44618243
0.074002 -1.2825121 0.36373425 -0.5500056 -0.08346224 0.18680832 -0.38150135 -0.5291524
-0.95441943 0.72828937 0.11861741 -0.22468929 -0.09284992 -0.68863624 -0.07482189 -1.0206231
0.6639262 0.2546034 -0.0788456 0.642257 -0.30937633 0.40824446 0.42239586 -0.4062755
0.40140608 0.509604 0.19477335 0.570787 0.27985966 -0.090571724 -0.4146256 0.06214258
0.7553022 0.20173189 0.3934065 0.3947294 -0.2671172 0.22357686 0.17841248 0.015535692
0.19004492 0.43399194 -0.06754438 -0.40241534 0.28214934 0.28955618 1.213316 0.8888531
-0.09848942 0.7278141 -0.50906444 -0.22893493 0.43594524 -0.288496 -0.2777027 0.20609021
-0.33091706 -0.30995876 -0.28681827 0.9639973 0.62118906 -0.023092866 -0.085676655 -0.2522582
0.236809 -0.13894084 0.8041726 0.032698046 0.32889202 0.51638514 0.39358962 -0.2709307
-0.31699255 0.078504995 -0.33094344 0.19761983 -0.96683496 0.3076486 0.3424579 -0.108364604
-0.068189755 -0.38961965 0.2145442 -0.76559824 -0.27206165 0.07091239 0.16542575 0.09762795
-0.5232127 0.2164036 -0.85504895 -0.24656972 -0.28908467 0.17874606 1.4293587 -0.16650325
0.55134666 0.5313306 -0.6746044 0.5489124 -0.3044608 -0.56983423 0.11410333 0.03478537
-0.07893441 -0.041194513 0.09585161 0.20588805 -0.53232515 0.5382456 0.6416343 -0.4002265
-0.05264056 -0.26025134 0.16728985 -1.0259846 0.5525762 -0.06949299 0.011154716 0.40258536
-0.9632501 -1.2970152 -1.1204079 0.2538013 -1.087447 0.34333727 0.64874035 -0.78299826
0.17768459 0.15928663 0.10593399 0.29228202 0.10037614 0.64044833 -1.1052268 0.3153238
0.041312613 0.045928963 0.30264503 -0.17462952 0.7331951 -1.0431188 -0.06403207 0.12617524
0.13318536 0.2551877 -0.9553797 -0.79780906 0.36181155 -0.65506387 -0.10445661 -1.0318774
0.0519574 0.5904225 0.109006055 0.21399581 -0.083123535 -0.62796795 -1.0127939 -1.1067176
-0.12874468 -0.54295623 0.14711879 -0.74653494 0.22261019 -0.9143524 -0.856592 -0.2775291
0.26366425 -0.16013837 0.22332317 -1.2066425 -0.80008733 0.36028215 -0.6750817 0.06441437
-0.20130475 -0.26983893 -0.3559578 -0.22947104 0.26266688 -0.7703522 -0.41646048 -0.19070376
-1.1606752 -0.2494225 -0.7148269 -0.93080044 -0.2225799 0.03871124 -0.20385614 -1.2258999
-0.40454003 -0.47809327 0.1150699 0.5730205 0.82079643 0.54836947 0.14674209 0.65489304
0.03616533 0.5424608 0.56227607 -0.76928306 0.26222268 -0.31160036 0.7527397 0.69431394
0.6751526 0.6635057 -0.15914457 0.17476334 0.1158255 0.42694804 0.4349208 0.49629876
0.53458136 0.117326915 0.13085032 0.34756184 0.08379474 1.2365396 0.94762325 0.1860517

mlp_extractor.policy_net.0.bias f4 [32]
00000000: 8393 dcbc d674 7abd d147 0dbe ba68 f93d
00000010: 41b8 c23d c0ff 45bd e830 ab3d a73b 873c
00000020: a56c 863d f1ee 4e3c c005 783d 542c 5abd
00000030: 8f42 d3bd 351a 03bd 4266 90bc d24d d0bc
00000040: 9ed0 913d a7e8 ccbd 06a4 f43d 7668 45be
00000050: 2374 95bd fa98 cd3d 292d 02bc d884 0e3d
00000060: ad92 023d aaf9 34b8 efec 4bbd 2421 8ebd
00000070: 0629 b13d 9fe6 ec3d dfc3 30bc f539 bf3d
-0.026925808 -0.06114658 -0.13796927 0.12178178 0.095078 -0.048339605 0.083589375 0.016507937
0.06563691 0.01263021 0.06055236 -0.05326493 -0.103154294 -0.032007415 -0.017626885 -0.025427733
0.07119869 -0.100053124 0.119453475 -0.1927813 -0.07297542 0.100389436 -0.007945337 0.03479466
0.031878162 -4.3147862e-05 -0.049786504 -0.06939915 0.08650403 0.11567425 -0.010788887 0.09337226

mlp_extractor.policy_net.2.weight f4 [32, 32]
00000000: 45c8 85bb f5ba 093f cc55 203e d7d7 9e3e
00000010: 1f44 a53e b39a 5e3e d779 81be 9d25 9ebe
00000020: 5fa1 55bf cd5f fb3e a6a9 d0be 9bac 9e3e
00000030: acac 923e 317e 2ebf ebba 76be 1e37 17bf
00000040: 65bf 4a3d 475b afbd f6f1 fe3e 233f a43d
00000050: e88b 1cbe 8185 c13d 6065 5dbe fb9f 17bf
00000060: b822 693e 7c0a 8bbe e1ac 93be 9362 e8be
00000070: c8f2 f83e b3ae 643d 0900 83bd 849b 053f
00000080: e483 8fbe 350f 963e b91e bbbd c78a fabc
00000090: 9865 bbbd 2ce8 543d a5aa 42be 77b3 f93e
000000a0: 901d ae3e c681 0dbc 4289 6dbe 6777 5bbf
000000b0: a0c9 c6be 9adb 483e b9a5 c7be 4966 14be
000000c0: 7edb d1bd 544b 683e d33d 15bf a993 28bf
000000d0: fd67 82bd 4fa6 edbc a9cb bb3e b84b a33e
000000e0: 0456 b23d 5baa 033f 3ddf 24bd eee3 a6be
000000f0: d386 aebe 674c b9bd dd39 863e d99f 073e
00000100: 569b 28bc bafb 383f 23ac 56be d689 be3e
00000110: f708 e8be 41d4 e839 c432 afbe 2029 233e
00000120: 57aa c2bd b5aa 80bd d77c 41be 1b36 c8bd
00000130: 602b f43e 410f e9be d242 50bd 9727 443d
00000140: 27cd a33e b172 0fbe d5fb c7bd 528c e339
00000150: 85c3 853e 8fc4 9a3e 64d9 3ebe 73c1 01bf
00000160: ce10 1e3f 9230 01bf 1765 0dbf fb3e abbe
00000170: 6a74 433e 938b 33bd 7010 91be 56f3 edbe
00000180: c56c 233e e759 09bd cc92 db3d f61a e2bd
00000190: 4423 2a3d 0de3 403e 43cc 263f 86bf 523e
000001a0: 90fa 57be c0e9 893e 7173 57be 6d57 e7bd
000001b0: 812a 6a3f 2cbb 83ba 4cba 3e3d d507 3ebf
000001c0: ad88 c33e 23e7 043e 9eb2 0abf 79a7 8f3d
000001d0: 78e0 4abe b5d9 fbbe f541 df3d 74e3 e73c
000001e0: 16f7 b5be 5fb7 febd 38af fcbe c17f e23e
000001f0: 51d1 28bd 2217 debe 4351 53bf 62ba be3e
00000200: 3bd6 94bd b041 64be e9f3 153e 8480 96bc
00000210: 61f0 23bf d754 febe 0bb2 a33e 1349 b7be
00000220: 4a64 17be 6952 9e3e ad6f 88be 5471 be3e
00000230: 5e67 333f 7a26 f3bc e073 8b3e f4e8 6ebd
00000240: 881f dcbd c240 23be 6012 9fbe 30af 0e3d
00000250: fd87 613c aed7 bbbd b4c5 1f3f 0310 8bbd
00000260: 99b9 96be 01fd 68be ed35 1d3e 6b6d e4be
00000270: 9a56 133f 3baf 1cbe ad01 d5be 2caf d0bc
00000280: 4b1f 58bf de2b 8c3e 92d9 f93a edfd 033e
00000290: f178 c43e f645 a73d 984b cabe a9e5 3abf
000002a0: 17b3 22be a566 47be d2ab 533e 52f3 f23b
000002b0: 2c67 6b3e 384d 07be 38d6 cdbe f02c 463e
000002c0: d159 253e 9257 fbbd 6a33 debe da99 bf3b
000002d0: 03ed 043e 56cc cfbd 6b5f a1be 2aeb 40bd
000002e0: 35fd f6bd efa5 0abf f54a aebe db4e eabd
000002f0: e0c1 96be 2608 40be 62b1 6fbd f4ef 3c3e
00000300: 8d98 33be 7fc8 0e3f 7059 e1be c2ce d23e
00000310: 66be c03e b0d5 4a3e 9be8 57be 340e 343e
00000320: d760 9b3d f2ee d3be e72b 213e 486b 65bd
00000330: d378 e03e 47fa 053e 88bd 68be 0a3b aebe
00000340: 7818 4bbe 3720 c6bd 7876 533e 2796 1bbf
00000350: 9221 64be 1ecb 06bf 586a c53e 559c f3be
00000360: 42a6 1e3d 3051 d4bd e093 2fbe f331 05bf
00000370: 226f f4bd ba2a 83be a9b4 b23d f184 42bf
00000380: 525f 333e 0e38 dd3d 8719 dc3e d388 783f
00000390: 6ce7 003f 9217 fb3e b982 a0bd 5cbf 2abe
000003a0: f1c4 213e f69e d63d 6351 a33e 6fb9 dabd
000003b0: f60a 943e 70b7 d9be cedb 17bf d8c8 423e
000003c0: 4ac3 a3be 5552 e83d 1f17 62be 17c4 aa3e
000003d0: e67d 61be a32a 4f3e 7a96 11be 08cf 72be
000003e0: dbd9 7dbc 45f8 2c3d bc13 603e 37b1 84be
000003f0: f3d1 913d 14af 913e 787c 3d3d 3324 37be
-0.004082712 0.538009 0.15657729 0.31024048 0.32278535 0.217387 -0.2528827 -0.30888072
-0.8344936 0.49096528 -0.4075443 0.30991063 0.28647363 -0.681613 -0.24094741 -0.5906848
0.049498934 -0.08562332 0.49793977 0.08019855 -0.15287745 0.09449292 -0.21620703 -0.59228486
0.2276715 -0.27156436 -0.28842834 -0.45387706 0.48622727 0.05583067 -0.06396491 0.52190423
-0.28030312 0.29308477 -0.09136719 -0.030583752 -0.09150237 0.05197923 -0.19010408 0.48769733
0.3400693 -0.008636897 -0.23196891 -0.8572907 -0.38825703 0.19615021 -0.38993624 -0.14492144
-0.10246943 0.22684985 -0.5829746 -0.6585031 -0.063674904 -0.029009966 0.36678818 0.31893706
0.087078124 0.51431817 -0.04025196 -0.32595772 -0.34087238 -0.09047776 0.2621602 0.13244571
-0.010290941 0.72259104 -0.20964102 0.37214535 -0.4531934 0.0004440863 -0.3421842 0.15933657
-0.09505146 -0.0628256 -0.18895279 -0.09775945 0.47689342 -0.4551945 -0.050844975 0.04788932
0.31992456 -0.14008595 -0.0976483 0.0004340136 0.26125732 0.30228087 -0.18637615 -0.50685805
0.6174439 -0.5046474 -0.55232376 -0.33446488 0.19087377 -0.04383428 -0.28332853 -0.46474713
0.15959461 -0.033533003 0.10721359 -0.11040299 0.04153754 0.18836613 0.6515543 0.20580873
-0.21091676 0.2693615 -0.21040131 -0.11295972 0.91471106 -0.0010050288 0.046564385 -0.742307
0.38190213 0.12978797 -0.541788 0.07014365 -0.1981219 -0.49189535 0.10901252 0.0283067
-0.35540074 -0.12437319 -0.4935243 0.44238093 -0.041215245 -0.43377024 -0.8254587 0.37251574
-0.07267424 -0.22290683 0.14643826 -0.018371828 -0.64038664 -0.49674103 0.31971774 -0.3579794
-0.14784351 0.3092225 -0.26647702 0.37195837 0.700796 -0.029681433 0.27236843 -0.05832763
-0.107482016 -0.15942672 -0.31068707 0.03483504 0.013765332 -0.09171997 0.62411046 -0.06790163
-0.29438475 -0.22752763 0.15352602 -0.4461473 0.5755402 -0.1530122 -0.4160284 -0.025474153
-0.8442275 0.27377218 0.0019062033 0.12889834 0.3837352 0.08167641 -0.39510798 -0.73006684
-0.1588863 -0.1947275 0.20671013 0.00741426 0.22988576 -0.1321305 -0.40202498 0.1935308
0.16147543 -0.12272562 -0.433986 0.005847198 0.12981038 -0.10146396 -0.3151811 -0.04709927
-0.12060014 -0.54159445 -0.34041563 -0.11440822 -0.2944479 -0.18753108 -0.058518775 0.1845091
-0.17538662 0.5577468 -0.44013548 0.4117337 0.37645262 0.19808078 -0.21084826 0.17583543
0.0758683 -0.41393238 0.15739404 -0.056010514 0.43842182 0.13083754 -0.2272855 -0.34029418
-0.19833553 -0.09674113 0.20650661 -0.6077599 -0.22278431 -0.5265368 0.38557696 -0.4758021
0.038732775 -0.10367048 -0.17146254 -0.5202934 -0.119352594 -0.25618535 0.087258644 -0.759841
0.1751683 0.10801707 0.42988226 0.9708378 0.5035312 0.4904142 -0.07837433 -0.1667456
0.15797783 0.10479538 0.3189803 -0.106799 0.28914613 -0.42522764 -0.5931977 0.19021928
-0.3198493 0.113438286 -0.22079132 0.3335273 -0.22020683 0.20231108 -0.14217559 -0.23711789
-0.015493835 0.042228956 0.21882528 -0.25916454 0.07120123 0.28453887 0.04626128 -0.17884903

mlp_extractor.policy_net.2.bias f4 [32]
00000000: 5e16 f73d 32ad 843c 85d3 3bbc 30cf 973e
00000010: 99d5 283e 02e7 073e 4ff7 933d be57 5bbe
00000020: d2b6 363e 25da c13d ede3 d33c ba1a bbbd
00000030: b245 aebb 77bc 143d 0ab7 2c3c 874b 1a3e
00000040: 7e3d 423e 55af 5a3e c0b5 0cbd 6121 d13d
00000050: 96db 1dbe 95eb 72bd 0f80 f73d 98e1 b73d
00000060: 57d2 df3d 01ba dcbe 8af3 673d d632 5cbd
00000070: 4dcc 43bc 000c 133b e2ec 1d3e 6202 1dbd
0.12064813 0.016195867 -0.011464004 0.2965026 0.16487731 0.13271716 0.07224905 -0.2142019
0.17843178 0.09465436 0.02586552 -0.09135957 -0.005318367 0.036312547 0.010541687 0.15067874
0.1896877 0.21355946 -0.034353018 0.10211445 -0.15415797 -0.0593067 0.12084972 0.089785755
0.10928791 -0.4311066 0.05662874 -0.05375942 -0.011950565 0.0022437572 0.15422395 -0.03833235

mlp_extractor.value_net.0.weight f4 [32, 25]
00000000: fe40 8a3e 0812 30bd 6189 043d e5f3 5dbe
00000010: b802 413d 919d 05be 0e17 8cbe b44c b0bb
00000020: 70c6 28be c25b f3be 5321 2dbe 0332 ac3d
00000030: 991a 323e c2c0 573e 7aad 573d 5a3e 053f
00000040: 73fc 133e 4315 eb3d 0aac c0bb 3e3b 79bc
00000050: 88e7 c7bd 869e 23bd 04e5 aabe 284a 6cbe
00000060: 2234 f03e 4398 b33e 84d0 c4bb 44aa 1abe
00000070: 651c c53d a0f9 583e d7ee c0bd 6806 993e
00000080: 23c5 d13d 370b fd3d 361d 7c3c 2969 773d
00000090: 2334 733e ee74 14be c882 4f3e 6f65 bebe
000000a0: 2e7d 71bd 6811 453e 7c5d 143f 0e65 b93e
000000b0: ef03 34be 0967 ee3e f96f 49be 5549 273e
000000c0: 3dd5 183e 9322 88bd e7f8 e23c 0c75 2cbe
000000d0: fc6f 3e3e c000 a03e 269e 2abe 22db 6cbe
000000e0: de23 303e 0f77 a03e 4aec 883e 98be 4a3e
000000f0: b2fb 89bd 43ad 0ebe 674a cd3d e87d d3bc
00000100: 2d7e b6be e52e 0fbe 5d39 393e 3585 e73e
00000110: cddf 77be fc52 413b 76f7 55bf 6bda 593e
00000120: 0247 333d 419f 7a3e c896 c239 67bb 563e
00000130: 6630 6ebe 3929 0dbf dfed 083f dd2a b1bc
00000140: 1ab0 ee3d a630 a5be 9eb6 37be d999 4e3d
00000150: bf90 993d 2ff8 103e fe38 d63e ab8f 02be
00000160: 45ef eb3c f357 d93d 96b7 ab3d 609d bbbe
00000170: b5b1 aebd dab5 dfbd 9e98 f43d d3c9 46be
00000180: 4f94 943e 24c8 74be 9320 d33e 21ed 253e
00000190: 6b24 003e 0d2b 9ebd 1b02 70be 9aff 80bd
000001a0: 5ef3 913e 857b 27bf 8470 c6be cbec 203e
000001b0: 12ca a23e e038 473e 1893 77bd b0db f33d
000001c0: 7b1d 31bf d05d 453e f307 91bd 02fd a3be
000001d0: 9ab8 ae3d ea04 8fbe 8a72 37be db06 14bb
000001e0: 9605 ac3d 19df b13d e12f c53d 5f1c 9bbe
000001f0: 745c 103d d482 a43c f81b e43c 283a 03bc
00000200: 4b3d 823e fc12 5cbe 5c4a 95be f922 d93e
00000210: 256e cbbe c893 52be 182e adbc e4e1 20be
00000220: 19e4 5cbd 91c8 a73d b5cc 6cbe cebd a43e
00000230: 8489 8bbe 86b9 8bbe 718d 2bbd ec35 9b3d
00000240: 7786 023e d66f 65bd 9866 00be 2c78 633d
00000250: 7893 5abe 19fe 79bd efbd 35be 3a0a d0be
00000260: d69d 2c3e 6b54 65be 5ac1 63bd 5510 e8bb
00000270: 3ea3 373e 9051 d73b 7f47 213f 39fd bdbd
00000280: e9b0 9e3e 5670 cebc 78f5 fdbc a65f 8f3e
00000290: 3642 963e a944 113f 95da 9ebe 4ec1 1a3d
000002a0: 09c8 2dbe 70b3 e6be 7460 1abe b3d1 68be
000002b0: 6236 523e 9022 0abc 6d21 463c 92bd bbbd
000002c0: 7c35 25be 2862 283e 46e3 293d 77ac 453f
000002d0: 9014 023d 040f 193e cd7f a9be a2f0 383b
000002e0: 9a05 e1bd 985f 1cbe c90e 9ebc 403b d33d
000002f0: 3406 9b3e ccd5 eb3c f4a1 9fbd 24c6 603d
00000300: b0cc 09bd 6260 69be d6b3 44be 1f6c e6bc
00000310: bc8e ac3e 05ee a0be f88a c8be 8fd4 fbbe
00000320: f5fe 0abf 87bf f23d 2e37 173c 3985 713e
00000330: ccfc 223e cd6f 12be fdd8 4e3c 5ee0 b7be
00000340: 58cd 233e 7ed6 aabd 4630 013f 10e5 9d3e
00000350: 38dc 59be e721 08be 8b16 eb3d 4f3a 453e
00000360: 0359 e1bd f179 b93e c618 b03e af58 093f
00000370: 21f7 60bd a4a8 36be 9e86 ccbb 7673 5bbe
00000380: 405e 7abd 782f f3be 41fc 18bc 9e3d 27bd
00000390: d5ee 00be 6abe d23e 47a3 9e3e 4379 823d
000003a0: 3ff6 563c d3a0 d1be 68b9 8d3d beb9 64be
000003b0: 689c 053e 4585 bebe e7c2 e0be f853 73be
000003c0: 762f 3a3e c31f 003e b083 50be d0ec 003e
000003d0: e91d bcbe 43e0 8ebe 9b14 623d 4664 e73e
000003e0: 448d 1c3e ee21 0d3e 23e0 0f3e e9ba 113e
000003f0: ecb3 21be 9e1b 05bd 6d4e 44bd 1c84 4cbe
0.2700271 -0.042985946 0.032357577 -0.2167507 0.047121733 -0.13048388 -0.2736134 -0.0053802375
-0.16481948 -0.47530943 -0.16907243 0.084079765 0.17392959 0.21069625 0.052655675 0.52048266
0.1445177 0.11478665 -0.0058798837 -0.015211878 -0.09760958 -0.0399461 -0.3337785 -0.23075163
0.46914774 0.35077104 -0.0060063023 -0.15104014 0.096245565 0.21188974 -0.09420555 0.298877
0.10242679 0.12355655 0.015387824 0.060403023 0.23750357 -0.1449773 0.20264733 -0.37186763
-0.05895727 0.19244921 0.57955146 0.3620991 -0.17579626 0.46562985 -0.1967162 0.16336568
0.14925094 -0.066472195 0.027706577 -0.16841525 0.18597406 0.31250572 -0.16661891 -0.23130468
0.17201182 0.31340834 0.26742774 0.19799268 -0.0673746 -0.13933282 0.10023957 -0.025816873
-0.3564314 -0.13982733 0.18088289 0.45218816 -0.24206467 0.0029498925 -0.8358072 0.21274726
0.04376889 0.24474813 0.00037114904 0.20969926 -0.2326065 -0.55141026 0.5348796 -0.021626884
0.116546825 -0.32263678 -0.17940757 0.05043969 0.07498311 0.14157175 0.41840357 -0.12750117
0.028800616 0.10612478 0.083846256 -0.36643505 -0.08529989 -0.10923357 0.11943172 -0.19412927
0.290194 -0.23904473 0.4123579 0.16203739 0.12513892 -0.07723055 -0.23438303 -0.06298752
0.28505987 -0.6542285 -0.38757718 0.1571533 0.31794792 0.1945529 -0.060443014 0.119071364
-0.6918561 0.19274068 -0.07081594 -0.32028967 0.08531304 -0.27933437 -0.17914787 -0.0022587094
0.08399503 0.086851306 0.09628273 -0.30295083 0.03524442 0.020081915 0.027845368 -0.008009471
0.25437388 -0.21491617 -0.29158294 0.42409495 -0.3973247 -0.20564187 -0.021140143 -0.1571117
-0.05392847 0.08192552 -0.23124965 0.3217606 -0.27253354 -0.2728998 -0.041882936 0.07578644
0.12746607 -0.05601486 -0.12539136 0.055534527 -0.21345317 -0.061033342 -0.17748235 -0.40632802
0.16857085 -0.22395484 -0.055604316 -0.007082025 0.17933366 0.0065710023 0.6299972 -0.09276814
0.30994347 -0.02520005 -0.031000838 0.2800266 0.2934739 0.5674539 -0.3102614 0.037782006
-0.16970839 -0.45058775 -0.15075856 -0.22736244 0.20528558 -0.008431092 0.01209293 -0.09167017
-0.16133684 0.16443694 0.04147651 0.77216285 0.03175789 0.14947134 -0.33105317 0.00282196
-0.109873965 -0.15270841 -0.01929416 0.103140354 0.3027817 0.02878847 -0.07794562 0.05487646
-0.03364247 -0.22790673 -0.19209227 -0.028127728 0.33702648 -0.31431594 -0.39168525 -0.49185607
-0.54295284 0.11852937 0.009229464 0.23585977 0.15916747 -0.14300461 0.012624976 -0.35913366
0.15996301 -0.083416924 0.50464284 0.30838823 -0.21275413 -0.13294183 0.11478909 0.19260524
-0.11003306 0.36225846 0.343939 0.53650945 -0.05492318 -0.17837769 -0.0062416336 -0.21430764
-0.06112504 -0.47497153 -0.009337486 -0.040830247 -0.12591107 0.411609 0.30983946 0.06370785
0.013120233 -0.40943012 0.06920129 -0.2233648 0.13047945 -0.37211052 -0.438987 -0.237625
0.18182167 0.12512116 -0.20362735 0.12590337 -0.3674157 -0.27905473 0.055195432 0.4519369
0.15288264 0.13782474 0.14050345 0.14231457 -0.15791291 -0.03249704 -0.047926355 -0.1997227

mlp_extractor.value_net.0.bias f4 [32]
00000000: 0000 0000 0000 0000 0000 0000 0000 0000
00000010: 0000 0000 0000 0000 0000 0000 0000 0000
00000020: 0000 0000 0000 0000 0000 0000 0000 0000
00000030: 0000 0000 0000 0000 0000 0000 0000 0000
00000040: 0000 0000 0000 0000 0000 0000 0000 0000
00000050: 0000 0000 0000 0000 0000 0000 0000 0000
00000060: 0000 0000 0000 0000 0000 0000 0000 0000
00000070: 0000 0000 0000 0000 0000 0000 0000 0000
0.0 0.0 0.0 0.0 0.0 0.0 0.0 0.0
0.0 0.0 0.0 0.0 0.0 0.0 0.0 0.0
0.0 0.0 0.0 0.0 0.0 0.0 0.0 0.0
0.0 0.0 0.0 0.0 0.0 0.0 0.0 0.0

mlp_extractor.value_net.2.weight f4 [32, 32]
00000000: 0d62 b43d 2e6b fcbd dc22 a4be 430c 6bbe
00000010: 87dc d8be 7d3a 1dbc acbb f4bd 4451 0cbe
00000020: 32df 93be 7734 b4bd 7b9b b43e ce9e b73d
00000030: eb1e b9bd 56ff a1bd 4976 e23e e1c1 60be
00000040: 1eba b0be fc39 513d db59 82bd 5bf6 083f
00000050: 2211 c0be e3c2 babe 3e11 6abe dc4a 313e
00000060: 0c1e b53d 10e0 223e 11c2 d63e 1423 593e
00000070: 2580 8ebd 2015 7bbe 9663 893d 6057 41be
00000080: 5729 90be 1ec4 99be b07e 273d 7b47 89bd
00000090: ad80 d7be bc04 abbe 94aa 333e 5f79 e4be
000000a0: fa9e c63e af86 883d aa8d 91be 0a00 7c3e
000000b0: 3744 7d3e 998e 2cbd b7ae 243e 156e 8d3e
000000c0: 337c afbe 93f8 9abd 72c2 9b3e 0aa5 a43e
000000d0: 9603 e03e 5fd8 8f3d 92db a6bc 2da9 313e
000000e0: b044 913e 2248 6dbd f35d 6fbd cc4e 19bd
000000f0: 2ba0 7e3e bcd6 893e 39c6 ab3d dfbe 853e
00000100: d652 323e f209 4fbe fdd8 9dbd 265a 1fbe
00000110: 928c e33c cf02 54be b8e8 a63e ce60 a73c
00000120: 463a fa3e a8ad 33bf 35bb bf3d 07f3 81be
00000130: 930e d2be d136 13bc 879f 5dbe 0eb3 68be
00000140: 2c74 d2be f493 1b3e d59f f4bd 96f7 573d
00000150: 640f 64bd 1ce0 a2bd 3ecd e13d 651f 93bd
00000160: 0281 21be 72c4 75be d003 60be c157 fb3c
00000170: 74bd 3fbe 375c 42be 77d4 9fbe 3858 c03e
00000180: 7172 b23e 0f40 9ebe ae06 ae3d cc95 1d3e
00000190: d547 ef3e 7ab2 c83d 8b6b 0f3e 7442 aebe
000001a0: 3de5 5b3d 8c67 cb3d c1a4 17bf 7865 49be
000001b0: e75c 863d 10fb e93e bf78 153e 9e5d 9cbe
000001c0: e8da 09be c663 f7be 23d3 0abc e714 0abe
000001d0: 1c58 7dbe 7aa3 68be d458 363c ef4f 933e
000001e0: dd51 383e 95a0 553e f092 783e fca7 113e
000001f0: 3014 1abd 1240 8d3d 8531 35be a8ab ac3c
00000200: 47f8 2d3d 0ba0 96be 486f fcbe d307 85be
00000210: 0369 683e 3e15 c2be 8ecd 8cbe 0269 7e3e
00000220: 187c 613e d086 b53e 313a 01be 5f3b 7cbc
00000230: e7e7 083e d041 993d 6039 b93e bb50 dd3d
00000240: 3002 fabd 3da4 a93e bcca 5d3e 1f15 8fbe
00000250: cdff 1abe c571 dbbd 155e bebc c387 12bf
00000260: 5963 a1be e0fb 0f3e fa3c 613e 7e71 13be
00000270: c67c 89bd 04c1 6a3e db79 16be a9eb 393e
00000280: 1cf6 32bc adec ffbe ad47 993e c059 9c3e
00000290: 79c0 4ebe 254c a9bd 3d92 a53d 7505 72bd
000002a0: a719 24be 55c4 20be 1fa1 9dbd 3976 17be
000002b0: 918f 19bd 7910 b93e 764f d13d 6799 8f3e
000002c0: 5c8a 8d3e 3ab8 e73e d3b6 0dbc c962 88bc
000002d0: 03b5 553e 90a3 00bf a83e e43e 05f1 4a3d
000002e0: 0dc3 b5be 3892 99be 7640 673e fca9 44bc
000002f0: 1651 a7bd 5310 95bd bf0c 6c3e e435 a1be
00000300: 20d2 c53d 6b83 cebe fc62 82be 9f1c db3c
00000310: 5f7a 443d 2d51 0d3e 480e 363e cd02 0b3d
00000320: 8988 b3be 0a87 603e 98c7 62bd e2cd cabe
00000330: 6557 b3bd 97e5 c9be 5e6e c9be c820 fb3c
00000340: 3a7b 9dbd d4c6 35be d76a 9f3d 9d31 e03e
00000350: b86b 8ebe 45b1 a2bd 4f18 d83e 5201 4ebe
00000360: 0474 073e 6e46 f23c 5ea2 1bbe 38a3 16bf
00000370: 4758 963e f9e0 0a3e 6f5d 2a3e 6dca f43c
00000380: 6f28 983e 69d4 563d cb3f 68bd 1ab2 b5be
00000390: 65ce dabe 5b05 6a3e ca26 a43e 9d87 fa3d
000003a0: 1f23 123e 4132 6cbc 6d15 1bbe 76db b13e
000003b0: abc0 a23d ce6c ecbd 78d9 39bc 30bd d9bd
000003c0: 090e d43e 916d ac3d 1a04 9cbe 62af 86be
000003d0: 5756 7abc 6a71 24bf fef7 ec3d be25 81bd
000003e0: d202 aa3d 5325 bb3e 3bdf 95be a2d7 d63d
000003f0: 0237 c63e aac1 4d3e 3a90 09be 2836 ff3d
0.08807764 -0.123251304 -0.32057846 -0.22953896 -0.4235575 -0.009596464 -0.11949858 -0.13702875
-0.28881222 -0.087990694 0.35274872 0.089658365 -0.090391 -0.079100296 0.4423087 -0.21948959
-0.34516996 0.05108069 -0.06364795 0.5350091 -0.3751307 -0.36476812 -0.2285814 0.17313713
0.088436216 0.15905786 0.41944936 0.21204787 -0.069580354 -0.24519777 0.06708448 -0.18880987
-0.2815654 -0.30032438 0.040892303 -0.06703087 -0.4209036 -0.3340205 0.17545539 -0.4462385
0.38793164 0.06666314 -0.28428394 0.2460939 0.24733053 -0.04212818 0.16082273 0.27623048
-0.34274444 -0.07566943 0.30421788 0.32157165 0.43752736 0.070236914 -0.020368371 0.17349692
0.28372717 -0.05793012 -0.058439206 -0.037428662 0.24865787 0.26921642 0.08387417 0.26122186
0.17414412 -0.20218638 -0.07707403 -0.15561733 0.02777699 -0.20704196 0.32599425 0.020431902
0.48872584 -0.70186853 0.09361879 -0.25380728 -0.41026744 -0.008985237 -0.21642886 -0.22724554
-0.41104257 0.15193158 -0.11944548 0.05272635 -0.05567874 -0.07952902 0.11025475 -0.071837224
-0.15771869 -0.24000719 -0.21876454 0.030681493 -0.18724614 -0.1898049 -0.31216785 0.37567306
0.34852937 -0.30908248 0.08497368 0.15389174 0.4673449 0.09799667 0.14005868 -0.34035075
0.053685416 0.099318594 -0.5923577 -0.19667614 0.065606885 0.45699358 0.14596842 -0.30540174
-0.13462412 -0.4831831 -0.0084731905 -0.13484536 -0.24740642 -0.22718611 0.011129577 0.28771922
0.17999978 0.20862038 0.24274802 0.14224237 -0.03761691 0.06896986 -0.17694671 0.021077946
0.042473104 -0.29418978 -0.4930365 -0.25982532 0.22696309 -0.37906832 -0.27500576 0.24844745
0.22019994 0.35454416 -0.12619855 -0.015395015 0.13369714 0.07483256 0.36176586 0.10806414
-0.122074485 0.33133116 0.21659368 -0.27945802 -0.15136643 -0.10715059 -0.023238221 -0.57238406
-0.3152111 0.14060926 0.21995917 -0.14398763 -0.06713252 0.22925192 -0.14694922 0.18156303
-0.010922935 -0.49985257 0.29937497 0.30537224 -0.2019061 -0.082664765 0.08084533 -0.059087235
-0.1602541 -0.15699895 -0.07696747 -0.14791192 -0.03749043 0.3614538 0.10220234 0.28046724
0.27644622 0.4525774 -0.008649546 -0.016648667 0.20869832 -0.50249577 0.44579053 0.04954626
-0.35500374 -0.2999437 0.22583184 -0.012003418 -0.08169763 -0.07278504 0.23051737 -0.31486428
0.09659219 -0.4033464 -0.25466144 0.026747046 0.047968265 0.13800497 0.17778885 0.033938218
-0.35065106 0.21926513 -0.05536613 -0.396102 -0.087569036 -0.39432976 -0.39342016 0.03065528
-0.07689519 -0.17751628 0.0778405 0.43787852 -0.27816558 -0.07943968 0.42206046 -0.20117691
0.1322785 0.0295746 -0.15198657 -0.588428 0.29364225 0.13562383 0.16637205 0.02988168
0.29718348 0.052448664 -0.056701463 -0.35487443 -0.42735592 0.22853605 0.32060844 0.122328974
0.1427121 -0.014416278 -0.15144892 0.34737748 0.07946905 -0.1154419 -0.0113433525 -0.10631788
0.41416958 0.08419336 -0.3047188 -0.2630568 -0.015279374 -0.64235556 0.11570738 -0.06306027
0.08301319 0.36551914 -0.29271874 0.104903474 0.38713843 0.20093408 -0.13433924 0.12461501

mlp_extractor.value_net.2.bias f4 [32]
00000000: 0000 0000 0000 0000 0000 0000 0000 0000
00000010: 0000 0000 0000 0000 0000 0000 0000 0000
00000020: 0000 0000 0000 0000 0000 0000 0000 0000
00000030: 0000 0000 0000 0000 0000 0000 0000 0000
00000040: 0000 0000 0000 0000 0000 0000 0000 0000
00000050: 0000 0000 0000 0000 0000 0000 0000 0000
00000060: 0000 0000 0000 0000 0000 0000 0000 0000
00000070: 0000 0000 0000 0000 0000 0000 0000 0000
0.0 0.0 0.0 0.0 0.0 0.0 0.0 0.0
0.0 0.0 0.0 0.0 0.0 0.0 0.0 0.0
0.0 0.0 0.0 0.0 0.0 0.0 0.0 0.0
0.0 0.0 0.0 0.0 0.0 0.0 0.0 0.0

action_net.weight f4 [5, 32]
00000000: 3a73 8cbe 154e e63e 6a88 6c3e b501 c4bd
00000010: 1819 ee3c d585 98be f612 9a3e 5de1 77be
00000020: f9ea b2be 6fa0 b23e cbb1 a0be 09dc 7e3e
00000030: 0383 243e 7b42 953e 12b3 243d dc81 06bf
00000040: 0070 323c de58 153e 072a 56be dacd 55bb
00000050: 3d58 e03c d991 88be f909 ddbe 731e fdbe
00000060: 60a2 81be 69e1 463d 142a 0abe 02e8 033f
00000070: 07dc 47be 84f3 6f3e 5f28 7c3d beae 173f
00000080: 2b9b 63be 67ea 803e eac5 c4bd 05f9 66bd
00000090: 95d9 d8be 9f58 a23e fec5 cbbc 2b59 793e
000000a0: 2d5b 823e ebca a03e 9a4f a63e 5c4f e2be
000000b0: 0bd8 cabe 4b73 a2bd 516a f7be 72bf 063e
000000c0: 4426 153e ab49 51be dd4c ea3e 7402 d1be
000000d0: 3272 a13e 0f17 2fbe fce4 0fbe 09a6 443d
000000e0: a9e1 753e 8a1f 1b3d 8170 23be fce2 09be
000000f0: 9afe d7bc eced edbd 7ff6 a0be a753 26be
00000100: 1e61 babe bb8a f1bd b60f e0be b33b 1e3e
00000110: ad67 3f3e 8d9c 6bbe 952d e0be 2757 c8be
00000120: 1889 bc3e e0b0 bcbe 99ad bbbd d74a 893e
00000130: 8773 3d3e aeaa 393e fcc5 763e e198 873e
00000140: 67f2 53be e3c5 c9bd 74b7 72be bf1b 903e
00000150: 3f2f 77bc df6e 80be 50cb 063e cc40 593e
00000160: 358f cd3e f015 f9bd 2833 e23e eb0a 99be
00000170: a2f9 083f 4b0e e7be 4137 a23e d2dc 8cbe
00000180: 761f f33e 825e a8be c413 a73e b5c4 6c3e
00000190: 4ddd 763e df42 613e d23c 8f3e edee 983e
000001a0: 9e08 a5bd eb1f 13be 19da 3f3e bc88 733c
000001b0: 853d 683e 8cc3 d9be 3a76 423e cb90 8a3e
000001c0: 1794 903e 272a 953e 26f2 4bbe f447 8e3e
000001d0: 22a9 b8be 1051 a23e dce7 b63e 5800 8d3e
000001e0: 9539 8bbe 1755 62be 515e aebe f716 2cbe
000001f0: 8d45 90be 48e1 ad3e a725 9e3d 0d88 8abe
00000200: e449 943f 6b5d 96bf 14c0 31bf 4534 89bf
00000210: f7d2 8fbf edab 89bf 11f0 acbf dd6c df3f
00000220: ebd8 c4bf c097 93bf a122 2bbf 07fa 943d
00000230: 69fb 0fbf 1644 133e eb49 e8be 18a9 f9be
00000240: f38e 6fbf 68d9 5cbf 537b 593f ba8f 13bf
00000250: fd85 3a3e fdd7 c03f 52c6 1e3d 4722 33bf
00000260: 86aa c6bf 1783 a03f 02ba 033f 450e eb3e
00000270: 6359 0bbe 6da3 bebf 28de 21bf 2b28 133f
-0.2743166 0.44981447 0.23098913 -0.09570638 0.0290647 -0.29789606 0.3009259 -0.24207063
-0.34944895 0.34888026 -0.31385645 0.24888624 0.16065602 0.29152283 0.040209837 -0.525419
0.010890961 0.14584681 -0.2091447 -0.0032623918 0.027385825 -0.26673773 -0.4317167 -0.49437293
-0.25319195 0.04855481 -0.13492614 0.5152589 -0.19517528 0.23432738 0.06156194 0.5925101
-0.2222716 0.25178835 -0.096080616 -0.056389827 -0.42353502 0.31708238 -0.024874683 0.24350421
0.25460187 0.31404814 0.32482606 -0.4420117 -0.39617953 -0.07932147 -0.483233 0.13158968
0.14565378 -0.20438258 0.45761767 -0.40822184 0.31532437 -0.1709864 -0.14052194 0.048009906
0.24011864 0.037871875 -0.15960886 -0.13465494 -0.02636652 -0.116176456 -0.31438062 -0.16242848
-0.3640222 -0.11794039 -0.43761986 0.15452461 0.18691893 -0.23008938 -0.43784776 -0.39128992
0.36823344 -0.36853695 -0.091639705 0.2681491 0.18501101 0.18131515 0.24098963 0.26483825
-0.20697938 -0.09852197 -0.23702794 0.2814617 -0.015086948 -0.25084588 0.13163495 0.21216124
0.4014832 -0.12162387 0.44179654 -0.29891142 0.5350591 -0.45128092 0.3168278 -0.27512223
0.4748494 -0.32884604 0.32632267 0.23121913 0.24107857 0.21998166 0.2797609 0.29869786
-0.08058284 -0.14367644 0.18735541 0.014864143 0.22679718 -0.42532003 0.18990412 0.27063593
0.28237984 0.29133722 -0.19916591 0.2778927 -0.36066538 0.3170247 0.3572377 0.27539325
-0.2719237 -0.22102772 -0.34056333 -0.16805635 -0.28178063 0.33960938 0.07722025 -0.27056924
1.158505 -1.1747259 -0.6943371 -1.0719076 -1.1236256 -1.0755593 -1.3510762 1.7455097
-1.5378698 -1.1530685 -0.66849715 0.072742514 -0.56242996 0.14381441 -0.45368895 -0.4876182
-0.935775 -0.86269236 0.849538 -0.57641184 0.18215175 1.5065914 0.03876335 -0.6997418
-1.552079 1.2540005 0.514557 0.45909324 -0.13608317 -1.4893624 -0.6322961 0.57483166

action_net.bias f4 [5]
00000000: e0f7 cf3c cd23 673d 8e8c c73d 5929 1d3e
00000010: dde0 cdbf
0.02538675 0.056430627 0.097436056 0.15347804 -1.6084248

value_net.weight f4 [1, 32]
00000000: c80b 2ebe 565d a03e 4445 bdbd 64b4 e03c
00000010: 38c1 833d 5d21 043e 754b 283c 84e8 233e
00000020: e90d 053f 069c 78be 6ba3 99be 834a c1bd
00000030: 01e7 993d 4c9e 323e 5f9b f9bd 953e 2abe
00000040: c2e5 92be a68f 003d c0cd d4bd 5761 783e
00000050: bd45 1f3d 6395 aa3d 266a bd3d d403 e13d
00000060: 6af9 ebbc 744b 943d 1eb6 093d 3e6b 3b3e
00000070: 9103 973c 557d 44be 3598 66be 72ff 99bb
-0.16996682 0.3132121 -0.09241727 0.027429767 0.06433338 0.12903352 0.010271897 0.16006666
0.5197435 -0.24278268 -0.3000749 -0.0943804 0.075147636 0.17443198 -0.12187838 -0.16625436
-0.28690916 0.031386994 -0.10390806 0.24255882 0.038884867 0.083292745 0.09248762 0.10987058
-0.028805453 0.07240954 0.033620946 0.18302628 0.018434318 -0.19188435 -0.22519 -0.004699641
