toy_its/train_logs/2024-12-01-171911_map=map_rl=ppo-epochs=10-eplen=100_s=9_nt=None/eval/bc_model_1000000.pth (torch, 38914 bytes, 11 tensors)

mlp_extractor.policy_net.0.weight f4 [32, 81]
-0.097194 -0.076344274 0.2702757 -0.15673658 -0.1390236 0.1513786 0.14364524 -0.1686541
-0.24106836 0.1297117 0.16402459 0.034591787 0.3092364 0.23553498 -0.21654443 -0.068700545
-0.19895765 0.36622268 -0.13468419 -0.14041126 0.35627937 0.278815 0.01731463 0.13503024
0.29484478 0.029592922 -0.07104156 -0.022924218 0.21183132 -0.321641 -0.15206383 -0.26545492
0.0022932417 -0.038154155 -0.07767435 -0.2017071 0.018201463 -0.28600276 -0.12998255 0.0015869238
-0.25135285 -0.021763932 -0.093376085 -0.04942797 0.06917993 0.09571105 0.13711247 0.018158903
0.005541141 -0.043978967 -0.024436474 -0.16431546 0.2516825 -0.026511243 0.058602933 -0.32323137
0.23749238 0.0917185 0.016239991 0.14936393 -0.36584762 0.047962174 -0.018461827 0.0029510795
-0.089698724 0.09443943 -0.18599285 0.046445306 0.23890433 -0.1175526 -0.34410262 0.17656887
-0.051218916 0.09988724 0.0048899995 -0.15278701 0.31602794 0.00206928 -0.04420868 -0.040145688
0.039397363 0.11405338 -0.13060859 0.119135514 0.09015078 0.15521117 -0.16525945 0.23798531
-0.2192088 0.08212388 -0.3502157 -0.20810348 -0.18683375 0.02752446 -0.116867386 -0.07913378
-0.039474472 -0.3033075 0.24388023 -0.02798364 -0.012234114 -0.20964175 -0.13812017 -0.054160204
0.05584918 0.2600352 0.2006335 -0.11203837 -0.33396783 0.16631444 -0.12869647 0.16436787
0.07352528 0.05752637 0.112633884 0.088429786 0.044569 0.1956027 -0.14674133 0.25884926
0.030637097 -0.14827026 0.07906769 0.101608016 0.08946966 0.29404616 0.014451323 0.012454136
0.25888374 -0.069351986 0.30302733 0.20045279 0.02395921 0.25533515 -0.16131409 -0.00044932766
0.021361457 -0.020425847 -0.3253177 -0.066997446 0.019088173 -0.13984978 -0.039297316 -0.08850452
-0.05518224 0.48731354 0.11881603 0.094142474 -0.056370176 0.2906837 -0.009337975 0.10051237
-0.030566959 -0.20720828 -0.08443876 0.07668011 0.012930598 -0.23413415 -0.124446765 -0.14473684
0.08017215 -0.09106164 0.30688173 -0.04230668 0.09427586 0.23153836 0.15318972 -0.15981658
-0.000182126 -0.085336745 -0.40230933 -0.090519294 0.16323355 -0.046880208 0.036698848 0.061389334
0.1516994 -0.326608 0.014144478 -0.14326455 0.07315296 -0.110955805 -0.100784115 0.038314905
-0.22631313 0.22943793 0.062327977 0.12577644 -0.11573886 0.057825897 -0.38975376 0.23965499
0.04779921 -0.060161006 0.1564614 -0.016234884 0.12205195 -0.09996752 0.09849332 0.09836407
0.1822964 -0.25952214 0.11200268 0.054353435 0.07460369 0.11002126 0.18277544 -0.101942204
0.033328157 -0.03843906 0.009108218 -0.03803983 -0.11988463 0.22631845 -0.0148951225 0.13945575
0.2228378 0.28203243 -0.16065422 0.13882963 0.041575946 -0.1060021 0.011235661 0.27446756
0.028844507 -0.42230433 -0.08165026 -0.14909501 0.06068108 -0.042393014 0.18270221 -0.3634391
0.24010183 -0.013137132 0.11786316 -0.09506124 0.14921655 -0.20442194 0.20623732 -0.157281
0.12068605 0.21185638 0.08152994 0.093739614 -0.08492722 0.0720957 0.0684573 -0.02734497
-0.07991017 -0.27290803 -0.0457901 -0.009375236 0.15906861 -0.27782428 0.34825283 -0.031585444
00000000: a60d c7bd 635a 9cbd 9461 8a3e 8e7f 20be
00000010: 345c 0ebe fe02 1b3e bd17 133e a9b3 2cbe
00000020: a0da 76be 25d3 043e 10f6 273e 1eb0 0d3d
00000030: 3c54 9e3e 1530 713e d3bd 5dbe dfb2 8cbd
00000040: 8ebb 4bbe 8a81 bb3e a7ea 09be f8c7 0fbe
00000050: 406a b63e d7c0 8e3e 69d7 8d3c 5e45 0a3e
00000060: e5f5 963e db6c f23c 3d7e 91bd 92cb bbbc
00000070: 4fea 583e 21ae a4be 9fb6 1bbe b5e9 87be
00000080: 364a 163b 8847 1cbd bb13 9fbd 4e8c 4ebe
00000090: 3c1b 953c f46e 92be 251a 05be 5400 d03a
000000a0: 52b1 80be 464a b2bc f63b bfbd fc74 4abd
000000b0: 35ae 8d3d 2804 c43d 3667 0c3e fbc1 943c
000000c0: 7692 b53b 4a23 34bd 002f c8bc 5042 28be
000000d0: 87dc 803e 1b2e d9bc a109 703d 957e a5be
000000e0: 3431 733e e9d6 bb3d bb09 853c dcf2 183e
000000f0: 6150 bbbe fc73 443d 423d 97bc e666 413b
00000100: f7b3 b7bd 7669 c13d e974 3ebe 6f3d 3e3d
00000110: 56a3 743e 6bbf f0bd 382e b0be 78ce 343e
00000120: edca 51bd ae91 cc3d 4a3c a03b 3374 1cbe
00000130: 6ace a13e c29c 073b 2914 35bd ce6f 24bd
00000140: 215f 213d d294 e93d 42be 05be 52fd f33d
00000150: f9a0 b83d adef 1e3e c639 29be 6cb2 733e
00000160: 4678 60be 9130 a83d 794f b3be 1419 55be
00000170: 5951 3fbe fa7a e13c 2b58 efbd e410 a2bd
00000180: fcaf 21bd 1f4b 9bbe bdbb 793e f23d e5bc
00000190: 9871 48bc 54ac 56be 606f 0dbe 17d7 5dbd
000001a0: 1cc2 643d 5523 853e de72 4d3e 5f74 e5bd
000001b0: d5fd aabe 554e 2a3e 02c9 03be 0d50 283e
000001c0: 6c94 963d c5a0 6b3d 98ac e63d ad1a b53d
000001d0: fc8d 363d 134c 483e 5c43 16be e487 843e
000001e0: a6fa fa3c 29d4 17be 3eee a13d dd17 d03d
000001f0: de3b b73d 388d 963e 3ec5 6c3c 6f0c 4c3c
00000200: 698c 843e 6a08 8ebd 6626 9b3e 7f43 4d3e
00000210: 1b46 c43c 4abb 823e 852f 25be bd93 ebb9
00000220: 39fe ae3c 1b54 a7bc 0b90 a6be f535 89bd
00000230: cd5e 9c3c c834 0fbe 39f6 20bd dc41 b5bd
00000240: c606 62bd 2981 f93e d255 f33d c5cd c03d
00000250: 6ae4 66bd 7ed4 943e 4efe 18bc 6ed9 cd3d
00000260: 8f67 fabc 682e 54be 3bee acbd 760a 9d3d
00000270: dcda 533c ddc0 6fbe f2dd febd e535 14be
00000280: 4c31 a43d 867e babd 9a1f 9d3e c549 2dbd
00000290: b413 c13d 6418 6d3e c4dd 1c3e f5a6 23be
000002a0: 13f9 3eb9 08c5 aebd 7dfb cdbe 2e62 b9bd
000002b0: b226 273e 7605 40bd 8851 163d 6273 7b3d
000002c0: 1657 1b3e 2a39 a7be 3ebe 673c f1b3 12be
000002d0: 38d1 953d cc3c e3bd e767 cebd 17f0 1c3d
000002e0: a1be 67be c7f1 6a3e 9f4b 7f3d 8acb 003e
000002f0: 7f08 edbd d9da 6c3d ce8d c7be 1e68 753e
00000300: 1bc9 433d 636b 76bd 6b37 203e 05ff 84bc
00000310: 5ff6 f93d c5bb ccbd deb6 c93d 1a73 c93d
00000320: e8ab 3a3e 16e0 84be a961 e53d b5a1 5e3d
00000330: d2c9 983d d452 e13d 7c29 3b3e 13c7 d0bd
00000340: 1b83 083d 4772 1dbd a33a 153c a7cf 1bbd
00000350: 1386 f5bd 06c0 673e ac0a 74bc 7dcd 0e3e
00000360: 982f 643e 8e66 903e 8a82 24be 5b29 0e3e
00000370: 8a4b 2a3d a117 d9bd c715 383c 0387 8c3e
00000380: 514b ec3c 4638 d8be 4038 a7bd 5dac 18be
00000390: b98c 783d 4ca4 2dbd 4a16 3b3e b114 babe
000003a0: 41dd 753e 203d 57bc 3e62 f13d 78af c2bd
000003b0: 39cc 183e fc53 51be e02f 533e 450e 21be
000003c0: 3f2a f73d e1f0 583e 2bf9 a63d 8efa bf3d
000003d0: 53ee adbd e9a6 933d 5733 8c3d 8f02 e0bc
000003e0: f1a7 a3bd 9aba 8bbe 668e 3bbd 979a 19bc
000003f0: e2e2 223e fc3e 8ebe 324e b23e bd5f 01bd

mlp_extractor.policy_net.0.bias f4 [32]
0.025859263 -0.019797312 -0.04928365 -0.020487076 -0.017631516 -0.01451789 0.057755094 0.012598307
-0.018280646 -0.028083617 0.005868292 -0.001908324 0.031190922 -0.012097695 0.020756066 -0.07837144
0.008092596 0.04655644 -0.04308234 0.055502098 -0.032653496 -0.033280633 -0.06554194 -0.0118214395
-0.02234194 0.02253736 -0.0016289282 -0.045900732 0.02036848 -0.040518526 0.017882079 0.012271304
00000000: ced6 d33c f92d a2bc a7dd 49bd 83d4 a7bc
00000010: f86f 90bc 72dc 6dbc 9b90 6c3d 2169 4e3c
00000020: 4bc1 95bc 9d0f e6bc cd4a c03b ba20 faba
00000030: 1b84 ff3c 6935 46bc a008 aa3c 3581 a0bd
00000040: cf96 043c f7b1 3e3d 1c77 30bd 2b56 633d
00000050: acbf 05bd 4651 08bd da3a 86bd b6ae 41bc
00000060: 7206 b7bc 45a0 b83c c381 d5ba 6802 3cbd
00000070: ccdb a63c c1f6 25bd 707d 923c 940d 493c

mlp_extractor.policy_net.2.weight f4 [32, 32]
0.36022896 0.27496755 0.31537172 -0.6598052 -0.40912312 0.4519499 0.29595885 -0.22761023
0.10707876 0.3398323 0.07269911 -0.13044743 -0.20309238 -0.20042919 -0.07337032 0.19005702
0.1612968 0.02119915 -0.57858306 -0.03230503 0.33685008 -0.49337968 -0.23634334 -0.0006197805
0.17590366 -0.19971776 -0.052815072 0.2041244 -0.17097142 0.006814845 -0.10149389 0.3071847
0.121156126 -0.05476448 -0.258048 -0.09811378 0.32304406 -0.057541437 -0.5044589 -0.29842034
0.1896413 0.18750656 0.60075 0.33306578 -0.05623911 0.07989084 -0.046599507 -0.08190232
-0.21657538 -0.48858628 0.35430765 -0.101270996 -0.100816295 -0.43048328 -0.6035679 0.40134108
-0.43631995 0.4668679 -0.1181809 -0.28540596 -0.19369124 0.05182949 -0.11833019 0.10767426
0.13459009 -0.16219099 -0.053763065 0.36408705 0.01674225 0.5217542 0.1328462 0.21485795
0.1315727 -0.123073824 0.48877016 0.5611457 0.0908038 -0.39425525 -0.08746273 -0.17696922
0.11098801 -0.20260398 0.18847594 -0.27899987 0.86210525 0.4902685 0.08569398 -0.3232788
-0.028918665 -0.10201055 -0.31021538 -0.08699448 -0.19212627 -0.24835318 0.54221845 0.058517095
-0.13724728 0.26179975 0.07624276 -0.2775229 0.0043741832 0.005404447 0.6718991 -0.165772
0.15773496 0.36410567 0.48667043 -0.2568999 0.068721265 -0.08653597 -0.24321187 0.4986575
0.09166186 -0.16259918 -0.022526754 0.2787918 -0.29671392 0.2515496 -0.11084293 -0.09212278
-0.040913288 -0.34741205 -0.25725502 -0.27413583 0.19124648 0.023372395 0.043944616 0.65457034
0.43824434 0.20927346 0.045472357 0.13065289 0.9646328 -0.23052974 -0.0015858504 0.1383927
0.1864365 -0.13269952 0.32158837 -0.24523635 0.08335402 0.111880876 0.25190833 -0.24458541
-0.3391047 -0.08923453 -0.2925804 0.028861843 0.29686514 -0.29234308 -0.42938954 0.0005860882
-0.42187822 0.066373736 -0.07065664 0.073629506 0.37388602 -0.34783298 -0.3867506 0.24818242
-0.19654143 -0.62697464 0.11833973 -0.43581542 0.4667052 -0.17371969 -0.17724405 0.48304012
0.24874839 -0.4171017 0.6075978 -0.004510397 -0.11308405 0.19651374 -0.23852408 -0.30828828
-0.24503836 -0.40270177 0.0135042 -0.15104483 0.074870124 -0.3128659 -0.23268573 0.13496278
0.5367493 0.2785457 -0.34109122 -0.011873239 0.14426804 -0.017764144 -0.35400322 0.06308324
0.11235203 0.40647528 0.5406115 -0.14544043 0.19096132 -0.11718275 0.13572192 -0.2545994
0.40249652 -0.09793944 0.096379034 0.10903972 -0.12956211 0.08248215 -0.14453289 0.593137
0.51734644 0.54695445 0.017375719 0.39311713 -0.010929138 -0.15150945 -0.3277347 -0.45295113
0.41384715 0.22092296 -0.15814686 -0.08152999 -0.34248823 -0.16464277 0.20043722 0.19548509
0.3125866 0.21062016 -0.105809025 -0.4453149 -0.16214123 -0.61046916 -0.02651039 0.111298315
0.8453009 -0.06370219 0.05444787 -0.13331519 0.059921835 -0.09675088 -0.21689364 0.19916864
-0.6245876 0.11833702 0.080867425 0.11426025 -0.37741187 -0.3751906 0.26926935 -0.10234891
-0.10275651 -0.11300419 0.65454763 -0.080523476 -0.2503079 -0.21129331 -0.35043913 -0.066005416
00000000: ee6f b83e 8cc8 8c3e 6778 a13e fee8 28bf
00000010: 9678 d1be fa65 e73e eb87 973e a812 69be
00000020: 1c4c db3d 80fe ad3e 45e3 943d 0394 05be
00000030: 73f7 4fbe 4f3d 4dbe 2e43 96bd 4f9e 423e
00000040: fd2a 253e d7a9 ad3c 051e 14bf 4752 04bd
00000050: 9d77 ac3e 439c fcbe fd03 72be c478 22ba
00000060: 1720 343e d082 4cbe 9e54 58bd fd05 513e
00000070: 2213 2fbe 104f df3b 07dc cfbd 5047 9d3e
00000080: b420 f83d b850 60bd de1e 84be e1ef c8bd
00000090: 0866 a53e 92b0 6bbd 3824 01bf 8dca 98be
000000a0: 5431 423e b801 403e c1ca 193f 9987 aa3e
000000b0: fb5a 66bd cf9d a33d 20df 3ebd 67bc a7bd
000000c0: f0c5 5dbe fb27 fabe d067 b53e 2b67 cfbd
000000d0: c678 cebd 4e68 dcbe 6d83 1abf 947c cd3e
000000e0: 5465 dfbe 4f09 ef3e d408 f2bd bb20 92be
000000f0: ff56 46be 294b 543d 1957 f2bd 5384 dc3d
00000100: fcd1 093e 6515 26be a936 5cbd 9e69 ba3e
00000110: 0b27 893c af91 053f d608 083e b903 5c3e
00000120: feba 063e 210e fcbd 1540 fa3e 3fa7 0f3f
00000130: 58f7 b93d d3db c9be a91f b3bd 6b37 35be
00000140: af4d e33d 6b77 4fbe d6ff 403e 12d9 8ebe
00000150: eeb2 5c3f 7904 fb3e 5380 af3d cd84 a5be
00000160: d6e6 ecbc e8ea d0bd 8dd4 9ebe 292a b2bd
00000170: c0bc 44be 4c50 7ebe d4ce 0a3f 9faf 6f3d
00000180: 8d8a 0cbe 9e0a 863e 2a25 9c3d 7b17 8ebe
00000190: 4f55 8f3b ca17 b13b 9401 2c3f 23c0 29be
000001a0: 4685 213e 0f6c ba3e de2c f93e 6288 83be
000001b0: bcbd 8c3d c539 b1bd 880c 79be 0950 ff3e
000001c0: 37b9 bb3d 6680 26be 078a b8bc ccbd 8e3e
000001d0: e3ea 97be 1ccb 803e 9e01 e3bd deaa bcbd
000001e0: b194 27bd fedf b1be eeb6 83be 885b 8cbe
000001f0: 1ed6 433e 7777 bf3c 45ff 333d ec91 273f
00000200: 9061 e03e c84b 563e 3941 3a3d dfc9 053e
00000210: 2df2 763f fd0f 6cbe 4fdc cfba d1b6 0d3e
00000220: 36e9 3e3e 62e2 07be 3ba7 a43e 3d1f 7bbe
00000230: 83b5 aa3d cd21 e53d 21fa 803e 9974 7abe
00000240: 229f adbe 98c0 b6bd 19cd 95be ac6f ec3c
00000250: b5fe 973e fead 95be f2d8 dbbe b7a3 193a
00000260: 6c00 d8be f4ee 873d 6eb4 90bd 11cb 963d
00000270: fd6d bf3e 2a17 b2be 2d04 c6be 8823 7e3e
00000280: 2842 49be 6981 20bf 1a5c f23d 3323 dfbe
00000290: fcf3 ee3e 93e3 31be 777f 35be 0951 f73e
000002a0: e6b7 7e3e 5b8e d5be 888b 1b3f f4cb 93bb
000002b0: 9c98 e7bd e63a 493e a83f 74be f6d7 9dbe
000002c0: 56eb 7abe ed2e cebe b840 5d3c 7fab 1abe
000002d0: 8255 993d f62f a0be 2b45 6ebe af33 0a3e
000002e0: 6768 093f 8b9d 8e3e 82a3 aebe f987 42bc
000002f0: 00bb 133e 1c86 91bc e93f b5be c931 813d
00000300: d218 e63d 871d d03e 8465 0a3f 56ee 14be
00000310: 5d8b 433e 82fd efbd b0fa 0a3e da5a 82be
00000320: 0614 ce3e 7994 c8bd 5f62 c53d 3750 df3d
00000330: eeab 04be 67ec a83d 6e00 14be d4d7 173f
00000340: d170 043f 3505 0c3f 8657 8e3c a646 c93e
00000350: 2110 33bc 4b25 1bbe d8cc a7be 36e9 e7be
00000360: c6e3 d33e a139 623e 40f1 21be 32f9 a6bd
00000370: 9e5a afbe 1d98 28be 6a3f 4d3e 3e2d 483e
00000380: 5a0b a03e d0ac 573e 67b2 d8bd 5100 e4be
00000390: 5a08 26be b547 1cbf 512c d9bc 5ff0 e33d
000003a0: a465 583f 4b76 82bd bb04 5f3d c783 08be
000003b0: 9970 753d 5325 c6bd 5e19 5ebe ddf2 4b3e
000003c0: f9e4 1fbf ae5a f23d d29d a53d 4701 ea3d
000003d0: 213c c1be fb18 c0be acdd 893e 4e9c d1bd
000003e0: 0172 d2bd be6e e7bd 6f90 273f 7ee9 a4bd
000003f0: 5b28 80be 465d 58be c26c b3be d92d 87bd

mlp_extractor.policy_net.2.bias f4 [32]
-0.13941403 0.04939205 0.02591953 -0.12862284 -0.019553876 0.05346501 -0.14634022 -0.07171633
0.1314968 -0.092386715 0.111659385 0.0114908805 0.082928054 -0.12964022 -0.042900708 0.096124694
0.0026046622 -0.08445778 0.13636144 0.12183974 -0.08613167 0.021460881 0.04489012 -0.025527176
-0.059937015 0.018591579 0.047308125 -0.0949754 0.0350562 -0.037033767 -0.00029171412 -0.05421622
00000000: 8dc2 0ebe 514f 4a3d 3255 d43c b5b5 03be
00000010: 732f a0bc 20fe 5a3d 36da 15be 03e0 92bd
00000020: 19a7 063e 3f35 bdbd adad e43d 3f44 3c3c
00000030: 2fd6 a93d 68c0 04be a7b8 2fbd 06dd c43d
00000040: fbb2 2a3b 33f8 acbd 55a2 0b3e 1d87 f93d
00000050: cd65 b0bd bbce af3c b4de 373d 5e1e d1bc
00000060: 8480 75bd 5e4d 983c 2ac6 413d 7682 c2bd
00000070: 1797 0f3d b8b0 17bd 35f1 98b9 d411 5ebd

mlp_extractor.value_net.0.weight f4 [32, 81]
-0.034021273 0.012498878 -0.29619923 -0.1811056 -0.006394016 0.054938618 0.1472183 0.0757427
0.012191094 -0.04956463 -0.08007289 -0.11751614 -0.104807585 0.023747412 -0.043999147 -0.050370008
0.034748394 0.34863824 0.23388386 0.15164803 0.32047284 0.16624376 -0.2092249 0.26778483
-0.11931182 0.18153043 -0.10237712 0.32647455 0.019689526 -0.1291455 0.14126667 0.16696025
-0.08192321 0.018547356 0.068928204 0.091460116 0.0900388 -0.09842113 -0.06255148 -0.37617093
-0.037697773 -0.25144124 0.0031556261 -0.054559637 0.015119636 -0.1751774 -0.15136747 -0.17366879
0.023654794 -0.24761668 -0.103667535 0.09405366 -0.023595944 -0.29466805 -0.06204898 0.008235704
-0.24761115 0.09494007 -0.031839952 -0.13358806 -0.1778803 0.010118606 0.09193217 -0.26455534
-0.113472946 0.06330677 0.013479136 -0.020933198 -0.23181769 -0.22782968 -0.01949109 -0.119884156
-0.44224977 0.18133993 -0.0362995 -0.018479997 0.06871423 -0.014212248 -0.008154933 0.21876942
-0.07336116 0.042732693 -0.19256146 0.028022896 0.16758844 -0.16299066 -0.0958505 -0.10199295
0.06106721 0.066501394 0.09568648 -0.033223774 0.06515879 -0.32665443 -0.02207034 -0.22133498
0.12689678 -0.1771652 0.0031619803 0.2670678 -0.05232106 -0.08651994 0.010012884 -0.07058723
-0.10169237 -0.23040923 -0.060790006 0.21930434 0.12893674 0.2701917 0.099114716 0.06329528
0.040577803 0.16665822 -0.06082903 0.085034564 0.0014606037 0.12593207 0.32642788 0.20499626
0.1362175 0.13265368 0.020597255 -0.006248345 0.09100977 -0.21103708 0.16558336 -0.17745699
-0.1308108 -0.15926059 -0.1909727 0.2720774 0.051236354 -0.057442155 0.031919286 0.16634065
0.046658684 0.17339592 -0.05473563 0.010494251 -0.018042533 0.03138501 0.288399 0.30218711
-0.065177515 -0.010221939 -0.07490093 -0.064652294 0.41948214 -0.30583134 0.27268603 -0.12806404
0.15035324 -0.10180911 0.1261141 0.15190701 -0.065222435 0.041151196 -0.27453905 -0.2513552
0.086980864 0.064302646 0.03403079 0.04833327 0.2721106 0.170531 -0.013290826 -0.010555618
-0.20494935 0.036952365 -0.21987373 -0.05342702 -0.12441168 0.27638182 -0.20533329 0.093240626
-0.118271075 -0.0435101 0.27292508 -0.15354817 0.18579014 -0.42260253 -0.022133365 0.12127316
0.117875285 -0.21481776 -0.13228627 0.072564356 0.18147859 -0.15909407 0.039986923 -0.10216413
0.25216344 0.017893484 -0.20217556 -0.0049016895 0.11916942 0.13348019 0.0968441 0.0038406744
-0.030278873 -0.051843416 -0.36731648 -0.08096433 0.027972536 0.06579613 -0.076446965 0.0016172269
0.14050339 -0.17339586 0.32766458 0.29051977 -0.08151726 0.1825862 -0.15617432 0.019169569
-0.022265118 0.3014505 -0.24259509 -0.028579095 0.13214338 -0.01290062 0.05110286 0.0796438
0.122853085 -0.050387558 0.3632496 0.048392728 -0.04597241 -0.11026085 0.018169982 -0.09008933
0.1226427 0.015723346 -0.32873383 -0.04471891 -0.1365451 -0.047540534 0.13861245 -0.00091313955
0.16574821 -0.02955147 0.07622396 0.20973663 0.29533532 0.04274093 -0.07104341 -0.23784576
0.0786335 0.14588922 -0.24141148 0.03900672 0.19629237 0.03819996 -0.02944574 -0.38377744
00000000: e459 0bbd 18c8 4c3c 6da7 97be bf73 39be
00000010: e584 d1bb 5107 613d 65c0 163e fd1e 9b3d
00000020: 28bd 473c 4804 4bbd 41fd a3bd 4dac f0bd
00000030: 5ca5 d6bd ef89 c23c 7338 34bd c850 4ebd
00000040: 5554 0e3d b680 b23e 407f 6f3e 9f49 1b3e
00000050: 0415 a43e ce3b 2a3e 0d3f 56be 181b 893e
00000060: c159 f4bd 1de3 393e 18ab d1bd ac27 a73e
00000070: ee4b a13c b83e 04be 36a8 103e a1f7 2a3e
00000080: 5bc7 a7bd a0f0 973c 3b2a 8d3d 714f bb3d
00000090: 4366 b83d 0491 c9bd fe1a 80bd 7a99 c0be
000000a0: fb68 1abd e8bc 80be 9fce 4e3b ed79 5fbd
000000b0: 5ab8 773c b461 33be 1300 1bbe 3bd6 31be
000000c0: b3c7 c13c 3a8f 7dbe a54f d4bd 359f c03d
000000d0: 484c c1bc bbde 96be 1227 7ebd 0cef 063c
000000e0: c78d 7dbe f06f c23d 9c6a 02bd 4fcb 08be
000000f0: 4126 36be 82c8 253c ef46 bc3d cc73 87be
00000100: 8164 e8bd fba6 813d 98d7 5c3c 197c abbc
00000110: 9e61 6dbe 2f4c 69be c7ab 9fbc d385 f5bd
00000120: 906e e2be 2db1 393e c9ae 14bd 5d63 97bc
00000130: 0cba 8c3d 7dda 68bc 459c 05bc 1705 603e
00000140: 603e 96bd 7a08 2f3d d52e 45be 4690 e53c
00000150: 4e9c 2b3e 06e7 26be 444d c4bd aee1 d0bd
00000160: 9c21 7a3d e231 883d 46f7 c33d a715 08bd
00000170: f971 853d 403f a7be dccc b4bc a3a5 62be
00000180: 3bf1 013e cb6a 35be 3a39 4f3b 1cbd 883e
00000190: 9c4e 56bd 5e31 b1bd 140d 243c 0a90 90bd
000001a0: 1744 d0bd 66f0 6bbe f1fe 78bd 5191 603e
000001b0: fe07 043e 9156 8a3e a8fc ca3d f5a0 813d
000001c0: e934 263d 74a8 2a3e dc27 79bd 9a26 ae3d
000001d0: ba71 bf3a 56f4 003e 8e21 a73e 8aea 513e
000001e0: 9a7c 0b3e 5ed6 073e 93bb a83c ebbe ccbb
000001f0: 5563 ba3d 1b1a 58be af8e 293e 49b7 35be
00000200: 44f3 05be 3515 23be 598e 43be bb4d 8b3e
00000210: 36dd 513d 7748 6bbd ccbd 023d 3455 2a3e
00000220: 2d1d 3f3d b38e 313e 7832 60bd 14f0 2b3c
00000230: efcd 93bc 918d 003d 09a9 933e 45b8 9a3e
00000240: ca7b 85bd eb79 27bc a965 99bd 6c68 84bd
00000250: 5dc6 d63e ed95 9cbe 819d 8b3e 3823 03be
00000260: 33f6 193e 4b81 d0bd 0e24 013e 838d 1b3e
00000270: 5793 85bd 288e 283d 6290 8cbe a1b1 80be
00000280: 0623 b23d 1bb1 833d df63 0b3d 1bf9 453d
00000290: 1552 8b3e ae9f 2e3e c4c1 59bc 79f1 2cbc
000002a0: 3ede 51be 5d5b 173d 9426 61be 4ad6 5abd
000002b0: 8dcb febd eb81 8d3e e442 52be f1f4 be3d
000002c0: 1b38 f2bd a637 32bd d6bc 8b3e bb3b 1dbe
000002d0: c53f 3e3e 5c5f d8be 0851 b5bc 105e f83d
000002e0: 9968 f13d 30f9 5bbe 0d76 07be 9f9c 943d
000002f0: 86d5 393e 8ee9 22be 54c9 233d 6d3b d1bd
00000300: 911b 813e 5b95 923c 1c07 4fbe 5a9e a0bb
00000310: 190f f43d 08af 083e 3356 c63d d3b3 7b3b
00000320: 660b f8bc c359 54bd e810 bcbe a0d0 a5bd
00000330: a926 e53c 1fc0 863d 3a90 9cbd 21f9 d33a
00000340: 1fe0 0f3e af8e 31be a7c3 a73e 02bf 943e
00000350: 85f2 a6bd e0f7 3a3e 29ec 1fbe 8009 9d3c
00000360: 5665 b6bc b857 9a3e d96a 78be b51e eabc
00000370: 9850 073e 1f5d 53bc 3c51 513d 4a1c a33d
00000380: 669a fb3d 2f63 4ebd dafb b93e 7437 463d
00000390: 914d 3cbd 71d0 e1bd 37d9 943c c180 b8bd
000003a0: 192c fb3d 3fce 803c cd4f a8be 2d2b 37bd
000003b0: 7bd2 0bbe ddb9 42bd 6cf0 0d3e c25f 6fba
000003c0: e6b9 293e ed15 f2bc 4f1b 9c3d 33c5 563e
000003d0: 3136 973e 1d11 2f3d 357f 91bd d78d 73be
000003e0: 9a0a a13d fc63 153e 9234 77be 83c5 1f3d
000003f0: de00 493e 9077 1c3d 3138 f1bc 7a7e c4be

mlp_extractor.value_net.0.bias f4 [32]
0.0 0.0 0.0 0.0 0.0 0.0 0.0 0.0
0.0 0.0 0.0 0.0 0.0 0.0 0.0 0.0
0.0 0.0 0.0 0.0 0.0 0.0 0.0 0.0
0.0 0.0 0.0 0.0 0.0 0.0 0.0 0.0
00000000: 0000 0000 0000 0000 0000 0000 0000 0000
00000010: 0000 0000 0000 0000 0000 0000 0000 0000
00000020: 0000 0000 0000 0000 0000 0000 0000 0000
00000030: 0000 0000 0000 0000 0000 0000 0000 0000
00000040: 0000 0000 0000 0000 0000 0000 0000 0000
00000050: 0000 0000 0000 0000 0000 0000 0000 0000
00000060: 0000 0000 0000 0000 0000 0000 0000 0000
00000070: 0000 0000 0000 0000 0000 0000 0000 0000

mlp_extractor.value_net.2.weight f4 [32, 32]
0.05937277 -0.18120226 0.2331234 0.025694722 0.085486084 0.3981716 0.10866983 0.08385276
0.030570589 0.06482784 0.2873807 0.054771155 0.08297395 -0.18456352 0.28264305 0.19281572
-0.08585096 0.057599258 0.35693136 -0.22957273 0.6246574 0.055238754 -0.294416 -0.48723814
0.17109862 -0.21425472 0.2536641 -0.104940064 -0.22873609 -0.014203875 -0.59308887 -0.110774264
-0.120058805 0.1482081 0.25370252 0.008409463 0.0056129545 0.02027123 -0.38551295 -0.09423835
-0.029424256 0.74087876 -0.2311502 -0.21106412 0.24216522 -0.11488121 0.23417354 0.08936512
0.2754218 -0.12109087 -0.005706138 -0.27286023 0.04648244 0.18427847 0.06387419 0.3594792
-0.532616 0.16816512 0.15565427 -0.21266174 0.24572642 -0.32571942 -0.2568538 -0.102661
0.31667444 -0.14351408 -0.00014089531 0.5249844 -0.24774191 -0.12084756 -0.11433742 -0.31270134
0.042636868 0.25560027 0.50492996 0.21217887 -0.13239853 -0.083402395 -0.2755408 -0.052158806
-0.3224317 0.12670109 -0.10315767 0.23135652 0.14769913 0.6956892 0.021791007 0.13950999
0.052171532 -0.04555217 0.06026111 -0.39455435 -0.055120982 -0.14351878 0.21287674 0.0587491
-0.1509339 0.35032687 -0.3663653 0.51702946 0.17237547 -0.124199845 -0.44104174 0.39633808
0.100777455 -0.3247043 0.053595837 -0.027788218 0.13145359 -0.008835071 0.007242225 0.47547284
0.282744 -0.09234767 0.5154896 -0.042417634 0.17196825 0.24930748 0.10464506 0.34479657
0.21733595 -0.05233017 -0.18556534 0.13891816 -0.09229235 0.052158874 0.008720013 -0.030060641
-0.008892026 -0.17495327 0.0457685 0.32572204 0.33682674 0.1907464 0.20904475 -0.16205843
-0.11686333 0.15242559 0.53333104 -0.44693306 -0.10237831 -0.014616406 0.022810204 0.09791422
0.13194929 -0.112367 0.21020512 -0.31280747 -0.64082223 -0.30695754 0.11277324 -0.08621515
0.26276514 0.07204068 -0.13260713 -0.07470906 -0.13085908 -0.519559 0.12873082 0.036086936
-0.044401173 0.10269697 -0.067013025 0.18066603 -0.07477914 -0.17490175 -0.096228406 0.357047
-0.71425915 0.18421927 0.09613875 0.17456497 -0.2905319 -0.3969031 0.5042141 0.06503135
-0.23159933 0.43746257 -0.035390947 -0.25669953 -0.0057279286 -0.25753704 0.067652054 -0.07654158
-0.10833057 0.17437363 -0.07236058 -0.20000601 -0.03129236 0.35167706 0.30214006 0.030469535
-0.15101513 0.102706596 0.23574127 0.20101191 0.013407226 -0.09576631 0.24186209 0.29917905
0.244716 -0.24230635 -0.041690543 0.21205328 0.32719937 0.40030864 0.06084682 0.54825807
-0.120778196 0.16914096 -0.73053813 -0.43015504 -0.039004683 0.06560273 0.019933227 -0.09908365
0.012464628 0.13525257 0.08703099 -0.26201507 -0.0774963 -0.22152816 0.022893809 0.2194911
-0.5222865 -0.19134878 0.19609891 -0.19229661 -0.12184645 0.3173449 0.09097883 0.22467083
0.0772931 -0.22316162 -0.1331474 -0.652279 -0.15278183 -0.2934985 -0.21581733 0.15750349
-0.121749565 0.34773985 0.08484412 0.10835601 -0.3009704 0.5101073 -0.06148439 0.11873099
0.01659897 0.16779958 0.22937372 -0.24372372 -0.058215808 0.299663 0.0273887 -0.057298638
00000000: dd30 733d 168d 39be e7b7 6e3e bd7d d23c
00000010: 5413 af3d 26dd cb3e 4a8e de3d ffba ab3d
00000020: 2c6f fa3c 75c4 843d 9023 933e b857 603d
00000030: 3fee a93d 38fe 3cbe 97b6 903e 7c71 453e
00000040: a1d2 afbd 33ed 6b3d b5bf b63e 1d15 6bbe
00000050: 8ce9 1f3f 0842 623d b2bd 96be 4777 f9be
00000060: 7a34 2f3e 9765 5bbe 43e0 813e d1ea d6bd
00000070: cb39 6abe 5fb7 68bc acd4 17bf 9edd e2bd
00000080: 64e1 f5bd ddc3 173e 4ce5 813e d8c7 093c
00000090: e0ec b73b da0f a63c f461 c5be 0900 c1bd
000000a0: 230b f1bc 3baa 3d3f a3b2 6cbe 3121 58be
000000b0: 29fa 773e d746 ebbd 30cb 6f3e 0f05 b73d
000000c0: 1604 8d3e 7dfe f7bd 8efa babb 56b4 8bbe
000000d0: 5f64 3e3d 7fb3 3c3e 79d0 823d a80d b83e
000000e0: 8659 08bf 7a33 2c3e d563 1f3e 00c4 59be
000000f0: b59f 7b3e b2c4 a6be 5782 83be ee3f d2bd
00000100: 2723 a23e 5bf5 12be 4cbd 13b9 6165 063f
00000110: 0eb0 7dbe ed7e f7bd bd29 eabd 641a a0be
00000120: ffa3 2e3d 0ade 823e 1743 013f 6b45 593e
00000130: 7b93 07be e0ce aabd af13 8dbe 79a4 55bd
00000140: c515 a5be eebd 013e 5444 d3bd b9e8 6c3e
00000150: 713e 173e b018 323f 0e83 b23c b5db 0e3e
00000160: d1b1 553d ea94 3abd 5bd4 763d 0703 cabe
00000170: 8ac6 61bd 96f6 12be 5cfc 593e e5a2 703d
00000180: 6b8e 1abe 0b5e b33e 3c94 bbbe 0b5c 043f
00000190: 3283 303e 7d5c febd 39d0 e1be d3ec ca3e
000001a0: 6964 ce3d a43f a6be 4f87 5b3d 1ea4 e3bc
000001b0: c59b 063e f9c0 10bc 3050 ed3b 2d71 f33e
000001c0: d2c3 903e c620 bdbd 20f7 033f 1dbe 2dbd
000001d0: 7218 303e 764a 7f3e 2650 d63d 2d89 b03e
000001e0: 518d 5e3e 2958 56bd d704 3ebe 9040 0e3e
000001f0: c603 bdbd 8ba4 553d 63de 0e3c bc41 f6bc
00000200: dcaf 11bc f326 33be c077 3b3d 0ac5 a63e
00000210: 8e74 ac3e 0653 433e d40f 563e a5f2 25be
00000220: 0b56 efbd 7415 1c3e 6288 083f 69d4 e4be
00000230: b8ab d1bd a679 6fbc 77dc ba3c 4087 c83d
00000240: b71d 073e ab20 e6bd 0340 573e 4d28 a0be
00000250: ed0c 24bf 8a29 9dbe a8f5 e63d 9291 b0bd
00000260: 2789 863e 108a 933d 2aca 07be 1001 99bd
00000270: ecff 05be d201 05bf 03d2 033e e5cf 133d
00000280: 01de 35bd ca52 d23d 203e 89bd 8400 393e
00000290: ce25 99bd 7219 33be 6613 c5bd ddce b63e
000002a0: b0d9 36bf faa3 3c3e 65e4 c43d 29c1 323e
000002b0: 99c0 94be e236 cbbe 2d14 013f 282f 853d
000002c0: 6028 6dbe 18fb df3e 19f6 10bd 1f6e 83be
000002d0: 59b1 bbbb e5db 83be 298d 8a3d d5c1 9cbd
000002e0: 6bdc ddbd 008f 323e c931 94bd 60ce 4cbe
000002f0: 6b2c 00bd 040f b43e 1ab2 9a3e 3f9b f93c
00000300: b6a3 1abe d657 d23d 2966 713e 11d6 4d3e
00000310: fba9 5b3c 2121 c4bd b2aa 773e ff2d 993e
00000320: d596 7a3e 281f 78be b4c3 2abd 7f24 593e
00000330: ad86 a73e 41f5 cc3e 843a 793d a45a 0c3f
00000340: 8f5a f7bd 4a33 2d3e 8c04 3bbf 483d dcbe
00000350: 60c3 1fbd b95a 863d 024b a33c 5eec cabd
00000360: 7038 4c3c a67f 0a3e 4e3d b23d d726 86be
00000370: 61b6 9ebd 47d8 62be cc8b bb3c 46c2 603e
00000380: 91b4 05bf eff0 43be 27ce 483e 67e9 44be
00000390: a28a f9bd 087b a23e 1c53 ba3d 1c10 663e
000003a0: d84b 9e3d 7b84 64be cb57 08be c2fb 26bf
000003b0: d772 1cbe 6f45 96be 38ff 5cbe 9848 213e
000003c0: d657 f9bd f50a b23e c1c2 ad3d c1e9 dd3d
000003d0: cb18 9abe 6496 023f 0ed7 7bbd 3c29 f33d
000003e0: 90fa 873c a7d3 2b3e f2e0 6a3e b692 79be
000003f0: b373 6ebd 6e6d 993e 445e e03c fab1 6abd

mlp_extractor.value_net.2.bias f4 [32]
0.0 0.0 0.0 0.0 0.0 0.0 0.0 0.0
0.0 0.0 0.0 0.0 0.0 0.0 0.0 0.0
0.0 0.0 0.0 0.0 0.0 0.0 0.0 0.0
0.0 0.0 0.0 0.0 0.0 0.0 0.0 0.0
00000000: 0000 0000 0000 0000 0000 0000 0000 0000
00000010: 0000 0000 0000 0000 0000 0000 0000 0000
00000020: 0000 0000 0000 0000 0000 0000 0000 0000
00000030: 0000 0000 0000 0000 0000 0000 0000 0000
00000040: 0000 0000 0000 0000 0000 0000 0000 0000
00000050: 0000 0000 0000 0000 0000 0000 0000 0000
00000060: 0000 0000 0000 0000 0000 0000 0000 0000
00000070: 0000 0000 0000 0000 0000 0000 0000 0000

action_net.weight f4 [5, 32]
-0.061994363 0.13622837 -0.22011627 -0.07713328 0.14384274 0.11057253 -0.07959082 0.2204052
0.08078154 -0.08190522 0.08403799 0.22062044 -0.16868615 -0.062284995 0.18349311 0.046895973
-0.12184038 -0.10068838 0.08128141 0.0895906 -0.09562954 0.13069622 -0.013498146 -0.20962098
-0.015971981 0.14124016 -0.22614251 -0.122350626 0.23594838 -0.15283436 0.22712 0.0377327
-0.062271964 0.19300209 0.18166699 -0.06622452 0.21261746 0.16695717 -0.06286607 -0.2090127
0.055084538 -0.068126515 0.055250462 -0.25675446 0.14237 -0.06289422 -0.16763133 0.09956322
-0.19056344 -0.020712849 0.05324885 0.044551805 -0.07127418 0.15348935 0.10014581 0.2413925
-0.087870315 0.21722811 0.1976465 -0.12527098 -0.2118963 -0.20322187 -0.18291646 -0.09520933
-0.08606759 -0.1829112 0.075897604 -0.07934752 -0.23237193 -0.14789557 -0.07043207 -0.15521508
0.08247289 -0.08671253 0.08313714 0.23546375 0.13632303 -0.083055325 -0.11740944 0.0510882
0.18720697 -0.100052804 0.076598845 0.08421634 -0.03377419 -0.12047131 0.08617465 -0.22113615
-0.080751 -0.23759891 0.1371059 0.056311645 -0.1410077 0.23627354 -0.1316962 -0.10150061
0.09929392 -0.09737839 -0.05608473 0.12123777 -0.07551911 -0.093522385 0.097563274 0.06451954
-0.11091621 0.12158066 -0.10307408 -0.13653167 -0.09123036 0.09659617 0.06772313 -0.1393088
0.07810079 0.09983831 -0.092606984 -0.10180754 0.11722104 -0.099606976 -0.10607059 0.16734421
0.115266554 0.07149391 -0.069128275 0.11344483 0.07356587 0.07769199 0.06661376 0.087300256
0.095257625 -0.099489704 -0.052755874 0.120256804 -0.074996844 -0.09502326 0.0996129 0.06563855
-0.111085564 0.12242788 -0.098541565 -0.14050278 -0.090672515 0.09595855 0.06975902 -0.13967565
0.082575954 0.09535738 -0.0939636 -0.10620473 0.11504689 -0.09808479 -0.10399652 0.16924927
0.117464304 0.06982301 -0.06648383 0.11569276 0.07410547 0.07574754 0.069667794 0.08963293
00000000: cded 7dbd 737f 0b3e 2966 61be 0ef8 9dbd
00000010: 834b 133e da73 e23d 8300 a3bd e7b1 613e
00000020: cb70 a53d edbd a7bd 1c1c ac3d 53ea 613e
00000030: 10bc 2cbe 8d1e 7fbd 9ee5 3b3e fe15 403d
00000040: 7387 f9bd b635 cebd de76 a63d 477b b73d
00000050: 6cd9 c3bd 3bd5 053e 5427 5dbc e2a6 56be
00000060: acd7 82bc 43a1 103e e791 67be f792 fabd
00000070: 749c 713e 9c80 1cbe 2592 683e 9b8d 1a3d
00000080: e310 7fbd 57a2 453e e906 3a3e b9a0 87bd
00000090: 64b8 593e d2f6 2a3e edbf 80bd 6d07 56be
000000a0: 53a0 613d ea85 8bbd 4f4e 623d 5275 83be
000000b0: 71c9 113e afce 80bd 8ca7 2bbe cde7 cb3d
000000c0: 1023 43be fead a9bc 771b 5a3d f47b 363d
000000d0: 33f8 91bd 502c 1d3e 3f19 cd3d 982f 773e
000000e0: 5af5 b3bd 0c71 5e3e d863 4a3e 0947 00be
000000f0: 58fb 58be 6519 50be 744e 3bbe 1cfd c2bd
00000100: 3444 b0bd 134d 3bbe 3470 9b3d f480 a2bd
00000110: e8f2 6dbe f071 17be b03e 90bd b4f0 1ebe
00000120: 8ce7 a83d 5796 b1bd ce43 aa3d 691d 713e
00000130: 4498 0b3e e918 aabd 5c74 f0bd dc41 513d
00000140: 2fb3 3f3e 7ce8 ccbd dbdf 9c3d 9e79 ac3d
00000150: ce56 0abd aab9 f6bd 567c b03d 8471 62be
00000160: c860 a5bd 214d 73be 7d65 0c3e 0aa7 663d
00000170: 5364 10be b1f1 713e 5edb 06be 8ddf cfbd
00000180: 9c5a cb3d 526e c7bd 1ab9 65bd 824b f83d
00000190: c3a9 9abd aa88 bfbd 41cf c73d d222 843d
000001a0: 0a28 e3bd 48ff f83d 8118 d3bd f5ce 0bbe
000001b0: fcd6 babd 36d4 c53d 6db2 8a3d f7a6 0ebe
000001c0: 4ff3 9f3d 0778 cc3d bba8 bdbd 7980 d0bd
000001d0: 9611 f03d befe cbbd 8a3b d9bd 485c 2b3e
000001e0: df10 ec3d 666b 923d 2093 8dbd c355 e83d
000001f0: b4a9 963d fa1c 9f3d cc6c 883d 7aca b23d
00000200: 6e16 c33d 42c1 cbbd 8b16 58bd 3349 f63d
00000210: f297 99bd 8e9b c2bd d901 cc3d 816d 863d
00000220: d480 e3bd 78bb fa3d 29d0 c9bd f6df 0fbe
00000230: 83b2 b9bd eb85 c43d d1dd 8e3d 2207 0fbe
00000240: 951d a93d bb4a c33d fd6f c0bd de81 d9bd
00000250: b49d eb3d aee0 c8bd 21fc d4bd ae4f 2d3e
00000260: 2091 f03d 5eff 8e3d ad28 88bd 53f0 ec3d
00000270: 9cc4 973d 8721 9b3d fdad 8e3d 7891 b73d

action_net.bias f4 [5]
0.079194434 0.053584635 0.074244775 -0.091178864 -0.09109624
00000000: b130 a23d 907b 5b3d a50d 983d fcbb babd
00000010: aa90 babd

value_net.weight f4 [1, 32]
0.07983458 0.23498484 0.07502913 -0.13311581 0.028126035 -0.045098297 0.09781145 -0.16243888
0.1727046 0.07110008 0.1887255 -0.053638216 -0.02854787 -0.53892773 -0.1937187 -0.058854908
-0.07466765 0.27772626 0.24715863 -0.23257847 0.097040534 -0.30552092 0.1734682 -0.17627388
-0.08670906 0.10983101 0.10587684 -0.16019553 -0.18375 0.010631233 0.05702304 -0.123540066
00000000: 5080 a33d de9f 703e dfa8 993d 834f 08be
00000010: 9268 e63c feb8 38bd 5f51 c83d 6156 26be
00000020: 7ad9 303e eb9c 913d 4241 413e bfb3 5bbd
00000030: 39dd e9bc 2bf7 09bf 325e 46be d811 71bd
00000040: 5aeb 98bd 2332 8e3e 2717 7d3e 0d29 6ebe
00000050: 30bd c63d 3d6d 9cbe a6a1 313e 2481 34be
00000060: 8594 b1bd 15ef e03d f5d5 d83d 4c0a 24be
00000070: f628 3cbe a02e 2e3c fe90 693d 9302 fdbd
