toy_student/dagger_bfs/train_logs/empty_map3_visibility=full_level=2_2024-12-08-141619_nt=DAgger_InitBC/BC.pth (torch, 226850 bytes, 11 tensors)

mlp_extractor.policy_net.0.weight f4 [128, 81]
00000000: 6cb8 74bd 764f e7bd f373 c23c 3faa 93bc
00000010: 4bb4 a43d b716 3e3e c3a4 553d b89f 593e
00000020: d315 fbbc 418d 5e3d b523 a6bd efa4 6c3d
00000030: 5b4b 9abb 01b3 813e eed2 48bc f873 f43c
00000040: f49f 47be 1f5f 833d c86b 95bb ffab 27be
00000050: 9530 a63d 5755 11bd 0250 7b3d 056f 623e
00000060: 4050 663e 11a7 4b3e c53f 8bbd ed0e 7fbd
00000070: d639 77bd 7957 33bd 38ad 8e3e f08a 8a3d
00000080: 8b5c 89be 9502 7dbc 8e07 e23d 36bf 8bbd
00000090: f5dc 95bd f985 493d d49e 4fbe f528 653e
000000a0: 5334 6c3d a148 aabd dd36 d23d 96d9 6d3d
000000b0: 6377 01bd 4b09 3a3e ca81 b33d 3f11 43bd
000000c0: 9262 b6bd 9c73 c4bd 8557 9d3e 8765 9cbd
000000d0: 10d2 0e3e ee29 9cbd 5fb8 06bd 04a0 5c3d
000000e0: 6f1f 6dbd f3d0 25be 3053 2c3d 76b6 a13e
000000f0: 38d8 9abe b0db aebd 980c 9cbc abc4 6d3e
00000100: c006 173e b4cf 213d 81c3 da3d 4db4 e13d
00000110: 4451 2cbe df04 ad3b 7d96 123e 496c 103e
00000120: d35f 003d 86d1 c63d f53e 913d 22fd 833d
00000130: b7e1 393e 01cb 183e fc7f 78be f9a4 11be
00000140: 329f 623b 53c5 5abd 4f4f 333c c35f 04bd
00000150: 9f18 d5bd ada7 dd3c b31a 343d 8768 a5be
00000160: f3a8 413d 2532 c03d 4b29 e5bd 7692 2d3e
00000170: 53ea fa3d a040 1ebd 5372 643d bfbc 5dbe
00000180: 36d5 d9bc 3500 883e 242e e83b 7a21 dbbd
00000190: 767f 4dbc 634a 113c b78c 013d b503 053d
000001a0: 233c 2cbe 086b 90be 4bba 69be 7b39 f0bd
000001b0: d98b 083d f193 053e c7f1 6bbd b5a4 33be
000001c0: 892e cdbd dc56 e1bd 5220 4cbc 2c4f 12be
000001d0: be61 64bd 938b 8abe 5420 5bbe d119 93bd
000001e0: f3d7 133e cdc6 ad3d 6457 11be d254 373d
000001f0: 429f 9d3d bb64 3cbd 397a 6dbd 9242 a3bd
00000200: 1d7e afbd b8e3 4dbe 3fcb 56bc ca7c 643e
00000210: a596 d03c b6df 073e 73a0 53bd e976 52be
00000220: bfa3 3d3d b49e a43d b89b 1dbe 8b35 b83c
00000230: 2cc4 d3bd 195f 73bd 3916 33be 78d3 8ebd
00000240: 62e7 88bb ff2b d33d 26a8 fe3d f0a9 93be
00000250: a6e4 3d3d fd91 21be e753 36be 423b 523d
00000260: a449 15be 6b03 06be 50df 153e 4089 273e
00000270: 1aab 413e e415 433d b072 853e 6547 0cbd
00000280: f472 4d3d 41dc 82bd 2359 80bd b492 e5bd
00000290: 27a9 933e 1063 f03b 6ced b13d aaa2 433d
000002a0: 7b8c 653e 7202 18be 2ce0 5e3d a75d 29be
000002b0: 5e3c 50be 7095 213e ef30 63bd f535 63bd
000002c0: a61d b9bd f9fc 80bd 4d6d 863d 8894 36be
000002d0: 0597 9a3d 7a06 2d3c 04ce 71bd 9bc1 0c3d
000002e0: 89a1 433d 634c 42bd 3f29 e63d 6ae1 053e
000002f0: 34ff b03e 1e46 9f3d 9bf2 fabd 223f 61bd
00000300: 6803 83be 610a 1a3e 6e07 493e 8ec4 ad3d
00000310: c6fe 713d 901b 68bd 4881 98be 1000 1c3e
00000320: 3140 bbbc 4f71 663e f8ad 1cbd d5e6 7cbc
00000330: b3fa 92bd 09d7 d03d 7da0 7b3e 3946 8dbd
00000340: 69a6 0dbe 683f 6cbe 99e8 05be 885a e8bd
00000350: 53f9 18bc 713b 193b da3d 0fbe a949 363e
00000360: 81a5 d83d f93a adbd 4a4e 22be 3bba 27be
00000370: 4c2d 83be 994d 733e 42b3 d8be 4e2c 17be
00000380: 8417 a13d f22c 843d 371d 7bbc e4d5 2abd
00000390: 14a0 8abd f9fa 20be 00bc ab3c 0b37 09be
000003a0: 84cf a4bd b887 043d b971 3ebc a3bd c7bc
000003b0: 834c 27bc 7dc9 33be 7692 8bbd ba9c 073d
000003c0: 0f27 fa3d 5df5 4b3c b775 7cbc a053 49bb
000003d0: 448c c73d fcfa 983e bcb2 d4ba b77d 773d
000003e0: 1395 b03d e7c8 b83d 7ee6 f23d 1221 c2bd
000003f0: 3ac7 273e 288a ff3d 6d6c 6c3e 125d 163e
-0.05974619 -0.11294453 0.02373693 -0.018025516 0.08042201 0.18563353 0.052159082 0.21252334
-0.030650055 0.05433393 -0.08112279 0.05777448 -0.00470869 0.25331882 -0.012257321 0.029840454
-0.19494611 0.06414627 -0.0045599677 -0.16374205 0.08114735 -0.035481777 0.0613556 0.22112663
0.2249155 0.1988795 -0.067992724 -0.062270094 -0.06035789 -0.043784592 0.2786653 0.067647815
-0.26828417 -0.01544251 0.11036597 -0.0682358 -0.07317535 0.049200032 -0.20275432 0.22378905
0.057667088 -0.08314634 0.102643706 0.058068834 -0.031607997 0.18167607 0.0876499 -0.04762387
-0.089055195 -0.09592363 0.30730835 -0.07636552 0.1394732 -0.07625185 -0.032890674 0.05386354
-0.057891306 -0.16192989 0.04207152 0.3158452 -0.30243087 -0.08537996 -0.019048974 0.23219554
0.14748669 0.03950472 0.10681821 0.11020718 -0.16827875 0.0052801217 0.14315219 0.14103808
0.031341385 0.09707932 0.07092086 0.064447656 0.1815251 0.1492119 -0.24267572 -0.14223088
0.003457975 -0.05341084 0.010944202 -0.032317888 -0.10405087 0.027057493 0.043970775 -0.3230631
0.047280263 0.09384564 -0.11189517 0.16950402 0.12251725 -0.03863585 0.05577309 -0.21654032
-0.026590925 0.26562658 0.0070855785 -0.106997445 -0.012542596 0.008867833 0.031628337 0.03247424
-0.16819815 -0.28206658 -0.22824971 -0.117297135 0.033336494 0.13044716 -0.057603624 -0.175433
-0.100186415 -0.11002895 -0.012458878 -0.14288014 -0.055757277 -0.27059612 -0.21399051 -0.071826585
0.14437847 0.08485184 -0.14193493 0.044758625 0.07696392 -0.0459945 -0.05797789 -0.07971682
-0.08568976 -0.20106399 -0.013109981 0.22313228 0.025462458 0.13268933 -0.05166669 -0.20553173
0.04629874 0.08038083 -0.15391433 0.022486469 -0.10340151 -0.059416864 -0.17488946 -0.06973928
-0.0041779736 0.10311126 0.124344155 -0.2884059 0.046360634 -0.15778346 -0.17805444 0.051326044
-0.14578873 -0.13087241 0.14635968 0.1636095 0.18912926 0.0476283 0.26064062 -0.034247775
0.050158456 -0.06389666 -0.062670015 -0.11209622 0.2883999 0.007336028 0.08687863 0.04776255
0.2241687 -0.14844683 0.054413006 -0.16539632 -0.20335528 0.15779662 -0.05546659 -0.05547138
-0.09038858 -0.06298251 0.06563816 -0.17830098 0.07548336 0.010560626 -0.059034362 0.034364324
0.047761474 -0.04743613 0.11238336 0.1307427 0.34569705 0.07777046 -0.122533046 -0.05499185
-0.25588536 0.15043022 0.1963174 0.084847555 0.05908086 -0.05666691 -0.29786134 0.15234399
-0.022857757 0.22504161 -0.038251847 -0.015435894 -0.07176723 0.10197265 0.2457294 -0.068981595
-0.13833012 -0.23071063 -0.1307701 -0.113453925 -0.009336787 0.0023381377 -0.13988438 0.17801537
0.10578442 -0.08458514 -0.15850177 -0.16379635 -0.25620496 0.2376007 -0.42324263 -0.14762995
0.078658134 0.06453885 -0.01532679 -0.04170789 -0.06768814 -0.15720738 0.020963669 -0.13399903
-0.08047393 0.032355994 -0.011623793 -0.024382418 -0.010211113 -0.1755733 -0.068150446 0.03310845
0.12214481 0.012448636 -0.015408925 -0.003072001 0.097435504 0.29878986 -0.0016227583 0.060422625
0.08622184 0.09022694 0.11860369 -0.09478964 0.16384593 0.12477523 0.23088236 0.14683941

mlp_extractor.policy_net.0.bias f4 [128]
00000000: 1bac ab3c 42fe c2bb 6c3f c6bc 938c b73b
00000010: b7b9 403c 74e4 5fbc b69e 943c 6ef5 313c
00000020: e4ac a23c 26fa c939 0723 103c 0819 38bd
00000030: cd33 cdbc e793 fc3c b95b 04bc 39a1 2abc
00000040: 05b6 afbc 498f 62bc 69a6 4f3c da82 1b3c
00000050: 0b47 b8bb 7e9c 503d 54aa d13c 2acb a53c
00000060: 8234 b8ba 35b9 acbc 1e7d f2bc 454e 49bc
00000070: 7faa 49bc b9ce de3b 9bfc f4bb be90 a3ba
00000080: e685 12bc 7367 a33c 735e bc3a f536 553d
00000090: 6cf4 b7ba 71de 94bc 0b1c 5cbc 00c1 e5b8
000000a0: 09bd 12bc 8e81 0bbd e943 ad3c 4120 5bbc
000000b0: acdf 8d3b e2fb 143c 58fc 1f3c 5002 153c
000000c0: 8de5 bfbc 95ad a3ba 162b 93bc 01dd 8bbb
000000d0: 9ecf d6bc 6e5e f9bb 3ec3 3f3b f3c0 e5bb
000000e0: 44c8 bd3c edfc 1d3c 56fe 523b 3285 1fbd
000000f0: db9a 9ebc 1a43 b33c 03f4 043c b4f1 e23b
00000100: d1c4 da3c 0cb6 b2bb 9678 84bc bb75 f4bb
00000110: a222 0c3c fe9a 1ebd 77af 2dbd 7fcd 583c
00000120: cad7 d7bc 858b be3c 3194 5d3c 7168 013b
00000130: c86c 43bb ab8a 2cba cb04 69bc 66ae cc3c
00000140: 030c b7bc 03eb 8b3c e309 81bc 7d38 7b3c
00000150: b956 363c d617 bc3c 44eb dc3b fea1 143d
00000160: 32dd 573b 50ea e8bb a575 5d3c 5824 c43a
00000170: 47d8 0abd a847 31bd d32e 36bc c1c0 2bbc
00000180: 6226 f7bc e3bb 843c 4300 8e3c d1a5 f13c
00000190: 8677 b2bc dc44 8abc 563f 883a c7e6 163d
000001a0: d0de 463b 00f1 513c b91a 73bc 275c 8bbc
000001b0: 3a52 c0bc 1a87 9cbc 1dcc af3c ca5c 34bd
000001c0: 2812 853c 7c4c e63c 1af0 7cbd c3fb 2cb9
000001d0: 0cac 923c 5c32 383d 707d 26bd e027 e53c
000001e0: 8476 babc 42da 193d 9c70 0abc b390 1cbc
000001f0: 2f3e 2d3d 239b 563d 7dc2 833c f5a2 043c
0.02095609 -0.00595072 -0.024200164 0.0056014745 0.011763028 -0.013665307 0.018142086 0.010861738
0.019857831 0.00038524083 0.008797414 -0.044945747 -0.025049115 0.030832244 -0.008078509 -0.010414415
-0.021449098 -0.013828107 0.012673953 0.009491647 -0.0056237034 0.050930493 0.025593914 0.020238478
-0.0014053734 -0.021084407 -0.029600676 -0.012286727 -0.012308716 0.0067995456 -0.007476402 -0.001247905
-0.008943057 0.01994679 0.001437141 0.052054364 -0.0014034635 -0.018172475 -0.01343442 -0.0001095552
-0.008956202 -0.0340591 0.021150546 -0.013374389 0.0043296423 0.009093257 0.009764753 0.00909479
-0.023424888 -0.0012487645 -0.01796488 -0.004268289 -0.026222046 -0.007610134 0.002926066 -0.0070115267
0.023166783 0.009642822 0.0032195053 -0.038945384 -0.01936095 0.021882582 0.008114818 0.006925786
0.026705178 -0.0054538306 -0.016170781 -0.0074603236 0.008553179 -0.03872203 -0.042403664 0.013232588
-0.026348013 0.023259887 0.013524101 0.001974609 -0.0029819477 -0.00065819424 -0.014222334 0.024985503
-0.022344595 0.017079836 -0.015751785 0.015333292 0.011129075 0.022960585 0.006741913 0.0362873
0.003293824 -0.0071080104 0.013516818 0.0014964445 -0.033897664 -0.043281227 -0.011119562 -0.010482968
-0.03016967 0.016202873 0.01733411 0.029498013 -0.021785509 -0.016878538 0.0010394852 0.03684118
0.003034521 0.0128138065 -0.014837914 -0.017011715 -0.023476709 -0.01910739 0.021459633 -0.044033803
0.01624401 0.028112642 -0.061752416 -0.00016496987 0.017904304 0.0449699 -0.04064697 0.027973115
-0.02276159 0.037561662 -0.0084497 -0.009555983 0.04229563 0.052394044 0.01608395 0.008095493

mlp_extractor.policy_net.2.weight f4 [128, 128]
00000000: 3eb7 0e3e 0c11 7cbe 70ae e53d 56eb 8c3c
00000010: 2fd6 13be d102 31be 898d 9ebd 678d b4be
00000020: 5501 dd3d 9e2d f23d e2a9 3ebe 743a ab3d
00000030: 4c4f 0dbd c691 5c3e 0633 68be aa7a 643e
00000040: 4390 87be b095 7b3d 9e81 9d3d 523b 6ebe
00000050: e893 b73d 1693 cdbd 1ff1 c9bc f343 25be
00000060: 25f3 fabd 889d bdbd c3be 58be b5c8 73be
00000070: 9716 bb3c d878 f93d 5f1d a23d d005 3d3e
00000080: 1ead 143e 22c4 29bd 2e38 ad3d e9b3 293e
00000090: 68e9 ffbd 0b4e 81bc 1653 463e 6c12 203e
000000a0: 2070 d4bd 3018 e7bd 7fcc 4d3d 8d54 ef3d
000000b0: 72c6 53be 0ec5 bdbd 2144 61bd aa96 f1bd
000000c0: 3d4f acbe 1b00 72bd d6e2 2cbd 0f68 a4bc
000000d0: ba6a 6ebd cfab 953d f355 6bbe 6239 25bd
000000e0: 7820 a33d 5bed a1be 603d febc 9619 0abe
000000f0: 8d72 0c3d f73b 0f3e 7f9f 193e 968e cbbd
00000100: a871 47bd 59b6 883b 66ed 31bd 2890 183c
00000110: 9cfa c83c 2fcb 1a3e 04a1 273e f870 d0bd
00000120: fae3 2a3e e5de 3c3e aa29 b43b 9fad 103e
00000130: da93 c8bd ba11 02be fbec 5dbc 0c94 353e
00000140: 62ad 40be 7679 e93d 6676 d4bc 0e25 c23c
00000150: d4d0 f0bd 7d55 75bd e18d de3e c683 38be
00000160: 4612 0a3e 5eb5 b73d e93d d43c 7bb0 713e
00000170: b081 ff3d 1b4b 8e3d 2dda 803e 2c21 b63c
00000180: 3928 61be d070 1cbc 2467 ab3d 9403 4d3d
00000190: a384 993d b9a3 00be 7a2e e23d f60e 613d
000001a0: cf00 95be 5f52 6cbb aecf a1bd 4025 db3c
000001b0: d6d5 9dbd b936 4a3e 7b2e 9a3d 6f2d b5bd
000001c0: d0f3 ccbd 7773 c13d 046f 08be c176 f23d
000001d0: 5de9 0fbd b5e2 f93b 7252 683d ea2a 50bd
000001e0: d5f4 e43d 7880 08be 1735 3b3e a863 6c3d
000001f0: 5518 b93c cf3a 22be 69e9 17bc cd19 893c
00000200: aaca 653e 3a3d 90bd 18d9 07be f222 c1bd
00000210: 321a 81bd 0a46 a03d 563c a2bd f315 863d
00000220: f076 173e 2abb 44bd 88c1 d73d 22df ccbc
00000230: 3224 b4bd 92c1 bfbc 7968 363d 6f14 a43d
00000240: fa68 fdbc 0853 613e dc8b 83be 98be b3bd
00000250: 2465 903c e46d 2b3e bf99 f63d 2b7d acbd
00000260: b34d b4bd aade 06bd 3f83 8ebd 72db 8d3d
00000270: e65b 06be 83d1 60be f386 39be 93c8 043e
00000280: b1b2 523e 6164 c83e 75f8 743d b487 90bc
00000290: 1386 ab3c 0d93 5bbd b87e 863d 7ee2 de3d
000002a0: 97e1 0e3e b8c7 183b c984 46be 8984 1f3e
000002b0: f699 503d b83e b13b 2702 37be f72e 3fbe
000002c0: 067c 7a3d f2e5 193e f332 b43d f0a4 afbd
000002d0: 7eb3 a13d b2cf 853e e309 db3b 8137 f2bd
000002e0: 6a61 06be e99c 80bc 2c27 2d3e 589a 193e
000002f0: f4bb afbd 94a1 42be 59fb af3e 412a bbbe
00000300: 5085 973c a0a8 d23c 597c 223d d06b 78bb
00000310: eb9f 8abd d7cd 99bd 8f2a eb3d 92d0 3dbe
00000320: 4d4c a03e 6df4 8e3e 8ed6 a1bd ce1b 84be
00000330: a879 97bb bff2 d0bc f682 bfbd ddbc 953e
00000340: cfeb 2cbe ebe5 f43d a07f 523c 2167 c5bd
00000350: f54e 843d 2f07 f4bb 842b a83d 2a49 adbd
00000360: 7418 033d 5532 323e 87ed 42bd 5958 393e
00000370: 03d1 8cbe c418 533e 04c0 53be 608d efbc
00000380: 708d a73d 8237 0cbe 1f24 d73d 4053 4abc
00000390: c2db 343e 3790 afbd e5dd 563e 9087 0bbe
000003a0: cf5a 473d 48c5 74bd 401f 15be 7d3b 66be
000003b0: 9a29 aabd de69 a73d bef6 7fbd 2713 983e
000003c0: 6896 0dbe f533 01bd d245 3dbc 1edc 6bbd
000003d0: b64f f3bb 54ff db3d 51cd dfbd c809 d73b
000003e0: 8886 22bd 29b9 44bd af58 76bd c45b 303e
000003f0: ce0e 393c e726 d63d d5ed debb e9c9 bbbe
0.13937089 -0.24615878 0.11214912 0.01720206 -0.14437173 -0.1728623 -0.077418394 -0.3526413
0.1079127 0.11825107 -0.18619493 0.083607584 -0.03449945 0.21539983 -0.22675714 0.22312418
-0.2647725 0.06142205 0.07690738 -0.23264816 0.08963758 -0.1003782 -0.024651108 -0.16139202
-0.122534074 -0.09258562 -0.2116652 -0.23807032 0.02283792 0.12181252 0.07915758 0.18459249
0.14519164 -0.041446812 0.08457981 0.16572537 -0.124956906 -0.015784284 0.19367632 0.15632027
-0.10372949 -0.1128391 0.05024385 0.11686049 -0.2068117 -0.09266101 -0.054996613 -0.11796315
-0.33654204 -0.05908213 -0.042208515 -0.02006915 -0.05820725 0.073081605 -0.22982006 -0.040337928
0.07965177 -0.316264 -0.031035125 -0.13486323 0.03428893 0.13987719 0.15002249 -0.099393055
-0.048692375 0.004172128 -0.04343929 0.009311713 0.024533562 0.15116571 0.16370016 -0.10177797
0.16688529 0.18444403 0.005498131 0.14128731 -0.097938254 -0.12702075 -0.01354527 0.17732257
-0.1881614 0.1140012 -0.025935363 0.02369931 -0.11758581 -0.05989598 0.4346762 -0.18019018
0.13483533 0.0897014 0.025908427 0.23602478 0.12475908 0.06947919 0.25166455 0.022232614
-0.21988 -0.009548381 0.08369282 0.05005224 0.074960016 -0.12562455 0.11044021 0.05494591
-0.2910218 -0.003605984 -0.0790094 0.02675116 -0.077068016 0.19747438 0.07528397 -0.088465564
-0.10007441 0.09445851 -0.13323599 0.11839057 -0.035134662 0.0076259025 0.05671925 -0.050822176
0.111795105 -0.13330257 0.18281971 0.057712227 0.02259461 -0.15842746 -0.009271958 0.016735936
0.22440591 -0.07042928 -0.13266408 -0.094304934 -0.063038245 0.07825859 -0.079216644 0.06547155
0.14791465 -0.048030056 0.1053496 -0.025008742 -0.08795966 -0.023407731 0.044533227 0.0801171
-0.030933846 0.2200433 -0.25692642 -0.08776587 0.017626353 0.16741139 0.120410435 -0.084223114
-0.088038824 -0.032927193 -0.06958627 0.069266215 -0.13120994 -0.21954922 -0.18117885 0.12967138
0.20575978 0.39139083 0.05980726 -0.017642833 0.020937955 -0.053607035 0.065671384 0.10883044
0.13953243 0.00233124 -0.19386591 0.15577902 0.05092808 0.005409088 -0.17871915 -0.1867026
0.061153434 0.15029123 0.0879878 -0.08576381 0.078955635 0.2613502 0.006684528 -0.11826993
-0.13123098 -0.01569982 0.16909474 0.15000284 -0.08580771 -0.1900695 0.3437145 -0.36555675
0.018496186 0.025715172 0.03966937 -0.0037906058 -0.06768783 -0.07509964 0.11482727 -0.18536595
0.31308213 0.27920857 -0.07902251 -0.25802463 -0.004622657 -0.025506375 -0.09351151 0.29245654
-0.16886829 0.11957916 0.012847811 -0.09638811 0.06460372 -0.0074471454 0.08211425 -0.084612206
0.032005742 0.17402013 -0.047589805 0.18100108 -0.27503213 0.20614916 -0.20678717 -0.029242218
0.08181274 -0.1369305 0.105049364 -0.01234895 0.17661956 -0.08572429 0.20983084 -0.13625932
0.048670586 -0.059758455 -0.14562702 -0.2248363 -0.08308716 0.081744894 -0.06249117 0.29702112
-0.13826907 -0.03154369 -0.011552291 -0.057582967 -0.007425274 0.10742059 -0.10927833 0.0065624453
-0.03967908 -0.048028145 -0.06014317 0.17222506 0.011295034 0.10456639 -0.006803254 -0.36677483

mlp_extractor.policy_net.2.bias f4 [128]
00000000: 95cd ca3c 8080 e537 ed35 d5bc bd78 463b
00000010: 5fed e63b 53d9 05bd 192b 783c 2c87 35bd
00000020: d33a ab3a 83ea 2a3c 1201 ad3d ab70 87bc
00000030: ace1 aebc 56ce 90bc 0b69 b33b 4c3b 42bc
00000040: 7f52 2a3c e670 20bd d7f1 713c c4f9 07bb
00000050: 6967 92bc e49f 8dbc 7e9a b73c dcb1 0c3a
00000060: b813 e7b7 822d 55bc 0ce7 9bbc 0be7 aebc
00000070: 639b 833b a536 c8bc ffef c1bc ce67 4f3c
00000080: c51d 2dbd eaf9 2dbb f171 a83a 7faa 8ebb
00000090: 6e22 ecbb c26c 013c 7422 88bc 5a6d 873b
000000a0: 2227 4a3c 9c1d 0f3a 3149 6f3c 0298 1d3b
000000b0: 4084 8d3b bdfa 473c 8d6e 983c 4493 153b
000000c0: 1f41 5bbc dfea 81bc 472a e03c 4da8 043c
000000d0: ac7e fcbc affc c93b 1133 b1bc 4c8f 8fbc
000000e0: 49c8 9b3c 1aff c33b b899 5cbd fc48 18bd
000000f0: f71b 183d b275 3e3c 99ad dbbb 181b f0bb
00000100: ec13 0cbd 52fb 3f3a 03b3 b33c cbd8 f83c
00000110: 2079 b7bc 6bb1 fa3b f694 e3bc 1464 743c
00000120: ad0b fc3a 1257 0dbb fa3d 29bc 0e08 b2bc
00000130: d3c8 b8bb 31f4 85bc 1b74 15bc fcde 6cbc
00000140: 8b20 263d 3baf 803d df8c 2a3d 2125 1d3d
00000150: 0e7c 62bd e1ec 143b 80d6 a3bb 474d f3bb
00000160: 43ba 293c 74ef d839 81eb 89bb 98ca ab3d
00000170: 3bf0 00bd 4728 e0bb 38bd 0cbd 6fa0 3c3c
00000180: 7344 9f3c 7167 85bc 114a 8fbc c219 d9bc
00000190: fe88 42bb f19a 0eba ffed 023c 2a5b 2d3d
000001a0: baad 4c3a f27c 0a3d 4099 703b 39ae 6e3d
000001b0: 48a0 113c aabf 4eb7 3635 20bc 198c be3c
000001c0: 31d7 e63c 2492 15bd 3a64 d03c 6566 1abb
000001d0: 1799 413b 924d d23c fef8 f13c 2c00 633a
000001e0: d7d7 d63c 0e93 043c 29e7 51bb 808d feba
000001f0: 074c ad3c 1e59 ca3c 0fb7 103d 7d4d 093c
0.024756232 2.7358765e-05 -0.02602669 0.0030284368 0.00704734 -0.03267796 0.015146994 -0.044318363
0.0013063796 0.0104318885 0.0844747 -0.016533216 -0.021347843 -0.017676514 0.0054751686 -0.011854958
0.010395645 -0.03917017 0.014767132 -0.0020748237 -0.017871575 -0.017288156 0.022412535 0.0005367079
-2.7546528e-05 -0.013011338 -0.01903107 -0.021350404 0.0040163263 -0.024440119 -0.02367401 0.012659026
-0.04226472 -0.0026546665 0.001285134 -0.004353821 -0.007206253 0.007899465 -0.016617991 0.004132909
0.012338432 0.0005459429 0.014604853 0.0024046903 0.004318744 0.012205777 0.018607402 0.0022823373
-0.013382225 -0.015859066 0.02736391 0.008096767 -0.03082212 0.0061641554 -0.021630796 -0.017524384
0.019016402 0.005981338 -0.053857535 -0.03717898 0.037136044 0.01162474 -0.006704044 -0.0073274486
-0.034198686 0.00073235214 0.021935945 0.030376812 -0.022396624 0.0076505444 -0.027780991 0.014916439
0.0019229554 -0.002156679 -0.010329718 -0.021732356 -0.0056391745 -0.016351791 -0.00912192 -0.0144574605
0.04055838 0.062834226 0.04163825 0.038365487 -0.05529409 0.0022724199 -0.0049999356 -0.0074249837
0.01035935 0.00041377137 -0.0042089825 0.08388251 -0.0314791 -0.006840739 -0.03436014 0.01151286
0.019441819 -0.016284676 -0.017491372 -0.02650154 -0.0029683704 -0.0005439958 0.007991313 0.04232327
0.00078078697 0.033810563 0.0036712438 0.05827162 0.008888312 -1.2323182e-05 -0.0097783115 0.023260163
0.028178783 -0.036516324 0.025438417 -0.0023559567 0.0029540712 0.025671754 0.029537674 0.00086593884
0.026225967 0.008091701 -0.0032028651 -0.0019420832 0.021154417 0.024700698 0.03533083 0.008380291

mlp_extractor.value_net.0.weight f4 [128, 81]
00000000: 339f e5bb 2401 b3bd d0c0 46bd 0b71 963e
00000010: b604 b83d 2aa5 2abe bcb9 11bd 57cc 263e
00000020: f595 87bd 2ec4 56bc 54b5 c4bd ac30 24be
00000030: e79f aabd 4ae9 08be cf63 7bbe 47fa c8bd
00000040: 9c16 fcbd 1896 393e 9f9e 55be 62b3 813c
00000050: a3a5 21bd 9d12 bdbb a025 4e3d 7409 a7bc
00000060: fc8b 233d d14b 92be b8c6 4fbc 5fd5 e73d
00000070: 5ee7 063d b1e8 203d d6dc 48be 44f0 0dbe
00000080: 71d6 04bd d00d e0be eb0b e4bd ffd4 f8bb
00000090: 2847 203e 5b02 bb3c 5e86 06be cd14 0cbe
000000a0: 09c6 8d3d 0d90 38bb e9cd d7bd ed45 0abd
000000b0: a9c3 aabb 573f 1c3d 483f e03d 6f87 74be
000000c0: 8df8 943d a88f 523e fe17 cc3b 7789 7d3e
000000d0: 680f 7e3d bbfe 273e d241 3fbe da70 3f3c
000000e0: c556 b73d 64ee 2fbe 1a4f 2b3e 72b2 793d
000000f0: 9cdf dcbd 8ec1 fc3d 41bb 253d 3707 3bbe
00000100: b998 ff3c fa77 8bbd 004a 81bc 15cc af3d
00000110: 2707 06be 3ada 4cbd 2eac a3be 87a5 debd
00000120: a639 b1bd 3a41 383e f3d9 1bbc bb5e dc3d
00000130: 00e7 833e c2bd 05bd fb74 533e 4e57 5bbd
00000140: 0562 eabd 4b7d 91bd 074f 26be ed26 1c3e
00000150: f4e2 023b 8253 6abd 7cc8 57be 05b6 cfbd
00000160: 9746 0dbe e56a 8cbc 4402 39bd 86c4 043e
00000170: 300a 403d 5a9d 433e 197f 713d 1a4f 6ebd
00000180: 4734 9dbd 0bf9 a1bd 4ea0 b6be 2928 453e
00000190: 237a 8dbd 4996 683d fc9c aabb 7053 16be
000001a0: 67d0 913d 4b30 2e3e 6112 4b3d 044a 383d
000001b0: 6a1c 82bc 2e02 a8bd 2f32 cabd 3beb 3b3d
000001c0: ae86 e63d d40a a8bd af7a 3e3e 1deb 1cbe
000001d0: bed2 123e fed3 173e ef83 ea3d b85a 25be
000001e0: 9a55 f93d 3ce1 033e d389 fe3b 8648 2cbd
000001f0: 7844 543e 0a24 b8bd f831 923d 749e 1a3d
00000200: 5750 34be 1786 25bd 32c0 983d 9347 68bd
00000210: 7809 4e3c 8ef2 34be 6082 afbb 2e26 50be
00000220: 8c7a bf3d 1d7a 313d d929 05bd a9fd d93d
00000230: 08c9 6bbd 1251 443e aa29 3abd 74d3 0d3d
00000240: a9ad 45be 0b11 06bd 2152 a83d d20b d83c
00000250: 05f5 553e 1e58 4bbe dcfb 573d bc30 1bbc
00000260: a109 8b3c 1ccb 53be c59e 0dbe 4210 44bb
00000270: e84d 1d3e dbd7 92bc 7e08 0fbe 0bd9 83be
00000280: 4a91 5ebd d707 873d 972e dabd a430 5d3e
00000290: 9c51 9abc 3ffa 4fbe 53b3 1a3b 4254 363e
000002a0: 7121 9dbd e30a 073e 21e4 60bd 6af5 88bd
000002b0: d2fc cfbd ece5 aa3e 3f61 06be 5f84 61bd
000002c0: 3bc2 4ebd c2bc 2dbe f7fd 0fbe 5661 483d
000002d0: b300 ff3d a8a7 f8bd c22d 4fbc 47cd 1f3e
000002e0: 464f 9c3d c4b2 a43d 3b94 b3bd ecae 603e
000002f0: 2c56 aabd 6652 853e 591b 333d 820b 663d
00000300: 6784 1cbd db80 193e be2d 63be bb78 bfbd
00000310: 3938 a63d 9ffd 31bd d34f 803d e256 8a3d
00000320: d613 73bd db86 013e 9a5b 59bd d48c 22bc
00000330: a6aa a53d 8c03 7a3e 142a c5bd bfac 6c3d
00000340: 37b5 6e3c 3013 c0bc 3188 d83c 3e4b 7dbd
00000350: 2891 4fbe 1490 dd3b 5e42 ffbd f017 e23d
00000360: a687 f8bd 6ff6 60bd e8aa 1fbe 69da 2d3b
00000370: b2f1 6b3e 38bc 05bd 5b5b b3bd b68c a23d
00000380: dc50 5bbe ab50 923c 8ad2 dfbd 02ff 3bbe
00000390: 0b8c 54bd 88b2 903c 93d0 143d ffec 47be
000003a0: ec48 743e 2423 48be 6ddc 24bd 495a 43be
000003b0: 9c90 e73d ab41 203e a946 b9bd af32 fd3d
000003c0: b42d 403e ae1d 05be bfd7 7fbd 71cf 763e
000003d0: 9ddb 8d3d 9cf0 28bd 7936 013e 9fc1 2dbe
000003e0: 8734 473d b9e1 633e d2ca 863d ca49 9abd
000003f0: 3cee f23d c19a 883e 9607 96bd e18e 5a3e
-0.0070075034 -0.08740452 -0.048523724 0.2938312 0.089852735 -0.16664568 -0.03557752 0.16288887
-0.06620399 -0.013108296 -0.09604898 -0.16034192 -0.0833128 -0.13370243 -0.24549793 -0.098133616
-0.12309 0.18123662 -0.2086129 0.015832607 -0.039464604 -0.005770041 0.05032885 -0.02039025
0.03992842 -0.28573468 -0.012681656 0.11319994 0.032935493 0.03928441 -0.19615492 -0.13861185
-0.03243107 -0.43760538 -0.11135086 -0.0075937505 0.15652144 0.022828272 -0.13137195 -0.1367981
0.06922538 -0.0028162033 -0.10537321 -0.033758093 -0.005211313 0.038146343 0.1094957 -0.23879789
0.0727397 0.20562613 0.006228446 0.2475947 0.06202641 0.16405766 -0.18677452 0.011684621
0.08952097 -0.17180783 0.16729394 0.060961194 -0.107848376 0.12341605 0.040461782 -0.18264471
0.031200754 -0.06809993 -0.015782356 0.085838474 -0.13088666 -0.050012805 -0.319673 -0.108714156
-0.08653574 0.17993632 -0.009512412 0.10760256 0.25762177 -0.03265167 0.20650093 -0.053550057
-0.11444477 -0.07103976 -0.16241084 0.15249224 0.00199717 -0.057208546 -0.21072572 -0.10142139
-0.13796459 -0.017140815 -0.045168176 0.12965593 0.046884716 0.19102994 0.0589591 -0.058180906
-0.07675987 -0.07908829 -0.35669178 0.19253601 -0.06908061 0.056783948 -0.0052067023 -0.14680266
0.07119828 0.1701061 0.049578074 0.04499246 -0.01588269 -0.08203541 -0.09872853 0.04587863
0.11256157 -0.0820519 0.18601488 -0.15324064 0.14338204 0.14826962 0.114509456 -0.16147888
0.1217453 0.12878889 0.007767895 -0.04206135 0.20729244 -0.08991249 0.07138437 0.03774877
-0.17608772 -0.04041108 0.07458533 -0.056708883 0.0125755 -0.17670652 -0.005356118 -0.20327064
0.09349546 0.043329347 -0.032510612 0.10644085 -0.057564765 0.19171551 -0.04544989 0.034625486
-0.19304527 -0.032731097 0.0821879 0.026372824 0.20894249 -0.19857833 0.052730426 -0.009472068
0.016972365 -0.20682949 -0.13830097 -0.0029916917 0.1536175 -0.017925194 -0.13968083 -0.25751528
-0.054337777 0.06593292 -0.106534176 0.21600586 -0.018837743 -0.20310305 0.002360542 0.1780558
-0.07672394 0.13187747 -0.05490506 -0.06687434 -0.101556435 0.3337854 -0.13123034 -0.05505788
-0.0504782 -0.16966537 -0.14061724 0.04892095 0.12451305 -0.12141353 -0.012645187 0.15605651
0.07632308 0.08041909 -0.08768507 0.21941727 -0.08317217 0.26039428 0.043727253 0.05616332
-0.038212206 0.1499056 -0.22185418 -0.093491994 0.08116192 -0.043454763 0.06265225 0.06754853
-0.05934509 0.126491 -0.053065874 -0.009921271 0.08089189 0.24415416 -0.096271664 0.05778193
0.014569572 -0.02344665 0.026432129 -0.061839335 -0.20270216 0.00676156 -0.124638304 0.11039722
-0.12135248 -0.054922517 -0.1559254 0.0026527888 0.23041418 -0.032650203 -0.08757659 0.07936995
-0.21417564 0.017860731 -0.10928829 -0.18358997 -0.051891368 0.017663255 0.036331724 -0.19524
0.23855942 -0.19544655 -0.040249277 -0.1907741 0.11306879 0.1565005 -0.090466805 0.12363183
0.18767434 -0.12999603 -0.06246161 0.2410257 0.069266535 -0.041245088 0.12618436 -0.16968392
0.04863408 0.22254075 0.06581654 -0.075336054 0.11861846 0.26680568 -0.07325666 0.21343566

mlp_extractor.value_net.0.bias f4 [128]
00000000: 0000 0000 0000 0000 0000 0000 0000 0000
00000010: 0000 0000 0000 0000 0000 0000 0000 0000
00000020: 0000 0000 0000 0000 0000 0000 0000 0000
00000030: 0000 0000 0000 0000 0000 0000 0000 0000
00000040: 0000 0000 0000 0000 0000 0000 0000 0000
00000050: 0000 0000 0000 0000 0000 0000 0000 0000
00000060: 0000 0000 0000 0000 0000 0000 0000 0000
00000070: 0000 0000 0000 0000 0000 0000 0000 0000
00000080: 0000 0000 0000 0000 0000 0000 0000 0000
00000090: 0000 0000 0000 0000 0000 0000 0000 0000
000000a0: 0000 0000 0000 0000 0000 0000 0000 0000
000000b0: 0000 0000 0000 0000 0000 0000 0000 0000
000000c0: 0000 0000 0000 0000 0000 0000 0000 0000
000000d0: 0000 0000 0000 0000 0000 0000 0000 0000
000000e0: 0000 0000 0000 0000 0000 0000 0000 0000
000000f0: 0000 0000 0000 0000 0000 0000 0000 0000
00000100: 0000 0000 0000 0000 0000 0000 0000 0000
00000110: 0000 0000 0000 0000 0000 0000 0000 0000
00000120: 0000 0000 0000 0000 0000 0000 0000 0000
00000130: 0000 0000 0000 0000 0000 0000 0000 0000
00000140: 0000 0000 0000 0000 0000 0000 0000 0000
00000150: 0000 0000 0000 0000 0000 0000 0000 0000
00000160: 0000 0000 0000 0000 0000 0000 0000 0000
00000170: 0000 0000 0000 0000 0000 0000 0000 0000
00000180: 0000 0000 0000 0000 0000 0000 0000 0000
00000190: 0000 0000 0000 0000 0000 0000 0000 0000
000001a0: 0000 0000 0000 0000 0000 0000 0000 0000
000001b0: 0000 0000 0000 0000 0000 0000 0000 0000
000001c0: 0000 0000 0000 0000 0000 0000 0000 0000
000001d0: 0000 0000 0000 0000 0000 0000 0000 0000
000001e0: 0000 0000 0000 0000 0000 0000 0000 0000
000001f0: 0000 0000 0000 0000 0000 0000 0000 0000
0.0 0.0 0.0 0.0 0.0 0.0 0.0 0.0
0.0 0.0 0.0 0.0 0.0 0.0 0.0 0.0
0.0 0.0 0.0 0.0 0.0 0.0 0.0 0.0
0.0 0.0 0.0 0.0 0.0 0.0 0.0 0.0
0.0 0.0 0.0 0.0 0.0 0.0 0.0 0.0
0.0 0.0 0.0 0.0 0.0 0.0 0.0 0.0
0.0 0.0 0.0 0.0 0.0 0.0 0.0 0.0
0.0 0.0 0.0 0.0 0.0 0.0 0.0 0.0
0.0 0.0 0.0 0.0 0.0 0.0 0.0 0.0
0.0 0.0 0.0 0.0 0.0 0.0 0.0 0.0
0.0 0.0 0.0 0.0 0.0 0.0 0.0 0.0
0.0 0.0 0.0 0.0 0.0 0.0 0.0 0.0
0.0 0.0 0.0 0.0 0.0 0.0 0.0 0.0
0.0 0.0 0.0 0.0 0.0 0.0 0.0 0.0
0.0 0.0 0.0 0.0 0.0 0.0 0.0 0.0
0.0 0.0 0.0 0.0 0.0 0.0 0.0 0.0

mlp_extractor.value_net.2.weight f4 [128, 128]
00000000: dd83 f63c 81ef 883d 24c1 753e 5bb0 c3bd
00000010: d8f4 1cbc 43d6 923d bdf4 50be c2d2 fdbc
00000020: 1f88 2d3d 40ef 6dbc 5817 0abe 5a6b 293d
00000030: 4454 06be 6bf7 cfbc 745e 4dbd daec 2dbe
00000040: 653c 8f3e d65f 0fbd f39a 353d ee7f 053e
00000050: 75f5 78bd 153b 9c3d 4fd5 04bc d7ed 82bd
00000060: 79a6 48bd 9eed 03be b18e 823e c39e afbd
00000070: 9bc3 d73d c1bd bf3d 7208 1e3e 6872 02be
00000080: fc43 ea3d 6337 93be 5903 82be ffb5 8b3c
00000090: 0e9f 51bd 9219 e93d 5b20 0abe 8b4e 9bbd
000000a0: 8861 34bd 550d 45bd 9481 153e b120 4b3b
000000b0: 9efe 26bd d6f3 4b3c f6c3 c93b 2251 ea3c
000000c0: 2ce5 c23d 2da4 ddbc 2812 57bd f939 a7bd
000000d0: bf1c 0abe 3966 8fbc 9e5c a9bd 3e26 85bd
000000e0: e674 383d 1f53 923d 04cb eebd 768b 1f3e
000000f0: 57e1 093e be88 64be 4d37 3ebd f94b 1f3d
00000100: fd40 803e e2ab 47bd c3c6 313e 0970 153d
00000110: b19b 833d 7491 11bd 1a63 ff3d ca75 d3bd
00000120: 3678 44be a9bf 4f3d 4c2f 6f3c 0048 803e
00000130: ba6e 843d 425d b33e 5d53 2e3d c028 243e
00000140: ac2f 0dbe d0c4 a23c 127f 9b3d 99fb 0a3e
00000150: 4397 523e a5c5 d5bb d676 563e b086 fb3c
00000160: c471 adbd a591 fe3b f355 453e 5025 0bbe
00000170: c5e6 72be a7ca 79be b9ce 1b3c ddd3 923b
00000180: 40d0 ce3d a7d0 3f3e dd89 a6bd 94c6 20bd
00000190: f833 c33d 2540 e3bd b3e0 af3d a7ae f93d
000001a0: c086 42bd 6efa 543e ed8f 213e 016d e3bd
000001b0: 5c97 bbbd 5f68 73be 4776 953d 3b2b 523d
000001c0: 50b9 163d d14c 233e eabb 253e f203 223e
000001d0: 0a44 3cbd 4d4a 4f3d bf8c 1a3e aa2c fcbc
000001e0: 6a38 0a3e 8ce5 1abd d69c 2cbe b7e6 f23d
000001f0: 2026 14be dcbd d33d bf6b 203d 0efa 613d
00000200: 4a19 273d 76fe 04be 573e 863c aecb 953d
00000210: 5d8e 0e3e f8d2 4fbd 4399 05bd 34fa 7cba
00000220: b09d 85bd 9091 493d acac 013e d0aa bdbb
00000230: 215b b8bd 0e25 69bd 3079 d7bd 984e 5fbd
00000240: 3a09 5fbc 9e55 51bd 75ca 1c3e f814 0dbd
00000250: 0fa3 423d 021f 2c3d e12b 853e 4eb2 a3be
00000260: 626e 84bd 5a1b 77bc f1f2 aa3c d4f8 2cbe
00000270: bf7a f9bd fd54 22bc 733e b3bd 28d6 28bd
00000280: cc7e ccbb 2dc5 80bc 1e7c 70be 98ce d2bd
00000290: 1544 d5bd b99f 363e 69f6 39bd 7248 a63d
000002a0: 249f 3e3d 08db 4d3c 25c9 273d 5950 7fbd
000002b0: 6abb 26bd 2fff a2bd 5711 e33d 41fa 833e
000002c0: f23f a2bd 5189 86bc 23fc 6f3e 9843 043d
000002d0: ce16 013e 0cd8 363e 439f c1bd 1f5e 15be
000002e0: 6cb8 5a3d c606 773e 32a9 eb3d cb6d 333d
000002f0: af9d 43bd 156f 63be 3b92 7b3d ca5d 853e
00000300: 013e 6dbd 182b a93c 7f42 94bd 2239 74bb
00000310: e69b 17be bce0 4bbd 9210 d83c ca4e 28be
00000320: 0e76 033e a2ec ce3d 9ec6 9bbd 8a1f 0c3e
00000330: ce76 7abe 3d16 563d e40f 88be 5607 e2bc
00000340: 6428 5b3d 6596 bb3d 1699 a53c e7fb 7dbe
00000350: 3098 f8bd 473f 033e 141c 0d3d bbc4 48be
00000360: 15ab 083d 9c47 7dbe f7e6 e5bd d94a 493e
00000370: fc40 afbd fc83 09bd f9f4 613d f62e 39bd
00000380: 2178 aabd 6863 973e 63e1 0dbe e56a 11be
00000390: 5c9f 003d 52e2 11bc e93f a03d b856 afbd
000003a0: b161 103e 65b4 79bc e2db cabd 0d90 c4bd
000003b0: 6180 473e 0cec c7bd 5439 7dbe a479 183e
000003c0: 1aea 16bd 7445 38be 6172 753c dfd8 2d3c
000003d0: ec34 87bd 4171 f8bd a5f1 aebd c34c 843a
000003e0: 0fd4 ca3d 90ee e4bd 5981 513e 23d1 6abe
000003f0: 458a bbbc 9234 8cbc 36eb 8f3a d00f 91be
0.030092174 0.06686307 0.23999459 -0.095551215 -0.00957986 0.071697734 -0.2040586 -0.030984286
0.042366143 -0.014522374 -0.13485467 0.041362144 -0.13118082 -0.025386533 -0.050138906 -0.16984883
0.27975765 -0.035003506 0.044337224 0.13037083 -0.06078096 0.076284565 -0.008107497 -0.063930206
-0.048986886 -0.12883613 0.2549949 -0.08575203 0.10535356 0.093623646 0.15432909 -0.12738955
0.11438748 -0.28753194 -0.2539318 0.017054556 -0.051177077 0.1138183 -0.13488905 -0.0758334
-0.044038326 -0.048108418 0.14600211 0.0030994827 -0.040770166 0.012448272 0.0061573936 0.02860314
0.09516367 -0.027055824 -0.05250755 -0.08165354 -0.13487528 -0.017504798 -0.082696185 -0.06501435
0.045033358 0.0714476 -0.11659816 0.15580544 0.13464867 -0.22317788 -0.046439458 0.038890813
0.25049582 -0.048747905 0.17360978 0.0364838 0.0642618 -0.035539106 0.12470074 -0.10325201
-0.19186482 0.05071989 0.014598679 0.25054932 0.06466432 0.35032088 0.04255997 0.1603117
-0.13787717 0.019869238 0.07592596 0.1357254 0.20565514 -0.006523805 0.2094377 0.030703872
-0.08468965 0.007768827 0.19271068 -0.13588452 -0.23720844 -0.24393712 0.009509736 0.0044808225
0.10098314 0.18731938 -0.08131764 -0.03925188 0.095313966 -0.11096219 0.0858778 0.121915154
-0.04749179 0.20798656 0.1577756 -0.11104775 -0.09159729 -0.23770283 0.0729795 0.05131076
0.03679782 0.15947272 0.16184965 0.15821818 -0.045963325 0.050607968 0.15092753 -0.030783016
0.13498083 -0.03781657 -0.16856703 0.118604116 -0.14467669 0.10338947 0.039165255 0.05517011
0.040795602 -0.12987694 0.016387148 0.073142394 0.13921495 -0.050738305 -0.032616865 -0.000965032
-0.06524217 0.049211085 0.12663525 -0.0057881847 -0.090017565 -0.056920104 -0.105211616 -0.054518312
-0.01361304 -0.05110704 0.15311606 -0.034443825 0.047518786 0.04202176 0.2601004 -0.31971973
-0.06466366 -0.015082205 0.020867797 -0.16891795 -0.12181615 -0.009907958 -0.087521456 -0.04121986
-0.0062407013 -0.01571902 -0.23484847 -0.10293311 -0.10413376 0.17834367 -0.04540101 0.081192866
0.046538487 0.012564428 0.04096331 -0.062332485 -0.040706076 -0.07958829 0.11087292 0.25776866
-0.07922353 -0.0164229 0.23436026 0.032291025 0.12606356 0.17855853 -0.09454205 -0.14586686
0.053398535 0.24123678 0.11506881 0.04380588 -0.0477578 -0.22210343 0.061418753 0.26048118
-0.05792046 0.020650432 -0.072392456 -0.00372655 -0.14805564 -0.04977487 0.026375089 -0.16436306
0.12838003 0.10103728 -0.076062426 0.13683906 -0.24459383 0.0522673 -0.26574624 -0.027591389
0.053505316 0.09159545 0.020214599 -0.24803124 -0.121384025 0.12817107 0.034450606 -0.19606297
0.03336628 -0.24734348 -0.11225694 0.19657458 -0.08557317 -0.033573136 0.055165265 -0.0452108
-0.08323694 0.29568028 -0.1385551 -0.14200933 0.031401977 -0.008904057 0.0782469 -0.08561462
0.14099766 -0.015240763 -0.099052206 -0.09597788 0.19482566 -0.09761819 -0.247289 0.14890152
-0.03684435 -0.17995244 0.014980883 0.010610788 -0.06601891 -0.121309765 -0.08542184 0.0010093678
0.09903728 -0.11178315 0.20459498 -0.22931342 -0.02289308 -0.017114911 0.0010980133 -0.28332376

mlp_extractor.value_net.2.bias f4 [128]
00000000: 0000 0000 0000 0000 0000 0000 0000 0000
00000010: 0000 0000 0000 0000 0000 0000 0000 0000
00000020: 0000 0000 0000 0000 0000 0000 0000 0000
00000030: 0000 0000 0000 0000 0000 0000 0000 0000
00000040: 0000 0000 0000 0000 0000 0000 0000 0000
00000050: 0000 0000 0000 0000 0000 0000 0000 0000
00000060: 0000 0000 0000 0000 0000 0000 0000 0000
00000070: 0000 0000 0000 0000 0000 0000 0000 0000
00000080: 0000 0000 0000 0000 0000 0000 0000 0000
00000090: 0000 0000 0000 0000 0000 0000 0000 0000
000000a0: 0000 0000 0000 0000 0000 0000 0000 0000
000000b0: 0000 0000 0000 0000 0000 0000 0000 0000
000000c0: 0000 0000 0000 0000 0000 0000 0000 0000
000000d0: 0000 0000 0000 0000 0000 0000 0000 0000
000000e0: 0000 0000 0000 0000 0000 0000 0000 0000
000000f0: 0000 0000 0000 0000 0000 0000 0000 0000
00000100: 0000 0000 0000 0000 0000 0000 0000 0000
00000110: 0000 0000 0000 0000 0000 0000 0000 0000
00000120: 0000 0000 0000 0000 0000 0000 0000 0000
00000130: 0000 0000 0000 0000 0000 0000 0000 0000
00000140: 0000 0000 0000 0000 0000 0000 0000 0000
00000150: 0000 0000 0000 0000 0000 0000 0000 0000
00000160: 0000 0000 0000 0000 0000 0000 0000 0000
00000170: 0000 0000 0000 0000 0000 0000 0000 0000
00000180: 0000 0000 0000 0000 0000 0000 0000 0000
00000190: 0000 0000 0000 0000 0000 0000 0000 0000
000001a0: 0000 0000 0000 0000 0000 0000 0000 0000
000001b0: 0000 0000 0000 0000 0000 0000 0000 0000
000001c0: 0000 0000 0000 0000 0000 0000 0000 0000
000001d0: 0000 0000 0000 0000 0000 0000 0000 0000
000001e0: 0000 0000 0000 0000 0000 0000 0000 0000
000001f0: 0000 0000 0000 0000 0000 0000 0000 0000
0.0 0.0 0.0 0.0 0.0 0.0 0.0 0.0
0.0 0.0 0.0 0.0 0.0 0.0 0.0 0.0
0.0 0.0 0.0 0.0 0.0 0.0 0.0 0.0
0.0 0.0 0.0 0.0 0.0 0.0 0.0 0.0
0.0 0.0 0.0 0.0 0.0 0.0 0.0 0.0
0.0 0.0 0.0 0.0 0.0 0.0 0.0 0.0
0.0 0.0 0.0 0.0 0.0 0.0 0.0 0.0
0.0 0.0 0.0 0.0 0.0 0.0 0.0 0.0
0.0 0.0 0.0 0.0 0.0 0.0 0.0 0.0
0.0 0.0 0.0 0.0 0.0 0.0 0.0 0.0
0.0 0.0 0.0 0.0 0.0 0.0 0.0 0.0
0.0 0.0 0.0 0.0 0.0 0.0 0.0 0.0
0.0 0.0 0.0 0.0 0.0 0.0 0.0 0.0
0.0 0.0 0.0 0.0 0.0 0.0 0.0 0.0
0.0 0.0 0.0 0.0 0.0 0.0 0.0 0.0
0.0 0.0 0.0 0.0 0.0 0.0 0.0 0.0

action_net.weight f4 [5, 128]
00000000: 3f86 3f3d 622b b63d b757 5d3b c851 5dbd
00000010: 09d2 563d f260 3cbd 01f5 823d f9db 0bbd
00000020: 14ac 493d 1f56 3f3c 9ca6 843c bd68 ce3c
00000030: 51db 6b3d bcdb e73d 3ed7 70bd 3cb4 d23d
00000040: af43 90bd 4b3a 90bd e25b 9d3b 62bf 7abd
00000050: 55de 53bd ebde 303d 28e7 16bc 40a2 c73b
00000060: b502 d93c 132f 4d3d 6f08 16bd d0b4 c33d
00000070: d1be c3ba d41d 16bd c9bd b2bc d1c6 593d
00000080: cbe4 3fbd 16a7 903d 58e2 92bd 3c17 b0bd
00000090: f846 bbbc 55bb ccbb 1b3f 37bb 1588 a4bc
000000a0: 86f9 623d 22a8 443d 30e8 d2bd c43d 7f3d
000000b0: a666 c53c 0254 3d3d 3239 813c 6d46 a53c
000000c0: 23cd b2bd b5aa af3c 5985 183d a9a6 88bd
000000d0: 7808 84bd 58fc a33a 61df 0bbd cee5 39bd
000000e0: 08b7 ae3d b962 8ebc 625f abbc 29d1 bebd
000000f0: 03ef 2fbd a338 673a 648f f43c 8062 56bb
00000100: 86c1 75bd c5ff c53c 34d5 933d 50ee c2bd
00000110: 4225 cb3c f5a1 0abd ad67 dfbc afee 353d
00000120: e09b 15bd 2e4b c63c 2867 553d 8dd7 42bd
00000130: 7dea 853d c84f b1bd 7e48 6ebc 52c2 833d
00000140: 8cd4 053d ee32 833c e116 b63c e340 d83c
00000150: 888e 293c dd64 1ebd 907c cc3b 3979 573d
00000160: 6b8f a0bd 85ed 95bd 66cb 243d 51c2 a63c
00000170: a69d 63bd 15bf 29bc a429 11bd c73a 453d
00000180: d27f c63c fbdc 553c bda2 9e3d b3b0 5dbd
00000190: 3cff 793d 19ea 52bd 9886 04bd d0aa 203d
000001a0: 994f fe3b 3147 a9bd ccf1 b8bd a2a2 3f3d
000001b0: d1c0 30bd ba5a e13d d530 8abb d1de 37bd
000001c0: 3c9d e3b9 7add 88bd e29f 62bc c0b0 c83d
000001d0: 458a c0bc 6d39 67bd 2b46 8b3d 7917 9b3d
000001e0: 1fef da3c e834 c13c c5cd 253d aeee dabc
000001f0: 6d2f 78bc 1bb4 5f3d 68c6 553d 25be d93c
00000200: 09fd 99bd bed4 d1bc 3eae adbc 6640 7d3d
00000210: 9883 0e3d dd41 44bc 618b 213d 803e 08bd
00000220: 3918 1fbb eb29 9e3c c5c9 243c 3bb1 1bbc
00000230: ff9f 7a3d 69e3 3cbd 6875 843d d8de babd
00000240: dd9a 603d c267 6cbd 9862 d1bd 3363 0cbd
00000250: 193d 843d 3a0b 903d f9f7 9dbd e43e 92bd
00000260: 29eb 933c 713d ebba 5ab5 89bc cf45 d7bd
00000270: 5aee ac3d 8b52 f4bc 66ca d3bc 048d 04bd
00000280: 9446 af3c c021 0e3d f84e 0ebd ed61 80bd
00000290: 855b ae3d a8f3 1c3d edda b93d 880c 813d
000002a0: bec5 6c3c 981b de3c 9986 9ebd dc51 b8bd
000002b0: 5418 01bd 4ad2 2c3c a3b5 b13d 3b8e 313d
000002c0: 4ccb 39bc 751a debd f697 653c d0a7 103d
000002d0: c024 12bd 93f9 cdbb 64c3 d5bc 7711 04bd
000002e0: 7715 c8bd 2ec5 dd3d a36c b9bc 58be de3b
000002f0: 0d29 e03c 1875 943d f6a5 8abc e341 d6bd
00000300: 6d30 e8bb 4a2a 603d b1eb 383d e223 b93d
00000310: 7c22 6e3c 956a 7e3d c90b 43bd 2afd a5bc
00000320: 4302 433d 12b5 36bd c427 ab3d 01c2 91bd
00000330: 773a 9c3c 1f2a bd3d 6f37 41bd 1e1b 4abd
00000340: de38 aa3c 6d14 b53c e1c6 d93c 38b8 f23c
00000350: 960c 00bc d268 ab3d 4277 6dbd 4221 0d3d
00000360: d7b0 093c 0e3f 413d 166f 133d d4bb eb3c
00000370: bf11 903d 96e3 32bd d28f bfbc b6a1 db3d
00000380: 328a 403d 314d a7bd fc98 7cbb c8b2 51bd
00000390: 76b5 033d cc75 873d 4d2c 4cbc 6747 2b3d
000003a0: cb98 c43c 5598 083d 1d82 f93d 14f5 adb9
000003b0: a5a1 1f3d c6a5 89bd c59e b4bd a786 96bd
000003c0: e40b 3c3d 6ebd 29bd 5122 873c efae 76bd
000003d0: 8442 9abc d524 55bd 2161 88bd 0e67 21bc
000003e0: 511a dabc aa42 b53c 602c 923b 0772 2cbd
000003f0: 4178 493d 7bcf 4d3d 6abc 2e3d 4870 823d
0.046758886 0.08894993 0.0033774206 -0.05403307 0.0524464 -0.04599089 0.06394387 -0.03414533
0.049236372 0.011678248 0.016192727 0.025196427 0.057582203 0.11321208 -0.05879902 0.10288283
-0.070441596 -0.070423685 0.004802213 -0.061217673 -0.051725704 0.04318134 -0.009210385 0.0060923398
0.026490549 0.05009372 -0.036629137 0.095559716 -0.0014934187 -0.03664954 -0.021819012 0.05316812
-0.046849053 0.07063119 -0.07172078 -0.085981816 -0.022860989 -0.0062479177 -0.0027961198 -0.02008442
0.055413745 0.048011906 -0.102981925 0.062314764 0.024096798 0.046222694 0.015774343 0.020175183
-0.08730533 0.021443704 0.037236545 -0.06672413 -0.06446928 0.0012511117 -0.034148578 -0.045385174
0.08531004 -0.017381059 -0.020919506 -0.09317238 -0.04295255 0.000882039 0.02985353 -0.003271252
-0.05999901 0.024169812 0.072184 -0.09518111 0.02479804 -0.03384586 -0.027271116 0.04441708
-0.036525607 0.02420577 0.05210033 -0.047568846 0.06538866 -0.08657795 -0.014543651 0.06433548
0.032673404 0.016015496 0.022227706 0.026398128 0.0103489235 -0.03867041 0.006240435 0.05260584
-0.07839855 -0.07320694 0.04023304 0.02035633 -0.055570267 -0.010360499 -0.035440102 0.048151758
0.024230871 0.013053174 0.077458836 -0.05412359 0.061034426 -0.051492784 -0.03235492 0.0392254
0.0077609536 -0.08265532 -0.09030494 0.046785958 -0.043152634 0.11003633 -0.004217247 -0.04489023
-0.00043413963 -0.06682868 -0.013832064 0.097993374 -0.023503432 -0.05645125 0.06800493 0.075728364
0.02672535 0.023584798 0.04047944 -0.02672514 -0.015148026 0.05461512 0.052191168 0.026579926
-0.07518966 -0.025614139 -0.02120125 0.061828993 0.034793466 -0.011978594 0.039439563 -0.03326273
-0.0024275912 0.019307097 0.010057871 -0.009502704 0.06118774 -0.046115313 0.06467706 -0.09124535
0.05483519 -0.05771614 -0.102238834 -0.03427429 0.06456966 0.07033391 -0.07713313 -0.07140902
0.018056469 -0.0017947388 -0.016810108 -0.10511362 0.084438995 -0.029824516 -0.025853347 -0.032361045
0.021395959 0.034700155 -0.03474328 -0.06268678 0.0851355 0.038318306 0.0907496 0.06301218
0.014451442 0.027112767 -0.07740516 -0.089999884 -0.03151734 0.010548184 0.086772226 0.043348532
-0.011339974 -0.1084489 0.014013281 0.03531629 -0.03567958 -0.006285855 -0.026094146 -0.03224322
-0.09769719 0.10828625 -0.02263481 0.006797593 0.027363325 0.07248896 -0.01692484 -0.10461786
-0.007085851 0.05472783 0.045146648 0.09040047 0.014534589 0.062113363 -0.04761866 -0.02026232
0.04760958 -0.044606276 0.08357194 -0.071170814 0.019070847 0.092365496 -0.047172006 -0.049342267
0.02077907 0.022104466 0.02658409 0.029628858 -0.007815501 0.08369602 -0.05797506 0.034455545
0.008403978 0.047179274 0.03599461 0.028776087 0.07034635 -0.043674074 -0.023384009 0.10724203
0.047006793 -0.0816902 -0.0038543334 -0.05119589 0.032155477 0.06614265 -0.012461734 0.04181614
0.023998639 0.0333484 0.1218302 -0.0003317973 0.038972516 -0.06721072 -0.088193454 -0.07349902
0.045909777 -0.04144042 0.016495856 -0.060225423 -0.018830545 -0.05203708 -0.06659151 -0.00985123
-0.026623877 0.022126514 0.0044608563 -0.042100932 0.04918695 0.050246697 0.042660154 0.06369072

action_net.bias f4 [5]
00000000: 20e0 a83c 45a5 b83c c917 e03b a45f 903c
00000010: 2774 7cbd
0.020614684 0.022539744 0.006838773 0.01762373 -0.06163421

value_net.weight f4 [1, 128]
00000000: 1020 063e 5bdc cc3d af7e 56bc 4433 d3bd
00000010: 3265 6c3d b8e2 4dbd 9a03 50bd afce c7bd
00000020: f0f0 dbbc 023b e2b8 34cd df3d 2f01 a93d
00000030: c2b2 9b3c 2818 8e3c e6c3 32be 422b 33bc
00000040: cb27 79bd 477f cfbb 2e0d 72be 032c 66bd
00000050: a00b 5e3d 95f1 1cbe a560 103d a322 3e3e
00000060: 48c4 403e c21a a13d 03ea 62bd 99f7 c4bb
00000070: 4322 91bc 40d5 9c3d 2030 243e cdaa bfbc
00000080: a12b 043e 1a98 a8bd f05b 12be f413 a3bd
00000090: 1974 bd3d 91c1 b43d 1658 63bc 5c3a 803d
000000a0: 14d6 d23d 8b44 043e 6542 cabd 3768 7f3d
000000b0: 5618 18be 0d21 0abc 6604 1fbe 9cf0 be3d
000000c0: 3338 4cbe c821 a13d e114 053d 7438 9fbd
000000d0: ec6c 48bd 3f16 163b feb3 cdbd e13f 9dbd
000000e0: 1a79 bebc 8188 0abc 690a 383e 16bb 9abd
000000f0: b406 013e 5ff7 eebc f1c1 c03c 49b8 f33d
00000100: 79f5 d83d 3b9a 6dbd 1481 2d3d 41d5 15be
00000110: d4af 973c c910 33be 729d 053d 522f f13d
00000120: 1eb9 48bd fda9 d1bc 89e1 00be 5de5 d1bc
00000130: 7e91 853d 9c44 c33d c147 aabd 8c32 d7bd
00000140: d941 9ebd eca3 b03c 1317 50bd 9b63 0a3d
00000150: 610c dd3c b579 48ba 1fbb 80bd 520e debd
00000160: 811d e6bd 1a96 13be 7ceb acbd 8e25 c93d
00000170: 9884 7a3c 9c62 2d3c 4572 31bd ca4a 9ebb
00000180: ae7d 003c 33d3 ce3d 868d 413d b330 183e
00000190: f085 73bd 6d2f 3b3d b631 093c 45c4 e0bd
000001a0: 473c 07bb dbe6 dd3d ebc5 3fb9 82d5 9e3d
000001b0: 23ab 05bd 92c7 243c e512 1bbd 4c02 913d
000001c0: f152 f9bd 41f9 18bd 0479 0f3d 0c31 833c
000001d0: 1968 a23d 5743 12be 17b9 043e c255 183c
000001e0: c011 5f3d 6743 1ebd 7136 6dbd 5610 903d
000001f0: 86ae a63c ab3f 3fbd 10a9 9b3d 93ba c8bd
0.13098168 0.10002967 -0.013091727 -0.103125125 0.057713695 -0.050265044 -0.050784685 -0.09756219
-0.026848286 -0.00010787511 0.10927811 0.08252179 0.019006137 0.017345503 -0.17457542 -0.010935606
-0.060828965 -0.0063323113 -0.2363784 -0.056194317 0.054210305 -0.15326531 0.035248417 0.185679
0.18824875 0.07866432 -0.055398952 -0.0060109613 -0.017716533 0.07657862 0.16033983 -0.023396874
0.12907268 -0.08232136 -0.14292884 -0.0796279 0.092506595 0.08825982 -0.013875982 0.06261131
0.102947384 0.12916772 -0.09875945 0.062355246 -0.14853033 -0.0084307315 -0.15529022 0.09323236
-0.19943313 0.078677714 0.032490615 -0.077744395 -0.048932 0.0022901443 -0.100440964 -0.076781996
-0.023251105 -0.008455397 0.17972721 -0.07555215 0.12600213 -0.02917069 0.023529978 0.11900384
0.10593695 -0.058008414 0.042359427 -0.14632131 0.018516459 -0.17486872 0.032620855 0.11776604
-0.049004667 -0.025593752 -0.12586035 -0.025622064 0.06521891 0.095345706 -0.08314467 -0.10507688
-0.07727403 0.021562539 -0.050803255 0.033786397 0.026983442 -0.00076475303 -0.062856905 -0.10842575
-0.11236096 -0.14412728 -0.084433526 0.09821616 0.015290402 0.010582592 -0.043321867 -0.004830693
0.007842464 0.10098877 0.047254108 0.14862327 -0.059453905 0.045699526 0.008373668 -0.109749354
-0.0020635293 0.10835048 -0.0001828891 0.07755567 -0.03263391 0.010057347 -0.037859816 0.07080516
-0.12174023 -0.037347082 0.03502752 0.016014598 0.07930011 -0.142835 0.12961231 0.00929779
0.054460287 -0.0386385 -0.057913247 0.07034366 0.020346891 -0.046691578 0.076006055 -0.09801211
