toy_its/train_logs/map_fixedpos/eval/bc_model_2000000.pth (torch, 38914 bytes, 11 tensors)

mlp_extractor.policy_net.0.weight f4 [32, 81]
00000000: b5b2 d9bd 9c4c d43c 9e03 f33d 1c70 573e
00000010: 948a 933e 8859 95be d4f2 8c3e da05 d5bc
00000020: da06 e93d 9279 6a3c 7187 ad3e aa9b e43d
00000030: 0404 1b3e 4130 d4bd f36b 72bd fbf7 893a
00000040: ba6a fbbd a724 85bd acf4 613e 3c24 5bbd
00000050: 403b 29be 1e3c c2be c935 29be ee3f 173d
00000060: 6d40 9a3e 0dc6 8a3e 3951 4bbe 8303 22be
00000070: 9c45 b9be 8b50 0abd d084 2abe 9d67 aebb
00000080: 130c cfbc 0703 073f 4672 373d ab98 b4bd
00000090: f771 3c3d 74d3 b03e 9bc7 fc3d 660a c13d
000000a0: b647 e6bd cb98 ea3c 2dc9 273e 5461 6f39
000000b0: 63c3 933d 823d 913e efa9 90be 50e6 bc3d
000000c0: 9eb3 483c 6cf9 353e 0b97 303d 09c0 143f
000000d0: dc74 2dbd 9bda 2dbd 361b 2e3c 9861 fcbe
000000e0: e0d2 81be 4272 24be e3f6 b23d 4304 02be
000000f0: 10db adbe 68e1 973e 0d42 1a3d 8263 ae3d
00000100: 16aa 563d 2119 e0bc 7abd 4e3e 40ad 9dbe
00000110: e0cf a93e dcf6 4f3e 3f4c 8dbd 235d 993d
00000120: 0373 c23d 7324 593e 435c 1f3e 82fa 0ebe
00000130: bb87 463e 596d d8be c3ad a7be c105 ffbc
00000140: 3cfe 6abc 240a 9fbe 69d5 6abd cc22 dd3d
00000150: 8d46 bb3d 414e c0be 1c52 92bd dbd6 223e
00000160: 5e43 23be 7b97 75bd c266 8ebd a76d f63d
00000170: 1237 0cbe 2519 7dbc bb48 45bd 87b1 633e
00000180: d502 663e e2d8 ce3d 26e9 76bd 4c57 cebc
00000190: 4926 be3e c2b2 be3d 0f00 aebd c91a 443e
000001a0: 550b 273e b03a 353e 681c 84bd ef82 673e
000001b0: 1150 bebd 130c 66be 585f 393e 8f1b d53d
000001c0: da78 823d f39e febd 568c 043f 2a1f fe3d
000001d0: 460c 25be 5ec2 2ebe 19cc 973e 1a3c a73c
000001e0: e9de a6be 371d 163e 2639 72be d0b2 fd3c
000001f0: 3e3e e13a 0539 ffbd 71eb dabd c3fb 583c
00000200: cc32 323d a2c3 6abe 0178 88bb fe90 4b3e
00000210: f0e1 00be 5c63 84bc 8af5 3ebd 88ea 9bbd
00000220: c693 62bd f79d 17bc 08d7 afbd 7721 c33d
00000230: d692 8d3e 3147 b7bd 58c4 963d 875f cc3d
00000240: ff65 38be 73c7 8a3c 1034 05be 2ebb 243e
00000250: 710c cd3e 1c72 bf3d ffe6 16be 2418 2fbd
00000260: db6d 4dbe 6544 563e 0051 023a 6655 a5be
00000270: 6751 b0bd 2b2d 543e 6d69 a83e 5d1d b53e
00000280: 1dd4 c13e d704 04be ac45 8a3d 6208 e2bc
00000290: fa8f 53be 8fcb 0eb9 0372 cf3d acf2 55be
000002a0: e54e 3a3e 698c 02be 7731 9e3c fc58 2b3e
000002b0: 4e6a 383d 9939 b0bd 98e0 02be e8e7 1c3d
000002c0: 5821 66be 6046 283e 8545 923a 0c06 1d3e
000002d0: f21e 56bc 5cdf a0be fbc6 13be e07d 4bbe
000002e0: cd1c a9be a37f b23e e97f 943e 89c9 30be
000002f0: 03bc 0b3e 9c9d a23e 47dd 40be 1fcc 89bd
00000300: 5610 4e3d b271 843d 8c67 213d 2955 f33c
00000310: e688 3fbe b172 04bb 0993 5fbc 6287 513e
00000320: 9c47 8cbe 5eb8 36be fdad bcbd 69dd b93b
00000330: 35f9 283e 43f3 c6bd d0d7 3f3e df99 d63d
00000340: d603 95be 5ee7 c53d f02e 11be 00b3 c2bd
00000350: 44ec e73e 6b9a 963c d351 82be 0acf 77be
00000360: 5238 7abe 23a7 35be a146 a0bd 70ed 09be
00000370: 9ecd 803e 3f87 8dbd efc0 d2be 6706 ba3e
00000380: c0d5 8fbd 1737 553d 17c4 dfbe ac7b aebd
00000390: 92d6 403e f95e 86be 4fd1 9d3d 5fe2 adbe
000003a0: 69a8 28be 5305 89be 6f69 8abe 9955 b7bd
000003b0: 0f07 9bbe 28f7 05be 1ee4 d83c 87c5 c2be
000003c0: eada 84be 5658 c7bd 6f64 d3bc 1c10 7abe
000003d0: a8f2 19be dce5 0abe 11c6 e03d f096 5e3e
000003e0: 84af a7be 6a7b b43c 1736 b93c cdac 0ebe
000003f0: 972e 41bd d6f4 163c 008f 353d 5d28 b73d
-0.10629789 0.025915436 0.11865924 0.2103886 0.28816664 -0.2916987 0.27529013 -0.026003767
0.1137826 0.014311211 0.33892396 0.11162503 0.1513825 -0.10360766 -0.05918498 0.0010526174
-0.12276216 -0.065011315 0.22065991 -0.053501353 -0.16526508 -0.3793649 -0.16524424 0.036926202
0.30127278 0.27104226 -0.19855203 -0.15821652 -0.3618592 -0.033768218 -0.16652226 -0.0053224103
-0.025274312 0.52738994 0.044786714 -0.088181816 0.046007123 0.34536326 0.12342759 0.094258115
-0.112441465 0.02863731 0.16385336 0.00022829074 0.072150014 0.2836724 -0.2825465 0.09223616
0.012249855 0.17770928 0.043112796 0.5810552 -0.042347774 -0.042444807 0.010626605 -0.49293208
-0.25356197 -0.16059211 0.08738496 -0.12696938 -0.33956194 0.2966416 0.037660647 0.08515073
0.0524083 -0.027355732 0.20189467 -0.30796242 0.3316641 0.20309013 -0.068993084 0.074884675
0.09494593 0.2120531 0.15562539 -0.13962749 0.19387715 -0.42270926 -0.32749757 -0.031130673
-0.014342841 -0.31062424 -0.05733243 0.107976526 0.09144316 -0.37559703 -0.07144567 0.15902273
-0.15943667 -0.059958916 -0.06953193 0.12032633 -0.13692883 -0.015447889 -0.048165064 0.2223569
0.22462018 0.10099961 -0.06028094 -0.02518811 0.37138584 0.09311439 -0.08496105 0.19150843
0.16312917 0.17698169 -0.064507306 0.22608541 -0.09292615 -0.22465543 0.18102777 0.10405647
0.06370707 -0.12432661 0.51776636 0.12408288 -0.16117963 -0.17066333 0.29647902 0.0204144
-0.32591942 0.14659582 -0.23654613 0.030969054 0.0017184687 -0.124620475 -0.10689438 0.013243618
0.043505475 -0.2292619 -0.004164696 0.19879529 -0.12586188 -0.01616066 -0.046620883 -0.07613093
-0.05531671 -0.00925397 -0.08585936 0.09527867 0.2765109 -0.089491256 0.07361668 0.09979158
-0.18007658 0.016940808 -0.13008142 0.16087028 0.40048555 0.093479365 -0.14736556 -0.04274763
-0.20061438 0.20924528 0.00049711764 -0.32291716 -0.08609276 0.20720355 0.32892933 0.35373965
0.37857142 -0.12892471 0.0675157 -0.027591888 -0.20660391 -0.00013618007 0.10129168 -0.20893353
0.18194158 -0.12748875 0.019310696 0.16733164 0.045023255 -0.08604736 -0.12780988 0.0383071
-0.22473657 0.16433096 0.0011159634 0.15334338 -0.013068901 -0.3142041 -0.14431374 -0.19872236
-0.33029786 0.34863004 0.29003838 -0.1726438 0.1364594 0.3176087 -0.1883441 -0.06728386
0.050308548 0.06466998 0.03940539 0.029703693 -0.18704566 -0.0020209963 -0.013645896 0.204618
-0.27398384 -0.17843768 -0.09212873 0.005672146 0.16501315 -0.09714367 0.1873467 0.10478567
-0.2910449 0.096632704 -0.14178061 -0.09506798 0.45297444 0.01838418 -0.25453052 -0.24200073
-0.24435547 -0.17739539 -0.078259714 -0.13469481 0.25156873 -0.06910562 -0.41162822 0.3633301
-0.070231915 0.05205449 -0.43704292 -0.08519682 0.18831852 -0.26244333 0.07705938 -0.3396177
-0.16470493 -0.26761875 -0.27033564 -0.08951873 -0.30278823 -0.13082564 0.026475962 -0.38041326
-0.25948268 -0.097336456 -0.025804726 -0.24420208 -0.15033972 -0.13564247 0.10975278 0.21737266
-0.32751095 0.022031505 0.0226088 -0.13933106 -0.047163572 0.009213647 0.04432583 0.089432456

mlp_extractor.policy_net.0.bias f4 [32]
00000000: c8cf 0cbd f559 dc3a 519a ab3c 32fa c73c
00000010: 9408 863d 85e7 3cbd 7d93 8d3c 9646 7e3c
00000020: 5b45 dd3d a084 7dbd aac7 5bbd 4abe c1bd
00000030: a7ae 1dbd 4e87 973d 980f 5cbd 5c8a 763d
00000040: 338d f83c 0c65 bfbc 2361 4ebd 629d b83c
00000050: 1549 05be 8378 d5bc 8811 39bd ad73 1fbd
00000060: 382c d63c 2e58 adbc 02c3 9d3b a0be f53a
00000070: 0598 c03c 88a8 863a 5de1 de3c 0655 003c
-0.034377843 0.0016811477 0.020947607 0.024411295 0.06544605 -0.04611923 0.017282242 0.015519759
0.10804244 -0.06189406 -0.05365721 -0.09460123 -0.03849664 0.07398854 -0.05372581 0.060190544
0.030340767 -0.023363613 -0.050385606 0.022535983 -0.1301616 -0.026058441 -0.045182735 -0.038928676
0.026144132 -0.021160211 0.0048145065 0.0018748827 0.023509989 0.0010273615 0.027207071 0.007832771

mlp_extractor.policy_net.2.weight f4 [32, 32]
00000000: 52dd a23c ae5e 1abd 89c7 29be ea2d 1abc
00000010: d829 803f 363d 4cbf caa3 16be bc44 8b3d
00000020: 153f 823e e5f3 2fbf 6b8c 72be 145d 113e
00000030: e02f b9be 10bb 823d e227 083f 2427 243e
00000040: b532 23bd c987 4cbe 7c04 703c 2c1e 0ebe
00000050: 19fe a4bd 398b f1be bc08 693d d950 01bf
00000060: 37f4 5e3f aa27 713e 6962 54be 02ba cb3e
00000070: 6a80 ac3e b302 fc3e 328b 75be eeda 5d3e
00000080: 048a 6cbe 0bae dfbe 1316 16be 53a2 913e
00000090: 9589 df3d bece e03e 6c2c f4be aa75 02bf
000000a0: 7b22 dfbd 8d0d b83e a43d ff3e 8e6d 83be
000000b0: 91ad 933d 110a 68be 1650 833e 98df 64be
000000c0: 7f2f 893d 13d7 72be f2c0 83be f644 a0be
000000d0: 485f ec3e 80d3 cc3e 527c 86be ed3e 53bd
000000e0: f682 5bbd 3829 1e3c 29f5 89bd 7112 033f
000000f0: 3c2f d4be cdd0 0f3f 2714 1dbe 883b ac3c
00000100: 8f76 243e e5ac 873e 6ff6 f63e ce86 98bd
00000110: cef6 ee3e 56f7 67be 13d2 593f 45f3 7f3e
00000120: 2c43 97be 58eb 1abf d9e5 bb3e be7f 9cbd
00000130: 7c51 613f 5da8 5bbd 3c4c b3bd e4a2 243d
00000140: e444 10bc d4f2 98be d5e5 0c3f 4390 723b
00000150: 73ba 5e3e 4b4e c13e 9935 a9be 639b 62be
00000160: bf31 4f3e 2ce6 62be 7d27 0bbe 7e32 733e
00000170: fd46 11be c2fa 97be 8332 04be 8110 f1bd
00000180: 4cf8 e5b8 a0d9 80be 59c0 153f 000e c1bd
00000190: 82ef 2a3f c2fe 01be f1e9 233e c1c9 0ebe
000001a0: 9192 943e a152 78bf baee 173e 533b 3a3c
000001b0: eed5 27bf 4818 a23d e71b 063f f5c8 79be
000001c0: a63d 843e ea6e febd f7ac 573e 75df 66be
000001d0: 4abf e0bd e47a 91be 8a96 943e fbf6 b2be
000001e0: fbee 553f fb97 ca3d 81f0 b83e 27ab 203e
000001f0: 84cc d7bc e7d9 1fbe 91f7 b23e dae5 783e
00000200: c9c5 ae3e 593d 013f 51e8 773e afcd 073f
00000210: 47ff 0fbf 0384 1ebe 6e08 db3e 1fca bd3e
00000220: 87bc 3a3b 99b3 4b3f f908 01bf ff6b 473b
00000230: 8fc0 293e d9b5 723e 65e8 d93d d621 94be
00000240: 3578 413e a0fa 4ebd d902 913d 285f d2be
00000250: 8f61 9ebd 3aff c93d e8a4 3ebf fc68 ddbd
00000260: 773d 88bc 31ea c2be 7a7e 953e 7d31 f9be
00000270: ff3f 17be c011 2bbe 2c68 cfbe 5ecf acbd
00000280: 90a2 82be 2638 8abe d784 fbbe 7b9b 443f
00000290: c94b 88be 2652 f03e 2c79 98be 652a b33e
000002a0: eb01 4c3e 99bc acbe 02d7 0c3f d46e 033e
000002b0: 1da5 29bc edb6 5d3d b7b2 903e 74b6 6dbe
000002c0: e23e 3f3e 6b1d 8bbe 9458 323d 8c9c 37be
000002d0: 6648 683d e67f 863e 033c 2d3d e133 133f
000002e0: 300d bdbe 1589 ba3e 8a46 acbd 68bd ae3e
000002f0: 3d7e dc3d 6537 8b3e 62ac a6bc b426 42be
00000300: 3432 71be 0f93 1b3e b2fc 4cbf 7a1b 0abe
00000310: 673a 7ebe e03e b83e d70f 893e 2ad7 f6be
00000320: ba95 adbe 39e4 003f e6a9 fbbd 008f aa3e
00000330: d343 58bc 25b9 79be ea39 01bf 4f26 eabe
00000340: 3203 fdbd 99ab 01be 539d 2bbe 18e6 25bd
00000350: 6da7 473e d293 8bbb 0b36 06bf 5160 f43e
00000360: cea3 e3be d3a8 923e 1b82 ff3d fe87 59be
00000370: 055c cebd bcb7 a1be 4404 1abe 5f52 17bf
00000380: 6be4 f63e 705f 94bd e51a 0c3e 2445 b6bd
00000390: dde1 df3e e67d b3be f902 02bf c15b a6be
000003a0: 0e6b f53e 2f0f 14bf 98de 383e 4821 84be
000003b0: fddb 463e 24e6 4e3e 8930 203e 53c4 a83e
000003c0: 0f0b a33e 1d2e 48be b31f 9b3e 4f6b 793e
000003d0: a91f bf3e 9c08 c9be b793 293e 3791 d6be
000003e0: a15d 633f 21b5 af3e a3a6 313e 35f9 77be
000003f0: a669 973e 0f03 403e 02ef fa3e fb1f 6abd
0.019880924 -0.03768795 -0.16580023 -0.009410361 1.001277 -0.797809 -0.14710918 0.068002194
0.25438753 -0.6873153 -0.23686378 0.14195663 -0.36169338 0.063833356 0.53185856 0.16030556
-0.03984328 -0.19973673 0.014649507 -0.13878697 -0.08056278 -0.4717653 0.056893095 -0.5051399
0.8709139 0.23550287 -0.20740665 0.3979035 0.33691722 0.4922081 -0.2397888 0.21665546
-0.23099524 -0.43687472 -0.14656858 0.28444156 0.109149136 0.43907732 -0.4769014 -0.5096079
-0.108952485 0.35947838 0.49851716 -0.2566952 0.072108395 -0.2266009 0.25647038 -0.22350919
0.06698512 -0.23714857 -0.25733143 -0.31302613 0.46166444 0.40005112 -0.26266724 -0.051573683
-0.05359169 0.009653382 -0.06736214 0.51200014 -0.41442287 0.5617798 -0.15339719 0.02102448
0.16060852 0.26499096 0.4823489 -0.07447587 0.46672672 -0.22652945 0.8508617 0.24995144
-0.29543436 -0.60515356 0.36698797 -0.076415524 0.8801496 -0.05362736 -0.08754775 0.040194407
-0.008805487 -0.29872763 0.55038196 0.0037012256 0.21750812 0.37755045 -0.33048704 -0.22129588
0.2023382 -0.22158116 -0.13589282 0.2374973 -0.14187236 -0.296835 -0.12909894 -0.11770726
-0.0001096582 -0.25166035 0.58496624 -0.094264984 0.6677171 -0.12694839 0.1600721 -0.1394415
0.2901807 -0.9700108 0.1483716 0.011366683 -0.65560806 0.079147875 0.52386326 -0.24393065
0.25828284 -0.12423499 0.21062075 -0.2254618 -0.109739855 -0.2841407 0.29021102 -0.34954056
0.8356778 0.09892269 0.3612099 0.1569029 -0.026342638 -0.15610467 0.34954503 0.24306431
0.34135273 0.50484234 0.24209715 0.53048223 -0.562489 -0.15480046 0.4277987 0.3706827
0.0028493719 0.7957092 -0.50404316 0.003042936 0.16577362 0.23702182 0.10640029 -0.28932065
0.18893512 -0.050531983 0.07080621 -0.41088223 -0.077334516 0.09863134 -0.74470377 -0.1081104
-0.016630871 -0.380693 0.29198056 -0.4867057 -0.14770506 -0.1670599 -0.40509164 -0.0843799
-0.2551465 -0.26995963 -0.49124786 0.76799744 -0.2662032 0.46937674 -0.29779947 0.34993282
0.19922607 -0.3373764 0.55015576 0.12835246 -0.0103543075 0.05412953 0.2826135 -0.23214132
0.18676332 -0.27170882 0.043541506 -0.17930812 0.05670967 0.26269454 0.04229356 0.57501036
-0.36924124 0.3643271 -0.08411892 0.3412888 0.107662655 0.271907 -0.02034587 -0.18960077
-0.23554307 0.15192817 -0.8007308 -0.13487044 -0.24826966 0.3598547 0.26769897 -0.48211032
-0.33903295 0.5034824 -0.12288265 0.33312225 -0.013199764 -0.24387033 -0.50478995 -0.45732352
-0.12354125 -0.12663116 -0.16759233 -0.040502638 0.19497462 -0.004259565 -0.52426213 0.47729734
-0.4446091 0.28644428 0.124759875 -0.21243283 -0.10076145 -0.3158549 -0.1504069 -0.59110063
0.48221144 -0.07244766 0.13682134 -0.08899906 0.43727008 -0.3505699 -0.50785786 -0.32491878
0.4793324 -0.5783567 0.18053663 -0.25806642 0.19419856 0.20204979 0.15643515 0.32962283
0.31844375 -0.19548841 0.30297622 0.24357341 0.37328842 -0.3926438 0.16560255 -0.41907665
0.8881474 0.34317878 0.17348723 -0.24216159 0.2957279 0.18751167 0.49010473 -0.057159405

mlp_extractor.policy_net.2.bias f4 [32]
00000000: 015c 05be 89b9 97bc cdc7 173e f34b e8bd
00000010: 1948 153e 969f c0bd 5e22 9b3d ce6b 35bd
00000020: c088 7dbd 749a 083e 0a24 073c df14 6b3d
00000030: 344a 323b 6333 1c3d eafd e6bd f160 213d
00000040: 84a2 aebd 45c7 073e dfcf 9bbd 09f1 8fbe
00000050: 86ca ce3c c38f e2bc 8a4f b93b 4a74 eebd
00000060: 0b03 d63d af7f 01bb 1040 90bd e7a1 333e
00000070: 6855 09bb abab c0bd f650 8c3d 2e12 133e
-0.13023378 -0.018521087 0.14822312 -0.11342611 0.14578284 -0.094054386 0.075749144 -0.044292264
-0.061897993 0.13340169 0.0082483385 0.05739295 0.0027204873 0.038134944 -0.11278899 0.03939909
-0.08527091 0.13259609 -0.07608008 -0.28113583 0.025243055 -0.027656442 0.0056552337 -0.11643274
0.10449799 -0.0019759943 -0.07043469 0.1754223 -0.0020955447 -0.09407743 0.068513796 0.14362404

mlp_extractor.value_net.0.weight f4 [32, 81]
00000000: aa0b c23b eae9 133d d470 093c 8e86 f43d
00000010: 054d bc3d 0330 3cbb c576 6bbe 475b 00be
00000020: 56bd f0bd e9ba b9bd 3fa8 c1be 2052 bbbd
00000030: c8e8 aabd 1b03 bebd abad 673d e4dc c0bd
00000040: 0088 ff3d f872 6bbc c0b4 2b3e 09a0 c3be
00000050: 984f 6dbe a459 5c3d 4a9e ecbd ae98 f3bd
00000060: 7b1b cfbc 61f2 acbc b0b4 e0bd 01d6 c83e
00000070: 83aa a73d e41b 9b3d de40 cfbd bbed b6bd
00000080: d7aa bd3c ab12 c33b 0423 c33c edfd 013e
00000090: 08d7 d83c 3e9b c33d ee86 8a3e 5a32 be3d
000000a0: 092d 4d3e e43b 253d ae39 9ebe e5f5 493d
000000b0: 679e f33d f6fd 4b3c d6b0 8f3d cba6 5c3e
000000c0: 4090 4f3d c3fb 6e3e e463 ce3c 200a 91bd
000000d0: 1cac 623d 38c3 68bd 6c68 03bd 4f13 8dbd
000000e0: 4810 3d3c 0ee0 733d 2465 a2bb 2acc d4bc
000000f0: 8d3c abbe 02cd 3abe 8bea b0bc 739a ce3e
00000100: a90a 15bd 3978 b43e f001 12be 445a 463e
00000110: efee 803e 0671 b03d d44b 3e3e c7a9 4d3d
00000120: 885d a03d ee14 36be 8bb3 cb3c 62f6 48be
00000130: 4867 6ebb 0668 883e 4fbb 6fbe 6887 1f3e
00000140: 9e43 f6bd 0a36 3d3d 7daf cc3d 2eda c23c
00000150: 4346 69bd b4e4 2b3e be19 af3d 80ba 54be
00000160: f102 2a3d 08d0 86bd 9c7e 3f3e 8ce1 313d
00000170: a7c7 763e a669 8dba fd74 303e 0280 c33d
00000180: 08f0 6c3d 5763 533e 7aba f2bd e874 2f3e
00000190: 4f91 a1be 6887 e03c 7a9e e83d 4799 293e
000001a0: d55a 893d f2cd f53b 91e1 a0bc 0725 9b3d
000001b0: e5ca adbd a258 723c 4a65 40bd 6be8 8ebd
000001c0: 747e d8bd 6a34 b3bd 9343 ab3c 30ea 963c
000001d0: 8706 653e d4e8 cd3d dd4c 45be 2f75 293d
000001e0: 8f3c 0f3d 8a91 86bd 1249 003d d563 853e
000001f0: 5e28 7e3e 73a2 cebd 6b64 0dbe 9a9b 4f3e
00000200: 1b72 75bd d02e 123d 4a27 9ebe 3e55 1e3e
00000210: bf7e 15bd c56a e13c e509 2abe 5062 2b3e
00000220: 0238 64be 86e6 adbb bd47 063c 6753 28be
00000230: f460 8abe 4cf2 593e 9618 a03e fd91 d3bb
00000240: c786 a4be daad 6bbe 41c6 393d 6aae ac3d
00000250: 9c10 da3d fbf1 603d 17d3 f8bd ff4f 853e
00000260: ac51 84be 3b65 433e a9b8 a7bc ee48 8dbe
00000270: 9005 2bbe 1276 e43d 9e2b 1d3d 69c2 1abe
00000280: 9b6d da3e bfba 17be 5e19 093e 7138 73be
00000290: 1c5e e7be 4fdf d33d ff48 193e 81a9 d33c
000002a0: bd77 843c 6fc6 76be 17b1 843c e8ca 273e
000002b0: 25a4 eabd 7c9a 95bd 8864 de3d bcd6 293e
000002c0: 1000 683e f075 08be 1f98 5cbe f450 10be
000002d0: a5eb 9ebd 68a0 42be 58df a13e 0b9e 84be
000002e0: 3556 bbbd cf53 923d 099a 3ebc 63eb 2abd
000002f0: 77a2 98bc d393 6f3d af7c 97bd b731 113e
00000300: 1e16 21be 0d0e 7c3e 415c 8bbd 1a4a 7e3e
00000310: f507 053c 22f2 233d 4d62 6b3e 5c51 b53d
00000320: 7653 293e 18c0 f4bd e830 cabd 12e3 d4bd
00000330: ee67 2e3e e0fa 7fbe 5e26 223e 0dc0 0fbe
00000340: 130f b73c 34dd 4b3d 9ac0 17be f88f 49bd
00000350: 356f fcbd ad9e d4bd c8af b33c 0e36 a6bd
00000360: afc6 6b3d 9b98 423e 7f3b 843e d12a 013d
00000370: b28d a43e 150b 7abc 0efc dabc 6061 c3bd
00000380: c421 e93b 833a 173b dcc3 65be 1fbd c53d
00000390: 9203 c33d df12 373d 891d 393e 7c5a 11be
000003a0: aac1 b03d e2bd ff3c bf4f 2b3d 1ebb 0ebd
000003b0: b451 4ebe 9253 873e 37e6 7bbe fa0d b1be
000003c0: fe84 b13d fef2 0f3a 92ea 2dbe 9ece a3be
000003d0: 5204 25be 54bf 363d 6a65 e03d 2352 1abe
000003e0: b269 b0bd bfcc 1e3d 124b 2fbb 49c3 90be
000003f0: 57aa 5c3e 2531 953d 7b84 7e3e b9bc 51bc
0.0059218006 0.03611175 0.008388717 0.11939727 0.09194378 -0.002871514 -0.22994526 -0.1253482
-0.11754863 -0.090688534 -0.37823674 -0.091465235 -0.08345181 -0.09277936 0.056562107 -0.094171315
0.12477112 -0.014370672 0.1676817 -0.38208035 -0.23174894 0.053796425 -0.11553629 -0.11894356
-0.025281658 -0.021111669 -0.109719634 0.39225772 0.081868194 0.07573679 -0.10119794 -0.08932062
0.023152752 0.005953153 0.023820408 0.12694521 0.026469722 0.095510945 0.27056068 0.092869475
0.20036711 0.04034032 -0.3090338 0.04930677 0.11895447 0.012450686 0.07016151 0.21548001
0.050674677 0.23338227 0.025194116 -0.07082009 0.055339918 -0.0568268 -0.032082006 -0.068884484
0.011539526 0.059539847 -0.0049559046 -0.02597626 -0.33444634 -0.18242267 -0.021596214 0.4035221
-0.03638712 0.35247973 -0.14258552 0.19370371 0.25182292 0.086153075 0.18583614 0.05021074
0.0783034 -0.17781422 0.024865886 -0.19625238 -0.0036377478 0.26641864 -0.23411296 0.15578997
-0.12024616 0.046194114 0.09994409 0.023785677 -0.056951772 0.16786462 0.08549832 -0.20774269
0.04150671 -0.065826476 0.18700641 0.04342799 0.24099599 -0.0010788932 0.17232127 0.095459
0.0578461 0.20643364 -0.11851974 0.1713444 -0.31556174 0.027408317 0.11358352 0.16562377
0.06706778 0.0075013572 -0.019638808 0.07575422 -0.08485965 0.0147916395 -0.046971597 -0.06977924
-0.10570994 -0.087502316 0.020906245 0.018422216 0.22365771 0.10054174 -0.19267602 0.04137152
0.034969863 -0.06570728 0.031319685 0.26052728 0.24820086 -0.100895785 -0.13807838 0.20274201
-0.059923273 0.035689175 -0.3088935 0.15462205 -0.036497828 0.027516732 -0.16605337 0.16736722
-0.2228699 -0.0053070216 0.008195815 -0.16438065 -0.27027094 0.21283835 0.31268758 -0.006456612
-0.32134077 -0.23015538 0.045355085 0.08431704 0.10647699 0.05491827 -0.12149637 0.26037595
-0.2584356 0.19081585 -0.020473795 -0.27594703 -0.1670134 0.111553326 0.038371675 -0.15113224
0.42661747 -0.14817332 0.13388583 -0.23752 -0.45188987 0.10345327 0.14969252 0.025837662
0.016170377 -0.24099134 0.016197724 0.16385996 -0.11457089 -0.07304856 0.108590186 0.16585821
0.22656274 -0.1332624 -0.21542405 -0.14093381 -0.077597894 -0.19006503 0.3161571 -0.25901827
-0.09147302 0.071448915 -0.0116334045 -0.04172839 -0.018632157 0.058490586 -0.073968284 0.14179121
-0.15731093 0.24614735 -0.068047054 0.24832955 0.008119573 0.040025838 0.22986718 0.08853409
0.16535744 -0.119507015 -0.098726094 -0.10394873 0.17031834 -0.24998045 0.15834948 -0.14038105
0.022346055 0.049771503 -0.14819565 -0.049209565 -0.123258986 -0.103818275 0.021934405 -0.08115779
0.057562526 0.19003527 0.25826642 0.031534974 0.32139355 -0.015261431 -0.026731517 -0.09540057
0.007114621 0.0023075647 -0.22437996 0.096552126 0.09522165 0.04469573 0.18077673 -0.14194673
0.086306885 0.031218473 0.0418241 -0.034846418 -0.20148355 0.26430947 -0.24599539 -0.34580976
0.08667944 0.0005491226 -0.16984013 -0.31993574 -0.1611493 0.04461606 0.10956843 -0.15070395
-0.0861391 0.03876948 -0.0026747626 -0.2827399 0.21549354 0.07284764 0.24855225 -0.012801343

mlp_extractor.value_net.0.bias f4 [32]
00000000: 0000 0000 0000 0000 0000 0000 0000 0000
00000010: 0000 0000 0000 0000 0000 0000 0000 0000
00000020: 0000 0000 0000 0000 0000 0000 0000 0000
00000030: 0000 0000 0000 0000 0000 0000 0000 0000
00000040: 0000 0000 0000 0000 0000 0000 0000 0000
00000050: 0000 0000 0000 0000 0000 0000 0000 0000
00000060: 0000 0000 0000 0000 0000 0000 0000 0000
00000070: 0000 0000 0000 0000 0000 0000 0000 0000
0.0 0.0 0.0 0.0 0.0 0.0 0.0 0.0
0.0 0.0 0.0 0.0 0.0 0.0 0.0 0.0
0.0 0.0 0.0 0.0 0.0 0.0 0.0 0.0
0.0 0.0 0.0 0.0 0.0 0.0 0.0 0.0

mlp_extractor.value_net.2.weight f4 [32, 32]
00000000: 19ca ad3d a7c4 473e e232 48be bf3f cbbe
00000010: 6e1d a93e 1ea9 c4bd 07c7 dd3d 16f0 17be
00000020: bda3 613d a929 bfbe a71e 54be 1d62 0ebf
00000030: 7cc2 55be 292e 25bf 9569 58be 7a74 91be
00000040: 78d5 32be 3f0c 54be 0a1c b5be 062c 76be
00000050: 993f a4bd 3b83 3bbe 0acd 4dbe 2ed3 b5bc
00000060: fa54 d83c e587 893e 6fd9 6f3e 04a9 073d
00000070: ad1c 31be fa60 473d de10 1b3e 52fe 9a3d
00000080: c483 ab3e 5b11 bfbe 179a 823e b9ce ea3e
00000090: 0a7b 563d cfba 58be 08bf ea3c 0ceb 3e3c
000000a0: 0799 ba3d 3838 88bb da59 383d a0bf afbe
000000b0: ca06 913e 5542 a4bd 20ea 02be dff5 d5be
000000c0: 3894 03be 64d3 1d3e d58e 413d 36a0 4abe
000000d0: 42b1 cf3e 9b7d a83e 86e7 a13e 36f1 a4be
000000e0: 4b2e 6d3d 5474 5abe 0c10 d7bc f7c9 bfbe
000000f0: d003 b5be 1d43 a03e c98e 363e c232 013e
00000100: 700a 8dbe 11e6 523e 80b0 9ebd 33ac c03e
00000110: 68f2 a4be 2b7d 993e 620a 59be ff48 2dbd
00000120: 9a80 883e cd0b 04bd e0fb 113d a86a 8bbe
00000130: eae2 e2bd c717 4bbe a9a0 8cbe 8647 843e
00000140: 1ce3 563e 7621 4e3e 04e8 8dbd 4f2f 403e
00000150: ecc9 133f 67ba d73e 95f2 f8be 62ce 8fbc
00000160: 63d6 39bd d4f5 b43e 19ab 003d aca5 07be
00000170: d7d9 b83d ad44 5cbe e1cb 523e 6f81 47be
00000180: bb3a bdbd 9df1 d33d 29b9 44be 77a1 c3be
00000190: 51d2 e1be 79d3 8bbe 2a7e 5c3e ab82 ba3d
000001a0: 64fc 103f 931c 3fbe 2ba0 c8be c454 2d3e
000001b0: 2121 06bf 8bd6 313e 0299 673d b331 bfbe
000001c0: 55ce 343e df22 06bd 40e0 403e e933 473d
000001d0: 7010 8e3d cfb4 b03e fd45 11be afdc 37be
000001e0: 09af 6d3d efa0 a4be 9245 17be bdcf d3bd
000001f0: df96 c8bc 2940 4d3e 4363 5fbe 5f6b fa3d
00000200: 5b74 44be dac4 ab3e d273 ddbe 9a99 9b3e
00000210: e6df c83d 43cd e2be 6e45 2c3d 13bf ddbe
00000220: cbf1 b53e d84e 18bd d2bf 31bd 41d4 adbe
00000230: 4e70 903e 4f55 783d 9f85 1e3e 6128 623d
00000240: f45e e23d 9a2b 233e 79f5 873e 28f8 ef3c
00000250: 70a1 ebbd c387 94be 1109 9f3e 71c4 49bd
00000260: 9505 083f 9945 a23c 15ef 6ebe 496b 813d
00000270: 98e6 333e 9255 aebc e753 cb3c f651 c1be
00000280: a549 8c3e 7ee0 55be 1e19 aabd fa07 1abe
00000290: a4ad 5fbe 1806 4f3d 516a 123d a9b5 21be
000002a0: b858 b43d 97f3 febd 79d8 903d 38ac b73d
000002b0: 136a bdbd f92c 793c 46c3 04bf 5269 893e
000002c0: 4276 d03e 24e2 a6be ae56 843e 1f3e 90bd
000002d0: e0f3 7b3d eb3e d93d 3c29 033f 9288 9b3e
000002e0: 6299 603e a322 ae3e a841 18be a0ed 913e
000002f0: 9ea8 13bf 2c8a 73be a1a7 bb3c cb23 0c3e
00000300: 6d27 373e f06f dabe cbca 59be d84a eabd
00000310: b2cc f23d d3e3 b43e 8fec a7be ad69 14bf
00000320: c000 4d3e bb2d 803e 5480 9b3d 1acf 13be
00000330: 4469 85be 9196 cebd fda4 4d3b 84cf 51be
00000340: 93e6 93be 28a3 7d3e 93e1 e83c a65d 023d
00000350: 4e8c 78be c900 4a3e 13fc 043e 535d 66bd
00000360: 1898 f7bd 2c99 e63d d2e4 d8be 7148 0fbe
00000370: 08cb b43e d657 b3be a122 8abe d009 953e
00000380: 71e9 babd 7545 893e ff8d 11be 504b 8c3c
00000390: 1408 b33c 9443 b93e 7c34 443e 11ce 8b3d
000003a0: e7a2 273e 0f18 4cbc 02f3 133e 7d86 a53e
000003b0: 3c89 2cbe 0b1f 01bf 4870 cd3e 4f0f bb3d
000003c0: 0b9c 183c 38c2 593e a831 99bd 2f39 d0bc
000003d0: 7730 f53c 4b7f 843e f8f8 2c3f eedf 83be
000003e0: 2def d13d b1cc 73be bbdc e43e 8fe7 f93d
000003f0: fe78 433d 5d1f 75be 5972 ac3e 8e5c 213e
0.08485813 0.1950861 -0.1955066 -0.39697072 0.33030266 -0.09602569 0.10828977 -0.1483768
0.055087794 -0.37336472 -0.20714818 -0.5561846 -0.20874971 -0.6452356 -0.21134026 -0.28409177
-0.17464244 -0.20707797 -0.35372955 -0.24040231 -0.08019943 -0.18311779 -0.20097747 -0.022195425
0.026407707 0.26861492 0.23422788 0.03312017 -0.17296095 0.04867647 0.15143153 0.07568039
0.33498967 -0.3731793 0.25508186 0.45860842 0.052363433 -0.21165012 0.028655544 0.011652719
0.09111219 -0.0041570924 0.045007564 -0.34325886 0.28325492 -0.08020464 -0.12784624 -0.41789147
-0.1284951 0.1541267 0.047255356 -0.19787678 0.40564924 0.3290833 0.3162195 -0.3221528
0.057905477 -0.21333438 -0.026252769 -0.37458774 -0.3535447 0.31301203 0.17827906 0.12617019
-0.27547026 0.20595576 -0.077485085 0.37631378 -0.3221619 0.29978308 -0.21195367 -0.042305943
0.26660615 -0.032237817 0.035640597 -0.2722981 -0.11078437 -0.19833289 -0.27466324 0.25835818
0.20985073 0.20129952 -0.06929019 0.18768047 0.57729983 0.421344 -0.48622575 -0.017554466
-0.04537047 0.35343802 0.03141317 -0.13246793 0.09025925 -0.21510573 0.20585586 -0.19482969
-0.092397176 0.103488185 -0.19211258 -0.38209125 -0.4410577 -0.27309778 0.21532503 0.09106954
0.5663512 -0.18663244 -0.39184698 0.16926867 -0.523943 0.17366998 0.056542404 -0.37342605
0.17656834 -0.0327481 0.18835545 0.04863349 0.06936729 0.34512946 -0.14186855 -0.17955278
0.058028255 -0.32154033 -0.14772633 -0.10342357 -0.024486003 0.20044006 -0.21815209 0.12227511
-0.19185011 0.33548623 -0.43252426 0.30390626 0.0980833 -0.44297227 0.0420584 -0.4330984
0.35536036 -0.037184566 -0.043395825 -0.33951 0.28210682 0.06062823 0.1548066 0.05521429
0.11053267 0.15934601 0.26554468 0.029293135 -0.11505401 -0.29009828 0.31061605 -0.049259607
0.5313352 0.019808577 -0.2333339 0.06319291 0.17568433 -0.021281037 0.024820281 -0.37757844
0.27399936 -0.20886418 -0.08305572 -0.15042105 -0.21843582 0.05054292 0.035745922 -0.15791954
0.08805984 -0.12448805 0.07072539 0.08968395 -0.09248748 0.015208476 -0.51860464 0.26838166
0.40715224 -0.32594407 0.2584738 -0.07043099 0.061511874 0.10607704 0.51234794 0.30377632
0.21933511 0.340108 -0.14868796 0.28501606 -0.57679164 -0.23783177 0.02290708 0.13685529
0.17886133 -0.42663527 -0.21268766 -0.114400566 0.11855449 0.35330066 -0.32797667 -0.5797375
0.20019817 0.2503489 0.07592836 -0.14434472 -0.26056874 -0.10087312 0.0031378858 -0.20489317
-0.28886852 0.2476927 0.028427875 0.03182759 -0.24272272 0.19726862 0.12986784 -0.056241345
-0.120895565 0.11259684 -0.42362076 -0.13992478 0.3531115 -0.3502795 -0.26979545 0.2910905
-0.09126557 0.26810804 -0.14214323 0.017125756 0.021854438 0.3618437 0.19160646 0.068264134
0.16370736 -0.012456908 0.14448169 0.3232917 -0.16849226 -0.5043799 0.40124726 0.09133779
0.009314547 0.21265495 -0.07480174 -0.025417892 0.029930336 0.25878367 0.67567396 -0.25756782
0.10250697 -0.23808552 0.44699654 0.122023694 0.04772281 -0.23937745 0.3368099 0.15757963

mlp_extractor.value_net.2.bias f4 [32]
00000000: 0000 0000 0000 0000 0000 0000 0000 0000
00000010: 0000 0000 0000 0000 0000 0000 0000 0000
00000020: 0000 0000 0000 0000 0000 0000 0000 0000
00000030: 0000 0000 0000 0000 0000 0000 0000 0000
00000040: 0000 0000 0000 0000 0000 0000 0000 0000
00000050: 0000 0000 0000 0000 0000 0000 0000 0000
00000060: 0000 0000 0000 0000 0000 0000 0000 0000
00000070: 0000 0000 0000 0000 0000 0000 0000 0000
0.0 0.0 0.0 0.0 0.0 0.0 0.0 0.0
0.0 0.0 0.0 0.0 0.0 0.0 0.0 0.0
0.0 0.0 0.0 0.0 0.0 0.0 0.0 0.0
0.0 0.0 0.0 0.0 0.0 0.0 0.0 0.0

action_net.weight f4 [5, 32]
00000000: a823 6e3e 707a 9fbe 5850 ee3d 3495 ba3e
00000010: 7208 f83d 4006 8abe 4234 babe 0023 643e
00000020: 6c20 6bbe 6a7f 0a3e da8c 783e 46fd cd3e
00000030: dcc9 8f3e 691c a9be d75c 42be c158 863e
00000040: c034 91be 42a8 f53d 8bab 02be b7d2 d7bd
00000050: 686c 143e b957 63be 3006 953e e311 88be
00000060: a61a cebe 753d 853e 2ff9 a3be 1d0c cc3d
00000070: 39d5 653e 2c08 84be b470 823e 0754 283e
00000080: 4840 66be cbcf 99be 1c1b 503d 14c0 83be
00000090: db6c 713d 54ed aabe 1095 833e bdf1 4bbe
000000a0: 0016 a7be 4f10 033e f57f 66be e8f9 96be
000000b0: 2f70 9abe be48 8b3e cb71 573c 020d 913e
000000c0: 8182 963e 2ffd 103e 2dff f9bd 24eb c8bc
000000d0: e305 173e a45b 9dbe 2df6 96be c930 aa3e
000000e0: 0c1c 953e 06b6 953e 215f ac3e a71b 873d
000000f0: dec1 b1be 23f8 80be 0ad2 913d 46c5 973e
00000100: 9f3a 66be 1cd9 953e 4ee9 3a3e 0491 a1be
00000110: bed7 213e 5b62 813e 8253 823e 5aee 97be
00000120: 62d4 893e 7d20 113e 6ea7 56be 658b 85be
00000130: 517c db3e d757 2cbe e915 9bbe d410 87be
00000140: 6cce b0be 0b61 0c3e cd16 18be dcbf a3bd
00000150: 0940 de3d 6356 8d3e 8c20 60be 3666 bdbe
00000160: d2bc 2a3e 97c4 81be 4abe a9be 4d92 263e
00000170: e397 65bc e4d5 763e e50f 82bc 66e6 7cbe
00000180: b6b0 183e 6315 c83e 591c 4ebe cda0 6c3e
00000190: 907c 5fbe 6d79 c33e 2175 72bd cb8a 7f3e
000001a0: 55bf 953e c699 9dbe d9d2 8f3e 34e1 bd3d
000001b0: cad1 24bf 723a 9e3e 8879 003f 6dcc a2be
000001c0: 1902 c83e 4452 90be bad3 983e 9a39 48bc
000001d0: 7a36 8dbe a812 9c3e ce23 933e 627f c13e
000001e0: 9762 cc3d 0a3c a7be 20ac b33e b096 3dbe
000001f0: 2b8b ae3e e404 9a3e a991 92be f0a3 8abe
00000200: 30a0 353e 134e 523c 82e4 82be 24f1 0f3e
00000210: bd73 74be e7a7 1dbd 212e f7bd 7d6c 143e
00000220: c86c f4bd f5b5 9fbd 0f74 5bbd 9000 443e
00000230: ff3a babd aa62 a2bd 1ad8 3f3e 8fc0 7c3d
00000240: 7200 af3e 663c c4bd 2cce b73d 2d0e a23e
00000250: ca4e febd fb18 70bd e3dc 07be 2a73 803e
00000260: bd73 77be f092 bd3c cf67 4c3e d730 4dbe
00000270: d431 90bd 2b0b f0bd 3704 0ebd a4fe 733d
0.2325579 -0.311481 0.11636418 0.36441958 0.12110986 -0.26957893 -0.36367995 0.22278976
-0.22961587 0.13525167 0.2427248 0.40232295 0.28083694 -0.33029488 -0.18980728 0.2623959
-0.28360558 0.11994983 -0.12760751 -0.105382375 0.14494479 -0.22201432 0.29106283 -0.26576146
-0.40254706 0.2602345 -0.3202605 0.09963248 0.22444619 -0.25787485 0.2547661 0.16438304
-0.22485459 -0.30041346 0.050807104 -0.2573248 0.058941703 -0.33384192 0.25699663 -0.19916435
-0.32633972 0.1279919 -0.22509749 -0.29487538 -0.30163714 0.27203935 0.013149689 0.28330237
0.29396442 0.14159082 -0.12206874 -0.024526186 0.1474834 -0.3073398 -0.29484692 0.33240345
0.2912296 0.29240435 0.33666328 0.06597071 -0.3471822 -0.25189313 0.0712014 0.29642695
-0.224833 0.29267204 0.18253061 -0.3155595 0.15804955 0.25270352 0.25454336 -0.29674035
0.26919848 0.1417255 -0.20962307 -0.26082912 0.42868283 -0.16830383 -0.30290154 -0.26380026
-0.34532487 0.13708894 -0.14852448 -0.07995579 0.108520575 0.2760497 -0.21887416 -0.36992043
0.16673592 -0.253453 -0.33152992 0.16266747 -0.014013263 0.2410503 -0.01587672 -0.24697265
0.1491116 0.39078817 -0.20128001 0.23108216 -0.2182486 0.38178578 -0.059193734 0.24955289
0.29247537 -0.30781382 0.28090551 0.0927147 -0.6438261 0.30903965 0.5018544 -0.3179659
0.390641 -0.28187764 0.29849035 -0.0122207645 -0.27580625 0.30482984 0.28738254 0.37792498
0.09979742 -0.32662994 0.35092258 -0.18514514 0.34090552 0.30081856 -0.28626755 -0.270782
0.17736888 0.012835997 -0.25564963 0.14056832 -0.23872276 -0.038490202 -0.12069345 0.1449451
-0.11934811 -0.077983774 -0.05357748 0.1914084 -0.09093284 -0.07928975 0.1873478 0.061707076
0.34180027 -0.095818326 0.08974871 0.3165144 -0.124173716 -0.058617573 -0.13267855 0.25087863
-0.24165244 0.023141354 0.19961475 -0.20038162 -0.07040754 -0.1172088 -0.03467199 0.059569016

action_net.bias f4 [5]
00000000: d8d7 9c3d caf8 313d 5ce6 993d 1207 213d
00000010: 82a8 8abe
0.076583564 0.043450154 0.07514641 0.039313383 -0.27081686

value_net.weight f4 [1, 32]
00000000: e834 713e 1bd4 c83d 1259 ff3d c17e 48be
00000010: 43e5 67be ead5 75bd 6a1e 28be df6e 26be
00000020: 5bb4 583e f565 25be 91a5 1e3c bb5c 513e
00000030: b785 3e3e 38d7 5dbd f0a1 3f3e 72c9 0abe
00000040: 6de3 6a3e ba14 c6bd f227 5d3e d66a 75be
00000050: 7742 1ebd 358b f83d 99f0 b8bd 1e6a 6abd
00000060: c476 423e 4ea0 1ebd 401c 773e 725b 213d
00000070: ced3 4d3d 68b5 d43e 3e07 19be ec4c 91be
0.23555338 0.09806081 0.12468161 -0.19579603 -0.2264605 -0.060018457 -0.16417852 -0.16253231
0.2116255 -0.16152175 0.009683029 0.2044553 0.18605696 -0.054160327 0.18714118 -0.13553408
0.22938319 -0.09671922 0.21597269 -0.23966536 -0.038637605 0.12135927 -0.09030265 -0.057230107
0.18990618 -0.038727097 0.2413187 0.03939385 0.05025082 0.41544652 -0.14944169 -0.28379
