toy_its/train_logs/map_fixedpos/eval/bc_model_1000000.pth (torch, 38914 bytes, 11 tensors)

mlp_extractor.policy_net.0.weight f4 [32, 81]
00000000: b5b2 d9bd 9c4c d43c 9e03 f33d a60c 403e
00000010: 948a 933e 0043 95be c9df 8c3e da05 d5bc
00000020: da06 e93d 9279 6a3c 7187 ad3e aa9b e43d
00000030: 8ca0 033e 5996 94be bde5 72bd ed22 0abe
00000040: ba6a fbbd a724 85bd acf4 613e 3c24 5bbd
00000050: 5ae1 28be a129 c2be 0251 e43c fade ddbc
00000060: de1e 9a3e 0dc6 8a3e 3951 4bbe 8303 22be
00000070: e836 b9be 34a2 09bd 46e8 41be 9d67 aebb
00000080: 3c54 963e e43d fb3e 4672 373d ab98 b4bd
00000090: bec8 bd3c 8c8f b03e b600 ce3d 8243 923d
000000a0: 5087 0abe 5cf6 bd3b 1736 313e 8a3c b9bc
000000b0: 04f9 493d 823d 913e 2a99 90be bf94 bc3d
000000c0: 1683 2dbc 6cf9 353e 3b49 abbd d5e9 be3d
000000d0: dc74 2dbd 9bda 2dbd 361b 2e3c 9861 fcbe
000000e0: d9aa 81be 890e 24be d6bc b23d 66e9 e93c
000000f0: 6446 0b3d 3cd1 a23e 0d42 1a3d 8263 ae3d
00000100: 16aa 563d 2119 e0bc 045a 373e 5b88 9dbe
00000110: 3152 a83e 23dc 5c3e 3f4c 8dbd 235d 993d
00000120: 0373 c23d 7324 593e 435c 1f3e f95d 26be
00000130: bb87 463e 103a 8abe 0da6 56be c105 ffbc
00000140: 3cfe 6abc 240a 9fbe 69d5 6abd cc22 dd3d
00000150: cb91 fa3c 414e c0be 1683 92bd f0da 223e
00000160: 5e43 23be 7b97 75bd c266 8ebd a76d f63d
00000170: 1237 0cbe 3445 9cbd 6ae0 6e3d 4ba0 633e
00000180: 5466 b23d e2d8 ce3d 26e9 76bd 4c57 cebc
00000190: 4926 be3e 0daa be3d 6715 aebd 7519 9a3d
000001a0: 6c6b 9e3d 8d44 353e 681c 84bd ef82 673e
000001b0: 1150 bebd 821b 66be 1f46 393e 01f3 303d
000001c0: da78 823d 4177 fdbc 8fa7 b73e 2a1f fe3d
000001d0: 460c 25be 6413 6dbe f492 973e 0fa6 25bd
000001e0: 7207 c6be 6098 af3d 1645 98be 00b8 b03d
000001f0: 2d3a 72bd 91ed 3dbe 71eb dabd a01d 583c
00000200: 4345 323d 558a 94be 0178 88bb 9626 443d
00000210: 13ef 22bb 5c63 84bc 8af5 3ebd 88ea 9bbd
00000220: c693 62bd 7a7a 17bc d9e0 afbd e31f c33d
00000230: b68f 323e 4465 693d 68ce 55bd 875f cc3d
00000240: ff65 38be 73c7 8a3c 1034 05be 4ed4 cc3d
00000250: d309 cd3e 912d 4bbd 1b07 7e3c 2418 2fbd
00000260: db6d 4dbe 6544 563e 0051 023a 6655 a5be
00000270: c079 16be 2b2d 543e 55ff 803d f887 553e
00000280: 1dd4 c13e d704 04be ac45 8a3d 6208 e2bc
00000290: fa8f 53be 13c8 ad3c 0372 cf3d 59d5 55be
000002a0: 4d43 3a3e 698c 02be 7731 9e3c fc58 2b3e
000002b0: 4e6a 383d 9939 b0bd b407 dabd 377f 16be
000002c0: 43c7 65be d808 fd3c 8545 923a 0c06 1d3e
000002d0: f21e 56bc 5cdf a0be f28f 13be 2d32 4bbe
000002e0: 45e2 40be ca13 933e 4a6d 943e 89c9 30be
000002f0: 03bc 0b3e 9c9d a23e 26b2 40be ade8 88bd
00000300: 92c1 923d b271 843d 1974 9d3e d169 a5bd
00000310: e688 3fbe b172 04bb 9670 fc3b ad27 513e
00000320: 3659 81be a5db 20be 92f4 90bd 075d dd3c
00000330: 185a 053e d839 9bbd 89b4 553e df99 d63d
00000340: 3ffd 94be cfa5 c53d 6ca4 f6bd 00b3 c2bd
00000350: ce80 a93e c1f8 50bd d351 82be 0acf 77be
00000360: 5238 7abe 23a7 35be 1296 9fbd a6ba 09be
00000370: 00b9 803e a855 39bd 7dfb 66be 3c17 043e
00000380: c0d5 8fbd 1737 553d 17c4 dfbe ac7b aebd
00000390: 4bb3 563e f247 86be 4978 873d 1a3f 75be
000003a0: 69a8 28be 5305 89be 6f69 8abe 9955 b7bd
000003b0: 0f07 9bbe da34 e0bd 1ee4 d83c 6a65 63be
000003c0: 9efe 2ebe 5658 c7bd 6f64 d3bc 1c10 7abe
000003d0: a8f2 19be dce5 0abe dd2b bd3d f096 5e3e
000003e0: 439d a7be b35c b73c 1736 b93c cdac 0ebe
000003f0: 972e 41bd d6f4 163c 008f 353d 298e 933d
-0.10629789 0.025915436 0.11865924 0.18754825 0.28816664 -0.2915268 0.27514485 -0.026003767
0.1137826 0.014311211 0.33892396 0.11162503 0.12854213 -0.29020956 -0.059301127 -0.13489886
-0.12276216 -0.065011315 0.22065991 -0.053501353 -0.16492215 -0.37922385 0.027870659 -0.027083863
0.30101675 0.27104226 -0.19855203 -0.15821652 -0.36174703 -0.033601955 -0.18936262 -0.0053224103
0.2936114 0.49070656 0.044786714 -0.088181816 0.02316701 0.34484518 0.10058729 0.07141782
-0.1352818 0.0057971906 0.1730579 -0.022611875 0.049309745 0.2836724 -0.28241855 0.092080586
-0.010590335 0.17770928 -0.08363577 0.09321944 -0.042347774 -0.042444807 0.010626605 -0.49293208
-0.2532566 -0.1602117 0.08727424 0.028553676 0.034002677 0.31800258 0.037660647 0.08515073
0.0524083 -0.027355732 0.17905432 -0.30768093 0.32875207 0.2156835 -0.068993084 0.074884675
0.09494593 0.2120531 0.15562539 -0.16246785 0.19387715 -0.26997423 -0.20961781 -0.031130673
-0.014342841 -0.31062424 -0.05733243 0.107976526 0.030587098 -0.37559703 -0.07153909 0.1590383
-0.15943667 -0.059958916 -0.06953193 0.12032633 -0.13692883 -0.07630387 0.058319487 0.22229116
0.08710924 0.10099961 -0.06028094 -0.02518811 0.37138584 0.09309778 -0.08500176 0.07524387
0.07735333 0.17701931 -0.064507306 0.22608541 -0.09292615 -0.22471431 0.18093155 0.043200497
0.06370707 -0.030940654 0.35870025 0.12408288 -0.16117963 -0.23151928 0.29604304 -0.04044157
-0.38677555 0.08573985 -0.29740208 0.08628845 -0.059137512 -0.18547656 -0.10689438 0.013190657
0.043523084 -0.2901179 -0.004164696 0.04788836 -0.0024861738 -0.01616066 -0.046620883 -0.07613093
-0.05531671 -0.009245509 -0.08587808 0.09527566 0.17437634 0.05698134 -0.052198797 0.09979158
-0.18007658 0.016940808 -0.13008142 0.100014314 0.40046558 -0.049604002 0.015504624 -0.04274763
-0.20061438 0.20924528 0.00049711764 -0.32291716 -0.14694881 0.20720355 0.06298701 0.20852649
0.37857142 -0.12892471 0.0675157 -0.027591888 -0.20660391 0.021213567 0.10129168 -0.20882167
0.18189736 -0.12748875 0.019310696 0.16733164 0.045023255 -0.08604736 -0.106460005 -0.14696966
-0.22439294 0.030888006 0.0011159634 0.15334338 -0.013068901 -0.3142041 -0.1441038 -0.1984336
-0.18836315 0.28726035 0.2898963 -0.1726438 0.1364594 0.3176087 -0.18817958 -0.066850044
0.07165827 0.06466998 0.30752638 -0.080768235 -0.18704566 -0.0020209963 0.007703851 0.20425291
-0.25263375 -0.15708788 -0.07077898 0.027021898 0.1302265 -0.07579392 0.2086965 0.10478567
-0.2909946 0.09650766 -0.1204308 -0.09506798 0.33106083 -0.05101848 -0.25453052 -0.24200073
-0.24435547 -0.17739539 -0.077922955 -0.13450107 0.25141144 -0.045247704 -0.22556873 0.12899488
-0.070231915 0.05205449 -0.43704292 -0.08519682 0.20966832 -0.26226765 0.066147394 -0.23949853
-0.16470493 -0.26761875 -0.27033564 -0.08951873 -0.30278823 -0.10947581 0.026475962 -0.22206655
-0.17089316 -0.097336456 -0.025804726 -0.24420208 -0.15033972 -0.13564247 0.09236882 0.21737266
-0.3273717 0.02238307 0.0226088 -0.13933106 -0.047163572 0.009213647 0.04432583 0.07204849

mlp_extractor.policy_net.0.bias f4 [32]
00000000: c408 3dbc 7713 803d 36d9 d2b9 6531 2b3d
00000010: d48d b236 4bba 13bc 4e25 ac3d 52e2 e13b
00000020: 308c 053d 9292 9cbc ccb6 63bc f6a9 63bd
00000030: 5f46 8a3b 9b0e f23c 02b0 58bc 5f64 323a
00000040: 99a8 46bd 16e9 173c 80ba 06bc 1737 b63c
00000050: 5026 07bd d4a6 bfb8 0ea1 a83c f2ee 243b
00000060: 7548 663b 3f8c 363d a264 8d3d 46e5 ecbb
00000070: 68c3 f33b 06f6 1e3d eaf9 513d b6f2 94bb
-0.011537734 0.062537126 -0.00040216156 0.041795153 5.3213244e-06 -0.009016584 0.08405553 0.0068934346
0.032604396 -0.019112859 -0.013898563 -0.05558201 0.0042198147 0.02954798 -0.013225557 0.00068051176
-0.04850063 0.009271881 -0.008223176 0.022243066 -0.032995522 -9.138664e-05 0.02058461 0.0025166837
0.0035138403 0.044567343 0.0690396 -0.00722948 0.0074390657 0.038808845 0.051263727 -0.004545535

mlp_extractor.policy_net.2.weight f4 [32, 32]
00000000: 7828 cbb9 5686 85bc be1f 94be 2b1a be3d
00000010: ecbf 413f 938a 32bf a766 b0bd 0d81 1dbd
00000020: 900e 9b3e c063 b1be c80b c1be f51e 823e
00000030: 17b6 88be 9134 663e 3476 983e be5a 973d
00000040: d783 2dbd dcfd 91be 9472 88bd 2858 04be
00000050: efc8 06be 54aa ccbe 3a52 94bb fe22 b2be
00000060: f2cc 123f cde3 803e 3de9 8dbe 50e4 be3e
00000070: 8194 443e 5e2e 123f 86e1 c7be 4798 8c3e
00000080: 8334 75be 09cd c4be 261b 88bd c3a5 503e
00000090: 668f 0f3e 4c45 d43e 896b f2be 8dd6 e1be
000000a0: 5e8b d9bd a420 b63e f304 043f 1b68 8cbe
000000b0: 29a5 933d 6ddc 82be 33d8 c13e 2efb 72be
000000c0: b9dc 2b3d 952f 58be 6c32 4dbe c3d6 adbe
000000d0: 0472 fd3e c9ba c53e be46 4fbe 8b7b 17be
000000e0: a872 31bd 4bf9 303a a76a c2bc 7cfe f33e
000000f0: 7de7 cdbe 5f40 b73e 2a97 36be 21ca 343d
00000100: 542c 013d 7d3a 8c3e 7b79 b73d 7d02 cf3a
00000110: 61f0 2d3e 7e64 0dbe 19b3 4a3f 1bf0 6b3e
00000120: 6993 92be 8ec7 f6bd 406f 9b3e 97b9 97be
00000130: f63b ea3e 9a3a 01be e7f1 2cbe 28d5 de3e
00000140: 562f 093c 0445 a0be 1c96 283f e641 0f3d
00000150: a10f 753e 83de da3e 3c1a 88be 197d 98bd
00000160: f798 a73d 6a0c bfbd c9a6 473d 560a 633e
00000170: 9d8d 31be b11c 01be f4dc 9c3b e531 6abe
00000180: b597 9abc 4b46 83be ec8b 053f 530b f43b
00000190: 7e44 f73e b992 62bd be68 5e3e 0276 6abe
000001a0: a0d8 a83e 32b8 38bf 80b5 513d 0ad6 b93d
000001b0: 40f0 1ebf 4487 6a3e 09e9 ae3e 4374 a6be
000001c0: 6840 943e 9504 61be e3e2 c93d 3f21 71be
000001d0: fb95 34be 6cc4 62be 1b00 513e 15b3 59be
000001e0: e6f2 273f 5bbd e93d a389 ab3e af3a 213e
000001f0: 7c5b 18be a531 c0bd 3761 873e d557 893e
00000200: 0dd3 de3e 2c9f c33e 4c1a 9e3c 13af e13e
00000210: 9ee6 b9be c669 a0bd 6d22 df3e 6a7d 973e
00000220: 2f23 d63c 8a6c d63e 2179 81be 3ef8 c7be
00000230: b22b 1a3e d39a 28bd aa63 bf3e b8fd 8e3d
00000240: 9eea df3d ef83 27bd e1f9 5e3e 636b eebe
00000250: f6dc 77bc 6242 133e 57be 25bf 0348 dcbd
00000260: d3bf 323e c21c abbe 45e1 bc3e fa36 d7be
00000270: c770 b9bd 26d7 d7bd 6e37 e6bd 58ad 31be
00000280: 81db 8ebe 50b6 78be 1f99 e0be 88b3 333f
00000290: 36e2 64be b0ba de3e 8401 a1be 800c cf3e
000002a0: fea3 353e 7cc5 a2be 1ac4 133f b149 0d3e
000002b0: bdb9 a4bc 0d08 ac3c ea7c c63e bd54 88be
000002c0: 7ccb 403e 7569 62be 473f be3d 7269 34be
000002d0: 3f7a c43d 8880 653e 3c02 db3d 94bb fd3e
000002e0: 0dc5 b7be 69cf b23e 69ac 8bbd 5a46 9e3e
000002f0: 71ab 0f3e 8450 dc3d 2522 d1bc 9258 30be
00000300: bca6 6fbe 5241 3a3e b3c8 2dbf 16b8 4bbe
00000310: 4b39 ccbd 7c42 8e3e 074b 763e ecc8 b6be
00000320: 2ee8 c9be 8e25 d43e 0488 a73c 7c45 ae3e
00000330: 7624 9ebc e6b0 bfbe 1252 9abe 8c56 0fbf
00000340: e798 c2bd f4f9 95bb 373b 4dbd ffdf b1bc
00000350: 381c 983e ff01 2dbd d78a e9be d741 df3e
00000360: dae9 8dbe 24ae b03e 05ff 1c3e 67be 71be
00000370: 5f57 c73c cf67 bebe ecf9 aabd 32f3 1fbf
00000380: ba1b e53e 55d1 d3bd 4540 863d d974 1fbd
00000390: 58aa 7f3e c9d7 a1be 290b 07bf 47b2 c1be
000003a0: 8519 e63e 6609 a9be faef c83d bc3d 1abe
000003b0: 8e31 293e 5792 9f3e 30fa 243b 3fa9 733e
000003c0: 6525 b43e ff2d 5ebe 9745 793e e1db 9f3e
000003d0: 9745 b23e 4a7f c1be 79cd 263e ded0 aebe
000003e0: 9771 3f3f 41a5 b03e f6b8 dc3d 4752 8ebe
000003f0: 6c4f 6b3e a014 413e 0302 cd3e 806f b63b
-0.0003874933 -0.016299408 -0.28930467 0.09282335 0.75683475 -0.697427 -0.086133294 -0.03845315
0.30284548 -0.34646416 -0.377043 0.25414243 -0.26701424 0.2248099 0.29777682 0.073903546
-0.04236206 -0.28513992 -0.06662479 -0.12924254 -0.13162588 -0.399737 -0.0045264037 -0.34792322
0.5734397 0.25173798 -0.2771701 0.37283564 0.19197275 0.57102 -0.39039248 0.27459928
-0.23945813 -0.3843768 -0.06645803 0.20375733 0.14019546 0.4145912 -0.47347668 -0.44109002
-0.10622285 0.35571778 0.5157005 -0.27423176 0.07209236 -0.25558797 0.3786026 -0.2372863
0.041958544 -0.21111901 -0.20038766 -0.33952913 0.4950105 0.38619068 -0.2024183 -0.14793222
-0.043322235 0.0006751015 -0.023732496 0.47655094 -0.40215674 0.357913 -0.17831102 0.044138078
0.031536415 0.27388373 0.089587174 0.0015793588 0.16986229 -0.13807866 0.7917953 0.23040812
-0.2862809 -0.12049781 0.30358315 -0.2963378 0.45748872 -0.12620011 -0.16889153 0.43522
0.008373102 -0.31302655 0.6585405 0.034974955 0.23931743 0.42747888 -0.26582515 -0.074457355
0.081834726 -0.0932854 0.048743043 0.22171912 -0.17339177 -0.12608601 0.004787082 -0.22870596
-0.018871168 -0.25639567 0.5216663 0.007447639 0.48294443 -0.055315707 0.21719643 -0.22896579
0.32977772 -0.7215606 0.051198483 0.09074028 -0.6208534 0.22903162 0.34162167 -0.32510576
0.28955388 -0.21974404 0.09857728 -0.23547839 -0.17635338 -0.22145241 0.20410196 -0.2125972
0.6560501 0.1141307 0.33503446 0.15745042 -0.14878649 -0.09384469 0.26441357 0.26824823
0.43520394 0.38207376 0.019299649 0.44078884 -0.3630876 -0.07832675 0.43580952 0.2958787
0.026139824 0.41879684 -0.25287727 -0.3905658 0.15055731 -0.041163277 0.37380725 0.06981987
0.109334216 -0.040897306 0.21775009 -0.46566305 -0.015128365 0.14380792 -0.6474356 -0.10755923
0.17455988 -0.33420378 0.36890617 -0.4203413 -0.09054714 -0.10539083 -0.11241041 -0.17351282
-0.27901843 -0.24288297 -0.43866822 0.7019582 -0.22351918 0.43501806 -0.3144647 0.40439224
0.1773834 -0.31791294 0.577211 0.13797642 -0.020108098 0.020999933 0.38767177 -0.2662715
0.18827623 -0.22110541 0.09289413 -0.17618349 0.09593629 0.22412312 0.106937855 0.49557173
-0.35892525 0.34923866 -0.06819994 0.3091305 0.14030243 0.10757545 -0.025528977 -0.17221287
-0.23403448 0.1818898 -0.6788437 -0.19894442 -0.09971865 0.277851 0.24052058 -0.35700166
-0.39434952 0.41434902 0.0204506 0.34037387 -0.019304495 -0.3743965 -0.3014074 -0.55991435
-0.0950182 -0.004576916 -0.0501053 -0.021713255 0.2970903 -0.04223823 -0.4561374 0.4360492
-0.27717477 0.3450786 0.15331657 -0.23607789 0.024333654 -0.37188575 -0.0834845 -0.6248046
0.44747716 -0.10342661 0.06555227 -0.038929794 0.24967325 -0.31609944 -0.52751404 -0.37831327
0.44941345 -0.33014983 0.09811397 -0.15062612 0.1652281 0.31166336 0.0025173537 0.23795031
0.3518478 -0.21697234 0.24342953 0.31222442 0.34818718 -0.37792426 0.16289319 -0.34143728
0.747827 0.3450108 0.10777466 -0.27797148 0.22979516 0.18855524 0.40040597 0.005567491

mlp_extractor.policy_net.2.bias f4 [32]
00000000: ee7d d2bd 2109 2abc f792 0d3e 96db bebd
00000010: 9e9c 1e3e 0850 dfbd 0f48 7f3d 1bd4 97bd
00000020: 6344 e0bc 6fe3 253e 0dc6 25bd 78d4 a03c
00000030: 7849 413d 9ee9 b9bc 3c44 e9bd d9c9 0b3d
00000040: 5173 3ebd b7a1 373e 4dcf 1dbe ab3b 4cbe
00000050: 50ef 073e 5f2b 0f3b 0cbf 14bd c854 b8bd
00000060: 4c59 bd3d ec7a f53c c876 3bbd 68a0 fb3d
00000070: 1efb d3bc be1a 94bd 7816 233e beb3 8b3d
-0.102779254 -0.010378153 0.13825594 -0.093192264 0.15489432 -0.109039366 0.06232458 -0.07413503
-0.02737636 0.1620004 -0.04047208 0.019632563 0.047189206 -0.022694405 -0.11389968 0.034128044
-0.046496693 0.17932783 -0.1541111 -0.19944637 0.13274884 0.002184592 -0.03631501 -0.09000546
0.09245548 0.02996584 -0.045767576 0.122864544 -0.025876578 -0.07231663 0.1592654 0.068213925

mlp_extractor.value_net.0.weight f4 [32, 81]
00000000: aa0b c23b eae9 133d d470 093c 8e86 f43d
00000010: 054d bc3d 0330 3cbb c576 6bbe 475b 00be
00000020: 56bd f0bd e9ba b9bd 3fa8 c1be 2052 bbbd
00000030: c8e8 aabd 1b03 bebd abad 673d e4dc c0bd
00000040: 0088 ff3d f872 6bbc c0b4 2b3e 09a0 c3be
00000050: 984f 6dbe a459 5c3d 4a9e ecbd ae98 f3bd
00000060: 7b1b cfbc 61f2 acbc b0b4 e0bd 01d6 c83e
00000070: 83aa a73d e41b 9b3d de40 cfbd bbed b6bd
00000080: d7aa bd3c ab12 c33b 0423 c33c edfd 013e
00000090: 08d7 d83c 3e9b c33d ee86 8a3e 5a32 be3d
000000a0: 092d 4d3e e43b 253d ae39 9ebe e5f5 493d
000000b0: 679e f33d f6fd 4b3c d6b0 8f3d cba6 5c3e
000000c0: 4090 4f3d c3fb 6e3e e463 ce3c 200a 91bd
000000d0: 1cac 623d 38c3 68bd 6c68 03bd 4f13 8dbd
000000e0: 4810 3d3c 0ee0 733d 2465 a2bb 2acc d4bc
000000f0: 8d3c abbe 02cd 3abe 8bea b0bc 739a ce3e
00000100: a90a 15bd 3978 b43e f001 12be 445a 463e
00000110: efee 803e 0671 b03d d44b 3e3e c7a9 4d3d
00000120: 885d a03d ee14 36be 8bb3 cb3c 62f6 48be
00000130: 4867 6ebb 0668 883e 4fbb 6fbe 6887 1f3e
00000140: 9e43 f6bd 0a36 3d3d 7daf cc3d 2eda c23c
00000150: 4346 69bd b4e4 2b3e be19 af3d 80ba 54be
00000160: f102 2a3d 08d0 86bd 9c7e 3f3e 8ce1 313d
00000170: a7c7 763e a669 8dba fd74 303e 0280 c33d
00000180: 08f0 6c3d 5763 533e 7aba f2bd e874 2f3e
00000190: 4f91 a1be 6887 e03c 7a9e e83d 4799 293e
000001a0: d55a 893d f2cd f53b 91e1 a0bc 0725 9b3d
000001b0: e5ca adbd a258 723c 4a65 40bd 6be8 8ebd
000001c0: 747e d8bd 6a34 b3bd 9343 ab3c 30ea 963c
000001d0: 8706 653e d4e8 cd3d dd4c 45be 2f75 293d
000001e0: 8f3c 0f3d 8a91 86bd 1249 003d d563 853e
000001f0: 5e28 7e3e 73a2 cebd 6b64 0dbe 9a9b 4f3e
00000200: 1b72 75bd d02e 123d 4a27 9ebe 3e55 1e3e
00000210: bf7e 15bd c56a e13c e509 2abe 5062 2b3e
00000220: 0238 64be 86e6 adbb bd47 063c 6753 28be
00000230: f460 8abe 4cf2 593e 9618 a03e fd91 d3bb
00000240: c786 a4be daad 6bbe 41c6 393d 6aae ac3d
00000250: 9c10 da3d fbf1 603d 17d3 f8bd ff4f 853e
00000260: ac51 84be 3b65 433e a9b8 a7bc ee48 8dbe
00000270: 9005 2bbe 1276 e43d 9e2b 1d3d 69c2 1abe
00000280: 9b6d da3e bfba 17be 5e19 093e 7138 73be
00000290: 1c5e e7be 4fdf d33d ff48 193e 81a9 d33c
000002a0: bd77 843c 6fc6 76be 17b1 843c e8ca 273e
000002b0: 25a4 eabd 7c9a 95bd 8864 de3d bcd6 293e
000002c0: 1000 683e f075 08be 1f98 5cbe f450 10be
000002d0: a5eb 9ebd 68a0 42be 58df a13e 0b9e 84be
000002e0: 3556 bbbd cf53 923d 099a 3ebc 63eb 2abd
000002f0: 77a2 98bc d393 6f3d af7c 97bd b731 113e
00000300: 1e16 21be 0d0e 7c3e 415c 8bbd 1a4a 7e3e
00000310: f507 053c 22f2 233d 4d62 6b3e 5c51 b53d
00000320: 7653 293e 18c0 f4bd e830 cabd 12e3 d4bd
00000330: ee67 2e3e e0fa 7fbe 5e26 223e 0dc0 0fbe
00000340: 130f b73c 34dd 4b3d 9ac0 17be f88f 49bd
00000350: 356f fcbd ad9e d4bd c8af b33c 0e36 a6bd
00000360: afc6 6b3d 9b98 423e 7f3b 843e d12a 013d
00000370: b28d a43e 150b 7abc 0efc dabc 6061 c3bd
00000380: c421 e93b 833a 173b dcc3 65be 1fbd c53d
00000390: 9203 c33d df12 373d 891d 393e 7c5a 11be
000003a0: aac1 b03d e2bd ff3c bf4f 2b3d 1ebb 0ebd
000003b0: b451 4ebe 9253 873e 37e6 7bbe fa0d b1be
000003c0: fe84 b13d fef2 0f3a 92ea 2dbe 9ece a3be
000003d0: 5204 25be 54bf 363d 6a65 e03d 2352 1abe
000003e0: b269 b0bd bfcc 1e3d 124b 2fbb 49c3 90be
000003f0: 57aa 5c3e 2531 953d 7b84 7e3e b9bc 51bc
0.0059218006 0.03611175 0.008388717 0.11939727 0.09194378 -0.002871514 -0.22994526 -0.1253482
-0.11754863 -0.090688534 -0.37823674 -0.091465235 -0.08345181 -0.09277936 0.056562107 -0.094171315
0.12477112 -0.014370672 0.1676817 -0.38208035 -0.23174894 0.053796425 -0.11553629 -0.11894356
-0.025281658 -0.021111669 -0.109719634 0.39225772 0.081868194 0.07573679 -0.10119794 -0.08932062
0.023152752 0.005953153 0.023820408 0.12694521 0.026469722 0.095510945 0.27056068 0.092869475
0.20036711 0.04034032 -0.3090338 0.04930677 0.11895447 0.012450686 0.07016151 0.21548001
0.050674677 0.23338227 0.025194116 -0.07082009 0.055339918 -0.0568268 -0.032082006 -0.068884484
0.011539526 0.059539847 -0.0049559046 -0.02597626 -0.33444634 -0.18242267 -0.021596214 0.4035221
-0.03638712 0.35247973 -0.14258552 0.19370371 0.25182292 0.086153075 0.18583614 0.05021074
0.0783034 -0.17781422 0.024865886 -0.19625238 -0.0036377478 0.26641864 -0.23411296 0.15578997
-0.12024616 0.046194114 0.09994409 0.023785677 -0.056951772 0.16786462 0.08549832 -0.20774269
0.04150671 -0.065826476 0.18700641 0.04342799 0.24099599 -0.0010788932 0.17232127 0.095459
0.0578461 0.20643364 -0.11851974 0.1713444 -0.31556174 0.027408317 0.11358352 0.16562377
0.06706778 0.0075013572 -0.019638808 0.07575422 -0.08485965 0.0147916395 -0.046971597 -0.06977924
-0.10570994 -0.087502316 0.020906245 0.018422216 0.22365771 0.10054174 -0.19267602 0.04137152
0.034969863 -0.06570728 0.031319685 0.26052728 0.24820086 -0.100895785 -0.13807838 0.20274201
-0.059923273 0.035689175 -0.3088935 0.15462205 -0.036497828 0.027516732 -0.16605337 0.16736722
-0.2228699 -0.0053070216 0.008195815 -0.16438065 -0.27027094 0.21283835 0.31268758 -0.006456612
-0.32134077 -0.23015538 0.045355085 0.08431704 0.10647699 0.05491827 -0.12149637 0.26037595
-0.2584356 0.19081585 -0.020473795 -0.27594703 -0.1670134 0.111553326 0.038371675 -0.15113224
0.42661747 -0.14817332 0.13388583 -0.23752 -0.45188987 0.10345327 0.14969252 0.025837662
0.016170377 -0.24099134 0.016197724 0.16385996 -0.11457089 -0.07304856 0.108590186 0.16585821
0.22656274 -0.1332624 -0.21542405 -0.14093381 -0.077597894 -0.19006503 0.3161571 -0.25901827
-0.09147302 0.071448915 -0.0116334045 -0.04172839 -0.018632157 0.058490586 -0.073968284 0.14179121
-0.15731093 0.24614735 -0.068047054 0.24832955 0.008119573 0.040025838 0.22986718 0.08853409
0.16535744 -0.119507015 -0.098726094 -0.10394873 0.17031834 -0.24998045 0.15834948 -0.14038105
0.022346055 0.049771503 -0.14819565 -0.049209565 -0.123258986 -0.103818275 0.021934405 -0.08115779
0.057562526 0.19003527 0.25826642 0.031534974 0.32139355 -0.015261431 -0.026731517 -0.09540057
0.007114621 0.0023075647 -0.22437996 0.096552126 0.09522165 0.04469573 0.18077673 -0.14194673
0.086306885 0.031218473 0.0418241 -0.034846418 -0.20148355 0.26430947 -0.24599539 -0.34580976
0.08667944 0.0005491226 -0.16984013 -0.31993574 -0.1611493 0.04461606 0.10956843 -0.15070395
-0.0861391 0.03876948 -0.0026747626 -0.2827399 0.21549354 0.07284764 0.24855225 -0.012801343

mlp_extractor.value_net.0.bias f4 [32]
00000000: 0000 0000 0000 0000 0000 0000 0000 0000
00000010: 0000 0000 0000 0000 0000 0000 0000 0000
00000020: 0000 0000 0000 0000 0000 0000 0000 0000
00000030: 0000 0000 0000 0000 0000 0000 0000 0000
00000040: 0000 0000 0000 0000 0000 0000 0000 0000
00000050: 0000 0000 0000 0000 0000 0000 0000 0000
00000060: 0000 0000 0000 0000 0000 0000 0000 0000
00000070: 0000 0000 0000 0000 0000 0000 0000 0000
0.0 0.0 0.0 0.0 0.0 0.0 0.0 0.0
0.0 0.0 0.0 0.0 0.0 0.0 0.0 0.0
0.0 0.0 0.0 0.0 0.0 0.0 0.0 0.0
0.0 0.0 0.0 0.0 0.0 0.0 0.0 0.0

mlp_extractor.value_net.2.weight f4 [32, 32]
00000000: 19ca ad3d a7c4 473e e232 48be bf3f cbbe
00000010: 6e1d a93e 1ea9 c4bd 07c7 dd3d 16f0 17be
00000020: bda3 613d a929 bfbe a71e 54be 1d62 0ebf
00000030: 7cc2 55be 292e 25bf 9569 58be 7a74 91be
00000040: 78d5 32be 3f0c 54be 0a1c b5be 062c 76be
00000050: 993f a4bd 3b83 3bbe 0acd 4dbe 2ed3 b5bc
00000060: fa54 d83c e587 893e 6fd9 6f3e 04a9 073d
00000070: ad1c 31be fa60 473d de10 1b3e 52fe 9a3d
00000080: c483 ab3e 5b11 bfbe 179a 823e b9ce ea3e
00000090: 0a7b 563d cfba 58be 08bf ea3c 0ceb 3e3c
000000a0: 0799 ba3d 3838 88bb da59 383d a0bf afbe
000000b0: ca06 913e 5542 a4bd 20ea 02be dff5 d5be
000000c0: 3894 03be 64d3 1d3e d58e 413d 36a0 4abe
000000d0: 42b1 cf3e 9b7d a83e 86e7 a13e 36f1 a4be
000000e0: 4b2e 6d3d 5474 5abe 0c10 d7bc f7c9 bfbe
000000f0: d003 b5be 1d43 a03e c98e 363e c232 013e
00000100: 700a 8dbe 11e6 523e 80b0 9ebd 33ac c03e
00000110: 68f2 a4be 2b7d 993e 620a 59be ff48 2dbd
00000120: 9a80 883e cd0b 04bd e0fb 113d a86a 8bbe
00000130: eae2 e2bd c717 4bbe a9a0 8cbe 8647 843e
00000140: 1ce3 563e 7621 4e3e 04e8 8dbd 4f2f 403e
00000150: ecc9 133f 67ba d73e 95f2 f8be 62ce 8fbc
00000160: 63d6 39bd d4f5 b43e 19ab 003d aca5 07be
00000170: d7d9 b83d ad44 5cbe e1cb 523e 6f81 47be
00000180: bb3a bdbd 9df1 d33d 29b9 44be 77a1 c3be
00000190: 51d2 e1be 79d3 8bbe 2a7e 5c3e ab82 ba3d
000001a0: 64fc 103f 931c 3fbe 2ba0 c8be c454 2d3e
000001b0: 2121 06bf 8bd6 313e 0299 673d b331 bfbe
000001c0: 55ce 343e df22 06bd 40e0 403e e933 473d
000001d0: 7010 8e3d cfb4 b03e fd45 11be afdc 37be
000001e0: 09af 6d3d efa0 a4be 9245 17be bdcf d3bd
000001f0: df96 c8bc 2940 4d3e 4363 5fbe 5f6b fa3d
00000200: 5b74 44be dac4 ab3e d273 ddbe 9a99 9b3e
00000210: e6df c83d 43cd e2be 6e45 2c3d 13bf ddbe
00000220: cbf1 b53e d84e 18bd d2bf 31bd 41d4 adbe
00000230: 4e70 903e 4f55 783d 9f85 1e3e 6128 623d
00000240: f45e e23d 9a2b 233e 79f5 873e 28f8 ef3c
00000250: 70a1 ebbd c387 94be 1109 9f3e 71c4 49bd
00000260: 9505 083f 9945 a23c 15ef 6ebe 496b 813d
00000270: 98e6 333e 9255 aebc e753 cb3c f651 c1be
00000280: a549 8c3e 7ee0 55be 1e19 aabd fa07 1abe
00000290: a4ad 5fbe 1806 4f3d 516a 123d a9b5 21be
000002a0: b858 b43d 97f3 febd 79d8 903d 38ac b73d
000002b0: 136a bdbd f92c 793c 46c3 04bf 5269 893e
000002c0: 4276 d03e 24e2 a6be ae56 843e 1f3e 90bd
000002d0: e0f3 7b3d eb3e d93d 3c29 033f 9288 9b3e
000002e0: 6299 603e a322 ae3e a841 18be a0ed 913e
000002f0: 9ea8 13bf 2c8a 73be a1a7 bb3c cb23 0c3e
00000300: 6d27 373e f06f dabe cbca 59be d84a eabd
00000310: b2cc f23d d3e3 b43e 8fec a7be ad69 14bf
00000320: c000 4d3e bb2d 803e 5480 9b3d 1acf 13be
00000330: 4469 85be 9196 cebd fda4 4d3b 84cf 51be
00000340: 93e6 93be 28a3 7d3e 93e1 e83c a65d 023d
00000350: 4e8c 78be c900 4a3e 13fc 043e 535d 66bd
00000360: 1898 f7bd 2c99 e63d d2e4 d8be 7148 0fbe
00000370: 08cb b43e d657 b3be a122 8abe d009 953e
00000380: 71e9 babd 7545 893e ff8d 11be 504b 8c3c
00000390: 1408 b33c 9443 b93e 7c34 443e 11ce 8b3d
000003a0: e7a2 273e 0f18 4cbc 02f3 133e 7d86 a53e
000003b0: 3c89 2cbe 0b1f 01bf 4870 cd3e 4f0f bb3d
000003c0: 0b9c 183c 38c2 593e a831 99bd 2f39 d0bc
000003d0: 7730 f53c 4b7f 843e f8f8 2c3f eedf 83be
000003e0: 2def d13d b1cc 73be bbdc e43e 8fe7 f93d
000003f0: fe78 433d 5d1f 75be 5972 ac3e 8e5c 213e
0.08485813 0.1950861 -0.1955066 -0.39697072 0.33030266 -0.09602569 0.10828977 -0.1483768
0.055087794 -0.37336472 -0.20714818 -0.5561846 -0.20874971 -0.6452356 -0.21134026 -0.28409177
-0.17464244 -0.20707797 -0.35372955 -0.24040231 -0.08019943 -0.18311779 -0.20097747 -0.022195425
0.026407707 0.26861492 0.23422788 0.03312017 -0.17296095 0.04867647 0.15143153 0.07568039
0.33498967 -0.3731793 0.25508186 0.45860842 0.052363433 -0.21165012 0.028655544 0.011652719
0.09111219 -0.0041570924 0.045007564 -0.34325886 0.28325492 -0.08020464 -0.12784624 -0.41789147
-0.1284951 0.1541267 0.047255356 -0.19787678 0.40564924 0.3290833 0.3162195 -0.3221528
0.057905477 -0.21333438 -0.026252769 -0.37458774 -0.3535447 0.31301203 0.17827906 0.12617019
-0.27547026 0.20595576 -0.077485085 0.37631378 -0.3221619 0.29978308 -0.21195367 -0.042305943
0.26660615 -0.032237817 0.035640597 -0.2722981 -0.11078437 -0.19833289 -0.27466324 0.25835818
0.20985073 0.20129952 -0.06929019 0.18768047 0.57729983 0.421344 -0.48622575 -0.017554466
-0.04537047 0.35343802 0.03141317 -0.13246793 0.09025925 -0.21510573 0.20585586 -0.19482969
-0.092397176 0.103488185 -0.19211258 -0.38209125 -0.4410577 -0.27309778 0.21532503 0.09106954
0.5663512 -0.18663244 -0.39184698 0.16926867 -0.523943 0.17366998 0.056542404 -0.37342605
0.17656834 -0.0327481 0.18835545 0.04863349 0.06936729 0.34512946 -0.14186855 -0.17955278
0.058028255 -0.32154033 -0.14772633 -0.10342357 -0.024486003 0.20044006 -0.21815209 0.12227511
-0.19185011 0.33548623 -0.43252426 0.30390626 0.0980833 -0.44297227 0.0420584 -0.4330984
0.35536036 -0.037184566 -0.043395825 -0.33951 0.28210682 0.06062823 0.1548066 0.05521429
0.11053267 0.15934601 0.26554468 0.029293135 -0.11505401 -0.29009828 0.31061605 -0.049259607
0.5313352 0.019808577 -0.2333339 0.06319291 0.17568433 -0.021281037 0.024820281 -0.37757844
0.27399936 -0.20886418 -0.08305572 -0.15042105 -0.21843582 0.05054292 0.035745922 -0.15791954
0.08805984 -0.12448805 0.07072539 0.08968395 -0.09248748 0.015208476 -0.51860464 0.26838166
0.40715224 -0.32594407 0.2584738 -0.07043099 0.061511874 0.10607704 0.51234794 0.30377632
0.21933511 0.340108 -0.14868796 0.28501606 -0.57679164 -0.23783177 0.02290708 0.13685529
0.17886133 -0.42663527 -0.21268766 -0.114400566 0.11855449 0.35330066 -0.32797667 -0.5797375
0.20019817 0.2503489 0.07592836 -0.14434472 -0.26056874 -0.10087312 0.0031378858 -0.20489317
-0.28886852 0.2476927 0.028427875 0.03182759 -0.24272272 0.19726862 0.12986784 -0.056241345
-0.120895565 0.11259684 -0.42362076 -0.13992478 0.3531115 -0.3502795 -0.26979545 0.2910905
-0.09126557 0.26810804 -0.14214323 0.017125756 0.021854438 0.3618437 0.19160646 0.068264134
0.16370736 -0.012456908 0.14448169 0.3232917 -0.16849226 -0.5043799 0.40124726 0.09133779
0.009314547 0.21265495 -0.07480174 -0.025417892 0.029930336 0.25878367 0.67567396 -0.25756782
0.10250697 -0.23808552 0.44699654 0.122023694 0.04772281 -0.23937745 0.3368099 0.15757963

mlp_extractor.value_net.2.bias f4 [32]
00000000: 0000 0000 0000 0000 0000 0000 0000 0000
00000010: 0000 0000 0000 0000 0000 0000 0000 0000
00000020: 0000 0000 0000 0000 0000 0000 0000 0000
00000030: 0000 0000 0000 0000 0000 0000 0000 0000
00000040: 0000 0000 0000 0000 0000 0000 0000 0000
00000050: 0000 0000 0000 0000 0000 0000 0000 0000
00000060: 0000 0000 0000 0000 0000 0000 0000 0000
00000070: 0000 0000 0000 0000 0000 0000 0000 0000
0.0 0.0 0.0 0.0 0.0 0.0 0.0 0.0
0.0 0.0 0.0 0.0 0.0 0.0 0.0 0.0
0.0 0.0 0.0 0.0 0.0 0.0 0.0 0.0
0.0 0.0 0.0 0.0 0.0 0.0 0.0 0.0

action_net.weight f4 [5, 32]
00000000: dc72 e93d e78b 58be 7602 d53d 6065 3f3e
00000010: 5460 cd3d a0f6 47be 146d 94be 5ab5 283e
00000020: 0def 26be 9ff3 b23d 1ed5 853e 98c3 803e
00000030: 61d4 6d3e 7b64 83be c3ac fcbd 31fe 233e
00000040: ed39 85be fba1 8f3d 402a b6bd 792e e7bd
00000050: a2bb c23d 6edf 1fbe 1dcf 9a3e de18 76be
00000060: 6c12 8cbe 5afb 413e e777 8dbe dad4 ad3d
00000070: a860 563e c3e9 2cbe 34e6 e83d 82ad c93d
00000080: c277 26be 9fb1 5fbe 30ca 983d d262 4bbe
00000090: ca51 b13d b2e9 66be a7de 633e 9bae 31be
000000a0: c252 71be f4ed a03d 2e39 4fbe c0e1 6ebe
000000b0: 1e66 8abe 6a89 973e 1fb9 17bd 954a 613e
000000c0: fba6 8e3e 7dee b93d 4442 aabd 9357 81bd
000000d0: d13c b83d 9b4d 61be a9fd 80be e9a8 843e
000000e0: bfc5 813e 0edd 6a3e bb26 993e e7fd af3d
000000f0: 7cd3 7ebe c67e 57be c9d9 ae3d 427e 613e
00000100: 2b03 17be 7f8c 923e 7328 dc3d 2ff5 0ebe
00000110: 7a30 b43d 837c 873e 0143 3d3e faea 27be
00000120: b9ff 853e 15ff d23d 9ab6 1cbe 4d85 35be
00000130: 59c0 813e 489a 81be f369 10be 18b0 87be
00000140: 7ec5 7fbe ab2f de3d 901f d2bd e5de cdbd
00000150: ad69 c43d f668 903e ca58 42be ba86 50be
00000160: 6dea 153e becc 89be c50b 78be 35b1 d93d
00000170: aa20 733d e900 803e 1a58 a23d 20f6 7abe
00000180: b4a2 003e 7ece 123e ea08 1abe 1df9 ed3d
00000190: b157 23be 7819 e23d 88d5 8bbd 2f5e d83d
000001a0: d582 5b3d 17a2 0fbe a3d0 9e3d 81d8 e13d
000001b0: 3b7c 60be 29e2 333e 5b0a 543e 3ea7 97bd
000001c0: 1111 4a3e c064 0dbe f6f7 103e 7ac9 1b3e
000001d0: 75df 1ebe fd91 b83d 7207 813d dfc4 1e3e
000001e0: 2fd0 a4bd bcd0 92bd d2a0 263e b474 0ebe
000001f0: 1acd 683d 7188 793d a480 32be c288 86bd
00000200: 1fc1 013e 5eb5 133e 7aa6 1cbe 0093 e63d
00000210: cf48 21be df34 e03d bbf3 87bd e2d7 de3d
00000220: e901 6b3d c954 0cbe d931 a03d af75 df3d
00000230: b1b5 5ebe 7203 363e a3f2 543e 7db5 9abd
00000240: 7330 4a3e b5fe 0abe a51e 123e 34df 1b3e
00000250: a1a6 21be c123 b23d cad9 733d 36b1 223e
00000260: ae02 a3bd c4a4 8fbd 4476 283e e7af 10be
00000270: 2aca 803d 5b3b 823d 7d1f 31be bc14 85bd
0.11398861 -0.21147119 0.1040086 0.18691015 0.10028139 -0.19527674 -0.2898947 0.1647543
-0.16302128 0.08737873 0.26139158 0.25149226 0.23225547 -0.25662598 -0.12337639 0.16014935
-0.26020756 0.07013317 -0.08894777 -0.11288161 0.09508444 -0.15612575 0.3023614 -0.24032924
-0.27357805 0.1894354 -0.2763054 0.08487864 0.20935309 -0.16886048 0.11372033 0.09847547
-0.16256621 -0.21845101 0.07460439 -0.19861916 0.08658178 -0.22550085 0.22252904 -0.17351763
-0.23566726 0.07857886 -0.20236656 -0.23328304 -0.27031034 0.29597026 -0.03704178 0.22001107
0.2786177 0.09078691 -0.083134204 -0.063155316 0.08995975 -0.2200226 -0.25193527 0.25910118
0.2534618 0.22935888 0.29912362 0.0859335 -0.24885362 -0.21044454 0.08537633 0.2202082
-0.14747302 0.28622815 0.107499026 -0.13960718 0.08798309 0.26462182 0.18482591 -0.1639823
0.26171663 0.10302559 -0.15304032 -0.17726631 0.25342062 -0.2531302 -0.14102916 -0.26501536
-0.24977681 0.10848936 -0.10259926 -0.100522794 0.095904686 0.2820508 -0.18979183 -0.20363894
0.14640208 -0.26914018 -0.2422324 0.10629503 0.059357323 0.25000694 0.0792696 -0.24507952
0.12562066 0.14336583 -0.15042463 0.1161978 -0.1595142 0.11040014 -0.06827837 0.10564839
0.053591568 -0.14026676 0.07754638 0.11027623 -0.2192239 0.17566742 0.20707075 -0.07404946
0.19733073 -0.13807964 0.1415709 0.15213576 -0.1551493 0.0901222 0.06300248 0.15504788
-0.0804752 -0.07168719 0.16272286 -0.13911706 0.056836225 0.060921136 -0.17431885 -0.06569053
0.12671326 0.14424655 -0.15297881 0.11258507 -0.1575043 0.10947584 -0.06638285 0.1088102
0.05737487 -0.13704218 0.07822008 0.10911118 -0.21748997 0.17774752 0.20795684 -0.075541474
0.19745044 -0.13573726 0.14269502 0.15221864 -0.1578622 0.08698226 0.05953387 0.15887913
-0.079594955 -0.070138484 0.16451365 -0.14129601 0.0628856 0.063589774 -0.17297168 -0.064980954

action_net.bias f4 [5]
00000000: ae9a b23d a3cc 983d 9d52 cf3d 3860 03be
00000010: 3053 03be
0.08720909 0.07460906 0.10123179 -0.12829673 -0.12824702

value_net.weight f4 [1, 32]
00000000: e834 713e 1bd4 c83d 1259 ff3d c17e 48be
00000010: 43e5 67be ead5 75bd 6a1e 28be df6e 26be
00000020: 5bb4 583e f565 25be 91a5 1e3c bb5c 513e
00000030: b785 3e3e 38d7 5dbd f0a1 3f3e 72c9 0abe
00000040: 6de3 6a3e ba14 c6bd f227 5d3e d66a 75be
00000050: 7742 1ebd 358b f83d 99f0 b8bd 1e6a 6abd
00000060: c476 423e 4ea0 1ebd 401c 773e 725b 213d
00000070: ced3 4d3d 68b5 d43e 3e07 19be ec4c 91be
0.23555338 0.09806081 0.12468161 -0.19579603 -0.2264605 -0.060018457 -0.16417852 -0.16253231
0.2116255 -0.16152175 0.009683029 0.2044553 0.18605696 -0.054160327 0.18714118 -0.13553408
0.22938319 -0.09671922 0.21597269 -0.23966536 -0.038637605 0.12135927 -0.09030265 -0.057230107
0.18990618 -0.038727097 0.2413187 0.03939385 0.05025082 0.41544652 -0.14944169 -0.28379
