toy_student/dagger_bfs/train_logs/empty_map3_visibility=occluded_level=2_2024-12-08-141712_nt=DAgger_InitBC/BC.pth (torch, 226850 bytes, 11 tensors)

mlp_extractor.policy_net.0.weight f4 [128, 81]
-0.18907885 -0.023802882 0.18423851 0.20644331 -0.06217554 0.090481795 -0.21488859 0.022966215
0.26900372 0.04913215 0.070372455 0.06180553 0.0038428204 -0.25519583 0.019012824 0.17910108
0.17353009 -0.16889763 -0.031713184 0.08545188 -0.15469812 -0.028033497 -0.07522792 -0.039233144
0.07255146 -0.18960524 -0.21336861 0.034664575 0.07523987 0.077641204 -0.12449665 -0.025326401
-0.099354655 0.25098798 -0.097977504 -0.11152929 0.07136094 0.13070679 -0.035602726 0.1278549
0.28691027 0.15444525 -0.09517568 -0.1507298 -0.045600466 -0.01802819 0.2155983 0.025201773
-0.03846304 0.0042851134 -0.13139117 0.2664595 -0.021908367 -0.014593917 0.09060393 0.2071495
0.022682147 0.2444408 -0.040641174 0.059639644 -0.34808123 0.11984553 -0.030772444 0.101752125
-0.027384223 -0.016553238 0.0023106353 -0.12102379 0.15879843 0.20860319 0.08905412 -0.10292828
0.01654566 -0.13422565 -0.021589773 -0.15988319 -0.16399077 0.08488317 -0.28281313 -0.041383456
0.12052207 0.05548036 -0.15474375 0.29337206 0.101563655 -0.18548916 -0.16301055 0.045928404
0.021490378 -0.22938852 0.093955316 0.12587237 0.107850485 0.046855632 0.17263393 0.124017105
-0.23216224 -0.054358523 0.01716359 -0.1509543 0.04702072 0.12486856 0.083422534 -0.07596072
0.20138706 0.09814243 -0.02005547 -0.12243023 -0.1543939 0.14161743 0.02736874 0.10756638
0.20092778 0.24034324 -0.12107021 -0.133733 0.06911346 -0.034605015 0.105779596 -0.12561052
-0.109844096 0.045265414 0.17143229 0.07993087 -0.12442401 0.061196804 -0.2395445 0.091935374
-0.08565588 -0.09224392 0.06762404 0.21373719 0.1597468 0.10224712 0.028549109 -0.32989192
0.0046963342 -0.19072382 0.0155352205 0.31606984 -0.10139347 -0.10207455 0.15537709 0.035618406
-0.16425683 -0.03477552 0.14348939 0.07375512 0.08208002 -0.050300542 0.18462661 -0.14637212
0.15657148 -0.09525993 0.0069680763 -0.018841919 -0.17743973 0.07299845 0.095063046 -0.09355924
0.17904994 0.0046711913 0.30127227 0.01981373 -0.1703971 0.016668621 0.006139224 0.115709424
0.15339567 -0.12133151 0.1324888 -0.07591651 -0.114697926 0.20451131 0.14187308 0.11755619
0.21856633 0.31323463 0.20515382 -0.0030596808 -0.07321958 0.00069088425 0.081525 0.06498229
-0.14069931 0.056405988 0.036630925 0.26606047 -0.12108813 0.14640641 -0.037751053 0.12194257
-0.09838642 -0.13554476 -0.06505936 -0.1696559 0.14255972 -0.23508655 0.05746687 -0.048793297
0.0015334812 -0.08051837 0.07341597 -0.32654873 0.1787945 -0.050966073 -0.046344683 -0.15714571
0.015436421 -0.13771996 0.18524878 0.08050472 0.2070871 0.0797002 0.03397406 0.0057171383
0.050566893 -0.010516403 0.18175764 0.058083624 -0.12785701 -0.24317887 -0.02155978 -0.00090605445
-0.19421884 0.025008205 0.06568242 -0.05582676 0.04209071 0.15087709 0.04538307 0.029771497
-0.11906559 0.14027458 -0.015228639 0.16062602 0.012791194 0.023958176 0.18060327 0.15520577
0.13141085 -0.003306833 -0.09367499 0.08565462 -0.015730448 0.16365397 -0.0072390325 -0.13379288
0.053425483 0.042587727 0.09106463 0.19893236 -0.03880159 0.07343675 0.012783577 0.12122592
00000000: e39d 41be 43fe c2bc 05a9 3c3e e065 533e
00000010: c7ab 7ebd 854e b93d c10b 5cbe a523 bc3c
00000020: dbba 893e cb3e 493d 6f1f 903d cc27 7d3d
00000030: d4d7 7b3b 07a9 82be c8c0 9b3c 4666 373e
00000040: dfb1 313e 80f3 2cbe afe5 01bd 6501 af3d
00000050: 2f69 1ebe 81a6 e5bc 1911 9abd efb2 20bd
00000060: dc95 943d e027 42be 4d7d 5abe 71fc 0d3d
00000070: 5c17 9a3d 5a02 9f3d 1af8 febd 5079 cfbc
00000080: 747a cbbd 7f81 803e 6ea8 c8bd 7869 e4bd
00000090: af25 923d 00d8 053e 2ad4 11bd 65ec 023e
000000a0: e7e5 923e e526 1e3e 78eb c2bd ea58 1abe
000000b0: 8ec7 3abd dbaf 93bc cdc5 5c3e f373 ce3c
000000c0: 6c8b 1dbd 236a 8c3b 688b 06be 616d 883e
000000d0: 2d79 b3bc 531b 6fbc 8e8e b93d 001f 543e
000000e0: e9cf b93c b04e 7a3e 5c77 26bd b348 743d
000000f0: b437 b2be 9371 f53d 7e16 fcbc 6b63 d03d
00000100: e154 e0bc a89a 87bc 076e 173b 52db f7bd
00000110: 0e9c 223e 139c 553e 0262 b63d 10cc d2bd
00000120: c48a 873c 7372 09be 09dd b0bc 6bb8 23be
00000130: 32ed 27be 3ad7 ad3d e2cc 90be b381 29bd
00000140: 46d4 f63d 603f 633d 2575 1ebe dd34 963e
00000150: 9b00 d03d dff0 3dbe 3dec 26be 6c1f 3c3d
00000160: 970c b03c d3e4 6abe a56b c03d b0e4 003e
00000170: b7e0 dc3d b1eb 3f3d f3c6 303e aefc fd3d
00000180: f0bb 6dbe 0ba7 5ebd a89a 8c3c c493 1abe
00000190: cc98 403d 16bb ff3d 6fd9 aa3d 4b91 9bbd
000001a0: 6938 4e3e e6fe c83d 5e4b a4bc b3bc fabd
000001b0: 6f19 1ebe 2904 113e 6834 e03c c34b dc3d
000001c0: 03c0 4d3e 8a1c 763e a9f3 f7bd 4ef1 08be
000001d0: 5c8b 8d3d fdbd 0dbd f9a2 d83d 0ba0 00be
000001e0: f1f5 e0bd 3a68 393d f28b 2f3e ccb2 a33d
000001f0: 04d2 febd 80a9 7a3d 274b 75be 9d48 bc3d
00000200: 5a6c afbd 61ea bcbd 797e 8a3d ecdd 5a3e
00000210: aa94 233e f066 d13d d2df e93c 98e7 a8be
00000220: b5e3 993b 1b4d 43be 7087 7e3c e8d3 a13e
00000230: 61a7 cfbd 760c d1bd 2c1b 1f3e 9be4 113d
00000240: f132 28be c770 0ebd e2ee 123e ed0c 973d
00000250: 9219 a83d f107 4ebd c20e 3d3e 93e2 15be
00000260: 4654 203e a317 c3bd 7654 e43b 5e5a 9abc
00000270: c3b2 35be 3680 953d 6ab0 c23d fd9b bfbd
00000280: de58 373e cb10 993b 5c40 9a3e 6750 a23c
00000290: 947c 2ebe a28c 883c 8b2b c93b 10f9 ec3d
000002a0: c113 1d3e a87c f8bd 25ab 073e 1d7a 9bbd
000002b0: bfe6 eabd 6a6b 513e 2d47 113e 4dc1 f03d
000002c0: dacf 5f3e 4a60 a03e d813 523e ed84 48bb
000002d0: 26f4 95bd 751c 353a 94f6 a63d 6f15 853d
000002e0: 7b13 10be f709 673d 4f0a 163d 1439 883e
000002f0: 0efd f7bd 90eb 153e d9a0 1abd 07bd f93d
00000300: d27e c9bd 3fcc 0abe d73d 85bd 47ba 2dbe
00000310: 2dfb 113e 87ba 70be 6162 6b3d 7bdb 47bd
00000320: 17ff c83a d1e6 a4bd 1d5b 963d 6531 a7be
00000330: e815 373e cdc1 50bd ecd3 3dbd ceea 20be
00000340: 0be9 7c3c 7606 0dbe dbb1 3d3e a9df a43d
00000350: a40e 543e dc39 a33d 6228 0b3d d556 bb3b
00000360: 3b1f 4f3d fe4c 2cbc ad1e 3a3e 18e9 6d3d
00000370: f3ec 02be e203 79be 239e b0bc 4984 6dba
00000380: 4ee1 46be 02de cc3c 8184 863d 9aaa 64bd
00000390: 4f67 2c3d 867f 1a3e 99e3 393d 5be3 f33c
000003a0: a9d8 f3bd 24a4 0f3e 8b81 79bc 267b 243e
000003b0: 2892 513c f043 c43c 10f0 383e 43ee 1e3e
000003c0: 9190 063e 74b7 58bb acd8 bfbd b06b af3d
000003d0: 24dd 80bc e894 273e 6835 edbb 0001 09be
000003e0: aed4 5a3d 7870 2e3d 1880 ba3d edb4 4b3e
000003f0: 6bee 1ebd 0266 963d 3572 513c 4c45 f83d

mlp_extractor.policy_net.0.bias f4 [128]
-0.0008020225 -0.008168716 0.028543085 0.017427465 0.0016251924 -0.046062846 0.03829331 0.00729591
-0.0117488 0.02898466 -0.024280565 -0.013741788 -0.008059556 0.00059117505 0.027198838 -0.024441559
-0.006729134 0.004423537 0.03480371 -0.06902494 -0.054341745 0.035287295 0.05239824 0.0032416154
0.012594539 0.029529074 -0.03816315 0.019674893 -0.025873816 0.019119363 -0.017903132 -0.05017174
-0.00037348198 -0.023179892 0.026385605 0.011158677 -0.030529458 0.01018131 0.028348573 -0.001771227
0.0013277809 -0.019178 -0.002694046 0.0015190365 0.06327156 0.010380792 -0.035575345 0.006071062
0.01920704 -0.00755306 0.013433655 0.0023134104 -0.0074793375 -0.032681555 0.008188347 -0.008996878
0.005522166 -0.011299653 0.008058141 -0.008599375 -0.047607347 0.005031845 -0.0252558 0.008460466
-0.02065958 -0.022619529 0.0009366775 0.044404 0.0019361625 0.017856475 -0.0201198 0.010248668
0.005619933 0.02303215 -0.02973856 0.023712704 0.0016565121 -0.027304852 -0.00049877993 -0.008737698
0.028596696 0.010911599 -0.0072248345 0.03735069 -0.03118131 -0.021885868 -0.014041339 0.0058455924
0.04717819 -0.009856166 -0.01130068 -0.033997115 -0.0060380828 0.041901838 0.005357448 0.016594376
0.0057095876 -0.018056253 -0.0063907555 0.0073116086 -0.025975563 -0.0055982647 0.009393141 0.016358584
0.010491739 -0.0014739087 0.0021855615 -0.014762644 0.006471302 -0.009788216 0.013175736 -0.040743478
0.019230008 0.04961815 -0.044259936 -0.010174114 0.0029880968 0.013847459 -0.02176416 0.025713908
0.022602951 0.007803269 -0.009390316 -0.005184338 0.037998352 0.03723033 -0.0107348785 -0.040413614
00000000: d23e 52ba 14d6 05bc 30d3 e93c 0bc4 8e3c
00000010: 6804 d53a 65ac 3cbd 72d9 1c3d 8712 ef3b
00000020: 0a7e 40bc 3d71 ed3c 09e8 c6bc 3d25 61bc
00000030: 3a0c 04bc 16f9 1a3a 19d0 de3c aa39 c8bc
00000040: 1180 dcbb 51f3 903b 568e 0e3d f35c 8dbd
00000050: 7395 5ebd 6989 103d 899f 563d 4871 543b
00000060: 5359 4e3c f5e6 f13c f750 1cbd 3e2d a13c
00000070: 53f5 d3bc 36a0 9c3c 97a9 92bc e280 4dbd
00000080: e7cf c3b9 c2e3 bdbc a026 d83c e2d2 363c
00000090: ea18 fabc 82cf 263c 443b e83c 8428 e8ba
000000a0: ef08 ae3a 2e1b 9dbc 978e 30bb 681a c73a
000000b0: 8594 813d 3314 2a3c 74b7 11bd c2ef c63b
000000c0: 1558 9d3c a97f f7bb d518 5c3c 969c 173b
000000d0: 3b15 f5bb 18dd 05bd 6b28 063c a467 13bc
000000e0: 49f3 b43b 2e22 39bc 4b06 043c 65e4 0cbc
000000f0: ecff 42bd 2de2 a43b 40e5 cebc c49d 0a3c
00000100: 483e a9bc 974c b9bc 5d8b 753a f8e0 353d
00000110: d5c6 fd3a be47 923c 47d2 a4bc 07ea 273c
00000120: 6a27 b83b ebad bc3c 489e f3bc 2541 c23c
00000130: 531f d93a 6dae dfbc 8ec0 02ba 9028 0fbc
00000140: 9e43 ea3c 90c6 323c 4ebe ecbb 0afd 183d
00000150: f26f ffbc fe49 b3bc a50d 66bc 628c bf3b
00000160: eb3d 413d c27b 21bc 7d26 39bc 8f40 0bbd
00000170: 1cdb c5bb 43a1 2b3d 888d af3b eef0 873c
00000180: 7e17 bb3b b5ea 93bc 8b69 d1bb 3896 ef3b
00000190: b4ca d4bc a671 b7bb b0e5 193c 7002 863c
000001a0: 8be5 2b3c 2b30 c1ba a33b 0f3b 04df 71bc
000001b0: 370d d43b c15e 20bc 0bdf 573c a2e2 26bd
000001c0: 4088 9d3c 673c 4b3d e849 35bd 54b1 26bc
000001d0: f2d3 433b 74e0 623c c04a b2bc f9a5 d23c
000001e0: d329 b93c 91b2 ff3b d7d9 19bc 61e1 a9bb
000001f0: 29a4 1b3d d57e 183d 58e1 2fbc bf88 25bd

mlp_extractor.policy_net.2.weight f4 [128, 128]
0.030829336 -0.018083997 -0.10259012 -0.027791835 -0.1020644 0.21929628 0.13457815 0.041421633
-0.013301371 0.15504748 0.22846375 -0.036549754 -0.21246977 0.08968163 -0.040684342 -0.22384697
-0.23293272 -0.04798129 0.0012371815 0.036121644 -0.16637161 0.021625942 -0.076488584 0.12977147
0.09677563 0.0922161 0.07899219 0.048971035 -0.22501814 0.06618296 0.0972686 -0.087356076
0.013691349 0.21931754 0.028250795 0.13076557 0.35450122 0.080550216 0.076059386 -0.04000747
-0.049295694 0.06619041 0.15511 0.21396372 -0.15446632 -0.23191147 -0.22105485 -0.046799783
0.003529001 0.12785298 -0.036376003 0.08065619 -0.0016998422 -0.16047594 -0.11942284 -0.23646684
-0.25202605 -0.1534429 -0.072107725 0.013282354 0.12869823 0.06967382 -0.025293112 0.07594758
0.0052199974 0.05020767 -0.248407 0.017985454 -0.07827544 0.015671987 -0.06711711 0.18641786
-0.19548935 0.027023265 0.16116747 -0.17353407 0.08956739 -0.19133046 -0.04900439 0.15387109
0.097495995 0.10271311 -0.18196899 0.12560464 0.0030440697 0.004031899 0.21526064 -0.16259132
-0.10187287 0.0898354 0.0041130227 -0.18774888 -0.20861004 0.13627155 -0.009648232 -0.20611426
-0.017103791 0.13463737 0.08608803 0.040371317 -0.23124208 0.17030911 0.1531087 0.2255864
-0.046904318 0.29646143 0.053791307 -0.120517716 -0.131748 0.27427572 0.17052896 0.10718872
-0.062428188 0.002279855 -0.227893 -0.032720827 0.06573029 0.13183431 -0.07328549 0.020891901
0.28112933 0.42607066 -0.07060224 -0.122442104 0.056646086 0.1215737 1.5701768e-05 -0.058198653
-0.2506905 0.30091998 0.16094142 0.059483636 0.037326343 0.11112529 0.057616655 -0.024194818
-0.13304691 0.2275907 -0.20106713 0.212259 -0.22968988 -0.09858827 0.08961575 0.082550876
0.008144206 -0.12680176 -0.097659655 0.042725924 -0.2361291 -0.03343915 0.18995684 0.09884206
-0.11035662 -0.021741418 -0.11740058 -0.014234572 0.26245463 0.026587602 0.107937366 0.0014925965
-0.27501434 0.033762246 -0.023812886 0.07114316 -0.1822876 -0.15375343 0.18707407 0.08946106
-0.0773769 -0.0755325 -0.11195988 -0.13530649 0.114578724 -0.0918498 0.17495549 0.0018716992
-0.17181163 -0.05191758 0.22270747 -0.20913808 0.051618364 0.20238128 -0.023121662 -0.044221453
0.0066178674 -0.21336119 -0.12337967 -0.16768996 -0.15613028 -0.025415683 -0.13269286 -0.3559572
-0.1974231 0.03853038 -0.15254676 0.17968744 -0.15241185 0.17635293 -0.07613765 0.013692013
0.021717591 0.22602767 0.1640698 -0.20661001 0.11371437 -0.06854348 -0.051882435 0.17939384
0.1740528 -0.11210294 -0.049402628 0.024675725 -0.08097283 -0.03337167 -0.22361952 0.13463673
-0.07682975 0.002327941 0.020516464 0.0066484343 0.029882032 0.32962245 0.1341337 0.16867791
0.07074049 -0.008307876 0.09403352 0.010988002 -0.36537507 -0.08259223 0.05798953 -0.1352933
-0.08326105 -0.2410829 -0.04880246 -0.068392694 -0.033133566 -0.09307703 -0.0243756 -0.2347404
0.14226758 -0.010791103 -0.040429577 -0.08599838 0.017358128 0.080681145 0.13274212 -0.019836476
-0.09740325 -0.09233876 -0.04077401 0.30356956 -0.110263065 -0.07530351 -0.33168712 -0.21227385
00000000: ce8d fc3c e424 94bc c51a d2bd b4ab e3bc
00000010: 2407 d1bd 348f 603e dbce 093e bba9 293d
00000020: feed 59bc c4c4 1e3e 67f2 693e 32b5 15bd
00000030: ad91 59be 01ab b73d a0a4 26bd 2438 65be
00000040: ea85 6ebe 0788 44bd ec28 a23a 4af4 133d
00000050: 525d 2abe e328 b13c 0ca6 9cbd d0e2 043e
00000060: 4d32 c63d cbdb bc3d a8c6 a13d da95 483d
00000070: 286b 66be ef8a 873d c234 c73d bee7 b2bd
00000080: ae51 603c c794 603e 366e e73c 69e7 053e
00000090: 2f81 b53e 83f7 a43d 06c5 9b3d dfde 23bd
000000a0: 48ea 49bd d68e 873d 28d5 1e3e 4e19 5b3e
000000b0: 6b2c 1ebe 337a 6dbe 345c 62be 21b1 3fbd
000000c0: d046 673b e4eb 023e 01ff 14bd 132f a53d
000000d0: 3dcd deba ce53 24be f693 f4bd 5d24 72be
000000e0: 8f09 81be 2320 1dbe 37ad 93bd 3b9e 593c
000000f0: 78c9 033e 26b1 8e3d 8033 cfbc 688a 9b3d
00000100: 830c ab3b 8fa6 4d3d 685e 7ebe 3b56 933c
00000110: e04e a0bd 8a62 803c b274 89bd 53e4 3e3e
00000120: 5c2e 48be e55f dd3c 1609 253e eab2 31be
00000130: 1c6f b73d 22ec 43be d4b8 48bd 6290 1d3e
00000140: fbab c73d 405b d23d 1456 3abe 819e 003e
00000150: 047f 473b 051e 843b 496d 5c3e 577e 26be
00000160: b9a2 d0bd 9ffb b73d 89c6 863b 3e41 40be
00000170: df9d 55be c58a 0b3e 9e13 1ebc 9e0f 53be
00000180: 401d 8cbc 61de 093e ec4e b03d 655c 253d
00000190: b9ca 6cbe 8365 2e3e 87c8 1c3e 1f00 673e
000001a0: be1e 40bd cbc9 973e 4654 5c3d fed1 f6bd
000001b0: f3e8 06be de6d 8c3e 259f 2e3e c285 db3d
000001c0: b3b4 7fbd 9f69 153b c85c 69be 4606 06bd
000001d0: 9a9d 863d 93ff 063e b416 96bd 7e25 ab3c
000001e0: 2ff0 8f3e ef25 da3e e897 90bd edc2 fabd
000001f0: ba05 683d a2fb f83d 4ab7 8337 b661 6ebd
00000200: 815a 80be 2f12 9a3e d4cd 243e 1da5 733d
00000210: 82e3 183d a895 e33d 71ff 6b3d 3634 c6bc
00000220: 733d 08be 890d 693e 8be4 4dbe 6c5a 593e
00000230: d333 6bbe a6e8 c9bd 7688 b73d 6f10 a93d
00000240: 476f 053c 52d8 01be c901 c8bd 6101 2f3d
00000250: d4cb 71be 7df7 08bd 0c84 423e b56d ca3d
00000260: a702 e2bd 0f1b b2bc b76f f0bd 1f38 69bc
00000270: 7460 863e 3ece d93c 440e dd3d 3aa3 c33a
00000280: aece 8cbe 484a 0a3d 3e13 c3bc 81b3 913d
00000290: 9aa9 3abe 8a71 1dbe 5890 3f3e 5c37 b73d
000002a0: c877 9ebd c9b0 9abd 394b e5bd c98d 0abe
000002b0: 40a8 ea3d bf1b bcbd 8827 333e ce53 f53a
000002c0: 63ef 2fbe 87a7 54bd 6d0d 643e 4b28 56be
000002d0: c76d 533d 0a3d 4f3e a469 bdbc 8e21 35bd
000002e0: b2da d83b 5b7b 5abe 7bae fcbd ebb6 2bbe
000002f0: 9ee0 1fbe 8d34 d0bc a3e0 07be 0640 b6be
00000300: 4829 4abe 08d2 1d3d 3835 1cbe fcff 373e
00000310: da11 1cbe dd95 343e 0eee 9bbd 7754 603c
00000320: 17e9 b13c cc73 673e ea01 283e 9391 53be
00000330: 14e3 e83d 8660 8cbd ad82 54bd 05b3 373e
00000340: e63a 323e 3a96 e5bd 695a 4abd bf24 ca3c
00000350: 15d5 a5bd bbb0 08bd 84fc 64be 36de 093e
00000360: ea58 9dbd 5e90 183b 2512 a83c 1cdb d93b
00000370: 2acb f43c 46c4 a83e 585a 093e e7b9 2c3e
00000380: 64e0 903d c21d 08bc a594 c03d 0507 343c
00000390: 7112 bbbe 1d26 a9bd 6e86 6d3d 548a 0abe
000003a0: c584 aabd 70de 76be 17e5 47bd 7811 8cbd
000003b0: 10b7 07bd 2b9f bebd 57af c7bc ca5f 70be
000003c0: 98ae 113e 2bcd 30bc 7c99 25bd eb1f b0bd
000003d0: a232 8e3c 283c a53d 8ded 073e 1b80 a2bc
000003e0: 5b7b c7bd 1b1c bdbd a602 27bd 786d 9b3e
000003f0: 9ad1 e1bd ba38 9abd e5d2 a9be 515e 59be

mlp_extractor.policy_net.2.bias f4 [128]
0.011400507 0.044194933 -0.00045788262 -0.0011478206 -0.023755854 -0.02458574 -0.013224306 0.0026264954
-0.016632179 -0.02525805 -0.039614603 0.0032529142 -0.0023293432 -0.020341182 0.009395951 -0.01346216
0.014874792 -0.024022188 0.0019088081 0.017838461 -0.0014974946 -0.017124007 -0.01039491 0.023938743
-0.011864085 0.010635565 -0.041982956 -0.009276635 -0.01084039 -0.040406615 -0.0069161723 0.02379343
-0.024731709 -0.009504138 0.002037762 -0.039960623 -0.014312811 0.021738028 -0.011327627 0.0510737
-0.010840316 -0.0073677753 -0.017810203 -0.01874161 -0.029254382 -0.0036461141 -0.0025890814 -0.0026881122
-0.011867723 0.009624414 -0.0013904226 -0.0077191545 0.015635855 -0.030713283 0.014481537 -0.008599116
0.011280162 0.030191125 -0.034823883 0.0028404444 0.010893009 -0.0056359624 -0.010399727 0.02818334
-0.019550165 -0.04722336 -0.0017715173 0.0147109255 -0.024487702 0.04989146 -0.012442851 -0.016693259
-0.047696725 -0.023060821 0.030531697 0.011766022 -0.011795302 -0.029992087 -0.00472108 -0.06370047
-0.02048017 -0.011958595 0.0050280173 0.0057655275 0.075911716 0.004330909 0.02901887 -0.007599063
0.0032892353 0.046801664 0.002304969 -0.015598473 0.016353244 -0.0072938716 0.0006980866 0.018664837
-0.0036945124 0.03743405 0.0071625137 -0.037673347 0.01858035 -0.021850783 -0.02274855 0.06439398
-0.0048317085 0.03636039 -0.0076412996 0.031158794 -0.0013407705 -0.013340763 0.0060472754 0.015053661
0.035288077 -0.011652724 0.03485729 0.006211136 0.012621409 0.021878706 0.025686176 0.022286689
0.0059096315 -0.022026062 0.03718611 -0.0073996224 -0.0059359837 0.0075967126 -0.03148937 0.027295688
00000000: 31c9 3a3c bf05 353d f70f f0b9 7872 96ba
00000010: a39b c2bc 0968 c9bc c2aa 58bc 4821 2c3b
00000020: 3540 88bc f8e9 cebc ec42 22bd d82e 553b
00000030: e5a7 18bb 8da2 a6bc 7af1 193c 6490 5cbc
00000040: 66b5 733c 2eca c4bc f930 fa3a f721 923c
00000050: 9547 c4ba a547 8cbc 6a4f 2abc 2f1b c43c
00000060: 9461 42bc cb40 2e3c 52f6 2bbd 07fd 17bc
00000070: e49b 31bc 6881 25bd 0fa1 e2bb 70ea c23c
00000080: 279a cabc 3eb7 1bbc f98b 053b c0ad 23bd
00000090: 4880 6abc f313 b23c 8397 39bc a832 513d
000000a0: 959b 31bc 616d f1bb b4e6 91bc 0188 99bc
000000b0: e3a6 efbc a5f3 6ebb 94ad 29bb 0a2b 30bb
000000c0: d770 42bc b8af 1d3c d73e b6ba f6f0 fcbb
000000d0: c416 803c 6c9a fbbc f843 6d3c 4ee3 0cbc
000000e0: 6ed0 383c 6153 f73c 7da3 0ebd c026 3a3b
000000f0: 9778 323c e1ad b8bb 9e63 2abc bfe0 e63c
00000100: ab27 a0bc 486d 41bd 4232 e8ba 1806 713c
00000110: 6f9a c8bc fd5a 4c3d 1add 4bbc 4dc0 88bc
00000120: a45d 43bd 0cea bcbc 9c1d fa3c 46c6 403c
00000130: 1541 41bc f7b1 f5bc 4ab3 9abb 6475 82bd
00000140: 08c6 a7bc fced 43bc 11c2 a43b c0ec bc3b
00000150: 9a77 9b3d 4cea 8d3b fbb8 ed3c 9001 f9bb
00000160: 3690 573b 1ab3 3f3d f60e 173b bd90 7fbc
00000170: 3df7 853c 6e01 efbb ccff 363a 00e7 983c
00000180: a21f 72bb 7254 193d 85b3 ea3b 5e4f 1abd
00000190: d135 983c 6a00 b3bc 2b5b babc fee0 833d
000001a0: 4f53 9ebb a2ee 143d de63 fabb ba40 ff3c
000001b0: cbbc afba 3793 5abc 3928 c63b a1a3 763c
000001c0: 3b8a 103d 11eb 3ebc 85c6 0e3d c986 cb3b
000001d0: 07ca 4e3c f93a b33c d16b d23c 9392 b63c
000001e0: 95a5 c13b 0070 b4bc 7650 183d 8878 f2bb
000001f0: a482 c2bb d8ed f83b fffa 00bd 359b df3c

mlp_extractor.value_net.0.weight f4 [128, 81]
-0.124010354 -0.044305716 -0.19238932 -0.04590455 0.22376491 0.25176695 -0.030495415 0.11801859
-0.19690377 0.1590907 -0.1456725 -0.010020939 0.042008344 0.15021692 -0.00019192882 -0.11091521
-0.13230586 0.033593684 0.040764235 -0.14137688 -0.10937032 0.031066976 -0.07134301 -0.20883268
0.17993172 0.016255744 -0.12631686 0.141228 -0.25563225 -0.01797813 0.07059799 -0.13440649
0.12578052 0.02061556 -0.08282484 -0.05903539 -0.076869994 -0.00051590736 0.064100765 -0.017881542
0.20024861 -0.20279276 0.0764428 -0.0043750242 0.06336747 0.101631016 -0.18548943 0.193776
-0.0070996475 0.25711522 0.13976634 0.017044894 0.28366935 -0.11256247 -0.021974608 0.063644364
0.035268802 -0.041625064 0.13043885 -0.028674044 -0.07747527 0.1601896 -0.08353664 -0.037101835
-0.17412399 -0.07880806 0.21142817 -0.042978328 -0.07221172 0.055732194 0.20653412 -0.003018251
0.2839342 -0.039876413 0.06404761 -0.035783958 0.02119965 0.17020033 0.055713423 -0.03408405
0.0015365767 -0.201436 -0.12315315 0.19676301 -0.06036722 -0.0627086 -0.20112088 0.08380927
-0.121056385 -0.052028067 -0.066651605 -0.15451513 -0.0921972 -0.15799616 0.0393946 0.05314677
0.12680575 -0.22066955 -0.08774766 0.052617636 -0.035229526 0.022350632 0.10579416 0.0188202
-0.18598069 0.014721951 -0.013602023 0.025704674 -0.06386 -0.020859128 -0.029310275 -0.06393668
0.12663011 -0.036984727 0.06329259 0.065928265 -0.09054052 0.14351226 -0.20084755 -0.14176725
-0.030919118 0.031515587 0.06271337 0.14262494 0.16720988 -0.11674974 -0.012306665 -0.15609449
0.033925828 -0.09652437 0.12717518 0.082723744 0.19543394 0.27547503 -0.20347022 -0.008347604
0.061366633 -0.09263235 0.15513864 0.028149297 -0.026498849 0.09643369 -0.007498411 -0.18367088
0.17731205 -0.028643042 -0.027092848 0.22069305 0.03042675 -0.0488711 -0.036340762 0.022391224
-0.055300944 0.18326952 0.0953472 -0.11840702 0.04370133 0.0075597274 -0.07012667 0.022345394
-0.052379053 0.021953084 -0.09552874 0.07051716 -0.17503111 -0.10048224 -0.38122734 0.2543379
0.22431712 -0.13776886 0.15195125 0.20090763 -0.16927958 0.107017085 0.23723961 0.19216573
-0.25787488 0.1902091 0.027531104 -0.18193163 0.062200665 -0.016154716 -0.100738 -0.14093532
0.11715176 0.30276513 0.08300605 0.17301475 -0.00031720297 -0.00056424615 0.049561262 -0.13244998
-0.08323665 -0.10528864 0.05600049 0.10635901 0.12770928 -0.086626135 -0.037414774 0.0470836
-0.17761314 -0.15659483 -0.20275517 -0.09697919 0.20655686 0.12113582 0.14542837 0.33056456
-0.1437444 0.14919537 -0.21115069 0.082726195 0.07829124 -0.21029685 -0.06726533 -0.08143333
-0.18766217 -0.12646204 0.20881528 -0.04174618 -0.12424227 -0.017119989 -0.020362668 -0.043420482
-0.10706204 0.002953682 -0.028682848 0.17296265 -0.056445744 0.038393866 0.033704165 -0.048226994
0.041210823 -0.03989406 -0.039766196 -0.16606423 0.031984247 0.05990593 0.0021131148 0.026230972
0.08920949 -0.13692428 0.20174345 -0.08006245 0.05060325 0.19036147 0.044850677 -0.025938878
-0.0014931036 0.07256941 0.06992044 -0.09800967 0.2627523 -0.03884847 0.07953873 -0.049581815
00000000: 24f9 fdbd e979 35bd b501 45be 6906 3cbd
00000010: a122 653e 99e7 803e 85d1 f9bc bbb3 f13d
00000020: 24a1 49be ace8 223e 2c2b 15be dd2e 24bc
00000030: f110 2c3d 77d2 193e 8040 49b9 8327 e3bd
00000040: 307b 07be 8899 093d 66f8 263d 1ac5 10be
00000050: 8cfd dfbd 2c80 fe3c 491c 92bd 3cd8 55be
00000060: 0540 383e c42a 853c 3559 01be 139e 103e
00000070: 3be2 82be df46 93bc ae95 903d dba1 09be
00000080: 9ccc 003e f6e1 a83c 12a0 a9bd 18cf 71bd
00000090: 046e 9dbd f53d 07ba 4347 833d 507c 92bc
000000a0: f90d 4d3e e8a8 4fbe 0b8e 9c3d 5d5c 8fbb
000000b0: cec6 813d ec23 d03d f1f0 3dbe 376d 463e
000000c0: 29a4 e8bb 9ba4 833e e81e 0f3e bca1 8b3c
000000d0: 1c3d 913e 2787 e6bd 1804 b4bc fa57 823d
000000e0: 0576 103d 0b7f 2abd c391 053e d4e5 eabc
000000f0: 5bab 9ebd be08 243e 4215 abbd 18f8 17bd
00000100: 8f4d 32be 1f66 a1bd a080 583e 0b0a 30bd
00000110: bde3 93bd 7147 643d ae7d 533e d9cd 45bb
00000120: d35f 913e 7355 23bd 652b 833d 3392 12bd
00000130: e3aa ad3c ff48 2e3e c233 643d b89b 0bbd
00000140: f566 c93a 3d45 4ebe b837 fcbd 3e7c 493e
00000150: 9e43 77bd 5e6d 80bd a2f2 4dbe 32a4 ab3d
00000160: 69ec f7bd 621b 55bd a380 88bd 3739 1ebe
00000170: e3d1 bcbd bfc9 21be 3b5c 213d 6db0 593d
00000180: 5ed9 013e 33f7 61be 0cb5 b3bd 9785 573d
00000190: d64c 10bd ac18 b73c 9caa d83d d22c 9a3c
000001a0: b971 3ebe 5734 713c 05db 5ebc 9c92 d23c
000001b0: 08c9 82bd c3e0 aabc 1a1c f0bc 3cf1 82bd
000001c0: 53ab 013e 4c7d 17bd 8c9f 813d 6605 873d
000001d0: 4f6d b9bd e1f4 123e fbaa 4dbe 6f2b 11be
000001e0: 174a fdbc 7d16 013d de6f 803d 460c 123e
000001f0: 1139 2b3e 7d1a efbd e5a1 49bc 3cd7 1fbe
00000200: cff5 0a3d 92ae c5bd 363a 023e 116b a93d
00000210: d61f 483e 100b 8d3e 7f5a 50be 64c4 08bc
00000220: 945b 7b3d 08b6 bdbd aadc 1e3e 5b99 e63c
00000230: 1d14 d9bc 077f c53d 3bb5 f5bb 3814 3cbe
00000240: 4a91 353e d0a4 eabc d2f1 ddbc 5cfd 613e
00000250: 8541 f93c 102d 48bd 0dda 14bd cd6d b73c
00000260: 3e83 62bd 01ab 3b3e 6545 c33d 617f f2bd
00000270: 2a00 333d 97b7 f73b 929e 8fbd b00d b73c
00000280: 6b8b 56bd f4d6 b33c 92a4 c3bd 4d6b 903d
00000290: 5b3b 33be a2c9 cdbd 3b30 c3be 9438 823e
000002a0: 63b3 653e 4813 0dbe 1c99 1b3e bbba 4d3e
000002b0: a057 2dbe c62b db3d f1ee 723e 18c7 443e
000002c0: 2d08 84be 2dc6 423e e988 e13c 494c 3abe
000002d0: 20c6 7e3d e556 84bc b94f cebd 5951 10be
000002e0: 43ed ef3d 0804 9b3e 13ff a93d c72a 313e
000002f0: 434e a6b9 ebe9 13ba c000 4b3d f8a0 07be
00000300: fa77 aabd 92a1 d7bd c560 653d c1d2 d93d
00000310: 39c6 023e 0b69 b1bd 3c40 19bd bcda 403d
00000320: 38e0 35be 655a 20be 0d9f 4fbe 079d c6bd
00000330: a483 533e 0f16 f83d 2deb 143e c23f a93e
00000340: bb31 13be acc6 183e e337 58be 5a6c a93d
00000350: 2857 a03d 0f58 57be 68c2 89bd 85c6 a6bd
00000360: 832a 40be 447f 01be acd3 553e 0bfe 2abd
00000370: bb72 febd 383f 8cbc 9ccf a6bc add9 31bd
00000380: 5843 dbbd 9092 413b 4bf8 eabc 1f1d 313e
00000390: a733 67bd e342 1d3d 610d 0a3d ab89 45bd
000003a0: aecc 283d f467 23bd e1e1 22bd be0c 2abe
000003b0: ea01 033d ec5f 753d 2f7c 0a3b 56e2 d63c
000003c0: 77b3 b63d e135 0cbe d695 4e3e c8f7 a3bd
000003d0: 5a45 4f3d 1eee 423e 58b5 373d c57d d4bc
000003e0: 3eb4 c3ba 459f 943d 7332 8f3d 4bb9 c8bd
000003f0: 7887 863e 931f 1fbd 34e5 a23d 4d16 4bbd

mlp_extractor.value_net.0.bias f4 [128]
0.0 0.0 0.0 0.0 0.0 0.0 0.0 0.0
0.0 0.0 0.0 0.0 0.0 0.0 0.0 0.0
0.0 0.0 0.0 0.0 0.0 0.0 0.0 0.0
0.0 0.0 0.0 0.0 0.0 0.0 0.0 0.0
0.0 0.0 0.0 0.0 0.0 0.0 0.0 0.0
0.0 0.0 0.0 0.0 0.0 0.0 0.0 0.0
0.0 0.0 0.0 0.0 0.0 0.0 0.0 0.0
0.0 0.0 0.0 0.0 0.0 0.0 0.0 0.0
0.0 0.0 0.0 0.0 0.0 0.0 0.0 0.0
0.0 0.0 0.0 0.0 0.0 0.0 0.0 0.0
0.0 0.0 0.0 0.0 0.0 0.0 0.0 0.0
0.0 0.0 0.0 0.0 0.0 0.0 0.0 0.0
0.0 0.0 0.0 0.0 0.0 0.0 0.0 0.0
0.0 0.0 0.0 0.0 0.0 0.0 0.0 0.0
0.0 0.0 0.0 0.0 0.0 0.0 0.0 0.0
0.0 0.0 0.0 0.0 0.0 0.0 0.0 0.0
00000000: 0000 0000 0000 0000 0000 0000 0000 0000
00000010: 0000 0000 0000 0000 0000 0000 0000 0000
00000020: 0000 0000 0000 0000 0000 0000 0000 0000
00000030: 0000 0000 0000 0000 0000 0000 0000 0000
00000040: 0000 0000 0000 0000 0000 0000 0000 0000
00000050: 0000 0000 0000 0000 0000 0000 0000 0000
00000060: 0000 0000 0000 0000 0000 0000 0000 0000
00000070: 0000 0000 0000 0000 0000 0000 0000 0000
00000080: 0000 0000 0000 0000 0000 0000 0000 0000
00000090: 0000 0000 0000 0000 0000 0000 0000 0000
000000a0: 0000 0000 0000 0000 0000 0000 0000 0000
000000b0: 0000 0000 0000 0000 0000 0000 0000 0000
000000c0: 0000 0000 0000 0000 0000 0000 0000 0000
000000d0: 0000 0000 0000 0000 0000 0000 0000 0000
000000e0: 0000 0000 0000 0000 0000 0000 0000 0000
000000f0: 0000 0000 0000 0000 0000 0000 0000 0000
00000100: 0000 0000 0000 0000 0000 0000 0000 0000
00000110: 0000 0000 0000 0000 0000 0000 0000 0000
00000120: 0000 0000 0000 0000 0000 0000 0000 0000
00000130: 0000 0000 0000 0000 0000 0000 0000 0000
00000140: 0000 0000 0000 0000 0000 0000 0000 0000
00000150: 0000 0000 0000 0000 0000 0000 0000 0000
00000160: 0000 0000 0000 0000 0000 0000 0000 0000
00000170: 0000 0000 0000 0000 0000 0000 0000 0000
00000180: 0000 0000 0000 0000 0000 0000 0000 0000
00000190: 0000 0000 0000 0000 0000 0000 0000 0000
000001a0: 0000 0000 0000 0000 0000 0000 0000 0000
000001b0: 0000 0000 0000 0000 0000 0000 0000 0000
000001c0: 0000 0000 0000 0000 0000 0000 0000 0000
000001d0: 0000 0000 0000 0000 0000 0000 0000 0000
000001e0: 0000 0000 0000 0000 0000 0000 0000 0000
000001f0: 0000 0000 0000 0000 0000 0000 0000 0000

mlp_extractor.value_net.2.weight f4 [128, 128]
0.15967451 -0.011972222 0.007925793 -0.0689717 0.08710499 0.106430545 0.0499327 -0.08119063
0.020591201 0.15368697 0.025519734 0.2423977 0.12569445 0.15222628 0.21446972 0.21883862
0.10782724 -0.19392267 0.20331576 0.12826663 -0.011444656 -0.015197623 0.1272976 -0.116574325
0.086457886 -0.053391885 0.30263895 0.35251534 0.066957995 -0.055122994 0.20231885 -0.020354604
0.022458255 0.26636082 -0.075020134 -0.02365267 -0.09172153 0.19832878 0.09104688 -0.0028942816
0.10865722 -0.040513005 -0.1686613 0.0073491335 -0.12135127 0.1347869 -0.0016780067 0.08983428
0.03575228 0.14086041 -0.09123085 0.08357398 -0.13409208 -0.10658413 0.12587778 -0.10502867
0.0013132783 0.024705436 -0.044336483 -0.14097552 -0.1711211 0.099042594 0.0006906075 -0.27865884
-0.036461584 0.1129365 0.08400677 0.14987263 0.063600436 0.019686727 -0.16120687 -0.06422009
0.16010666 -0.027166767 -0.107502975 0.032210138 0.015932469 0.054859076 0.24406321 0.066912584
-0.15746155 -0.30779406 -0.014866161 0.036125712 -0.005716997 0.07568143 -0.10577854 -0.02858113
-0.1438314 -0.1682838 -0.085122615 0.12081105 -0.10694489 0.033713955 0.0639942 0.00803773
0.2033663 -0.1855754 -0.025853788 0.2078831 0.11197701 -0.14251308 -0.28597334 0.03289445
-0.14363912 -0.060855843 0.05167684 -0.0039843717 0.004991873 -0.06471082 0.15921766 0.029620655
-0.0019473003 0.04348184 -0.14003639 -0.05328969 -0.014342729 -0.23908426 0.058481842 0.0056158863
-0.058472563 -0.037851885 -0.055544212 -0.021761652 0.21129173 0.13465713 -0.017836943 -0.06488663
0.07704803 -0.28598094 -0.14694326 0.19621159 0.09332897 0.1605372 -0.020857617 -0.15817831
-0.09009353 -0.1502071 0.017576626 -0.1828999 0.009932532 -0.06564055 -0.002146268 -0.16204278
0.100887015 -0.26481056 -0.10845712 -0.040562306 0.015845036 -0.071711786 -0.15371148 -0.11582879
0.058349036 -0.16470997 0.115524784 0.1564568 0.0682118 -0.19139732 -0.16904336 -0.0738913
0.030063912 0.30034313 0.026063371 0.16424648 0.09991382 0.015501754 0.14774403 0.00705257
-0.040259097 -0.2173153 0.08851846 0.109499566 0.12274296 0.015381611 0.10332071 0.21620575
-0.20004787 -0.026406474 -0.034960344 0.12641026 -0.008680084 -0.0011195961 -0.010066481 0.0053674104
-0.059857108 0.06997667 -0.14678429 0.10441021 -0.107975505 0.22721398 -0.25722614 0.18455376
0.06459874 -0.047453683 0.13563997 -0.031658787 0.026215505 -0.09395604 0.013646503 -0.08066042
-0.108839534 0.0019087467 -0.071287744 -0.09422538 0.2470771 0.16404139 -0.32053116 0.23954631
0.061132323 -0.06753641 0.10992502 0.20068336 0.11868187 -0.02161915 0.019080643 -0.06882228
0.10528614 0.12130083 -0.15761532 -0.10516608 -0.11593479 -0.15211855 -0.059600495 0.055748057
0.0043444866 0.013400869 -0.116579056 0.108898215 -0.044018947 0.020010367 -0.010799547 -0.17157704
-0.16241314 0.12500218 -0.039792314 -0.21459462 -0.046040278 -0.15932278 -0.14720114 0.075057365
0.14338179 0.16033326 0.015916279 0.035695016 -0.093573704 0.05595836 0.004254547 -0.11861068
-0.16279563 -0.015080373 0.13143672 -0.07766976 -0.09588705 -0.07370448 0.0010266642 0.14455745
00000000: b781 233e 2327 44bc 2fdb 013c 0941 8dbd
00000010: 1a64 b23d 42f8 d93d 3b86 4c3d 4647 a6bd
00000020: e1ae a83c 1e60 1d3e c30e d13c 1a37 783e
00000030: 0cb6 003e 35e1 1b3e f39d 5b3e 3b17 603e
00000040: 87d4 dc3d aa93 46be 0232 503e 5458 033e
00000050: 5e82 3bbc 73ff 78bc 4d5a 023e 85be eebd
00000060: d510 b13d 73b1 5abd 7ef3 9a3e e47c b43e
00000070: 4621 893d a6c8 61bd ac2c 4f3e b3be a6bc
00000080: 60fa b73c 7260 883e 28a4 99bd 3fc3 c1bc
00000090: 7fd8 bbbd b316 4b3e c976 ba3d fdad 3dbb
000000a0: ad87 de3d f7f0 25bd 8cb5 2cbe 00d1 f03b
000000b0: 0487 f8bd 9405 0a3e 90f0 dbba 09fb b73d
000000c0: fc70 123d b63d 103e 3dd7 babd d628 ab3d
000000d0: 6f4f 09be c848 dabd 1be6 003e 4519 d7bd
000000e0: 4f22 ac3a 0e63 ca3c 2c9a 35bd e35b 10be
000000f0: 5f3a 2fbe d8d6 ca3d e309 353a 5fac 8ebe
00000100: be58 15bd 404b e73d be0b ac3d 3678 193e
00000110: f240 823d 0f46 a13c 6a13 25be d385 83bd
00000120: 00f3 233e d78c debc 852a dcbd c7ee 033d
00000130: cf84 823c e9b3 603d b5eb 793e 7709 893d
00000140: 9a3d 21be 2f97 9dbe 3391 73bc 8ef8 133d
00000150: a655 bbbb defe 9a3d 6ba2 d8bd f922 eabc
00000160: 8a48 13be 9752 2cbe c454 aebd c96b f73d
00000170: ec05 dbbd a517 0a3d 640f 833d afb0 033c
00000180: 413f 503e 7a07 3ebe 53cb d3bc 4fdf 543e
00000190: 3454 e53d f3ee 11be 196b 92be 55bc 063d
000001a0: 2216 13be fa43 79bd 18ab 533d 558f 82bb
000001b0: de92 a33b 1b87 84bd f409 233e 04a7 f23c
000001c0: 8e3c ffba 041a 323d b365 0fbe 4a46 5abd
000001d0: c4fd 6abc 81d2 74be a88a 6f3d 7805 b83b
000001e0: ed80 6fbd 940a 1bbd 5482 63bd 7e45 b2bc
000001f0: dc5c 583e 8fe3 093e c81e 92bc 48e3 84bd
00000200: 5ccb 9d3d 186c 92be 4b78 16be b1eb 483e
00000210: 4223 bf3d dd63 243e 98dd aabc 7ff9 21be
00000220: f582 b8bd e4cf 19be dbfc 8f3c 1d4a 3bbe
00000230: 0fbc 223c 8d6e 86bd 67a8 0cbb 8bee 25be
00000240: da9d ce3d 4095 87be c41e debd a924 26bd
00000250: 73cd 813c a1dd 92bd 8b66 1dbe a537 edbd
00000260: 66ff 6e3d bba9 28be 4298 ec3d 3636 203e
00000270: a1b2 8b3d a9fd 43be b419 2dbe 5254 97bd
00000280: 9848 f63c 93c6 993e da82 d53c 3b30 283e
00000290: 9e9f cc3d 12fb 7d3c 364a 173e 3f19 e73b
000002a0: b9e6 24bd e787 5ebe 2b49 b53d 4f41 e03d
000002b0: a960 fb3d 2703 7c3c cf99 d33d 0a65 5d3e
000002c0: 59d9 4cbe 6452 d8bc 9432 0fbd b171 013e
000002d0: e936 0ebc 69bf 92ba e2ed 24bc 1ae1 af3b
000002e0: ba2c 75bd ee4f 8f3d 9f4e 16be 05d5 d53d
000002f0: 4322 ddbd c8aa 683e 25b3 83be a9fb 3c3e
00000300: 584c 843d cb5e 42bd 34e5 0a3e a5ac 01bd
00000310: e6c1 d63c 066c c0bd 9595 5f3c 4a31 a5bd
00000320: 43e7 debd e92e fa3a 4fff 91bd 3cf9 c0bd
00000330: c801 7d3e 77fa 273e a91c a4be a14b 753e
00000340: e365 7a3d 8850 8abd 5e20 e13d f07f 4d3e
00000350: 7b0f f33d a51a b1bc 024f 9c3c b2f2 8cbd
00000360: 43a0 d73d 926c f83d e965 21be 5061 d7bd
00000370: 386f edbd f7c4 1bbe a61f 74bd 1358 643d
00000380: 325c 8e3b 528f 5b3c 00c1 eebd 0706 df3d
00000390: 364d 34bd c8ec a33c 95f0 30bc e4b1 2fbe
000003a0: a14f 26be 9200 003e 44fd 22bd b1be 5bbe
000003b0: bb94 3cbd 8325 23be e5bb 16be adb7 993d
000003c0: add2 123e 672e 243e db62 823c f034 123d
000003d0: 92a3 bfbd 9834 653d ba69 8b3b 28ea f2bd
000003e0: e6b3 26be ab13 77bc 5997 063e 5311 9fbd
000003f0: 6e60 c4bd 60f2 96bd 2291 863a de06 143e

mlp_extractor.value_net.2.bias f4 [128]
0.0 0.0 0.0 0.0 0.0 0.0 0.0 0.0
0.0 0.0 0.0 0.0 0.0 0.0 0.0 0.0
0.0 0.0 0.0 0.0 0.0 0.0 0.0 0.0
0.0 0.0 0.0 0.0 0.0 0.0 0.0 0.0
0.0 0.0 0.0 0.0 0.0 0.0 0.0 0.0
0.0 0.0 0.0 0.0 0.0 0.0 0.0 0.0
0.0 0.0 0.0 0.0 0.0 0.0 0.0 0.0
0.0 0.0 0.0 0.0 0.0 0.0 0.0 0.0
0.0 0.0 0.0 0.0 0.0 0.0 0.0 0.0
0.0 0.0 0.0 0.0 0.0 0.0 0.0 0.0
0.0 0.0 0.0 0.0 0.0 0.0 0.0 0.0
0.0 0.0 0.0 0.0 0.0 0.0 0.0 0.0
0.0 0.0 0.0 0.0 0.0 0.0 0.0 0.0
0.0 0.0 0.0 0.0 0.0 0.0 0.0 0.0
0.0 0.0 0.0 0.0 0.0 0.0 0.0 0.0
0.0 0.0 0.0 0.0 0.0 0.0 0.0 0.0
00000000: 0000 0000 0000 0000 0000 0000 0000 0000
00000010: 0000 0000 0000 0000 0000 0000 0000 0000
00000020: 0000 0000 0000 0000 0000 0000 0000 0000
00000030: 0000 0000 0000 0000 0000 0000 0000 0000
00000040: 0000 0000 0000 0000 0000 0000 0000 0000
00000050: 0000 0000 0000 0000 0000 0000 0000 0000
00000060: 0000 0000 0000 0000 0000 0000 0000 0000
00000070: 0000 0000 0000 0000 0000 0000 0000 0000
00000080: 0000 0000 0000 0000 0000 0000 0000 0000
00000090: 0000 0000 0000 0000 0000 0000 0000 0000
000000a0: 0000 0000 0000 0000 0000 0000 0000 0000
000000b0: 0000 0000 0000 0000 0000 0000 0000 0000
000000c0: 0000 0000 0000 0000 0000 0000 0000 0000
000000d0: 0000 0000 0000 0000 0000 0000 0000 0000
000000e0: 0000 0000 0000 0000 0000 0000 0000 0000
000000f0: 0000 0000 0000 0000 0000 0000 0000 0000
00000100: 0000 0000 0000 0000 0000 0000 0000 0000
00000110: 0000 0000 0000 0000 0000 0000 0000 0000
00000120: 0000 0000 0000 0000 0000 0000 0000 0000
00000130: 0000 0000 0000 0000 0000 0000 0000 0000
00000140: 0000 0000 0000 0000 0000 0000 0000 0000
00000150: 0000 0000 0000 0000 0000 0000 0000 0000
00000160: 0000 0000 0000 0000 0000 0000 0000 0000
00000170: 0000 0000 0000 0000 0000 0000 0000 0000
00000180: 0000 0000 0000 0000 0000 0000 0000 0000
00000190: 0000 0000 0000 0000 0000 0000 0000 0000
000001a0: 0000 0000 0000 0000 0000 0000 0000 0000
000001b0: 0000 0000 0000 0000 0000 0000 0000 0000
000001c0: 0000 0000 0000 0000 0000 0000 0000 0000
000001d0: 0000 0000 0000 0000 0000 0000 0000 0000
000001e0: 0000 0000 0000 0000 0000 0000 0000 0000
000001f0: 0000 0000 0000 0000 0000 0000 0000 0000

action_net.weight f4 [5, 128]
0.0017430906 -0.077862695 -0.060821578 -0.009264173 -0.015599276 -0.036127876 -0.046384457 0.029541502
-0.04559809 -0.06486436 -0.06367918 0.051088773 -0.048488364 -0.04208516 0.10954047 -0.0806662
0.056026455 -0.117820054 0.09575016 0.01851077 -0.051624328 0.10342878 -0.05913682 -0.12654875
0.04266024 -0.03289965 -0.008168502 -0.08726982 -0.043163832 -0.0101873195 -0.07379009 0.060167067
-0.04417315 -0.05250193 0.06929452 -0.030076291 -0.062001914 0.02563883 0.04619163 -0.14918675
-0.018948877 -0.11607153 0.072085775 0.06277451 -0.05308009 -0.021599945 0.034186605 0.09736918
-0.049950197 -0.047295798 -0.061134495 0.09574754 0.007969908 -0.051562667 -0.019816743 -0.054827966
0.0009242711 0.07509667 -0.12577434 0.057284225 0.012397674 0.08462349 -0.02308876 0.065607384
-0.06002316 -0.020443099 -0.08316369 0.041133143 0.12530932 0.046220362 -0.04491242 -0.07635783
-0.058764648 -0.0701014 0.031196183 -0.014200918 0.014161238 -0.09494858 0.06501316 -0.0033896978
-0.038403023 -0.04242439 0.056566633 0.032377854 -0.05305946 0.10870639 -0.017756615 -0.02546359
0.060818564 -0.122569576 -0.05394777 0.06545588 0.030129982 -0.040902898 0.04307115 -0.008105039
0.057494484 0.0633567 -0.1455672 -0.04884198 -0.051707506 -0.0280552 0.008283601 0.071212895
-0.009089244 -0.07445452 -0.036253914 0.07093572 -0.027712617 0.067004144 0.04530271 0.003866646
0.060764313 0.0003670387 -0.13830313 0.13371795 -0.018149637 -0.07767819 0.089023896 0.03860653
0.049486566 -0.046699073 0.03584273 -0.07277084 -0.012539581 -0.005710465 0.09524212 -0.08829448
-0.060430862 0.06068506 -0.030765591 -0.06968215 0.0052566696 0.039396785 0.022940986 -0.10058442
-0.034812637 0.050335642 -0.0059165224 0.04077313 0.08599208 0.08942941 -0.05656727 0.034031313
0.038388934 -0.0082167005 0.08435422 0.046270806 0.040412553 -0.06667388 0.109969296 0.09903824
-0.048761588 0.11510736 -0.023553718 -0.055835307 -0.06357959 0.00077183906 0.02175581 0.0027420765
-0.01699407 0.057523396 -0.11621916 -0.02129707 0.06967167 0.0022773247 -0.030608037 0.112604655
0.07626738 0.028536208 -0.01208807 -0.051537953 0.05322666 0.02710742 0.050023038 -0.009474816
-0.051319394 -0.05317061 0.11164495 0.07847118 0.037548427 -0.014731168 -0.035883546 0.08430806
0.05415034 0.032692805 0.09105266 0.044395942 -0.04301687 -0.021987552 0.027323175 0.08228172
-0.051033333 -0.03249878 -0.089181386 0.06412912 0.05056638 0.04527035 0.11084806 -0.035683353
0.027235648 0.11079661 0.029347885 0.0670513 0.011854857 -0.04985181 -0.086565085 -0.015697503
0.076578856 -0.0399643 -0.062380206 -0.07770239 0.026138946 -0.10568721 -0.07735415 0.010422118
0.057867013 -0.006053684 0.12618876 0.064027 0.02154242 0.04749464 0.041071396 0.019997038
-0.04756914 0.020137774 0.15704045 -0.041761994 0.088537715 -0.011416041 0.05663279 0.03311842
-0.03247464 0.072482444 -0.017808754 -0.005870399 -0.06752025 0.11604483 -0.023043422 0.05527512
-0.012622213 0.007854145 0.0476846 0.11290242 -0.05802865 0.03764602 0.0051355343 -0.07600957
0.021635622 -0.0103577105 0.02846898 0.020021444 -0.069824815 0.11752842 -0.020280521 -0.07890339
00000000: 6a78 e43a 7a76 9fbd 0c20 79bd c2c8 17bc
00000010: 1b94 7fbc d3fa 13bd a1fd 3dbd 0501 f23c
00000020: 10c5 3abd 9bd7 84bd 3b6a 82bd 7642 513d
00000030: bc9b 46bd 7d61 2cbd c156 e03d 5234 a5bd
00000040: ff7b 653d a44b f1bd a918 c43d e6a3 973c
00000050: 0874 53bd 78d2 d33d 7339 72bd ff95 01be
00000060: 81bc 2e3d c9c1 06bd 2ed5 05bc 85ba b2bd
00000070: 8fcc 30bd b7e8 26bc 421f 97bd be71 763d
00000080: e8ee 34bd 440c 57bd 49ea 8d3d 8e62 f6bc
00000090: b8f5 7dbd 8608 d23c 6f33 3d3d 69c4 18be
000000a0: ad3a 9bbc e9b6 edbd b5a1 933d ec8f 803d
000000b0: 826a 59bd 5ef2 b0bc 4107 0c3d 7e69 c73d
000000c0: 9498 4cbd 3db9 41bd 2a68 7abd 4917 c43d
000000d0: 3894 023c 6033 53bd b956 a2bc 4a93 60bd
000000e0: c94a 723a 48cc 993d fdca 00be dda2 6a3d
000000f0: 9d1f 4b3c 154f ad3d a424 bdbc 2a5d 863d
00000100: d8da 75bd 4978 a7bc ba51 aabd 3a7b 283d
00000110: 1651 003e 9051 3d3d 16f6 37bd 7e61 9cbd
00000120: 33b3 70bd 5391 8fbd 238f ff3c f8aa 68bc
00000130: 8a04 683c 6774 c2bd 9f25 853d b125 5ebb
00000140: 7d4c 1dbd 32c5 2dbd 6ab2 673d a49e 043d
00000150: e054 59bd 75a1 de3d 5276 91bc 0599 d0bc
00000160: e31c 793d c205 fbbd 56f8 5cbd bb0d 863d
00000170: 27d3 f63c cc89 27bd 606b 303d ffca 04bc
00000180: 567f 6b3d 28c1 813d 910f 15be 870e 48bd
00000190: 40cb 53bd 05d4 e5bc f1b7 073c 11d8 913d
000001a0: 0deb 14bc 9d7b 98bd fc7e 14bd bf46 913d
000001b0: 9205 e3bc 7839 893d 568f 393d 8e67 7d3b
000001c0: 00e4 783d 1a6f c039 569f 0dbe 5ced 083e
000001d0: 8cae 94bc be15 9fbd 2952 b63d e121 1e3d
000001e0: 6db2 4a3d 8747 3fbd d4cf 123d e108 95bd
000001f0: d172 4dbc da1e bbbb 4d0e c33d bdd3 b4bd
00000200: 5a86 77bd e690 783d 1f08 fcbc 84b5 8ebd
00000210: 2440 ac3b 865e 213d bcee bb3c 34ff cdbd
00000220: b297 0ebd bf2c 4e3d 63df c1bb ba01 273d
00000230: 9e1c b03d c426 b73d 15b3 67bd 6b64 0b3d
00000240: b73d 1d3d 579f 06bc e8c1 ac3d 7586 3d3d
00000250: a287 253d 518c 88bd 9537 e13d 90d4 ca3d
00000260: 3bba 47bd 68bd eb3d baf3 c0bc 90b3 64bd
00000270: 0436 82bd 3e55 4a3a 3e39 b23c 69b4 333b
00000280: 2637 8bbc a79d 6b3d 5004 eebd 3177 aebc
00000290: 05b0 8e3d 2b3f 153b b5bd fabc 459d e63d
000002a0: 1232 9c3d c4c4 e93c 0a0d 46bc 7619 53bd
000002b0: 3304 5a3d 6110 de3c f5e4 4c3d 423c 1bbc
000002c0: 4934 52bd 6dc9 59bd 1ca6 e43d 7fb5 a03d
000002d0: 61cc 193d ff5a 71bc a0fa 12bd b4a9 ac3d
000002e0: bfcc 5d3d e4e8 053d d179 ba3d 85d8 353d
000002f0: 7532 30bd 3d1f b4bc dad4 df3c 5283 a83d
00000300: 5408 51bd 711d 05bd bba4 b6bd 2156 833d
00000310: b11e 4f3d 676d 393d 4f04 e33d b528 12bd
00000320: 4b1d df3c 55e9 e23d fa6a f03c 3152 893d
00000330: e03a 423c 6931 4cbd 0949 b1bd 0d98 80bc
00000340: 60d5 9c3d 9bb1 23bd 6382 7fbd 6e22 9fbd
00000350: 5821 d63c 8972 d8bd da6b 9ebd 88c1 2a3c
00000360: f605 6d3d fb5d c6bb a037 013e 9620 833d
00000370: bb79 b03c bd89 423d 7b3a 283d d4d0 a33c
00000380: dcd7 42bd f9f7 a43c 36cf 203e a00e 2bbd
00000390: 4353 b53d 590a 3bbc c9f7 673d 2ea7 073d
000003a0: 2104 05bd ad71 943d aae3 91bc 7a5c c0bb
000003b0: 0f48 8abd e9a8 ed3d 8fc5 bcbc 2a68 623d
000003c0: 66cd 4ebc acae 003c ed50 433d 6239 e73d
000003d0: 73af 6dbd b732 1a3d fc47 a83b e8aa 9bbd
000003e0: 303d b13c 63b3 29bc c737 e93c 0304 a43c
000003f0: 5000 8fbd beb2 f03d 5623 a6bc 1a98 a1bd

action_net.bias f4 [5]
0.020281032 0.020248167 0.01083988 0.011863455 -0.054103553
00000000: 6824 a63c 7cdf a53c c199 313c f05e 423c
00000010: b09b 5dbd

value_net.weight f4 [1, 128]
0.19205046 0.022606019 0.06794641 0.040703088 0.021503747 0.0277411 0.12204566 0.16550316
-0.1223522 -0.013832577 0.031562004 0.16352727 -0.07667161 -0.040939037 -0.068683244 -0.096507564
-0.012207539 -0.046670966 0.07276515 0.13648206 -0.085640095 -0.076859266 0.016067462 -0.03791929
0.010688727 0.08409663 0.0633012 0.082936995 -0.041374914 -0.014168179 -0.11420526 -0.10596249
0.13882819 -0.053843405 -0.02877721 0.092862666 -0.062618606 0.081034146 0.102043785 -0.0530447
-0.039527107 0.08932725 -0.042451866 -0.11706461 0.049921185 -0.04743078 0.13959964 0.037694074
0.016153771 -0.016291643 0.07872008 0.16257782 -0.09445597 0.0066967616 -0.011913024 0.02636992
0.014801398 0.14817029 0.063333094 -0.16131176 -0.07046715 -0.031815644 -0.13235106 -0.014795876
-0.098737635 -0.032419253 -0.085178465 0.08699545 -0.069723435 0.045617357 0.09492592 0.06478244
-0.022883296 0.055531748 -0.17673083 0.1527098 -0.04764465 -0.027021503 0.007633353 0.0025801156
0.07680192 -0.057536177 -0.092502184 -0.08176179 0.009040313 -0.12471913 0.023142567 0.037082605
-0.10970635 0.005680155 0.16221696 0.005256317 -0.11548967 -0.06360852 0.012917108 0.008435298
0.08841548 -0.13405441 -0.09919134 0.1601251 0.0447359 0.20717452 0.10833557 0.05646887
0.13361484 0.11806369 -0.15482889 -0.13163027 0.109499805 0.025376435 0.097554676 -0.026776727
-0.14532016 0.07264919 -0.024065297 -0.057336017 -0.13528311 -0.07671657 0.07364073 -0.12622848
0.049951054 0.05233829 -0.05626419 0.01140757 -0.05527162 -0.070392795 0.058850206 0.14162795
00000000: e0a8 443e 4230 b93c 7d27 8b3d 48b8 263d
00000010: a028 b03c 4e41 e33c 13f3 f93d a979 293e
00000020: ca93 fabd 08a2 62bc 2947 013d b173 273e
00000030: 0106 9dbd b1af 27bd cda9 8cbd c2a5 c5bd
00000040: 2102 48bc 0e2a 3fbd e505 953d f4c1 0b3e
00000050: 1364 afbd 6468 9dbd e99f 833c 4251 1bbd
00000060: c51f 2f3c db3a ac3d 0fa4 813d dfda a93d
00000070: be78 29bd a621 68bc 73e4 e9bd dd02 d9bd
00000080: fa28 0e3e e78a 5cbd 2fbe ebbc c82e be3d
00000090: 2f3e 80bd 3bf5 a53d 55fc d03d 6645 59bd
000000a0: 2de7 21bd 35f1 b63d 02e2 2dbd 92bf efbd
000000b0: 287a 4c3d c746 42bd 35f3 0e3e 1a65 1a3d
000000c0: ea54 843c 0d76 85bc fe37 a13d cd7a 263e
000000d0: 2272 c1bd 8270 db3b d82e 43bc bb05 d83c
000000e0: 9081 723c f4b9 173e c8b4 813d e92e 25be
000000f0: 1551 90bd 1f51 02bd 0987 07be 676a 72bc
00000100: f536 cabd 0dca 04bd 0c72 aebd ac2a b23d
00000110: 29cb 8ebd 44d9 3a3d 8568 c23d a8ac 843d
00000120: c075 bbbc 4275 633d edf8 34be f55f 1c3e
00000130: 0927 43bd 335c ddbc 3521 fa3b 2817 293b
00000140: 534a 9d3d 0eab 6bbd c971 bdbd ba72 a7bd
00000150: d21d 143c be6c ffbd 7b95 bd3c eee3 173d
00000160: b9ad e0bd 9820 ba3b 341c 263e 2f3d ac3b
00000170: d985 ecbd 2f45 82bd 47a2 533c 3434 0a3c
00000180: 2d13 b53d 8f45 09be d424 cbbd d6f7 233e
00000190: fe3c 373d 8f25 543e 0adf dd3d e74b 673d
000001a0: 54d2 083e 60cb f13d 778b 1ebe 16ca 06be
000001b0: 6f41 e03d 3ee2 cf3c bfca c73d de5a dbbc
000001c0: cfce 14be 19c9 943d 9624 c5bc 2cd9 6abd
000001d0: a887 0abe 941d 9dbd f3d0 963d 0a42 01be
000001e0: 7a99 4c3d ad60 563d 4775 66bd d1e6 3a3c
000001f0: 7f64 62bd 192a 90bd ea0c 713d eb06 113e
