toy_its/train_logs/map2_fixpos/eval/bc_model_3000000.pth (torch, 38914 bytes, 11 tensors)

mlp_extractor.policy_net.0.weight f4 [32, 81]
0	0x3eb0a190	0.34498262
1	0xbd0ae7e9	-0.033912573
2	0xbce95068	-0.028480724
3	0x3c7ae17f	0.0153125515
4	0x3ee76e71	0.45201448
5	0xbeda0efb	-0.42589554
6	0xbd6d5180	-0.057939053
7	0x3c4630b8	0.012096576
8	0xbd8880dc	-0.06665203
9	0xbe42c153	-0.1901906
10	0xbc232f21	-0.009959967
11	0xbd93235f	-0.07184481
12	0x3c33f9fd	0.010984895
13	0xbd6e91e1	-0.05824459
14	0x3df3cab7	0.11903899
15	0x3e44bda1	0.19212963
16	0x3c279c01	0.010230065
17	0xbf0a6d27	-0.54072803
18	0x3d41f0f9	0.04734895
19	0x3e8856cd	0.26628724
20	0xbe9b314d	-0.3031105
21	0xbe99e15d	-0.3005475
22	0x3db484c7	0.08814388
23	0x3db47b22	0.08812548
24	0xbcf7d59a	-0.03025322
25	0xbe607f87	-0.21923648
26	0xbe2bb80c	-0.16769427
27	0x3e2cd2d1	0.16877295
28	0xbd660aca	-0.056162633
29	0xbd63491d	-0.055489648
30	0xbe9e79c9	-0.3095229
31	0x3e87fb7a	0.2655905
32	0x3d93bc82	0.072136894
33	0xbead1417	-0.3380439
34	0xbe46cf00	-0.19414902
35	0xbe01c094	-0.12671119
36	0x3e30439e	0.17213294
37	0x3da828d8	0.08210915
38	0xbe1469ec	-0.14493531
39	0x3e1d1d6e	0.15343258
40	0x3e27b9e8	0.16379511
41	0xbcf6bcea	-0.030119378
42	0xbe3fa929	-0.18716873
43	0x3eca26c4	0.394827
44	0xbf014484	-0.5049517
45	0x3d6bb34d	0.05754404
46	0x3ddecd10	0.10878956
47	0x3e15cefd	0.14629741
48	0x3d82e25c	0.06390831
49	0x3e55f757	0.20895134
50	0x3ea6e59d	0.32597056
51	0x3e50638c	0.20350474
52	0xbe2fc37a	-0.17164412
53	0x3e8af5dd	0.27140704
54	0xbe407ad0	-0.18796849
55	0x3d51949c	0.051167116
56	0x3dc9a1df	0.098453276
57	0x3e006460	0.1253829
58	0x3ec3481f	0.38140962
59	0xbce8eb79	-0.028432595
60	0x3f03aaf2	0.51432717
61	0xbee14ec9	-0.4400542
62	0x3e74f675	0.23922141
63	0x3d9f7ccb	0.07787474
64	0xbe493497	-0.19648968
65	0x3e4d5c7b	0.2005481
66	0xbd403625	-0.046926636
67	0xbe2f30a1	-0.17108394
68	0xbd824e5f	-0.06362604
69	0xbd3fd029	-0.046829376
70	0xbd3b2085	-0.04568531
71	0xbcb18672	-0.021670554
72	0x3da06aa0	0.07832837
73	0x3f068942	0.5255319
74	0x3e95ebd6	0.2928149
75	0xbd896f6d	-0.06710706
76	0xbe0ced27	-0.13762341
77	0xbec30aa6	-0.38094062
78	0x3e8b163c	0.271654
79	0xbd0f39de	-0.034967296
80	0xbd937ed7	-0.07201927
81	0xbece5147	-0.40296385
82	0x3d3c8321	0.04602349
83	0x3f03e95b	0.5152795
84	0x3e779c29	0.24180664
85	0xbe270c69	-0.16313328
86	0x3eae856d	0.3408617
87	0xbe3d84a2	-0.18507627
88	0x3ebf592d	0.37372723
89	0xbe34d135	-0.17657931
90	0x3dc81956	0.097704574
91	0x3e01c032	0.12670973
92	0x3e1a7a7a	0.15085784
93	0x3eb18926	0.34674948
94	0xbd94aa56	-0.072590515
95	0xbea3bd16	-0.319802
96	0x3e211397	0.15730129
97	0xbe87c557	-0.26517746
98	0x3ce58aab	0.028020224
99	0x3e823324	0.25429642
100	0x3dbd4546	0.092417285
101	0xbd9ece63	-0.07754209
102	0x3e94906e	0.2901644
103	0x3caa67c4	0.020801432
104	0xbe5802e6	-0.21094856
105	0x3ebc18d5	0.36737695
106	0xbe14a753	-0.14516954
107	0x3d8cb4dd	0.068704344
108	0xbe6a3b27	-0.22874127
109	0xbda6856d	-0.08130918
110	0xbde37a07	-0.11107259
111	0x3e022e2c	0.12712926
112	0xbed5d423	-0.4176341
113	0x3f381ab9	0.71915776
114	0x3d6a0da2	0.057141908
115	0x3cb83240	0.022484899
116	0x3d4a816f	0.049439844
117	0xbdaedf3c	-0.08538672
118	0x3d0b579a	0.03401909
119	0x3c40c241	0.011765064
120	0xbce498ca	-0.027904887
121	0x3f08287d	0.5318678
122	0x3d329ca9	0.043606434
123	0xbe88f06d	-0.2674593
124	0x3db369d6	0.08760421
125	0x3f6cd7fa	0.92517054
126	0x3b857ad2	0.004073479
127	0x3c744f68	0.01491151
128	0xbdeead47	-0.11654144
129	0xbda5d112	-0.080965176
130	0xbe6f19a8	-0.23349631
131	0x3e01128c	0.12604731
132	0x3e11b245	0.1422816
133	0xbe80815c	-0.25098693
134	0xbe0e7441	-0.13911535
135	0x3e42f10f	0.19037269
136	0x3e3d08f3	0.18460445
137	0x3f15385f	0.5828914
138	0x3e534dd1	0.20635153
139	0xbd3cfd1e	-0.04613983
140	0x3e4646db	0.19362967
141	0xbe816f6e	-0.25280327
142	0xbe7798e6	-0.2417942
143	0xbe46cda8	-0.19414389
144	0xbe6216c0	-0.22078991
145	0x3e64da74	0.22348958
146	0xbe38bed4	-0.18041545
147	0x3de607a0	0.11231923
148	0x3e7a47da	0.24441472
149	0xbda5edfa	-0.08102031
150	0xbeb48999	-0.3526123
151	0xbdad9491	-0.084756024
152	0xbe6ca07c	-0.23108095
153	0x3e115824	0.14193779
154	0x3f25dce5	0.64790183
155	0xbe3237a1	-0.17404033
156	0x3d65f4f7	0.05614182
157	0xbebefb34	-0.37301028
158	0x3d2c4555	0.042058308
159	0xbe0b90c5	-0.13629444
160	0x3b87610b	0.0041314415
161	0x3e2d7c08	0.16941845
162	0x3e8846b1	0.26616433
163	0x3e80bbb2	0.251432
164	0xbd318d37	-0.043347564
165	0xbd039e74	-0.032133535
166	0xbc5d68b6	-0.013513735
167	0x3eb77a17	0.35835335
168	0xbea7f9f6	-0.32807893
169	0xbdcd29b7	-0.10017722
170	0x3cbcefb6	0.023063522
171	0x3dfb60d9	0.122743316
172	0x3bd3f1ac	0.0064680185
173	0xbe56c884	-0.20974928
174	0xbe8f0aad	-0.27937832
175	0xbd95f068	-0.073212445
176	0xbd933070	-0.07186973
177	0xbe57071a	-0.20998803
178	0x3d99847c	0.074959725
179	0xbe884200	-0.26612854
180	0x3ddc8f9f	0.10769581
181	0xbec36f11	-0.38170674
182	0xbed17145	-0.4090673
183	0x3d294a2d	0.041330505
184	0xbe03b6b6	-0.12862667
185	0x3d80dc80	0.06292057
186	0xbf442fa5	-0.766352
187	0x3d0a65a9	0.033788357
188	0x3e6c2cc4	0.23063952
189	0x3eafb784	0.343197
190	0xbee7845e	-0.45218176
191	0x3e46cb77	0.19413553
192	0xbe31f13a	-0.17377177
193	0xbe851717	-0.2599418
194	0x3ee08dbc	0.43858135
195	0x3f11ae13	0.5690624
196	0x3e5f9cc5	0.21837147
197	0x3c6e743e	0.0145540815
198	0xbcb262ce	-0.02177563
199	0xbeab50aa	-0.3345998
200	0xbe1cb3f2	-0.15303019
201	0xbe8d3dd3	-0.2758623
202	0x3e0a07fc	0.13479608
203	0x3e89e175	0.26929823
204	0xbea3db86	-0.3200342
205	0xbe7c948f	-0.24666046
206	0x3d532dba	0.05155728
207	0xbd10bd53	-0.035336804
208	0xbea4c8ac	-0.3218435
209	0x3dbb1a8a	0.09135921
210	0x3d1e8cd2	0.038708515
211	0x3e07855b	0.13234465
212	0xbe087c99	-0.1332878
213	0x3e39dc14	0.1815036
214	0x3da71628	0.08158523
215	0xbcbcb818	-0.023037001
216	0x3db2947f	0.0871973
217	0x3d596145	0.05307128
218	0x3c0e472f	0.008683964
219	0xbdd7bfb7	-0.105346136
220	0x3d0e3f80	0.034728527
221	0x3e5fe26b	0.21863715
222	0x3ee1e90c	0.44123113
223	0x3dcbe2ad	0.09955344
224	0x3d5d966f	0.054098543
225	0xbd27dca3	-0.0409819
226	0x3dc106cd	0.09425125
227	0x3e58695a	0.21133938
228	0xbe8c7bec	-0.27438295
229	0x3d04c1ce	0.03241139
230	0xbdbbf061	-0.09176708
231	0xbe27087a	-0.16311827
232	0x3cf6cf0d	0.030128026
233	0xbe6b949c	-0.23005909
234	0xbcf8893e	-0.03033888
235	0xbe44e82a	-0.19229189
236	0xbc13d1ec	-0.009022217
237	0xbe80d37c	-0.2516135
238	0x3e6777c2	0.22604278
239	0x3dc8d9e0	0.09807181
240	0xbce2c33b	-0.027680984
241	0x3deb752e	0.114969596
242	0x3e2b100f	0.16705345
243	0xbeaef0e3	-0.34168157
244	0x3e236f5a	0.15960446
245	0x3e2e00eb	0.16992538
246	0x3e2c9839	0.16854943
247	0x3d80191f	0.062547915
248	0x3eb6d017	0.35705635
249	0x3e636d33	0.22209625
250	0xbcf54925	-0.029942105
251	0x3e031825	0.12802179
252	0x3df4ef7c	0.119597405
253	0x3c9331bb	0.01796805
254	0x3d6c598b	0.057702582
255	0xbc7478bb	-0.0149213625

mlp_extractor.policy_net.0.bias f4 [32]
0	0xbd210e5a	-0.039320327
1	0xbc1f9c30	-0.009741828
2	0x3ddfb221	0.10922647
3	0xbe05f510	-0.13081765
4	0xbdb18fde	-0.086700186
5	0x3bbffb97	0.0058588493
6	0xbc97a36c	-0.018510543
7	0xbda6f0c9	-0.08151395
8	0xbc54c80f	-0.012987151
9	0xbe667b68	-0.22508013
10	0xbe0abbc1	-0.13548185
11	0xbd8f411a	-0.06994839
12	0x3e04526f	0.12922071
13	0xbdbf99ed	-0.09355531
14	0xbdcf34de	-0.101175055
15	0x3e1e00d6	0.15430006
16	0x3d0789bc	0.033090338
17	0x3cd4637c	0.025926344
18	0xbc6dded7	-0.014518461
19	0xbbbd0fb5	-0.0057696947
20	0xbe56946f	-0.2095506
21	0x3cc09edf	0.023513256
22	0xbd15747a	-0.036488034
23	0x3d716550	0.05893451
24	0x3e1f1bb2	0.15537909
25	0xbc235d62	-0.009970995
26	0xbb624a7b	-0.0034529257
27	0x3b5cbb1b	0.003368086
28	0x3d1a5046	0.03767421
29	0xbce52d92	-0.027975831
30	0xbaaf9e98	-0.0013398705
31	0xbe099e77	-0.13439356

mlp_extractor.policy_net.2.weight f4 [32, 32]
0	0x3e6c2cc9	0.23063959
1	0xbe316564	-0.17323834
2	0x3e9d8ddc	0.30772293
3	0x3f04d4e4	0.51887345
4	0x3e26b547	0.1628009
5	0xbe89e008	-0.26928735
6	0xbe5c4389	-0.21510138
7	0x3efbf75b	0.49212155
8	0x3dda5a43	0.10661747
9	0xbe38a88a	-0.18033043
10	0x3f0bada6	0.5456184
11	0xbf2b0f06	-0.668198
12	0x3e1d32fb	0.15351479
13	0xbe0e0c06	-0.13871774
14	0xbca273d2	-0.019830618
15	0x3e4ad5d4	0.19808131
16	0xbef1b5b7	-0.4720895
17	0xbeb28665	-0.3486816
18	0x3ed12cad	0.40854397
19	0xbe98a50b	-0.29813418
20	0xbeb26253	-0.3484064
21	0x3f366e35	0.7126191
22	0xbeb7c12d	-0.3588957
23	0xbf04b0af	-0.518321
24	0x3c2daab4	0.010599781
25	0xbeea2ccb	-0.457373
26	0xbe3095c5	-0.17244633
27	0xbf382ac8	-0.7194028
28	0xbf225760	-0.63414574
29	0xbed8d495	-0.42349687
30	0x3e55ca40	0.20877934
31	0xbe2f35f4	-0.17110425
32	0x3e9325a0	0.28739643
33	0xbe57b446	-0.21064863
34	0x3dddab49	0.10823686
35	0x3e10eb66	0.14152297
36	0xbeeb21dc	-0.4592427
37	0xbf18349f	-0.59455293
38	0x3f06bdb3	0.5263321
39	0xbe0ac33a	-0.13551036
40	0x3e0427af	0.12905763
41	0x3f109b22	0.56486714
42	0x3d6da3d7	0.058017578
43	0x3d418f5e	0.047255866
44	0xbe6a7556	-0.22896323
45	0xbecde57a	-0.4021414
46	0xbf093843	-0.53601474
47	0xbddc37ea	-0.10752852
48	0x3e59d530	0.21272731
49	0xbd11005f	-0.035400745
50	0x3e0a2e5b	0.13494246
51	0xbeba6e40	-0.3641224
52	0x3ed72c43	0.42025957
53	0x3e4616ad	0.19344588
54	0x3f95e348	1.1709986
55	0x3d6bb915	0.057549555
56	0xbe0cfdec	-0.13768739
57	0xbee1efe9	-0.4412835
58	0xbe68fcb2	-0.22752646
59	0x3f044d97	0.5168089
60	0x3f554185	0.833031
61	0x3f0d0f85	0.55101806
62	0x3d0e693c	0.034768328
63	0x3c943a62	0.018094245
64	0xbc4b2f66	-0.012401437
65	0x3d650e47	0.05592182
66	0x3f985a62	1.1902583
67	0xbd845aad	-0.064626075
68	0xbf0da6bf	-0.5533256
69	0x3ee1b7a5	0.44085422
70	0x3f04ec7f	0.51923364
71	0xbe225830	-0.15853953
72	0x3e47d7cf	0.19515918
73	0xbf46f44c	-0.7771652
74	0xbdfa1a67	-0.12212067
75	0xbdc95a8d	-0.09831724
76	0xbeef5d41	-0.46750835
77	0xbbd37c94	-0.00645406
78	0x3e4c9187	0.1997739
79	0x3e6f21fc	0.23352808
80	0x3ebfa2e8	0.37428975
81	0xbe6483b8	-0.22315872
82	0x3f37316e	0.715598
83	0x3f294728	0.661242
84	0x3e2c1579	0.16805066
85	0xbeaeefe2	-0.3416739
86	0xbf11b509	-0.5691686
87	0xbd7b5bbb	-0.061366778
88	0x3c9c0121	0.019043507
89	0x3ebf251f	0.3733301
90	0xbce225b1	-0.027605863
91	0x3ec685c8	0.38773942
92	0xbea8eb56	-0.32992047
93	0x3eafb29b	0.34315953
94	0x3dd43f37	0.1036362
95	0xbf04383b	-0.516483
96	0x3ee58864	0.4483062
97	0xbe84827d	-0.25880805
98	0xbe5f0cd3	-0.21782236
99	0xbec6aff8	-0.38806129
100	0xbe2e31b5	-0.17011149
101	0xbdc4a7df	-0.09602331
102	0xbd82b48a	-0.06382091
103	0xbef917a1	-0.4865084
104	0x3f3b45f7	0.7315363
105	0x3ed8108f	0.42200133
106	0x3e9dc56f	0.30814692
107	0x3daab947	0.0833612
108	0xbe7f26e4	-0.2491718
109	0xbeda99d1	-0.42695478
110	0xbd9f836a	-0.07788737
111	0xbde3964e	-0.11112653
112	0x3e2b8878	0.16751277
113	0x3d84801f	0.0646975
114	0xbe44e62d	-0.1922843
115	0xbd321222	-0.043474324
116	0x3f801cb2	1.0008757
117	0x3f29f511	0.66389567
118	0x3f5a5659	0.85288006
119	0x3efc81b2	0.493177
120	0x3df88f8a	0.12136753
121	0xbef4a504	-0.47782147
122	0x3ee0dd19	0.43918684
123	0x3e5c9c1e	0.21543929
124	0x3f17d190	0.5930414
125	0x3f49a132	0.7876159
126	0x3dbc8d21	0.09206606
127	0xbe7153e2	-0.23567155
128	0xbee60a8f	-0.4492993
129	0xbe6cf90f	-0.23141883
130	0xbe8ed8ff	-0.2789993
131	0x3e35dae2	0.17759278
132	0x3f82cb4e	1.0218294
133	0x3eb71b32	0.35762936
134	0xbd82e6f7	-0.06391709
135	0x3dd72235	0.10504571
136	0xbe8c4904	-0.27399457
137	0xbe080149	-0.1328174
138	0x3db5450f	0.088510625
139	0x3e914a4f	0.28377005
140	0xbe29ab0f	-0.1656916
141	0x3ec101f8	0.37696815
142	0xbdc5aa43	-0.096516155
143	0xbe8511a9	-0.25990036
144	0x3e861695	0.26189104
145	0xbf5ea5af	-0.86971563
146	0xbf3d3c2b	-0.73919934
147	0x3ebeba3e	0.37251467
148	0xbcf9aa6c	-0.030476771
149	0xbf163786	-0.5867847
150	0xbda05375	-0.07828418
151	0xbe92cecb	-0.28673396
152	0xbf159ab9	-0.58439213
153	0xbe26d0b8	-0.16290557
154	0xbd8774ec	-0.06614098
155	0x3ede3948	0.43403077
156	0xbf34af60	-0.705801
157	0xbdc9e3c4	-0.09857896
158	0xbe1de592	-0.15419605
159	0x3c8203af	0.015870897
160	0xbf2aeb57	-0.6676535
161	0x3e810b2c	0.25203836
162	0x3e20bb11	0.1569636
163	0xbe30f0e8	-0.17279398
164	0x3f7cef9c	0.98803115
165	0x3f0077a1	0.5018254
166	0xbead3ca3	-0.33835325
167	0xbe1e1130	-0.15436244
168	0x3e46e536	0.19423375
169	0x3b5bcd45	0.0033539098
170	0xbe543733	-0.20724182
171	0xbac44148	-0.0014973069
172	0x3de9c326	0.11414175
173	0xbd186adf	-0.037211295
174	0x3d91842a	0.071052864
175	0x3df5ff02	0.120115295
176	0xbf5deb9a	-0.86687624
177	0xbc9b5970	-0.018963546
178	0xbe801e06	-0.25022906
179	0xbd11b356	-0.03557142
180	0xbe988f97	-0.2979705
181	0x3d70d09a	0.058792688
182	0x3eb2dd6e	0.34934562
183	0xbf0cb86c	-0.54968905
184	0xbe23718c	-0.15961283
185	0xbee633ad	-0.449613
186	0xbd4b7091	-0.0496679
187	0xbcee8d32	-0.029120062
188	0x3e118477	0.14210688
189	0x3e9b7ac6	0.30367106
190	0x3f5f2a29	0.87173706
191	0xbe8d828d	-0.27638665
192	0xbdd6d75c	-0.10490295
193	0x3e81af1c	0.2532891
194	0x3de7ecb4	0.113244444
195	0xbd292bc3	-0.0413015
196	0xbd24b2cc	-0.040209576
197	0x3e216a5e	0.15763232
198	0xbd3682fd	-0.044558514
199	0x3f358c54	0.7091725
200	0x3efac644	0.4897939
201	0x3daa45a9	0.08314068
202	0xbea23efd	-0.3168868
203	0x3f0cdcd7	0.55024475
204	0x3e925f05	0.2858812
205	0xbed33ca4	-0.41257203
206	0x3f41594d	0.7552689
207	0x3e2b8688	0.16750538
208	0xbf3b4fe0	-0.73168755
209	0xbee6de15	-0.4509131
210	0xbf199e83	-0.60007495
211	0xbe9ad153	-0.30237827
212	0x3df1942e	0.11795841
213	0x3e6a3b3e	0.22874162
214	0xbed70ace	-0.4200043
215	0xbedcbb2e	-0.43111557
216	0xbd180a69	-0.037119303
217	0xbee7485c	-0.45172393
218	0x3cddb38e	0.027063157
219	0xbdbb2131	-0.0913719
220	0x3ed98564	0.4248458
221	0xbc6b55d3	-0.014363724
222	0x3e7f010c	0.24902743
223	0xbd8d8b09	-0.069112845
224	0x3f08afe2	0.53393376
225	0xbf0b2d87	-0.54366344
226	0x3f0a9cef	0.5414571
227	0xbe073b74	-0.13206273
228	0xbf6ab631	-0.9168425
229	0xbd67f536	-0.056630336
230	0x3e188f2d	0.14898367
231	0x3e952e57	0.29136917
232	0xbe8101ff	-0.25196835
233	0x3e0f12e1	0.13972045
234	0xbebf7c43	-0.37399492
235	0xbf399812	-0.72497666
236	0x3f09ee40	0.53879166
237	0xbf0f6c9c	-0.560251
238	0x3dba49da	0.09096117
239	0xbe492bb9	-0.19645585
240	0x3e30affc	0.17254633
241	0x3e96a3e4	0.29421914
242	0x3d621624	0.055196896
243	0xbe8ccf2b	-0.27501807
244	0x3e62f9a2	0.2216554
245	0x3f149efb	0.58055085
246	0x3d1bcc19	0.03803644
247	0x3e2ce5ec	0.16884583
248	0x3e48eec7	0.19622336
249	0xbe49a26a	-0.19690862
250	0x3e155eec	0.14586991
251	0xbec7dfed	-0.3903803
252	0x3f406f41	0.7516976
253	0x3f2849d4	0.6573765
254	0xbccc3420	-0.024927199
255	0xbea6cf19	-0.32579878

mlp_extractor.policy_net.2.bias f4 [32]
0	0x3d5b6787	0.05356553
1	0xbb9e3c23	-0.004828946
2	0xbb403728	-0.002932975
3	0x3e4cb468	0.19990695
4	0xbd10878e	-0.035285525
5	0x3dcdc9d7	0.100482635
6	0x3dd61b5c	0.10454437
7	0x3dd7e46b	0.10541614
8	0x3e879936	0.26484078
9	0x3e3ecee3	0.18633609
10	0x3d76105a	0.060074188
11	0x3db9bd1e	0.09069274
12	0x3e509896	0.20370707
13	0xbddbd342	-0.107336536
14	0x3d804294	0.06262699
15	0x3de697ae	0.11259399
16	0xbe03a8c6	-0.1285735
17	0xbd51902c	-0.051162884
18	0xbe0fa86c	-0.14029092
19	0x3dd747e7	0.10511761
20	0xbd0d2d59	-0.034467075
21	0x3e302a14	0.17203552
22	0x3cb35d40	0.021895051
23	0x3db2da56	0.087330505
24	0x3d4d64d3	0.05014498
25	0xbe854064	-0.2602569
26	0x3da91678	0.08256239
27	0xbc786266	-0.015160179
28	0x3ca3d24e	0.019997742
29	0xbded219a	-0.115786746
30	0xbd317489	-0.043324027
31	0xbd4d3966	-0.050103568

mlp_extractor.value_net.0.weight f4 [32, 81]
0	0xbd87aa42	-0.06624271
1	0xbe1df58a	-0.15425697
2	0xbd82a97d	-0.063799836
3	0xbe4402f1	-0.19141747
4	0x3e2f567c	0.17122835
5	0x3bfcea88	0.007718388
6	0x3e449c65	0.19200285
7	0xbe4b7137	-0.19867407
8	0xbcb1f651	-0.021723898
9	0x3dce5346	0.10074477
10	0xbe177e00	-0.14794159
11	0x3c2ea8f5	0.0106604
12	0xbcec28fa	-0.028828133
13	0x3e5f5c4f	0.21812557
14	0xbd97d126	-0.07412939
15	0xbcd536e6	-0.026027154
16	0xbe28264e	-0.16420862
17	0x3eaa96bd	0.3331813
18	0x3d0fb4eb	0.035084646
19	0xbbd6fcab	-0.006560882
20	0xbe2f1b28	-0.17100203
21	0xbd052ea6	-0.03251519
22	0x3e815c90	0.25265932
23	0x3d8437b8	0.0645594
24	0x3c9c48fb	0.019077769
25	0xbe10ff15	-0.14159806
26	0xbe46b032	-0.1940315
27	0x3dbb6e44	0.09151891
28	0xbe43f556	-0.19136557
29	0x3dc922e5	0.09821109
30	0xbe3bb3ef	-0.18330358
31	0xbd4a962c	-0.04945962
32	0x3dc381f6	0.095462725
33	0x3dcbb413	0.09946456
34	0xbe22082f	-0.15823434
35	0x3c6af9c0	0.014341772
36	0x3e23f79d	0.16012426
37	0x3eb50b4c	0.3536018
38	0xbea5cf1a	-0.32384568
39	0xbe4e36ee	-0.20138142
40	0x3da12dfe	0.078701004
41	0x3c839d6d	0.016066277
42	0x3e23bc5a	0.15989819
43	0x3e9c8d24	0.30576432
44	0x3cb62d14	0.022238292
45	0x3e8e94f0	0.27848005
46	0x3c402827	0.011728323
47	0xbe508197	-0.20361935
48	0x3dcc75f7	0.099834375
49	0xbe25c6e6	-0.16189155
50	0x3c59565d	0.0132652195
51	0xbe7a9ebc	-0.24474615
52	0x3c3db548	0.011578865
53	0xbe894983	-0.26813897
54	0xbe64f588	-0.22359288
55	0xbda994ed	-0.082803585
56	0xbdc98cc1	-0.098413
57	0xbdf45968	-0.119311154
58	0x3d786888	0.060646564
59	0xbd97bee1	-0.07409454
60	0x3dabea75	0.083943285
61	0xbe21acf5	-0.15788634
62	0x3d82dcd5	0.063897766
63	0x3ed083cd	0.40725556
64	0xbd2511cf	-0.040300187
65	0xbe918463	-0.28421316
66	0x3e0b249f	0.13588189
67	0xbda5679d	-0.08076403
68	0xbdb23c12	-0.08702864
69	0x3ce7e8c4	0.028309233
70	0x3e71c97e	0.2361202
71	0xbdabcee0	-0.08389068
72	0xbc39afd9	-0.011333429
73	0x3dcce90f	0.1000539
74	0xbe193cb5	-0.14964564
75	0x3da05c06	0.07830052
76	0x3da14e5d	0.07876275
77	0x3d905194	0.0704681
78	0x3d922502	0.07135965
79	0xbe7a383a	-0.24435511
80	0x3de9ede9	0.11422331
81	0x3c916722	0.017749373
82	0x3e8b5250	0.27211237
83	0x3e19f54b	0.15034978
84	0xbdab28c6	-0.08357386
85	0x3d4fa664	0.05069579
86	0x3ded2c9d	0.11580775
87	0xbc179913	-0.009252804
88	0xbd8c843c	-0.06861159
89	0xbd9d084e	-0.076675996
90	0x3db217aa	0.0869592
91	0x3d7db1f5	0.06193729
92	0xbd5272e8	-0.051379114
93	0xbc577083	-0.0131493835
94	0xbd3ae976	-0.045632802
95	0x3e8608e9	0.26178673
96	0xbd633e9a	-0.055479623
97	0xbe32963f	-0.17440127
98	0x3c4e4038	0.012588553
99	0x3e802157	0.25025436
100	0xbde47547	-0.111551814
101	0x3df8a8e8	0.12141591
102	0x3e8043b3	0.2505165
103	0x3dd84616	0.10560243
104	0x3e0fad5d	0.14030977
105	0xbdd7e9f1	-0.10542668
106	0xbd90f247	-0.07077461
107	0xbdbcdd8c	-0.09221944
108	0x3d385b49	0.04500893
109	0x3ce01093	0.027351653
110	0xbb6fcdd1	-0.0036591182
111	0x3e1a82c3	0.15088944
112	0x3e4af2de	0.19819209
113	0xbc87ae44	-0.016562589
114	0xbd9dfd16	-0.07714288
115	0x3d782dce	0.060590558
116	0xbd89aff9	-0.06723017
117	0x3eb093cb	0.34487757
118	0x3e272700	0.16323471
119	0x3e4fb261	0.2028289
120	0xbdc499a4	-0.09599617
121	0xbe330878	-0.174837
122	0x3de11432	0.1099018
123	0xbdda7697	-0.106671505
124	0xbe92a6bd	-0.28642836
125	0x3b85f4d9	0.004088026
126	0xbe193b8f	-0.14964126
127	0x3e8b6ba0	0.2723055
128	0x3df55ef4	0.119810015
129	0xbcb229ad	-0.021748388
130	0xbda0662c	-0.07831988
131	0x3d5c8c5f	0.053844806
132	0xbe26d0b5	-0.16290553
133	0xbe7571ec	-0.23969239
134	0xbe665bb9	-0.22495927
135	0xbe596cf8	-0.21232975
136	0x3db9cf7a	0.09072776
137	0xbe88927a	-0.26674253
138	0x3e808381	0.2510033
139	0xbe19b673	-0.15011005
140	0xbda7fd3f	-0.082026
141	0x3e61e371	0.22059418
142	0x3d930d1b	0.07180234
143	0xbdb9263b	-0.09040495
144	0xbda44e58	-0.080227554
145	0xbd877b73	-0.06615343
146	0xbe10a70a	-0.1412622
147	0xbe6cd412	-0.23127773
148	0xbc6df96b	-0.014524798
149	0xbdb00cb1	-0.08596171
150	0xbd81f2ac	-0.06345114
151	0xbe7ab7f7	-0.2448424
152	0xbe0e1221	-0.13874103
153	0x3e967346	0.29384822
154	0x3e0508d1	0.12991644
155	0x3e534334	0.20631105
156	0xbd81039c	-0.062995166
157	0x3c60053d	0.013673124
158	0x3e5b7e3f	0.21434878
159	0xbeac05e5	-0.33598247
160	0xbea6716f	-0.32508418
161	0x3dbb1e3c	0.09136626
162	0x3dc7d86b	0.09758075
163	0xbca4e4f6	-0.020128708
164	0x3e23d2ed	0.1599843
165	0xbe438d14	-0.19096786
166	0x3e85363e	0.26017946
167	0xbbd60aa5	-0.0065320306
168	0x3de598c1	0.11210776
169	0x3e054520	0.1301465
170	0x3e22a35d	0.1588263
171	0xbd7dce65	-0.06196441
172	0x3d34d5ad	0.04414909
173	0xbe9d5d95	-0.3073546
174	0xbde9319c	-0.11386415
175	0xbdbc531f	-0.091955416
176	0xbddda05e	-0.10821603
177	0xbe3a06f5	-0.18166716
178	0xbcf7566f	-0.030192582
179	0x3dd07b08	0.10179716
180	0xbb1b5dd6	-0.0023707054
181	0x3d8b5234	0.068027884
182	0x3d12ed51	0.035870854
183	0xbe01b414	-0.1266635
184	0xbe0971c8	-0.1342231
185	0x3c8df3a3	0.01732809
186	0x3b9d2259	0.0047953543
187	0x3e76ca8c	0.24100703
188	0xbd9d33c1	-0.07675887
189	0x3d64b860	0.055839896
190	0xbe4126d0	-0.18862462
191	0x3eb20ff7	0.34777805
192	0xbe88272a	-0.2659238
193	0xbdebac57	-0.115074806
194	0x3e0fe947	0.14053832
195	0x3e82e46c	0.25564897
196	0xbe7e9495	-0.24861367
197	0xbcc4845d	-0.023988897
198	0xbd7d6a69	-0.06186906
199	0x3e761005	0.24029548
200	0x3e9b1966	0.30292815
201	0xbe4765fa	-0.19472495
202	0xbe5ce14a	-0.21570316
203	0x3d9789ea	0.07399352
204	0x3e05e64a	0.1307613
205	0xbea89a5a	-0.3293026
206	0x3e4917a5	0.19637926
207	0x3e73376b	0.23751609
208	0xbe3bc98e	-0.18338606
209	0xbe13e718	-0.14443624
210	0x3e93cff7	0.28869602
211	0xbdcedba5	-0.101004876
212	0x3dd01950	0.10161078
213	0x3e3b1d6c	0.18272942
214	0xbd3d61b8	-0.04623577
215	0x3e79235b	0.24329893
216	0x3d9f0365	0.07764319
217	0xbdc19ab6	-0.09453337
218	0xbe45d726	-0.19320354
219	0xbd611fc9	-0.054961953
220	0x3de7b366	0.113135144
221	0x3d500484	0.050785556
222	0xbd968d77	-0.07351201
223	0xbde0d420	-0.1097796
224	0x3da40c46	0.080101535
225	0xbe9b4f0b	-0.30333742
226	0xba4694da	-0.0007575281
227	0xbc2540b4	-0.010086227
228	0xbd0440d0	-0.032288373
229	0xbe0abf33	-0.13549499
230	0x3d937804	0.072006255
231	0x3dcb1124	0.09915379
232	0xbd8f342a	-0.069923714
233	0xbcf5bfb4	-0.029998638
234	0x3e8fd5f5	0.28092924
235	0xbde6794b	-0.112536035
236	0x3daccec5	0.08437876
237	0xbe7841d1	-0.24243857
238	0xbd8fe009	-0.07025153
239	0xbddf2893	-0.10896411
240	0xbd8d10ea	-0.06887992
241	0x3dc662d8	0.09686822
242	0xbc9648f8	-0.018345341
243	0xbee18042	-0.44043165
244	0x3eaecb60	0.34139538
245	0x3dc6acf0	0.09700954
246	0xbed509eb	-0.4160913
247	0xbe3d544c	-0.18489188
248	0xbe0ab295	-0.13544686
249	0x3c758eb5	0.014987637
250	0xbddbd9fe	-0.10734938
251	0xbe88e4d9	-0.26737097
252	0x3d9f14e1	0.07767654
253	0x3c785fd6	0.015159568
254	0x3e05b7df	0.13058423
255	0x3de4581a	0.111496165

mlp_extractor.value_net.0.bias f4 [32]
0	0x00000000	0.0
1	0x00000000	0.0
2	0x00000000	0.0
3	0x00000000	0.0
4	0x00000000	0.0
5	0x00000000	0.0
6	0x00000000	0.0
7	0x00000000	0.0
8	0x00000000	0.0
9	0x00000000	0.0
10	0x00000000	0.0
11	0x00000000	0.0
12	0x00000000	0.0
13	0x00000000	0.0
14	0x00000000	0.0
15	0x00000000	0.0
16	0x00000000	0.0
17	0x00000000	0.0
18	0x00000000	0.0
19	0x00000000	0.0
20	0x00000000	0.0
21	0x00000000	0.0
22	0x00000000	0.0
23	0x00000000	0.0
24	0x00000000	0.0
25	0x00000000	0.0
26	0x00000000	0.0
27	0x00000000	0.0
28	0x00000000	0.0
29	0x00000000	0.0
30	0x00000000	0.0
31	0x00000000	0.0

mlp_extractor.value_net.2.weight f4 [32, 32]
0	0x3dba0b71	0.090842135
1	0x3e95d107	0.29261038
2	0x3e367026	0.17816219
3	0x3edf1bc5	0.43575874
4	0x3ed0cbd9	0.40780523
5	0xbe836d61	-0.25669387
6	0xbd12b5ee	-0.035818033
7	0xbd62d76b	-0.05538122
8	0x3dbf783d	0.093491055
9	0xbe13a4d7	-0.1441835
10	0x3ea5db5b	0.32393917
11	0xbed2e56e	-0.41190666
12	0x3d52520c	0.051347777
13	0x3ec042ad	0.3755087
14	0xbecc91a6	-0.3995487
15	0x3ecda805	0.4016725
16	0x3e8ac5b8	0.27103972
17	0xbe0dc122	-0.13843206
18	0xbc458be5	-0.012057279
19	0x3dc7fad5	0.09764639
20	0x3ebd89a4	0.37019074
21	0xbe07180e	-0.1319277
22	0x3c9bf9c0	0.019039989
23	0xbeae99b8	-0.34101653
24	0x3d0407d6	0.032234035
25	0xbe96e006	-0.2946779
26	0xbe88943d	-0.26675597
27	0x3c7112b7	0.014713935
28	0x3e3f754d	0.1869709
29	0xbcfc94f7	-0.03083275
30	0x3e99e5f7	0.30058262
31	0xbe11d416	-0.1424106
32	0xbe0275d1	-0.12740256
33	0x3ef06445	0.469515
34	0x3e24efc7	0.16107093
35	0xbb236c2e	-0.0024936306
36	0xbea79cd8	-0.3273685
37	0xbc587727	-0.013212002
38	0x3ea3e086	0.32007235
39	0x3e498428	0.1967932
40	0xbe8b0835	-0.271547
41	0x3e43d498	0.19124067
42	0xbe53a18b	-0.20667093
43	0xbeaba013	-0.33520564
44	0x3e71c6fd	0.23611064
45	0xbd02895a	-0.03186927
46	0x3ce90cdd	0.028448517
47	0x3e850fd9	0.25988653
48	0x3e5d8dd4	0.21636134
49	0xbd47234e	-0.048617654
50	0xbe181d2e	-0.14854881
51	0xbd93c29b	-0.072148524
52	0xbec60564	-0.38675988
53	0x3e2f4172	0.17114809
54	0x3ecc9c03	0.39962777
55	0xbe8e6f98	-0.27819514
56	0xbebada1e	-0.36494535
57	0xbe87ed99	-0.2654846
58	0x3ed975f9	0.42472818
59	0x3cd5b566	0.026087474
60	0xbcc0a846	-0.023517739
61	0xbeb6d3e1	-0.35708526
62	0xbdbe15e9	-0.09281523
63	0x3e94d903	0.29071817
64	0x3ddc4162	0.10754658
65	0xbc74ddba	-0.014945442
66	0x3d27ede0	0.04099834
67	0x3e75c593	0.2400115
68	0xbdd5a485	-0.1043177
69	0x3c4b5370	0.01241003
70	0x3ed2d563	0.41178426
71	0x3de9c24d	0.11414013
72	0x3ddbf317	0.10739725
73	0xbcb8a949	-0.022541659
74	0x3eb98309	0.36232784
75	0x3eb7827c	0.3584174
76	0xbe5741b3	-0.21021156
77	0x3d24c251	0.040224377
78	0xbdb54d70	-0.08852661
79	0xbe802db4	-0.2503487
80	0xbf047808	-0.51745653
81	0x3e385ae4	0.18003422
82	0xbe8672c1	-0.26259425
83	0xbec366ab	-0.38164267
84	0xbe92cbba	-0.28671056
85	0xbf052a20	-0.520174
86	0x3e0f093d	0.13968368
87	0xbe4f1285	-0.20221908
88	0xbe5ea1d5	-0.21741422
89	0xbe82c29c	-0.255391
90	0x3dc0e301	0.094182976
91	0x3e1b3c5a	0.15159741
92	0xbd9d3a5f	-0.07677149
93	0x3da08542	0.07837917
94	0x3f017dcc	0.50582576
95	0xbdab1210	-0.083530545
96	0x3eab8663	0.33500966
97	0x3e989610	0.2980199
98	0xbefd0101	-0.49414828
99	0xbddd8462	-0.10816266
100	0xbdb9fc98	-0.090813816
101	0xbe2851bf	-0.16437434
102	0x3e3dfde3	0.18553881
103	0x3eb6a4a5	0.3567249
104	0x3df89d78	0.1213941
105	0x3e0830c2	0.1329985
106	0x3cded391	0.027200492
107	0x3ef8db0b	0.48604617
108	0x3ee31671	0.4435306
109	0x3e441a7a	0.19150725
110	0xbe23a8a5	-0.15982302
111	0x3ce4cfc5	0.027931103
112	0x3efaea0b	0.49006686
113	0x3de18dff	0.11013412
114	0xbc55c4fd	-0.013047454
115	0xbe4f64eb	-0.20253341
116	0x3df60aae	0.12013756
117	0xbed34e66	-0.4127075
118	0xbd9cb3ea	-0.076515034
119	0xbdd587ec	-0.10426316
120	0x3e2303f5	0.15919478
121	0x3e478feb	0.19488494
122	0xbdbd618d	-0.09247122
123	0xbeb57cbe	-0.35446733
124	0xbe713653	-0.2355588
125	0xbc503302	-0.012707474
126	0xbe80cd10	-0.2515645
127	0x3d98f2c1	0.07468177
128	0xbea7c440	-0.32766914
129	0x3e044744	0.1291781
130	0x3ab186f6	0.001354425
131	0x3e7592e1	0.23981811
132	0xbedaa442	-0.42703444
133	0x3ea95e46	0.33079737
134	0xbe4455ff	-0.1917343
135	0xbf04a010	-0.51806736
136	0x3da89e01	0.08233262
137	0xbe2be1f7	-0.16785417
138	0x3d87f012	0.06637587
139	0x3ed029ed	0.40656987
140	0x3e7b751c	0.24556392
141	0x3dfbc708	0.122938216
142	0xbc34e196	-0.011040112
143	0x3d728636	0.059210025
144	0x3e1272ec	0.14301652
145	0xbd5ced14	-0.053937033
146	0xbc1448f9	-0.009050601
147	0x3e27260e	0.1632311
148	0xbdcefaac	-0.101064056
149	0xbe620343	-0.22071557
150	0x3ec52eed	0.38512364
151	0xbd278696	-0.040899836
152	0xbe72ac21	-0.23698474
153	0xbc99482c	-0.018711172
154	0xbec649d2	-0.38728195
155	0x3df7ed5b	0.12105819
156	0x3edf61ec	0.43629396
157	0x3ec5c8b8	0.386297
158	0xbe84dc4e	-0.2594933
159	0x3e6696a2	0.225184
160	0xbe82a5f1	-0.25517228
161	0xbdd0264e	-0.10163556
162	0xbe17a208	-0.14807904
163	0x3e94b688	0.2904551
164	0x3ed21185	0.4102899
165	0x3d39c3ef	0.045352872
166	0xbe1dc320	-0.15406466
167	0x3d1638c0	0.036675215
168	0xbe96677c	-0.29375827
169	0xbe7a807e	-0.24463078
170	0x3e55a859	0.20865001
171	0xbdddec79	-0.10836119
172	0xbdae64e3	-0.08515336
173	0xbe825f10	-0.25463152
174	0x3e034d12	0.12822369
175	0xbdc9a641	-0.098461635
176	0x3e8d89e4	0.27644265
177	0xbe23c13e	-0.15991685
178	0x3e7f34e6	0.24922523
179	0x3cd8d8e0	0.026470602
180	0x3d86fbc9	0.06590993
181	0xbf01f7df	-0.50768846
182	0x3e1f1241	0.15534307
183	0xbd5c2a34	-0.053751186
184	0x3d116b45	0.03550269
185	0x3e92446e	0.28567833
186	0x3f372325	0.71538
187	0xbcb1c837	-0.021701915
188	0xbdae8195	-0.085208096
189	0x3e9523b1	0.29128793
190	0x3d452847	0.048134115
191	0x3ed9098a	0.4239009
192	0xbe61f7f2	-0.2206724
193	0xbd3bbd8b	-0.04583506
194	0xbe2d7cba	-0.1694211
195	0x3d3a4946	0.045480035
196	0x3d7dcf17	0.061965074
197	0x3eabfc2f	0.33590838
198	0xbd95c456	-0.07312839
199	0x3b913d8b	0.0044323853
200	0x3e97eb0b	0.2967151
201	0xbcab525f	-0.020913301
202	0xbe778419	-0.24171485
203	0xbeaafc5f	-0.3339567
204	0x3c98693d	0.018604869
205	0x3e5a0abb	0.21293156
206	0x3e4e4bca	0.20146099
207	0x3dfe3477	0.124123506
208	0xbe9f1531	-0.31070855
209	0xbe703d7f	-0.23460959
210	0x3e7413a8	0.23835623
211	0xbeded38f	-0.4352078
212	0x3d87bc10	0.06627667
213	0xbe32f5a0	-0.17476511
214	0xbea9c06d	-0.33154622
215	0xbd4258dc	-0.047448024
216	0xbe4b49ba	-0.19852343
217	0xbe8138d5	-0.25238672
218	0xbec3dd76	-0.382549
219	0xbe6a04aa	-0.22853342
220	0xbed20e97	-0.41026756
221	0xbd7b0dbe	-0.061292402
222	0x3bd481b4	0.0064851884
223	0x3f256d19	0.64619595
224	0xbe1445db	-0.14479773
225	0xbc95b4e3	-0.01827473
226	0xbeaa663a	-0.33281118
227	0x3d453f8a	0.0481563
228	0x3e51dc37	0.20494162
229	0x3e16a0a4	0.14709717
230	0xbcd80473	-0.026369309
231	0x3eadb7ce	0.33929294
232	0x3dd2035b	0.10254546
233	0x3db81fc0	0.08990431
234	0x3ea84b04	0.32869732
235	0xbc7d1d1f	-0.015448838
236	0xbd0f0bcf	-0.03492337
237	0xbd729329	-0.059222374
238	0x3f294dd2	0.6613437
239	0x3ec2af99	0.38024595
240	0xbd0ff902	-0.03514958
241	0xbeb436e0	-0.35198116
242	0xbe11e67b	-0.14248078
243	0xbdb9eb06	-0.0907803
244	0x3dacfc70	0.08446586
245	0xbe542cea	-0.20720258
246	0x3e6c39be	0.23068902
247	0x3e33aff4	0.1754759
248	0xbe7edea6	-0.24889621
249	0x3dc3bb9e	0.095572695
250	0xbe24310f	-0.1603434
251	0x3eb25163	0.34827718
252	0x3d98e684	0.07465842
253	0xbeac8249	-0.3369315
254	0xbe978f7d	-0.2960166
255	0xbf028b57	-0.50993866

mlp_extractor.value_net.2.bias f4 [32]
0	0x00000000	0.0
1	0x00000000	0.0
2	0x00000000	0.0
3	0x00000000	0.0
4	0x00000000	0.0
5	0x00000000	0.0
6	0x00000000	0.0
7	0x00000000	0.0
8	0x00000000	0.0
9	0x00000000	0.0
10	0x00000000	0.0
11	0x00000000	0.0
12	0x00000000	0.0
13	0x00000000	0.0
14	0x00000000	0.0
15	0x00000000	0.0
16	0x00000000	0.0
17	0x00000000	0.0
18	0x00000000	0.0
19	0x00000000	0.0
20	0x00000000	0.0
21	0x00000000	0.0
22	0x00000000	0.0
23	0x00000000	0.0
24	0x00000000	0.0
25	0x00000000	0.0
26	0x00000000	0.0
27	0x00000000	0.0
28	0x00000000	0.0
29	0x00000000	0.0
30	0x00000000	0.0
31	0x00000000	0.0

action_net.weight f4 [5, 32]
0	0x3e2cea4a	0.16886249
1	0xbed9b55e	-0.42521185
2	0x3e0ccac6	0.13749227
3	0xbf07a217	-0.52981704
4	0x3e805f71	0.25072816
5	0x3e1409be	0.14456841
6	0x3e6121a4	0.21985489
7	0xbd9f7b3a	-0.077871755
8	0xbee62bc4	-0.44955266
9	0xbd2af7e5	-0.041740317
10	0x3eac50e6	0.3365547
11	0x3e946405	0.2898256
12	0x3df7a7ca	0.1209255
13	0xbdb707d3	-0.08937039
14	0xbe9b22f3	-0.30300102
15	0x3f12dabf	0.5736503
16	0xbeee45c5	-0.46537605
17	0xbe239cb3	-0.15977745
18	0xbe9760d0	-0.2956605
19	0xbda0a884	-0.07844642
20	0x3f138f03	0.57640094
21	0x3f0117d6	0.50426996
22	0xbee1376c	-0.43987596
23	0xbe837a94	-0.25679457
24	0x3f0988e5	0.5372451
25	0xbe8b9ec9	-0.2726958
26	0x3e53d116	0.20685229
27	0xbe289afe	-0.16465375
28	0xbf08d009	-0.53442436
29	0x3f2217fd	0.63317853
30	0xbe941ed7	-0.2892978
31	0xbe251828	-0.16122496
32	0x3f5d0ca6	0.86347425
33	0x3dbcaa1f	0.092121355
34	0xbf1edbed	-0.6205433
35	0x3de1d57c	0.11027047
36	0xbe89265a	-0.26787072
37	0x3d944eed	0.072416164
38	0x3d42a37f	0.047519203
39	0x3e92a70d	0.28643075
40	0x3e50c3ce	0.20387194
41	0x3e92aa96	0.28645772
42	0xbed3aa81	-0.41341022
43	0xbf527f8d	-0.8222588
44	0xbcfec815	-0.031101266
45	0xbcdd7b2c	-0.027036272
46	0xbebe5e2a	-0.37181216
47	0xbf424a77	-0.75894874
48	0xbe8adb2f	-0.2712035
49	0x3ecf4817	0.40484688
50	0x3cb1fade	0.021726068
51	0xbf036ab0	-0.5133467
52	0xbe847529	-0.25870636
53	0x3d931b9c	0.071830004
54	0xbe2492cd	-0.16071625
55	0x3e7dd4e3	0.24788241
56	0x3da91b3d	0.082571484
57	0x3f71b88b	0.94422215
58	0x3c8e35b7	0.017359598
59	0xbd946dd5	-0.07247511
60	0x3e80104c	0.25012434
61	0xbe3841e8	-0.17993891
62	0x3e7d4400	0.24732971
63	0xbf1bb9b4	-0.60830235
64	0xbf152b90	-0.58269596
65	0x3f2025a9	0.62557465
66	0x3ec0cad4	0.37654746
67	0x3ec7bcb1	0.39011148
68	0xbf291d45	-0.66060287
69	0xbebc7ad3	-0.36812457
70	0xbe978645	-0.29594627
71	0x3f427d79	0.75972706
72	0xbdbfc858	-0.093643844
73	0xbf08c8f4	-0.5343163
74	0x3ef06f11	0.46959737
75	0x3ed710b7	0.4200494
76	0x3f027cbd	0.50971586
77	0x3e71c8fd	0.23611827
78	0x3e98c497	0.29837486
79	0xbd2dc534	-0.042424396
80	0xbf064551	-0.5244952
81	0xbea7d911	-0.32782796
82	0x3ef1c70e	0.4722218
83	0x3e334a98	0.17508924
84	0xbeaccbd7	-0.33749267
85	0xbe4543aa	-0.19264093
86	0x3ef94a61	0.4868956
87	0x3ef2bc1e	0.47409147
88	0xbd92ca08	-0.07167441
89	0xbf05a9f7	-0.5221247
90	0xbe8db71f	-0.27678773
91	0x3ee78450	0.45218134
92	0x3dc70eb1	0.09719599
93	0xbedafa0a	-0.4276889
94	0xbe483409	-0.195511
95	0xbe404680	-0.18776894
96	0xbeb29cd6	-0.3488528
97	0xbf4a3855	-0.78992206
98	0x3f17b31d	0.5925768
99	0xbf0e14dc	-0.5550058
100	0x3e5d12b7	0.2158917
101	0x3d0631a7	0.032762196
102	0xbe9cfca1	-0.3066149
103	0xbf5df85e	-0.86707103
104	0x3e7fd403	0.2498322
105	0x3e7e8a62	0.24857476
106	0x3eb6875a	0.3565014
107	0x3d50cac0	0.050974607
108	0xbe32e24f	-0.17469142
109	0xbe2d7713	-0.16939954
110	0x3e3c86f6	0.18410859
111	0xbeed30bd	-0.46326247
112	0x3f5f5527	0.8723931
113	0xbedf4d61	-0.43613723
114	0x3d846e5d	0.064663626
115	0x3eb22b49	0.3479865
116	0x3ef07a8a	0.4696849
117	0x3d60d4c1	0.054890398
118	0x3f13f935	0.57802135
119	0xbe8448e3	-0.25836858
120	0xbec40550	-0.38285303
121	0x3dd03eff	0.101682656
122	0xbe4e972a	-0.20174852
123	0x3da16873	0.0788125
124	0xbec5791c	-0.38568962
125	0x3ed262d3	0.41091022
126	0xbe99d9cc	-0.30048978
127	0x3f5b3748	0.8563123
128	0xbe76af64	-0.24090344
129	0x3eaa8d1c	0.33310783
130	0xbeca5dc5	-0.39524665
131	0x3f19d361	0.60088164
132	0x3f42f916	0.76161325
133	0x3e30c94d	0.1726429
134	0x3eac08a8	0.33600354
135	0xbf3c93cb	-0.73663014
136	0xbd84f8d0	-0.0649277
137	0xbe130330	-0.14356685
138	0xbf49693d	-0.78676206
139	0x3e84033a	0.25783712
140	0xbedaceaa	-0.42735797
141	0x3cf78d2d	0.030218685
142	0x3ea20f21	0.31652167
143	0x3ec8dfeb	0.39233336
144	0x3f30581d	0.6888445
145	0x3e9bb1b8	0.30409026
146	0xbe8204dd	-0.25394335
147	0x3f000c66	0.5001892
148	0xbf059072	-0.5217353
149	0xbed5ac9a	-0.41733247
150	0xbec6fd98	-0.38865352
151	0xbec4c80b	-0.3843387
152	0xbed77b58	-0.4208629
153	0xbe9759e3	-0.29560766
154	0x3e98664d	0.2976555
155	0xbed69a91	-0.419148
156	0x3efabffa	0.48974591
157	0xbea04e41	-0.31309703
158	0x3ec263be	0.37966722
159	0x3f30bbb2	0.690364

action_net.bias f4 [5]
0	0x3d5cca25	0.053903718
1	0x3cae1204	0.021248825
2	0x3e3024fe	0.17201611
3	0xbe7f1afd	-0.24912639
4	0xbd262d26	-0.0405704

value_net.weight f4 [1, 32]
0	0xbd217520	-0.03941834
1	0x3dc7e83d	0.09761093
2	0xbe2605bc	-0.16213125
3	0x3c996558	0.018725082
4	0x3eac211b	0.33619007
5	0x3db86a29	0.090046234
6	0xbd64283f	-0.055702444
7	0xbe7d3f39	-0.24731149
8	0x3e8817de	0.2658071
9	0x3bfea1cf	0.007770754
10	0x3e5393af	0.20661806
11	0x3e20bfb3	0.15698127
12	0x3e292662	0.16518548
13	0x3e7555d3	0.2395852
14	0xbe6afcd7	-0.22948013
15	0xbe47b7a0	-0.19503641
16	0x3e1a47af	0.15066408
17	0xbd665bf3	-0.056240033
18	0x3c9eb798	0.019374654
19	0x3c40bbda	0.011763537
20	0x3e610a23	0.21976523
21	0x3d185422	0.03718961
22	0xbe26d5bf	-0.16292475
23	0x3e80d994	0.25166
24	0x3e39e405	0.18153389
25	0xbe9225d0	-0.28544474
26	0xbe91b450	-0.2845788
27	0xbe037450	-0.12837338
28	0xbe82961e	-0.25505155
29	0x3d33bfd9	0.043884132
30	0x3c5b15c9	0.013371893
31	0xbe0b2127	-0.13586865
