toy_its/train_logs/map2_fixpos/eval/bc_model_1000000.pth (torch, 38914 bytes, 11 tensors)

mlp_extractor.policy_net.0.weight f4 [32, 81]
00000000: 5799 b03e 87f5 0abd 76b3 e9bc 3f20 283b
00000010: 05ac c43e 09ab a9be b9ae 6dbd 7365 483c
00000020: dc80 88bd 459a 42be 779d 54bc d668 93bd
00000030: 00fd e6ba 265f 88be 5584 f33d 557d 683e
00000040: 6dfc 8d3e 0825 a4be 0956 443d c281 883e
00000050: 6047 9bbe 1cae 99be 105b c63d 9ce5 09bf
00000060: 982a 843e 16f4 77be c61a 91bd 18d0 2c3e
00000070: 024b 66bd 1d49 63bd 6100 a5be 4e09 07bb
00000080: 08b1 713e dbcb f0bd e347 07be ee84 863e
00000090: 1836 233e bb16 a83d 6e77 21be e80f 103e
000000a0: 0d10 96bd e890 02bd 4733 b0bd 994a e5bd
000000b0: dede 96be 4db3 6b3d 06c2 de3d 2dcd 153e
000000c0: 658e 513d 46aa 0f3e af3f 7f3e 934f e6bd
000000d0: ac83 0dbe fc72 e63e d07a 40be 6741 533d
000000e0: c8a3 84bd 994f 2fbd 9847 5a3e 79ba 97bd
000000f0: 623d 4a3e 83f8 79bd 4976 c93e cb7c 9f3d
00000100: 8d16 49be fba5 f63d a16c 74bd ff1c 2fbe
00000110: e0fd bd3d f757 07bd 9ee6 e23d a718 0e3e
00000120: a06a a03d d9b8 1f3e 0f70 c03d a68a a3bd
00000130: 27ed 0cbe dfb4 8dbe 74ed 993d fa3e 723e
00000140: 4f86 93bd c04a cebe a005 3c3d 02ea 033f
00000150: 8d4c 503e 4733 b7bd 9ce4 cf3d 4ee6 3dbe
00000160: f641 bf3e 35d1 34be 38c1 c73d b8ad 043e
00000170: 56c9 193e 7be1 9d3e ae35 203d dcb5 a3be
00000180: a897 3b3e deff 67be 8e61 443e 2d1e 823e
00000190: 29ad bc3d 85dd 9ebd 107a 943e 2733 173d
000001a0: 0086 66be 3482 35be 8b38 3abe 516c 833c
000001b0: 1b38 6abe 63ea a6bd 077a e3bd efbc b53d
000001c0: dd68 fabc 54e9 f83e d0d0 d73e c6f4 1a3b
000001d0: 73a5 b0bd a17e fdbd 0ddf 0a3d c31c dabc
000001e0: a3c5 87bd d0cb 633e 9394 913d 6b06 cdbd
000001f0: ecde cf3d 4108 133f d27a 853b 1b72 713c
00000200: 49ed eebd 8570 f4bd ff92 4dbe 818d d23d
00000210: 014c 6c3e ab83 fabd f73d a1bd 0ff1 423e
00000220: 21f2 3c3e b3f5 2f3e ca04 9c3d 22fb 5fbd
00000230: b1a4 9c3e 8fe3 d9be e72c 6a3d 180b 97be
00000240: c016 62be 88a1 643e a014 1fbe 2768 973d
00000250: 8a3e 7a3e af47 fa3d dc70 79be 35de 9fbe
00000260: 5f1a 3abe 2458 113e c8c7 e13d bdc1 0bbe
00000270: 336c 913c 34fb bebe 07c6 3d3e 12e3 06bf
00000280: be8d 56bd 8455 2d3e 8843 883e aacd 803e
00000290: ec84 31bd 6b86 a03d ff53 bcbc 7810 823e
000002a0: d9e1 a7be 9483 cdbd b6ef bc3c 0564 fb3d
000002b0: 22a9 df3b ce5e 56be 7dea 2cbe eb7a 94bd
000002c0: ff87 93bd 64fa 2c3d 540b 00bd 6726 5c3d
000002d0: b38c dc3d cc96 c3be 5d75 d1be 671b 293d
000002e0: 872f 2b3c 820f cebe 4760 0cbf eb86 77be
000002f0: e551 e33d 1ab7 af3e 7b62 e7be 77cb 463e
00000300: d58c 81bd 96d3 81be 9471 ca3e 3dde 363e
00000310: f845 943e 6e4a 5ebe 0bbd b53d 6343 abbe
00000320: 6424 2ebd c950 29be 31cf 053e a51d a53d
00000330: 93cc bfbd 14c7 28be fd0c 963d 53bd 10bd
00000340: 71b2 a4be dfcd bc3d 07ce 183e 02a8 943d
00000350: 99e0 113e 45a5 c2bd 3e7b a73d 7b3e 553e
00000360: 7f94 b23d 3051 593d 3940 023e c202 adbd
00000370: 196a 08bd 2bbe d53d ab06 ba3e 5b0f c7bd
00000380: 0ff5 f7bd a3dc 27bd 7218 c13d f178 333e
00000390: fbcc 27be e6cf 043d 9d90 f8be b840 e73d
000003a0: edd1 dd3c a80b acbe 3e89 f8bc 5970 0bbd
000003b0: 8b81 a5bd 077c 10be c277 673e d5d9 ddbc
000003c0: 331a bc3d 37a1 6d3d 891c 2b3e f2ed aebe
000003d0: fa5f 233e 8def 2d3e 8870 4b3d b87c e6bc
000003e0: 9a1a 923d 1e31 633e faa5 f5bc 2518 033e
000003f0: a23b f43d 56c0 6d3c 50d1 6a3d 8f03 09be
0.3449199 -0.03392556 -0.028527956 0.0025653986 0.3841249 -0.33138302 -0.058027957 0.012231219
-0.06665203 -0.19004162 -0.012976996 -0.0719773 -0.0017623007 -0.26635092 0.11890475 0.2270406
0.27731648 -0.32059503 0.047933612 0.26661497 -0.30327892 -0.30015647 0.096853375 -0.5386598
0.25813746 -0.24214205 -0.07085185 0.16876256 -0.056223877 -0.055489648 -0.32226852 -0.0020604911
0.23602688 -0.11757632 -0.13211016 0.26273292 0.15938604 0.082074605 -0.15768215 0.14068568
-0.0732728 -0.031876475 -0.086035304 -0.11195869 -0.2946691 0.05754404 0.10876851 0.1462905
0.05116119 0.14029798 0.24926637 -0.11245646 -0.1381976 0.450096 -0.18796849 0.051576044
-0.06476551 -0.04280052 0.21316373 -0.07408614 0.19749978 -0.061028015 0.39348057 0.07787474
-0.19637509 0.12043377 -0.05967391 -0.17100905 0.092769384 -0.033042874 0.11079143 0.13876592
0.07832837 0.15597858 0.093963735 -0.079854295 -0.13762341 -0.27677056 0.07515994 0.23656836
-0.07203352 -0.40291405 0.045903802 0.5152894 0.20341702 -0.08945327 0.10151026 -0.18544886
0.37355012 -0.17657931 0.097536504 0.12956893 0.1501821 0.3083609 0.039113693 -0.31974685
0.18319571 -0.226562 0.19177839 0.25413647 0.09212715 -0.07757095 0.28999376 0.036914017
-0.22512054 -0.1772545 -0.18185632 0.01604286 -0.22872965 -0.081501745 -0.11107259 0.08873927
-0.03056758 0.48615515 0.421515 0.0023644431 -0.08625307 -0.12377668 0.033904124 -0.026625043
-0.06629493 0.22245717 0.071084164 -0.1001099 0.10149941 0.5743447 0.004073479 0.0147366775
-0.11666352 -0.11935524 -0.20075606 0.10280896 0.23075868 -0.12232145 -0.07873147 0.19037269
0.1845174 0.1718357 0.07618101 -0.05468286 0.305944 -0.42556426 0.05717173 -0.2950065
-0.22078991 0.22327244 -0.15535212 0.07392912 0.2443792 0.12220704 -0.24359459 -0.31224218
-0.18174122 0.14193779 0.110244334 -0.13648124 0.017751789 -0.37301028 0.18532573 -0.5269023
-0.05238127 0.16927153 0.26614022 0.2515691 -0.043339655 0.07838138 -0.022989271 0.2540319
-0.32789496 -0.10034862 0.023063522 0.122749366 0.006825582 -0.20934603 -0.16886325 -0.07250007
-0.072036736 0.04223098 -0.031260803 0.05374756 0.10769024 -0.38200986 -0.40909854 0.0412859
0.010448343 -0.40246207 -0.5483441 -0.24172561 0.110996045 0.34319383 -0.45192322 0.19413553
-0.0632569 -0.2535674 0.39539778 0.17858215 0.28959632 -0.2170808 0.08873948 -0.3344985
-0.042515174 -0.16534723 0.13067318 0.08062295 -0.09365191 -0.16482192 0.07326696 -0.035336804
-0.3216739 0.09218954 0.14922343 0.072586074 0.14245833 -0.09504179 0.081778035 0.20824616
0.0871973 0.053055942 0.12719811 -0.08447792 -0.033304308 0.10436662 0.36333212 -0.09719726
-0.12107288 -0.0409819 0.09428491 0.17526604 -0.16386788 0.03242483 -0.4854783 0.11291641
0.02707764 -0.33602643 -0.03033888 -0.03404269 -0.08081349 -0.14109813 0.22604278 -0.02708141
0.091846846 0.058015075 0.16710104 -0.34165913 0.15954581 0.16985913 0.049667865 -0.028135642
0.0713398 0.22186705 -0.02998637 0.12802179 0.119254366 0.0145111885 0.057328522 -0.13380264

mlp_extractor.policy_net.0.bias f4 [32]
00000000: bbaf d9bc aaaf ea3c 53e4 a8ba 9f8f 43bc
00000010: e619 8ebd 6418 9d3a e1c4 4e3d 5b2d 5dbd
00000020: 32fc 67bd 3df8 efbc 4017 cebc 6051 27bd
00000030: 708a a039 853a c93b 1777 35bc e3d8 2b3e
00000040: 18a5 1d3a 7a90 22bd 3030 90bc f22f f33c
00000050: ca2d 80bd 0a56 dabb 0641 1dbd c512 9f3d
00000060: 445f 363d 4bd9 6fbc 5f04 81bc 8ece a5bd
00000070: e14b 45bd 7baa 1dbc 9f02 c13b 2093 f6bd
-0.026573053 0.028648216 -0.0012885429 -0.011936097 -0.069385335 0.0011985418 0.050480727 -0.053998332
-0.056636997 -0.029293174 -0.02515757 -0.04084909 0.00030620722 0.0061410093 -0.0110757565 0.16781954
0.00060136756 -0.039688565 -0.017601103 0.029685948 -0.062587336 -0.0066630887 -0.03839209 0.07767252
0.044524446 -0.014639209 -0.015749155 -0.08096038 -0.048168067 -0.009623165 0.005890205 -0.120397806

mlp_extractor.policy_net.2.weight f4 [32, 32]
00000000: 2c72 573e 34b1 4ebe 17d7 713e 9a3f aa3e
00000010: 8da6 35bd 77e6 98be 17ab d4bd 0466 593e
00000020: 1ac8 bf3e 3b0d 38be f495 773e 3789 b1be
00000030: 7296 4f3e e5b0 eebe db71 923d 814b 5e3d
00000040: 9239 9cbe 807f c3be 67ac 8f3e 9316 a0be
00000050: a828 e0be 21fd 243f 3aa1 ce3d bbc9 19be
00000060: af8b d43d b636 9dbe f3b3 23bc 5126 1cbf
00000070: 674d 8fbe 1ab2 d9be 81e6 663e 0b13 90bd
00000080: f49b 4d3c 8b1b 34be 8b35 d13e dcdf 05be
00000090: 4995 94bc 27b1 b7bd d5ff 9b3e 6234 883d
000000a0: 6dab 1ebd ae80 a93e f0db 9d3d c318 01bc
000000b0: 826a 6bbe d1bc bcbe b7ba 0abf 011a fcbc
000000c0: ad5e fc3e 1c43 873e ce1a 863d c5fd 24bf
000000d0: be91 d63e 6483 063d 9327 183f 0938 c7be
000000e0: 15ac 57be f567 49be 2a34 6bbd 1454 423f
000000f0: ed03 133f 7636 f43d 6eaf 9a3e e9e1 563e
00000100: 4d63 133d 751a 30be 5741 353f 3395 ecbd
00000110: e521 d1be 53d2 9d3e 313a d83e 0f3b 62be
00000120: 1a86 493e 2ad1 00bf 6722 ec3c c7bc 1fbe
00000130: 7e68 febe 309c 95bd 9542 2e3e 7f47 633e
00000140: bf24 a53e a6b8 12be ee9c f83e 877a 103f
00000150: 3d8b 293e 6a90 e0be d451 e9be 5fc9 3dbe
00000160: 22a7 abbb 27c6 853e a649 e3bd 1ecd 843e
00000170: 7370 acbe 43dd 2a3e c025 103e 9064 11bf
00000180: bdd1 213e 1b8c 29bd 4fe0 383c 64b0 94be
00000190: 78df 943e b0a0 e43e 9fb2 15bd 5396 1ebe
000001a0: 04df 8a3e 0ed2 6b3e a254 f83e 3845 993c
000001b0: 5123 c0be bf49 22be dbb7 20be 2698 a7be
000001c0: 047c 9d3e dec1 023e e00d b0bd ba27 ecbb
000001d0: 1762 9f3f af13 003f 26de 953d 4ecc 923e
000001e0: 52f5 23bd 492b d1be d86b a33e f5a4 913e
000001f0: d679 4e3e 46e9 8f3e 91b8 ab3c d7d3 d9bd
00000200: 1991 aebd 64f8 a8be a730 c9be 0a74 5c3e
00000210: dc19 093f 64b0 b1bd 4009 93bd c458 fabd
00000220: 52db b3be 6100 5bbe 4431 f7bd 25c1 443e
00000230: 2995 44be 4a91 5a3e 62b7 d9bd fc2a a4bd
00000240: e6d8 363e 39fc 6abf e4d2 36bf 0b76 883e
00000250: 5412 5dbe 8dfd b2be b17b 3d3e c14c 113b
00000260: a706 f6be d783 31be ce1e 2dbd b7b8 903e
00000270: eaaf ddbe ec4b c93e 95ae 89be b0f8 ac3d
00000280: 5660 d1be b6d7 7c3e a442 853c b2d3 88be
00000290: f904 463f e0d6 aa3e c812 95be 1bda e2be
000002a0: 4f7f d43e 7d25 bd3d c37e 2abe 45db bbbc
000002b0: e95c 9e3d 249e 02bd e6e2 0c3c 95a8 3fbe
000002c0: fa14 15bf 4768 333e 991d 88be a474 c5bd
000002d0: 3d9b 3fbe 3828 aebd a4f8 003f 5b1e 09bf
000002e0: 9a87 94be 0f99 1dbe 71d8 913c 6064 003e
000002f0: 22a5 7b3d 89e8 363e d0a8 253f 4a6a fc3b
00000300: 74b8 dbbc 4c1d 573e 3326 babd 6c2a 36be
00000310: 681b 4ebd 8657 673e 04f3 9fbd 24ea c73e
00000320: 10cc 133f 1a37 1b3e 48f9 9dbe b089 e63e
00000330: ea95 893e 37d3 e1be ff3e 293f 45ba fa3c
00000340: 0a88 73be 09f1 633c 59d7 2abf 0fc9 0dbf
00000350: 8e92 4f3e 4087 ccbb 1c05 73be f0d5 debe
00000360: a217 8bbe 08cb 79bd 6212 2d3e 250d 7d3d
00000370: 4a7a 383e 9a68 01be 563a 653e bc2d b93e
00000380: 37ed 4b3e 3ff3 18bf d616 c73e 5aa4 4fbe
00000390: 75d5 9abe a592 8b3e c3f7 3c3d b74d c33e
000003a0: fdaa 483c 2a1b 083e 8c36 b3be 573b 25bf
000003b0: a7bb 1e3f b21f 29be e7ad 72bd 4fdb cabe
000003c0: 7fb1 ce3e 9f3e 2e3e 6b88 53bc 686d 45be
000003d0: 235e df3e c26d 9c3e 7d50 afbd 5ad7 75bd
000003e0: a16b a33c 8c24 a1bd bf69 0e3e c62e 21be
000003f0: 8459 133f b406 8f3e 96e1 cc3d 0fc9 a8be
0.21039647 -0.20184785 0.23617207 0.3325165 -0.04434829 -0.2986333 -0.10384195 0.21230322
0.37457353 -0.17973797 0.24178296 -0.34675 0.20272234 -0.46619335 0.071506225 0.054271225
-0.30512673 -0.38183212 0.2806122 -0.31267223 -0.43781018 0.64448744 0.10089345 -0.1501836
0.10378205 -0.30705804 -0.009991634 -0.60995966 -0.2798874 -0.42518693 0.22548868 -0.07034882
0.012549389 -0.17588632 0.40861163 -0.13073677 -0.018137591 -0.08969336 0.30468622 0.06650616
-0.038737703 0.33105987 0.077079654 -0.007879439 -0.22989848 -0.36862805 -0.54191154 -0.030774118
0.49290982 0.26418388 0.06548081 -0.6444972 0.41908067 0.032840148 0.59435385 -0.3890994
-0.21061738 -0.19668563 -0.057422794 0.75909543 0.57427865 0.1192445 0.30211967 0.20984615
0.035983372 -0.17197593 0.70802826 -0.11551895 -0.40846172 0.30824527 0.42231897 -0.22092842
0.19680062 -0.5031916 0.028824998 -0.15599357 -0.49689096 -0.07305181 0.17017587 0.22195242
0.32254598 -0.1432825 0.48557228 0.5643696 0.16557021 -0.4386018 -0.45570242 -0.18533848
-0.0052384296 0.2612774 -0.11098032 0.25937742 -0.33679542 0.16685967 0.140769 -0.5679407
0.15802665 -0.04139338 0.011283948 -0.29040825 0.29076743 0.44653845 -0.0365473 -0.15487032
0.27123272 0.23029348 0.4850207 0.018709764 -0.37526944 -0.15848444 -0.15695135 -0.32733268
0.3075868 0.12769267 -0.085963964 -0.007206884 1.245181 0.50030035 0.07317762 0.28671497
-0.040028878 -0.40853336 0.31918216 0.28446165 0.20163664 0.2810766 0.020962032 -0.10636108
-0.08523769 -0.33002007 -0.3929493 0.2152864 0.53555083 -0.08676222 -0.07179499 -0.12223962
-0.35128266 -0.21386863 -0.120699435 0.19214304 -0.19197525 0.21344486 -0.106306806 -0.08016011
0.17856178 -0.9179111 -0.71415544 0.2665256 -0.21589023 -0.3495907 0.18504216 0.0022170993
-0.4805195 -0.17335449 -0.042265706 0.28265926 -0.43298274 0.39315736 -0.26891008 0.08445871
-0.4089381 0.24691662 0.016267128 -0.2672401 0.7735134 0.33367062 -0.2911589 -0.44307026
0.4150338 0.09235666 -0.16649918 -0.022931704 0.07732565 -0.031889096 0.008599019 -0.18716653
-0.5823513 0.17520247 -0.2658508 -0.09641388 -0.18711562 -0.08503765 0.50379395 -0.53561944
-0.29009706 -0.15390418 0.017803403 0.1253829 0.06143678 0.17862143 0.6471071 0.0077031003
-0.026821353 0.2100727 -0.09089317 -0.1778962 -0.050319105 0.22591981 -0.078100234 0.39045823
0.5773325 0.15157738 -0.3085425 0.45026922 0.26872188 -0.44106457 0.6611175 0.030606398
-0.23782364 0.013912448 -0.66734844 -0.55384916 0.2027075 -0.006241709 -0.23732418 -0.43522596
-0.27166468 -0.06098464 0.16901544 0.061780114 0.180154 -0.12637559 0.22385535 0.36167705
0.19914709 -0.59746164 0.3888461 -0.20277539 -0.3024098 0.27260318 0.04613472 0.3814523
0.012247798 0.13291612 -0.35002553 -0.6454367 0.62005085 -0.16515997 -0.059247877 -0.39620444
0.40369794 0.17016076 -0.012910943 -0.19280016 0.43626508 0.3055249 -0.08560274 -0.06001983
0.019948782 -0.07868299 0.13907526 -0.15740499 0.57558465 0.27934802 0.100039646 -0.32965896

mlp_extractor.policy_net.2.bias f4 [32]
00000000: 6adc 353e b97a b83d 547e ae3c ff14 893d
00000010: db42 d03c fafa 6b3a 9a1d 453d e8b8 873d
00000020: 73de ea3d 7e27 81bc 2078 7dbc a672 32bd
00000030: d887 4fbc 8dea 2e3d 4ae5 0dbc 2105 3f3d
00000040: 141a bbbc 47f0 0ebd be07 a8bd 2cc6 33bc
00000050: ce02 1f3d 1c15 f43c 5617 8a3c c3d6 0b3d
00000060: afc6 0abd a475 98bc 92e3 1d3d 96be 963d
00000070: e16d fb3c 2879 9abd 1330 b0bc d121 c3bc
0.17759863 0.090077825 0.021300472 0.06693458 0.025422504 0.0009001937 0.048123933 0.06627065
0.1146821 -0.015765902 -0.015470535 -0.04356637 -0.012666665 0.042704154 -0.008660624 0.04663575
-0.022839583 -0.034897115 -0.08204602 -0.010972541 0.038821034 0.029795222 0.01685683 0.03414036
-0.033880886 -0.018610783 0.038547106 0.0736057 0.030692043 -0.0754264 -0.021507299 -0.023819836

mlp_extractor.value_net.0.weight f4 [32, 81]
00000000: 42aa 87bd 8af5 1dbe 7da9 82bd f102 44be
00000010: 7c56 2f3e 88ea fc3b 659c 443e 3771 4bbe
00000020: 51f6 b1bc 4653 ce3d 007e 17be f5a8 2e3c
00000030: fa28 ecbc 4f5c 5f3e 26d1 97bd e636 d5bc
00000040: 4e26 28be bd96 aa3e ebb4 0f3d abfc d6bb
00000050: 281b 2fbe a62e 05bd 905c 813e b837 843d
00000060: fb48 9c3c 15ff 10be 32b0 46be 446e bb3d
00000070: 56f5 43be e522 c93d efb3 3bbe 2c96 4abd
00000080: f681 c33d 13b4 cb3d 2f08 22be c0f9 6a3c
00000090: 9df7 233e 4c0b b53e 1acf a5be ee36 4ebe
000000a0: fe2d a13d 6d9d 833c 5abc 233e 248d 9c3e
000000b0: 142d b63c f094 8e3e 2728 403c 9781 50be
000000c0: f775 cc3d e6c6 25be 5d56 593c bc9e 7abe
000000d0: 48b5 3d3c 8349 89be 88f5 64be ed94 a9bd
000000e0: c18c c9bd 6859 f4bd 8868 783d e1be 97bd
000000f0: 75ea ab3d f5ac 21be d5dc 823d cd83 d03e
00000100: cf11 25bd 6384 91be 9f24 0b3e 9d67 a5bd
00000110: 123c b2bd c4e8 e73c 7ec9 713e e0ce abbd
00000120: d9af 39bc 0fe9 cc3d b53c 19be 065c a03d
00000130: 5d4e a13d 9451 903d 0225 923d 3a38 7abe
00000140: e9ed e93d 2267 913c 5052 8b3e 4bf5 193e
00000150: c628 abbd 64a6 4f3d 9d2c ed3d 1399 17bc
00000160: 3c84 8cbd 4e08 9dbd aa17 b23d f5b1 7d3d
00000170: e872 52bd 8370 57bc 76e9 3abd e908 863e
00000180: 9a3e 63bd 3f96 32be 3840 4e3c 5721 803e
00000190: 4775 e4bd e8a8 f83d b343 803e 1646 d83d
000001a0: 5dad 0f3e f1e9 d7bd 47f2 90bd 8cdd bcbd
000001b0: 495b 383d 9310 e03c d1cd 6fbb c382 1a3e
000001c0: def2 4a3e 44ae 87bc 16fd 9dbd ce2d 783d
000001d0: f9af 89bd cb93 b03e 0027 273e 61b2 4f3e
000001e0: a499 c4bd 7808 33be 3214 e13d 9776 dabd
000001f0: bda6 92be d9f4 853b 8f3b 19be a06b 8b3e
00000200: f45e f53d ad29 b2bc 2c66 a0bd 5f8c 5c3d
00000210: b5d0 26be ec71 75be b95b 66be f86c 59be
00000220: 7acf b93d 7a92 88be 8183 803e 73b6 19be
00000230: 3ffd a7bd 71e3 613e 1b0d 933d 3b26 b9bd
00000240: 584e a4bd 737b 87bd 0aa7 10be 12d4 6cbe
00000250: 6bf9 6dbc b10c b0bd acf2 81bd f7b7 7abe
00000260: 2112 0ebe 4673 963e d108 053e 3443 533e
00000270: 9c03 81bd 3d05 603c 3f7e 5b3e e505 acbe
00000280: 6f71 a6be 3c1e bb3d 6bd8 c73d f6e4 a4bc
00000290: edd2 233e 148d 43be 3e36 853e a50a d6bb
000002a0: c198 e53d 2045 053e 5da3 223e 65ce 7dbd
000002b0: add5 343d 955d 9dbe 9c31 e9bd 1f53 bcbd
000002c0: 5ea0 ddbd f506 3abe 6f56 f7bc 087b d03d
000002d0: d65d 1bbb 3452 8b3d 51ed 123d 14b4 01be
000002e0: c871 09be a3f3 8d3c 5922 9d3b 8cca 763e
000002f0: c133 9dbd 60b8 643d d026 41be f70f b23e
00000300: 2a27 88be 57ac ebbd 47e9 0f3e 6ce4 823e
00000310: 9594 7ebe 5d84 c4bc 696a 7dbd 0510 763e
00000320: 6619 9b3e fa65 47be 4ae1 5cbe ea89 973d
00000330: 4ae6 053e 5a9a a8be a517 493e 6b37 733e
00000340: 8ec9 3bbe 18e7 13be f7cf 933e a5db cebd
00000350: 5019 d03d 6c1d 3b3e b861 3dbd 5b23 793e
00000360: 6503 9f3d b69a c1bd 26d7 45be c91f 61bd
00000370: 66b3 e73d 8404 503d 778d 96bd 20d4 e0bd
00000380: 460c a43d 0b4f 9bbe da94 46ba b440 25bc
00000390: d040 04bd 33bf 0abe 0478 933d 2411 cb3d
000003a0: 2a34 8fbd b4bf f5bc f5d5 8f3e 4b79 e6bd
000003b0: c5ce ac3d d141 78be 09e0 8fbd 9328 dfbd
000003c0: ea10 8dbd d862 c63d f848 96bc 4280 e1be
000003d0: 60cb ae3e f0ac c63d eb09 d5be 4c54 3dbe
000003e0: 95b2 0abe b58e 753c fed9 dbbd d9e4 88be
000003f0: e114 9f3d d65f 783c dfb7 053e 1a58 e43d
-0.06624271 -0.15425697 -0.063799836 -0.19141747 0.17122835 0.007718388 0.19200285 -0.19867407
-0.021723898 0.10074477 -0.14794159 0.0106604 -0.028828133 0.21812557 -0.07412939 -0.026027154
-0.16420862 0.3331813 0.035084646 -0.006560882 -0.17100203 -0.03251519 0.25265932 0.0645594
0.019077769 -0.14159806 -0.1940315 0.09151891 -0.19136557 0.09821109 -0.18330358 -0.04945962
0.095462725 0.09946456 -0.15823434 0.014341772 0.16012426 0.3536018 -0.32384568 -0.20138142
0.078701004 0.016066277 0.15989819 0.30576432 0.022238292 0.27848005 0.011728323 -0.20361935
0.099834375 -0.16189155 0.0132652195 -0.24474615 0.011578865 -0.26813897 -0.22359288 -0.082803585
-0.098413 -0.119311154 0.060646564 -0.07409454 0.083943285 -0.15788634 0.063897766 0.40725556
-0.040300187 -0.28421316 0.13588189 -0.08076403 -0.08702864 0.028309233 0.2361202 -0.08389068
-0.011333429 0.1000539 -0.14964564 0.07830052 0.07876275 0.0704681 0.07135965 -0.24435511
0.11422331 0.017749373 0.27211237 0.15034978 -0.08357386 0.05069579 0.11580775 -0.009252804
-0.06861159 -0.076675996 0.0869592 0.06193729 -0.051379114 -0.0131493835 -0.045632802 0.26178673
-0.055479623 -0.17440127 0.012588553 0.25025436 -0.111551814 0.12141591 0.2505165 0.10560243
0.14030977 -0.10542668 -0.07077461 -0.09221944 0.04500893 0.027351653 -0.0036591182 0.15088944
0.19819209 -0.016562589 -0.07714288 0.060590558 -0.06723017 0.34487757 0.16323471 0.2028289
-0.09599617 -0.174837 0.1099018 -0.106671505 -0.28642836 0.004088026 -0.14964126 0.2723055
0.119810015 -0.021748388 -0.07831988 0.053844806 -0.16290553 -0.23969239 -0.22495927 -0.21232975
0.09072776 -0.26674253 0.2510033 -0.15011005 -0.082026 0.22059418 0.07180234 -0.09040495
-0.080227554 -0.06615343 -0.1412622 -0.23127773 -0.014524798 -0.08596171 -0.06345114 -0.2448424
-0.13874103 0.29384822 0.12991644 0.20631105 -0.062995166 0.013673124 0.21434878 -0.33598247
-0.32508418 0.09136626 0.09758075 -0.020128708 0.1599843 -0.19096786 0.26017946 -0.0065320306
0.11210776 0.1301465 0.1588263 -0.06196441 0.04414909 -0.3073546 -0.11386415 -0.091955416
-0.10821603 -0.18166716 -0.030192582 0.10179716 -0.0023707054 0.068027884 0.035870854 -0.1266635
-0.1342231 0.01732809 0.0047953543 0.24100703 -0.07675887 0.055839896 -0.18862462 0.34777805
-0.2659238 -0.115074806 0.14053832 0.25564897 -0.24861367 -0.023988897 -0.06186906 0.24029548
0.30292815 -0.19472495 -0.21570316 0.07399352 0.1307613 -0.3293026 0.19637926 0.23751609
-0.18338606 -0.14443624 0.28869602 -0.101004876 0.10161078 0.18272942 -0.04623577 0.24329893
0.07764319 -0.09453337 -0.19320354 -0.054961953 0.113135144 0.050785556 -0.07351201 -0.1097796
0.080101535 -0.30333742 -0.0007575281 -0.010086227 -0.032288373 -0.13549499 0.072006255 0.09915379
-0.069923714 -0.029998638 0.28092924 -0.112536035 0.08437876 -0.24243857 -0.07025153 -0.10896411
-0.06887992 0.09686822 -0.018345341 -0.44043165 0.34139538 0.09700954 -0.4160913 -0.18489188
-0.13544686 0.014987637 -0.10734938 -0.26737097 0.07767654 0.015159568 0.13058423 0.111496165

mlp_extractor.value_net.0.bias f4 [32]
00000000: 0000 0000 0000 0000 0000 0000 0000 0000
00000010: 0000 0000 0000 0000 0000 0000 0000 0000
00000020: 0000 0000 0000 0000 0000 0000 0000 0000
00000030: 0000 0000 0000 0000 0000 0000 0000 0000
00000040: 0000 0000 0000 0000 0000 0000 0000 0000
00000050: 0000 0000 0000 0000 0000 0000 0000 0000
00000060: 0000 0000 0000 0000 0000 0000 0000 0000
00000070: 0000 0000 0000 0000 0000 0000 0000 0000
0.0 0.0 0.0 0.0 0.0 0.0 0.0 0.0
0.0 0.0 0.0 0.0 0.0 0.0 0.0 0.0
0.0 0.0 0.0 0.0 0.0 0.0 0.0 0.0
0.0 0.0 0.0 0.0 0.0 0.0 0.0 0.0

mlp_extractor.value_net.2.weight f4 [32, 32]
00000000: 710b ba3d 07d1 953e 2670 363e c51b df3e
00000010: d9cb d03e 616d 83be eeb5 12bd 6bd7 62bd
00000020: 3d78 bf3d d7a4 13be 5bdb a53e 6ee5 d2be
00000030: 0c52 523d ad42 c03e a691 ccbe 05a8 cd3e
00000040: b8c5 8a3e 22c1 0dbe e58b 45bc d5fa c73d
00000050: a489 bd3e 0e18 07be c0f9 9b3c b899 aebe
00000060: d607 043d 06e0 96be 3d94 88be b712 713c
00000070: 4d75 3f3e f794 fcbc f7e5 993e 16d4 11be
00000080: d175 02be 4564 f03e c7ef 243e 2e6c 23bb
00000090: d89c a7be 2777 58bc 86e0 a33e 2884 493e
000000a0: 3508 8bbe 98d4 433e 8ba1 53be 13a0 abbe
000000b0: fdc6 713e 5a89 02bd dd0c e93c d90f 853e
000000c0: d48d 5d3e 4e23 47bd 2e1d 18be 9bc2 93bd
000000d0: 6405 c6be 7241 2f3e 039c cc3e 986f 8ebe
000000e0: 1eda babe 99ed 87be f975 d93e 66b5 d53c
000000f0: 46a8 c0bc e1d3 b6be e915 bebd 03d9 943e
00000100: 6241 dc3d badd 74bc e0ed 273d 93c5 753e
00000110: 85a4 d5bd 7053 4b3c 63d5 d23e 4dc2 e93d
00000120: 17f3 db3d 49a9 b8bc 0983 b93e 7c82 b73e
00000130: b341 57be 51c2 243d 704d b5bd b42d 80be
00000140: 0878 04bf e45a 383e c172 86be ab66 c3be
00000150: bacb 92be 202a 05bf 3d09 0f3e 8512 4fbe
00000160: d5a1 5ebe 9cc2 82be 01e3 c03d 5a3c 1b3e
00000170: 5f3a 9dbd 4285 a03d cc7d 013f 1012 abbd
00000180: 6386 ab3e 1096 983e 0101 fdbe 6284 ddbd
00000190: 98fc b9bd bf51 28be e3fd 3d3e a5a4 b63e
000001a0: 789d f83d c230 083e 91d3 de3c 0bdb f83e
000001b0: 7116 e33e 7a1a 443e a5a8 23be c5cf e43c
000001c0: 0bea fa3e ff8d e13d fdc4 55bc eb64 4fbe
000001d0: ae0a f63d 664e d3be eab3 9cbd ec87 d5bd
000001e0: f503 233e eb8f 473e 8d61 bdbd be7c b5be
000001f0: 5336 71be 0233 50bc 10cd 80be c1f2 983d
00000200: 40c4 a7be 4447 043e f686 b13a e192 753e
00000210: 42a4 dabe 465e a93e ff55 44be 10a0 04bf
00000220: 019e a83d f7e1 2bbe 12f0 873d ed29 d03e
00000230: 1c75 7b3e 08c7 fb3d 96e1 34bc 3686 723d
00000240: ec72 123e 14ed 5cbd f948 14bc 0e26 273e
00000250: acfa cebd 4303 62be ed2e c53e 9686 27bd
00000260: 21ac 72be 2c48 99bc d249 c6be 5bed f73d
00000270: ec61 df3e b8c8 c53e 4edc 84be a296 663e
00000280: f1a5 82be 4e26 d0bd 08a2 17be 88b6 943e
00000290: 8511 d23e efc3 393d 20c3 1dbe c038 163d
000002a0: 7c67 96be 7e80 7abe 59a8 553e 79ec ddbd
000002b0: e364 aebd 105f 82be 124d 033e 41a6 c9bd
000002c0: e489 8d3e 3ec1 23be e634 7f3e e0d8 d83c
000002d0: c9fb 863d dff7 01bf 4112 1f3e 342a 5cbd
000002e0: 456b 113d 6e44 923e 2523 373f 37c8 b1bc
000002f0: 9581 aebd b123 953e 4728 453d 8a09 d93e
00000300: f2f7 61be 8bbd 3bbd ba7c 2dbe 4649 3a3d
00000310: 17cf 7d3d 2ffc ab3e 56c4 95bd 8b3d 913b
00000320: 0beb 973e 5f52 abbc 1984 77be 5ffc aabe
00000330: 3d69 983c bb0a 5a3e ca4b 4e3e 7734 fe3d
00000340: 3115 9fbe 7f3d 70be a813 743e 8fd3 debe
00000350: 10bc 873d a0f5 32be 6dc0 a9be dc58 42bd
00000360: ba49 4bbe d538 81be 76dd c3be aa04 6abe
00000370: 970e d2be be0d 7bbd b481 d43b 196d 253f
00000380: db45 14be e3b4 95bc 3a66 aabe 8a3f 453d
00000390: 37dc 513e a4a0 163e 7304 d8bc ceb7 ad3e
000003a0: 5b03 d23d c01f b83d 044b a83e 1f1d 7dbc
000003b0: cf0b 0fbd 2993 72bd d24d 293f 99af c23e
000003c0: 02f9 0fbd e036 b4be 7be6 11be 06eb b9bd
000003d0: 70fc ac3d ea2c 54be be39 6c3e f4af 333e
000003e0: a6de 7ebe 9ebb c33d 0f31 24be 6351 b23e
000003f0: 84e6 983d 4982 acbe 7d8f 97be 578b 02bf
0.090842135 0.29261038 0.17816219 0.43575874 0.40780523 -0.25669387 -0.035818033 -0.05538122
0.093491055 -0.1441835 0.32393917 -0.41190666 0.051347777 0.3755087 -0.3995487 0.4016725
0.27103972 -0.13843206 -0.012057279 0.09764639 0.37019074 -0.1319277 0.019039989 -0.34101653
0.032234035 -0.2946779 -0.26675597 0.014713935 0.1869709 -0.03083275 0.30058262 -0.1424106
-0.12740256 0.469515 0.16107093 -0.0024936306 -0.3273685 -0.013212002 0.32007235 0.1967932
-0.271547 0.19124067 -0.20667093 -0.33520564 0.23611064 -0.03186927 0.028448517 0.25988653
0.21636134 -0.048617654 -0.14854881 -0.072148524 -0.38675988 0.17114809 0.39962777 -0.27819514
-0.36494535 -0.2654846 0.42472818 0.026087474 -0.023517739 -0.35708526 -0.09281523 0.29071817
0.10754658 -0.014945442 0.04099834 0.2400115 -0.1043177 0.01241003 0.41178426 0.11414013
0.10739725 -0.022541659 0.36232784 0.3584174 -0.21021156 0.040224377 -0.08852661 -0.2503487
-0.51745653 0.18003422 -0.26259425 -0.38164267 -0.28671056 -0.520174 0.13968368 -0.20221908
-0.21741422 -0.255391 0.094182976 0.15159741 -0.07677149 0.07837917 0.50582576 -0.083530545
0.33500966 0.2980199 -0.49414828 -0.10816266 -0.090813816 -0.16437434 0.18553881 0.3567249
0.1213941 0.1329985 0.027200492 0.48604617 0.4435306 0.19150725 -0.15982302 0.027931103
0.49006686 0.11013412 -0.013047454 -0.20253341 0.12013756 -0.4127075 -0.076515034 -0.10426316
0.15919478 0.19488494 -0.09247122 -0.35446733 -0.2355588 -0.012707474 -0.2515645 0.07468177
-0.32766914 0.1291781 0.001354425 0.23981811 -0.42703444 0.33079737 -0.1917343 -0.51806736
0.08233262 -0.16785417 0.06637587 0.40656987 0.24556392 0.122938216 -0.011040112 0.059210025
0.14301652 -0.053937033 -0.009050601 0.1632311 -0.101064056 -0.22071557 0.38512364 -0.040899836
-0.23698474 -0.018711172 -0.38728195 0.12105819 0.43629396 0.386297 -0.2594933 0.225184
-0.25517228 -0.10163556 -0.14807904 0.2904551 0.4102899 0.045352872 -0.15406466 0.036675215
-0.29375827 -0.24463078 0.20865001 -0.10836119 -0.08515336 -0.25463152 0.12822369 -0.098461635
0.27644265 -0.15991685 0.24922523 0.026470602 0.06590993 -0.50768846 0.15534307 -0.053751186
0.03550269 0.28567833 0.71538 -0.021701915 -0.085208096 0.29128793 0.048134115 0.4239009
-0.2206724 -0.04583506 -0.1694211 0.045480035 0.061965074 0.33590838 -0.07312839 0.0044323853
0.2967151 -0.020913301 -0.24171485 -0.3339567 0.018604869 0.21293156 0.20146099 0.124123506
-0.31070855 -0.23460959 0.23835623 -0.4352078 0.06627667 -0.17476511 -0.33154622 -0.047448024
-0.19852343 -0.25238672 -0.382549 -0.22853342 -0.41026756 -0.061292402 0.0064851884 0.64619595
-0.14479773 -0.01827473 -0.33281118 0.0481563 0.20494162 0.14709717 -0.026369309 0.33929294
0.10254546 0.08990431 0.32869732 -0.015448838 -0.03492337 -0.059222374 0.6613437 0.38024595
-0.03514958 -0.35198116 -0.14248078 -0.0907803 0.08446586 -0.20720258 0.23068902 0.1754759
-0.24889621 0.095572695 -0.1603434 0.34827718 0.07465842 -0.3369315 -0.2960166 -0.50993866

mlp_extractor.value_net.2.bias f4 [32]
00000000: 0000 0000 0000 0000 0000 0000 0000 0000
00000010: 0000 0000 0000 0000 0000 0000 0000 0000
00000020: 0000 0000 0000 0000 0000 0000 0000 0000
00000030: 0000 0000 0000 0000 0000 0000 0000 0000
00000040: 0000 0000 0000 0000 0000 0000 0000 0000
00000050: 0000 0000 0000 0000 0000 0000 0000 0000
00000060: 0000 0000 0000 0000 0000 0000 0000 0000
00000070: 0000 0000 0000 0000 0000 0000 0000 0000
0.0 0.0 0.0 0.0 0.0 0.0 0.0 0.0
0.0 0.0 0.0 0.0 0.0 0.0 0.0 0.0
0.0 0.0 0.0 0.0 0.0 0.0 0.0 0.0
0.0 0.0 0.0 0.0 0.0 0.0 0.0 0.0

action_net.weight f4 [5, 32]
00000000: 4c90 943e 976d 5cbe e75c 2fbe 22b0 d4be
00000010: a9cc 333e a53f 18be 38ac 0cbe 84d1 cabd
00000020: f2fa 24be bea9 4ebe eac2 1c3e 354b 94bd
00000030: ead6 6b3e 207e 8fbe 4949 0fbe 1e92 733e
00000040: 07a1 6dbe 6291 b7bd d646 533e f3c5 64be
00000050: 4984 233e 5d4b e43e 91a4 9dbe 1b2c 72be
00000060: 56f9 823e 7ed7 633d 5f79 2ebe 18e5 6ebe
00000070: 0bbf d8bd fd72 aa3e 1ad2 6dbe e9bc 3dbe
00000080: c852 823e 307f 0e3e c36d 41be 0001 0d3e
00000090: 13a9 53be 09f6 173e 4a07 543e 1bf1 8b3e
000000a0: 0cb4 763e 1f37 713e 64dd 37be 64c8 5cbe
000000b0: ceae 13be cbd9 ec3d b346 4dbe b55d 52be
000000c0: 88f0 8ebe d27f 4b3e 9802 44be e62c 4fbe
000000d0: fdd7 2cbe f9a5 753e b001 57be 3e08 573e
000000e0: ce0a 473e bc3e 693e 8f47 393e 29a8 573e
000000f0: 18aa 553e 4024 0dbe c938 4e3e 9c4c 60be
00000100: a43a 71be 85c1 e63d 4c32 ad3e 09e2 823e
00000110: 8fbe 14be 45b5 8ebe 35b5 93be fc88 633e
00000120: bca8 9bbe fe12 88be e5a0 8d3e 1514 943e
00000130: 0d0c 703e 5778 e73d 1352 6c3e f9bf 623e
00000140: f55a 90be b34a 80be 7ac8 7d3e 5aee 963e
00000150: 720f 873e 9c8e 81be 5fe7 a63e 8554 5d3e
00000160: 6f45 45be b719 94be 637b 7cbe e3d0 273e
00000170: 7357 8bbe a795 d9bd 3e15 93be d34d 0dbe
00000180: 4872 d83d 6a80 7cbe 9a26 9b3e 7e6c 19be
00000190: 8be9 edbc 828f b13a 8311 cdbd 2e5a 9ebe
000001a0: afe9 143e 6ca9 823e 78c0 cc3d c05a bebc
000001b0: baf4 f73c af96 51bd cbc3 fcbc 721b 1fbf
000001c0: 45f4 143f bb08 8bbe 690d 083e b840 ce3d
000001d0: 7282 e53d 909a 11be abef ee3e 0e74 dfbd
000001e0: 31da 87be 2ef8 b63e 3163 06be 9de8 2bbe
000001f0: 2d5f 4fbe 6b0a df3d 3dc7 713d a6ab 913e
00000200: 0fe3 adbe 1d89 043e 5801 01be 07a1 433e
00000210: 0186 b63e a43c 403e efa4 143e e8c3 7fbe
00000220: 917d 54be 0bf9 95be f3b9 4fbe 3f07 893e
00000230: 0607 6cbe c9be a43c 62d4 a43e 20d1 843e
00000240: 53e2 ba3e 1fd4 573e 5b5a 61be 279c 973e
00000250: ad4c 61be 17bb 9dbe 88c4 1fbe ce36 67be
00000260: b2a4 8bbe e904 9abe 8349 4b3e 3891 f8bd
00000270: 87e5 3f3e e370 22be e9a4 b13d 9763 bd3e
0.2901634 -0.2152618 -0.17125283 -0.4154063 0.1755854 -0.14868028 -0.13737571 -0.09903243
-0.16111353 -0.20181939 0.15308729 -0.07240907 0.23031202 -0.28025913 -0.139928 0.23786208
-0.23205958 -0.089632764 0.2063249 -0.22341137 0.15968432 0.44588748 -0.30789617 -0.23649637
0.25580853 0.05562543 -0.17038487 -0.2332958 -0.105833136 0.33290854 -0.23224679 -0.18529095
0.25453782 0.13915706 -0.18889527 0.13769913 -0.20669965 0.14839949 0.20705906 0.27332386
0.2409212 0.23556183 -0.17955548 -0.21560818 -0.14422151 0.11564978 -0.20046501 -0.20543559
-0.27917886 0.19872978 -0.19141614 -0.20231971 -0.16879268 0.23989095 -0.20996737 0.20999238
0.19437715 0.22777838 0.18093704 0.21060242 0.20865667 -0.1378336 0.2013885 -0.21904224
-0.23557526 0.1126738 0.33827436 0.25563076 -0.14525817 -0.27872673 -0.28849187 0.22220224
-0.30402172 -0.2657699 0.27661815 0.2892157 0.23442097 0.1130225 0.23078184 0.22143544
-0.28194395 -0.2505699 0.24783507 0.29478723 0.2637897 -0.25304115 0.32598397 0.21614273
-0.19264768 -0.2892587 -0.24656443 0.16388278 -0.27215156 -0.10624247 -0.28727144 -0.13799219
0.105686724 -0.24658361 0.30302888 -0.14982793 -0.029042026 0.0013546797 -0.10013106 -0.30928177
0.14542268 0.25519884 0.09997648 -0.023236632 0.030268062 -0.051169094 -0.03085508 -0.62151253
0.58185226 -0.27155098 0.13286366 0.10070938 0.11206521 -0.14219117 0.46667227 -0.109108075
-0.26533654 0.3573622 -0.13123776 -0.16787954 -0.2025115 0.10890659 0.0590279 0.2845127
-0.33962294 0.1294293 -0.12598169 0.19104396 0.35649112 0.18773133 0.14516042 -0.24977076
-0.20751025 -0.29291567 -0.20285778 0.2676334 -0.23049554 0.020110505 0.32193285 0.259408
0.36500797 0.21077012 -0.22007124 0.29611322 -0.22001906 -0.308068 -0.15602314 -0.225795
-0.2727409 -0.3008187 0.19852261 -0.12137073 0.18739901 -0.15863375 0.08674032 0.36990044

action_net.bias f4 [5]
00000000: ddd1 683d 086f f33d 03ff 1b3d 935c 80be
00000010: a595 46bd
0.056840766 0.11886412 0.038084995 -0.2507063 -0.048482556

value_net.weight f4 [1, 32]
00000000: 2075 21bd 3de8 c73d bc05 26be 5865 993c
00000010: 1b21 ac3e 296a b83d 3f28 64bd 393f 7dbe
00000020: de17 883e cfa1 fe3b af93 533e b3bf 203e
00000030: 6226 293e d355 753e d7fc 6abe a0b7 47be
00000040: af47 1a3e f35b 66bd 98b7 9e3c dabb 403c
00000050: 230a 613e 2254 183d bfd5 26be 94d9 803e
00000060: 05e4 393e d025 92be 50b4 91be 5074 03be
00000070: 1e96 82be d9bf 333d c915 5b3c 2721 0bbe
-0.03941834 0.09761093 -0.16213125 0.018725082 0.33619007 0.090046234 -0.055702444 -0.24731149
0.2658071 0.007770754 0.20661806 0.15698127 0.16518548 0.2395852 -0.22948013 -0.19503641
0.15066408 -0.056240033 0.019374654 0.011763537 0.21976523 0.03718961 -0.16292475 0.25166
0.18153389 -0.28544474 -0.2845788 -0.12837338 -0.25505155 0.043884132 0.013371893 -0.13586865
