toy_its/train_logs/map2_fixpos/eval/bc_model_4000000.pth (torch, 38914 bytes, 11 tensors)

mlp_extractor.policy_net.0.weight f4 [32, 81]
0.34498262 -0.033912573 -0.028480724 0.041912235 0.45201448 -0.42589554 -0.057939053 0.012096576
-0.06665203 -0.1901906 -0.009959967 -0.07184481 0.037584566 -0.05824459 0.11903899 0.1655303
0.010196028 -0.5354961 0.04734895 0.26628724 -0.3031105 -0.3005475 0.08814388 0.08812548
0.053205103 -0.21929811 -0.16772471 0.16877295 -0.056162633 -0.055489648 -0.2829239 0.2655905
0.072136894 -0.3380663 -0.19417053 -0.12678117 0.19873238 0.08210915 -0.11833588 0.18003201
0.14910035 -0.06642936 -0.21729045 0.4349555 -0.44365522 0.05754404 0.10878956 0.14629741
0.09050801 0.1820441 0.32989636 0.15350558 -0.093278676 0.3140274 -0.18796849 0.051167116
0.098473236 0.1254305 0.38142768 -0.003574747 0.51668906 -0.4400658 0.23923892 0.07787474
-0.19648968 0.20062618 -0.02032693 -0.17108394 -0.06362604 -0.1724779 -0.04573154 -0.021670554
0.07832837 0.525552 0.29287383 -0.04050738 -0.13762341 -0.38094062 0.27167836 -0.03485739
-0.07201927 -0.40296385 0.04602349 0.5152795 0.2646322 -0.16313328 0.3408617 -0.18507627
0.37372723 -0.17657931 0.097704574 0.12670973 0.15085784 0.36957505 -0.072590515 -0.319802
0.13447529 -0.26517698 0.029540835 0.25429642 0.092417285 -0.07754209 0.2901644 0.020801432
-0.21094856 0.3265587 -0.14516392 0.06870407 -0.22874127 -0.08130918 -0.11107259 0.14995529
-0.4176341 0.71915776 0.05709823 0.022480475 0.04942751 -0.062560864 0.03401909 0.03459101
-0.0050789164 0.5355458 0.014819339 -0.30340067 0.10877106 1.0321456 0.004073479 0.01491151
-0.11654144 -0.058139242 -0.29892236 0.19898178 0.30939037 -0.25387913 -0.092171766 0.19037269
0.18460445 0.582922 0.20641188 -0.04613048 0.0650096 0.03211235 -0.24179496 -0.19395654
-0.22078991 0.22348958 -0.18042432 0.13514523 0.24441472 -0.08102031 -0.31278694 -0.0847549
-0.23108095 0.14193779 0.64801425 -0.17407042 0.078967765 -0.37301028 0.042058308 -0.1362981
0.004256375 0.16941845 0.26616433 0.251432 -0.043347564 -0.114836425 -0.013513735 0.35835335
-0.32807893 -0.10017722 0.023063522 0.122743316 0.0064680185 -0.20974928 -0.36208135 -0.073212445
-0.07186973 -0.12726124 0.07502514 -0.27056262 0.10769581 -0.38170674 -0.4090673 0.041330505
-0.12862667 0.06292057 -0.66320086 0.03390434 0.23066558 0.343197 -0.45218176 0.19413553
-0.25647503 -0.2599418 0.43858135 0.5690676 0.21838084 0.014584332 -0.104478516 -0.3345998
-0.23573348 -0.35856533 0.10297124 0.3587947 -0.24124411 -0.3306307 0.012305309 -0.035336804
-0.3218435 0.09135921 -0.04399469 0.25601315 -0.022658745 0.18428098 0.08005038 -0.018529704
0.0871973 0.05307128 0.008681875 -0.10533967 0.03472089 0.22298461 0.44337362 0.09959241
0.054155637 -0.0409819 0.09425125 0.21133128 -0.35708597 0.03241139 -0.09176708 -0.1490352
0.030167827 -0.23005909 -0.03033888 -0.19231236 -0.009008248 -0.33431652 0.22604278 0.09807181
-0.027728593 0.11497464 0.16705345 -0.34168157 0.15960446 0.16992538 0.21718077 0.062547915
0.35705635 0.22209625 -0.029942105 0.12802179 0.119597405 0.01796805 0.057702582 0.033709735
00000000: 90a1 b03e e9e7 0abd 6850 e9bc 2aac 2b3d
00000010: 716e e73e fb0e dabe 8051 6dbd b830 463c
00000020: dc80 88bd 53c1 42be 212f 23bc 5f23 93bd
00000030: 46f2 193d e191 6ebd b7ca f33d c680 293e
00000040: 3e0d 273c 4616 09bf f9f0 413d cd56 883e
00000050: 4d31 9bbe 5de1 99be c784 b43d 227b b43d
00000060: 98ed 593d af8f 60be 07c0 2bbe d1d2 2c3e
00000070: ca0a 66bd 1d49 63bd 67db 90be 7afb 873e
00000080: 82bc 933d 0717 adbe a4d4 46be ecd2 01be
00000090: 8080 4b3e d828 a83d 155a f2bd 505a 383e
000000a0: c3ad 183e 1e0c 88bd 6381 5ebe 7db2 de3e
000000b0: c726 e3be 4db3 6b3d 10cd de3d fdce 153e
000000c0: 435c b93d c569 3a3e 2de8 a83e 9130 1d3e
000000d0: e408 bfbd 33c8 a03e d07a 40be 9c94 513d
000000e0: 56ac c93d da70 003e 7d4a c33e 4d46 6abb
000000f0: bc45 043f 4e50 e1be 0cfb 743e cb7c 9f3d
00000100: 9734 49be f370 4d3e a984 a6bc a130 2fbe
00000110: 5f4e 82bd 0c9e 30be ff50 3bbd 7286 b1bc
00000120: a06a a03d 938a 063f 8ff3 953e 11eb 25bd
00000130: 27ed 0cbe a60a c3be 6d19 8b3e 9fc6 0ebd
00000140: d77e 93bd 4751 cebe 2183 3c3d 5be9 033f
00000150: df7d 873e 690c 27be 6d85 ae3e a284 3dbe
00000160: 2d59 bf3e 35d1 34be 5619 c83d 32c0 013e
00000170: 7a7a 1a3e f138 bd3e 56aa 94bd 16bd a3be
00000180: e4b3 093e 47c5 87be 9fff f13c 2433 823e
00000190: 4645 bd3d 63ce 9ebd 6e90 943e c467 aa3c
000001a0: e602 58be b432 a73e daa5 14be b8b4 8c3d
000001b0: 273b 6abe 6d85 a6bd 077a e3bd e18d 193e
000001c0: 23d4 d5be b91a 383f d5df 693d f928 b83c
000001d0: 8074 4a3d e91f 80bd 9a57 0b3d 4eaf 0d3d
000001e0: 0a6d a6bb 8819 093f d0cc 723c 5557 9bbe
000001f0: 5dc3 de3d 591d 843f d27a 853b 684f 743c
00000200: 47ad eebd 6a23 6ebd 5a0c 99be e1c1 4b3e
00000210: 6a68 9e3e 72fc 81be 8dc4 bcbd 0ff1 423e
00000220: f308 3d3e 603a 153f a35d 533e 50f3 3cbd
00000230: c123 853d 3d88 033d 1999 77be 8b9c 46be
00000240: c016 62be 74da 643e 27c1 38be 8363 0a3e
00000250: da47 7a3e faed a5bd 9c25 a0be fa93 adbd
00000260: 7ca0 6cbe 2458 113e 43e4 253f 843f 32be
00000270: dab9 a13d 34fb bebe 5545 2c3d bb91 0bbe
00000280: 1079 8b3b 087c 2d3e b146 883e b2bb 803e
00000290: 378d 31bd 5c2f ebbd b668 5dbc 177a b73e
000002a0: f6f9 a7be b729 cdbd b6ef bc3c d960 fb3d
000002b0: acf1 d33b 84c8 56be ba62 b9be 68f0 95bd
000002c0: 7030 93bd c550 02be c8a6 993d 2f87 8abe
000002d0: 9f8f dc3d 116f c3be 4571 d1be 2d4a 293d
000002e0: b6b6 03be 80dc 803d 88c7 29bf 47df 0a3d
000002f0: 9933 6c3e 84b7 af3e 5e84 e7be 77cb 463e
00000300: b250 83be 1717 85be bc8d e03e 6aae 113f
00000310: 3a9f 5f3e 1ff3 6e3c d5f8 d5bd aa50 abbe
00000320: 1e64 71be e095 b7be 96e2 d23d f0b3 b73e
00000330: b208 77be 6d48 a9be 359c 493c 53bd 10bd
00000340: acc8 a4be 8a1a bb3d c733 34bd 2814 833e
00000350: d59e b9bc 27b4 3c3e 74f1 a33d 9bcb 97bc
00000360: 7f94 b23d 4561 593d 6c3e 0e3c 53bc d7bd
00000370: 7e37 0e3d 1456 643e de01 e33e 1bf7 cb3d
00000380: 4dd2 5d3d a3dc 27bd cd06 c13d 3a67 583e
00000390: f9d3 b6be cec1 043d 61f0 bbbd af9c 18be
000003a0: 8522 f73c 9c94 6bbe 3e89 f8bc 88ed 44be
000003b0: 5597 13bc 892b abbe c277 673e e0d9 c83d
000003c0: 1327 e3bc d377 eb3d 0f10 2b3e e3f0 aebe
000003d0: 5a6f 233e eb00 2e3e a364 5e3e 1f19 803d
000003e0: 17d0 b63e 336d 633e 2549 f5bc 2518 033e
000003f0: 7cef f43d bb31 933c 8b59 6c3d 3813 0a3d

mlp_extractor.policy_net.0.bias f4 [32]
-0.065919936 -0.032567758 0.19192973 -0.17944899 -0.05222243 0.07427017 -0.039074793 -0.010556401
-0.059398845 -0.23486835 -0.19698626 0.0030831706 0.03379392 -0.108502075 -0.084635384 0.20268968
0.041732706 0.09785385 0.03413726 0.04195615 -0.2761404 -0.011087923 -0.057063986 0.016915562
0.18354872 0.018741885 -0.034492634 -0.074843496 -0.03128413 -0.012085716 0.06182412 -0.06666797
00000000: 0801 87bd c565 05bd 3a89 443e 7ac1 37be
00000010: 30e7 55bd f51a 983d e40c 20bd c1f4 2cbc
00000020: 344c 73bd 5481 70be c4b6 49be 050f 4a3b
00000030: 7e6b 0a3d 5636 debd 5155 adbd e28d 4f3e
00000040: eaef 2a3d 9967 c83d 83d3 0b3d 36da 2b3d
00000050: 4662 8dbe 1faa 35bc edbb 69bd 8192 8a3c
00000060: 32f4 3b3e 9588 993c 2648 0dbd 8c47 99bd
00000070: ca23 00bd 2b03 46bc 4a3b 7d3d 3789 88bd

mlp_extractor.policy_net.2.weight f4 [32, 32]
0.104393296 -0.17330018 0.18184258 0.5562814 0.24919356 -0.27202296 -0.22542638 0.47240508
0.23706117 -0.1850245 0.5330526 -0.5961457 0.21600913 -0.12487549 -0.023350405 0.12240857
-0.59040666 -0.43275392 0.41300634 -0.35344246 -0.35311797 0.71424806 -0.30828646 -0.53293455
-0.00022309435 -0.5116165 -0.11669728 -0.6988067 -0.5737602 -0.50473905 0.26145172 -0.027136173
0.19336836 -0.1707052 0.10438319 0.20205149 -0.34625292 -0.506137 0.6708137 -0.0071190596
0.14630692 0.65929115 0.15120889 0.18657534 -0.33663973 -0.24488789 -0.4422129 -0.15237364
0.095941074 -0.060737424 0.24389407 -0.28771758 0.5141024 0.27030614 1.126631 0.028857114
-0.23100778 -0.47944707 -0.28167826 0.5628075 0.7451956 0.679397 -0.020095028 0.14447176
0.111927226 0.07704692 1.2228266 -0.08713644 -0.59086174 0.35418424 0.4861512 -0.23904818
0.1801111 -0.8182669 -0.15351461 -0.14331537 -0.449861 -0.032287665 0.15466249 0.31647936
0.3846952 -0.22353439 0.6320747 0.6956968 0.1277739 -0.3715409 -0.5593569 -0.05265017
0.06994665 0.36499262 -0.062055144 0.3423535 -0.32664952 0.3173587 0.078378506 -0.63986677
0.4476184 -0.20993473 -0.18391761 -0.34110174 -0.17207561 -0.024751209 -0.0022581636 -0.4612258
0.70695037 0.47995648 0.36041227 0.07081146 -0.30567524 -0.33925918 -0.01946004 -0.095905006
0.12899351 0.11019856 -0.048794705 -0.044405304 1.057642 0.72054994 0.8310616 0.5518605
0.06200684 -0.42610452 0.44802645 0.20408759 0.5403051 0.9030556 0.06451236 -0.14353044
-0.46514285 -0.27326444 -0.23333292 0.14902005 0.92551506 0.41052195 -0.064779714 0.18939704
-0.33526158 -0.15319256 0.07861028 0.29121888 -0.13221669 0.25007287 -0.118413866 -0.28040195
0.44469947 -0.7840911 -0.8192203 0.37236685 -0.049399264 -0.64320433 -0.17714702 -0.343799
-0.5530469 -0.09408097 -0.09248387 0.42703867 -0.6853058 -0.18364538 -0.2364796 0.010217835
-0.7286959 0.4322907 -0.06267781 0.030700538 0.82725334 0.26456907 -0.13453303 -0.17201348
0.18358213 0.19656649 0.005944824 -0.21330759 0.0984623 -0.11656687 0.25386745 0.09373023
-0.83375126 -0.17322674 -0.36498213 -0.310447 -0.10340827 0.20952135 0.20607038 -0.5774291
-0.35128063 -0.48542193 0.103609905 -0.19101441 0.07763814 0.26545396 0.7339804 -0.2083214
-0.25774628 0.19529466 0.12368103 -0.036790684 -0.04970926 0.2705517 0.05120008 0.89048964
0.6003102 0.14067322 -0.26982516 0.5941415 0.2456635 -0.35247904 0.8227069 -0.014385614
-0.7950177 -0.41608506 -0.38057813 -0.30599755 0.17621067 0.3330475 -0.335876 -0.35844222
-0.10566315 -0.51256555 0.086352356 0.023034368 0.45646527 0.15104681 0.30107385 0.13954106
0.47475746 -0.5559448 0.49013445 -0.12862699 -0.8167629 -0.10341901 0.15795162 0.2100253
-0.0928015 0.16008303 -0.36350164 -0.7106339 0.6068421 -0.36119807 0.112547785 -0.25698498
-0.0657316 0.15837127 0.2266416 -0.30584267 0.24107276 0.63826674 0.16209923 0.2826055
0.16431679 -0.27925682 0.24435848 -0.36307293 0.76000196 0.75311863 0.052314278 -0.2340291
00000000: 27cc d53d 9a75 31be f134 3a3e 7568 0e3f
00000010: 992c 7f3e 9846 8bbe 2cd6 66be 14df f13e
00000020: 2ac0 723e 1077 3dbe 2376 083f 019d 18bf
00000030: 7f31 5d3e b9be ffbd 5949 bfbc 58b1 fa3d
00000040: e424 17bf ec91 ddbe 9175 d33e 69f6 b4be
00000050: e1cb b4be f6d8 363f b9d7 9dbe 666e 08bf
00000060: 6fee 69b9 4df9 02bf fcfe eebd ffe4 32bf
00000070: f3e1 12bf 9436 01bf 00dd 853e ae4c debc
00000080: 5b02 463e 58cd 2ebe dbc6 d53d 96e6 4e3e
00000090: 1048 b1be 3292 01bf 72ba 2b3f 0047 e9bb
000000a0: 7bd1 153e 4ec7 283f 81d6 1a3e 9b0d 3f3e
000000b0: 0b5c acbe e4c3 7abe bb69 e2be d607 1cbe
000000c0: c17c c43d cec7 78bd 5ebf 793e b84f 93be
000000d0: 379c 033f 9165 8a3e 7235 903f c165 ec3c
000000e0: 4e8d 6cbe 167a f5be 2238 90be 2714 103f
000000f0: 24c5 3e3f f6ec 2d3f 549e a4bc 68f0 133e
00000100: 1a3a e53d c7ca 9d3d 9585 9c3f 9774 b2bd
00000110: b742 17bf a357 b53e cfe8 f83e 0cc9 74be
00000120: 0b6f 383e f179 51bf ef32 1dbe 44c1 12be
00000130: 2e54 e6be 1240 04bd d85f 1e3e 9509 a23e
00000140: c5f6 c43e 33e6 64be a6cf 213f 2f19 323f
00000150: 29d7 023e 9c3a bebe 0432 0fbf b4a7 57bd
00000160: 3040 8f3d 50e0 ba3e 892d 7ebd f548 af3e
00000170: 9b3e a7be d77c a23e e984 a03d 4fce 23bf
00000180: 3d2e e53e 21f9 56be e654 3cbe e3a4 aebe
00000190: 9734 30be 0cc3 cabc b3fd 13bb ca25 ecbe
000001a0: b3fa 343f dbbc f53e f587 b83e 9905 913d
000001b0: 7781 9cbe 61b3 adbe a96a 9fbc d869 c4bd
000001c0: e016 043e c8af e13d f5dc 47bd 56e2 35bd
000001d0: d060 873f f675 383f 74c0 543f bb46 0d3f
000001e0: e2fa 7d3d 5f2a dabe b963 e53e 56fc 503e
000001f0: 6f51 0a3f a72e 673f 0e1f 843d a5f9 12be
00000200: 3427 eebe 51e9 8bbe d3ee 6ebe b698 183e
00000210: 8eee 6c3f ef2f d23e 3aab 84bd 4cf1 413e
00000220: 68a7 abbe 83de 1cbe 6dfe a03d a41a 953e
00000230: d063 07be 8d09 803e f882 f2bd d890 8fbe
00000240: a6af e33e 32ba 48bf 6cb8 51bf dea6 be3e
00000250: e256 4abd 0aa9 24bf 0766 35be 6c06 b0be
00000260: 7b94 0dbf 86ad c0bd 2f68 bdbd d0a4 da3e
00000270: 3370 2fbf 890d 3cbe b527 72be b568 273c
00000280: d18b 3abf 3555 dd3e 395d 80bd b27f fb3c
00000290: e0c6 533f 9975 873e 07c3 09be 4d24 30be
000002a0: f4fc 3b3e ba48 493e cccc c23b 4e6d 5abe
000002b0: 9aa6 c93d 9cba eebd eafa 813e a3f5 bf3d
000002c0: b970 55bf 5a62 31be f0de babe e9f2 9ebe
000002d0: b7c7 d3bd c48c 563e 1d04 533e 65d2 13bf
000002e0: 0edb b3be 3989 f8be 6e31 d43d 4899 43be
000002f0: bf00 9f3d 95e9 873e 24e6 3b3f 3552 55be
00000300: 52f7 83be 53fb 473e 7b4c fd3d d4b1 16bd
00000310: f09b 4bbd c185 8a3e 2db7 513d 21f7 633f
00000320: eead 193f a40c 103e 8626 8abe a819 183f
00000330: 368f 7b3e 2278 b4be eb9c 523f a3b1 6bbc
00000340: 4886 4bbf 1a09 d5be 23db c2be b6ab 9cbe
00000350: 9270 343e 3485 aa3e f0f7 abbe bd85 b7be
00000360: ec65 d8bd 7f37 03bf 81d9 b03d 92b2 bc3c
00000370: d1b5 e93e 04ac 1a3e 5a26 9a3e dae3 0e3e
00000380: 6913 f33e 6652 0ebf e7f2 fa3e cbb6 03be
00000390: 6017 51bf 59cd d3bd 12be 213e df10 573e
000003a0: b60e bebd ceec 233e e31c babe 1aec 35bf
000003b0: 015a 1b3f f4ee b8be 747f e63d 8993 83be
000003c0: 4a9e 86bd 142c 223e bc14 683e 6997 9cbe
000003d0: c7db 763e 7365 233f 57fd 253e abb1 903e
000003e0: a942 283e c0fa 8ebe 1c39 7a3e b2e4 b9be
000003f0: 7d8f 423f 62cc 403f 7f47 563d 53a5 6fbe

mlp_extractor.policy_net.2.bias f4 [32]
0.057870973 -0.0987466 0.03669495 0.14295004 -0.016048856 -0.09083258 0.04815858 0.0864679
0.37654966 0.30636495 0.07795909 0.0852974 0.20117399 -0.13387135 0.059472896 0.009711248
-0.14121494 -0.073704444 -0.053641386 0.22626638 0.073237814 0.20729856 0.11357082 0.06692334
0.058461916 -0.23641531 0.042373978 0.020461613 -0.101075605 -0.10773057 -0.14426081 0.023595715
00000000: 1d0a 6d3d a83b cabd 724d 163d 7f61 123e
00000010: e478 83bc 6f06 babd ee41 453d 1516 b13d
00000020: 1ecb c03e dedb 9c3e 04a9 9f3d 67b0 ae3d
00000030: 8e00 4e3e 9215 09be da99 733d ed1b 1f3c
00000040: a69a 10be 5bf2 96bd 12b7 5bbd 60b2 673e
00000050: b5fd 953d 1346 543e d197 e83d 1b0f 893d
00000060: c375 6f3d db16 72be 5690 2d3d 1d9f a73c
00000070: ba00 cfbd d8a1 dcbd 1bb9 13be cd4b c13c

mlp_extractor.value_net.0.weight f4 [32, 81]
-0.06624271 -0.15425697 -0.063799836 -0.19141747 0.17122835 0.007718388 0.19200285 -0.19867407
-0.021723898 0.10074477 -0.14794159 0.0106604 -0.028828133 0.21812557 -0.07412939 -0.026027154
-0.16420862 0.3331813 0.035084646 -0.006560882 -0.17100203 -0.03251519 0.25265932 0.0645594
0.019077769 -0.14159806 -0.1940315 0.09151891 -0.19136557 0.09821109 -0.18330358 -0.04945962
0.095462725 0.09946456 -0.15823434 0.014341772 0.16012426 0.3536018 -0.32384568 -0.20138142
0.078701004 0.016066277 0.15989819 0.30576432 0.022238292 0.27848005 0.011728323 -0.20361935
0.099834375 -0.16189155 0.0132652195 -0.24474615 0.011578865 -0.26813897 -0.22359288 -0.082803585
-0.098413 -0.119311154 0.060646564 -0.07409454 0.083943285 -0.15788634 0.063897766 0.40725556
-0.040300187 -0.28421316 0.13588189 -0.08076403 -0.08702864 0.028309233 0.2361202 -0.08389068
-0.011333429 0.1000539 -0.14964564 0.07830052 0.07876275 0.0704681 0.07135965 -0.24435511
0.11422331 0.017749373 0.27211237 0.15034978 -0.08357386 0.05069579 0.11580775 -0.009252804
-0.06861159 -0.076675996 0.0869592 0.06193729 -0.051379114 -0.0131493835 -0.045632802 0.26178673
-0.055479623 -0.17440127 0.012588553 0.25025436 -0.111551814 0.12141591 0.2505165 0.10560243
0.14030977 -0.10542668 -0.07077461 -0.09221944 0.04500893 0.027351653 -0.0036591182 0.15088944
0.19819209 -0.016562589 -0.07714288 0.060590558 -0.06723017 0.34487757 0.16323471 0.2028289
-0.09599617 -0.174837 0.1099018 -0.106671505 -0.28642836 0.004088026 -0.14964126 0.2723055
0.119810015 -0.021748388 -0.07831988 0.053844806 -0.16290553 -0.23969239 -0.22495927 -0.21232975
0.09072776 -0.26674253 0.2510033 -0.15011005 -0.082026 0.22059418 0.07180234 -0.09040495
-0.080227554 -0.06615343 -0.1412622 -0.23127773 -0.014524798 -0.08596171 -0.06345114 -0.2448424
-0.13874103 0.29384822 0.12991644 0.20631105 -0.062995166 0.013673124 0.21434878 -0.33598247
-0.32508418 0.09136626 0.09758075 -0.020128708 0.1599843 -0.19096786 0.26017946 -0.0065320306
0.11210776 0.1301465 0.1588263 -0.06196441 0.04414909 -0.3073546 -0.11386415 -0.091955416
-0.10821603 -0.18166716 -0.030192582 0.10179716 -0.0023707054 0.068027884 0.035870854 -0.1266635
-0.1342231 0.01732809 0.0047953543 0.24100703 -0.07675887 0.055839896 -0.18862462 0.34777805
-0.2659238 -0.115074806 0.14053832 0.25564897 -0.24861367 -0.023988897 -0.06186906 0.24029548
0.30292815 -0.19472495 -0.21570316 0.07399352 0.1307613 -0.3293026 0.19637926 0.23751609
-0.18338606 -0.14443624 0.28869602 -0.101004876 0.10161078 0.18272942 -0.04623577 0.24329893
0.07764319 -0.09453337 -0.19320354 -0.054961953 0.113135144 0.050785556 -0.07351201 -0.1097796
0.080101535 -0.30333742 -0.0007575281 -0.010086227 -0.032288373 -0.13549499 0.072006255 0.09915379
-0.069923714 -0.029998638 0.28092924 -0.112536035 0.08437876 -0.24243857 -0.07025153 -0.10896411
-0.06887992 0.09686822 -0.018345341 -0.44043165 0.34139538 0.09700954 -0.4160913 -0.18489188
-0.13544686 0.014987637 -0.10734938 -0.26737097 0.07767654 0.015159568 0.13058423 0.111496165
00000000: 42aa 87bd 8af5 1dbe 7da9 82bd f102 44be
00000010: 7c56 2f3e 88ea fc3b 659c 443e 3771 4bbe
00000020: 51f6 b1bc 4653 ce3d 007e 17be f5a8 2e3c
00000030: fa28 ecbc 4f5c 5f3e 26d1 97bd e636 d5bc
00000040: 4e26 28be bd96 aa3e ebb4 0f3d abfc d6bb
00000050: 281b 2fbe a62e 05bd 905c 813e b837 843d
00000060: fb48 9c3c 15ff 10be 32b0 46be 446e bb3d
00000070: 56f5 43be e522 c93d efb3 3bbe 2c96 4abd
00000080: f681 c33d 13b4 cb3d 2f08 22be c0f9 6a3c
00000090: 9df7 233e 4c0b b53e 1acf a5be ee36 4ebe
000000a0: fe2d a13d 6d9d 833c 5abc 233e 248d 9c3e
000000b0: 142d b63c f094 8e3e 2728 403c 9781 50be
000000c0: f775 cc3d e6c6 25be 5d56 593c bc9e 7abe
000000d0: 48b5 3d3c 8349 89be 88f5 64be ed94 a9bd
000000e0: c18c c9bd 6859 f4bd 8868 783d e1be 97bd
000000f0: 75ea ab3d f5ac 21be d5dc 823d cd83 d03e
00000100: cf11 25bd 6384 91be 9f24 0b3e 9d67 a5bd
00000110: 123c b2bd c4e8 e73c 7ec9 713e e0ce abbd
00000120: d9af 39bc 0fe9 cc3d b53c 19be 065c a03d
00000130: 5d4e a13d 9451 903d 0225 923d 3a38 7abe
00000140: e9ed e93d 2267 913c 5052 8b3e 4bf5 193e
00000150: c628 abbd 64a6 4f3d 9d2c ed3d 1399 17bc
00000160: 3c84 8cbd 4e08 9dbd aa17 b23d f5b1 7d3d
00000170: e872 52bd 8370 57bc 76e9 3abd e908 863e
00000180: 9a3e 63bd 3f96 32be 3840 4e3c 5721 803e
00000190: 4775 e4bd e8a8 f83d b343 803e 1646 d83d
000001a0: 5dad 0f3e f1e9 d7bd 47f2 90bd 8cdd bcbd
000001b0: 495b 383d 9310 e03c d1cd 6fbb c382 1a3e
000001c0: def2 4a3e 44ae 87bc 16fd 9dbd ce2d 783d
000001d0: f9af 89bd cb93 b03e 0027 273e 61b2 4f3e
000001e0: a499 c4bd 7808 33be 3214 e13d 9776 dabd
000001f0: bda6 92be d9f4 853b 8f3b 19be a06b 8b3e
00000200: f45e f53d ad29 b2bc 2c66 a0bd 5f8c 5c3d
00000210: b5d0 26be ec71 75be b95b 66be f86c 59be
00000220: 7acf b93d 7a92 88be 8183 803e 73b6 19be
00000230: 3ffd a7bd 71e3 613e 1b0d 933d 3b26 b9bd
00000240: 584e a4bd 737b 87bd 0aa7 10be 12d4 6cbe
00000250: 6bf9 6dbc b10c b0bd acf2 81bd f7b7 7abe
00000260: 2112 0ebe 4673 963e d108 053e 3443 533e
00000270: 9c03 81bd 3d05 603c 3f7e 5b3e e505 acbe
00000280: 6f71 a6be 3c1e bb3d 6bd8 c73d f6e4 a4bc
00000290: edd2 233e 148d 43be 3e36 853e a50a d6bb
000002a0: c198 e53d 2045 053e 5da3 223e 65ce 7dbd
000002b0: add5 343d 955d 9dbe 9c31 e9bd 1f53 bcbd
000002c0: 5ea0 ddbd f506 3abe 6f56 f7bc 087b d03d
000002d0: d65d 1bbb 3452 8b3d 51ed 123d 14b4 01be
000002e0: c871 09be a3f3 8d3c 5922 9d3b 8cca 763e
000002f0: c133 9dbd 60b8 643d d026 41be f70f b23e
00000300: 2a27 88be 57ac ebbd 47e9 0f3e 6ce4 823e
00000310: 9594 7ebe 5d84 c4bc 696a 7dbd 0510 763e
00000320: 6619 9b3e fa65 47be 4ae1 5cbe ea89 973d
00000330: 4ae6 053e 5a9a a8be a517 493e 6b37 733e
00000340: 8ec9 3bbe 18e7 13be f7cf 933e a5db cebd
00000350: 5019 d03d 6c1d 3b3e b861 3dbd 5b23 793e
00000360: 6503 9f3d b69a c1bd 26d7 45be c91f 61bd
00000370: 66b3 e73d 8404 503d 778d 96bd 20d4 e0bd
00000380: 460c a43d 0b4f 9bbe da94 46ba b440 25bc
00000390: d040 04bd 33bf 0abe 0478 933d 2411 cb3d
000003a0: 2a34 8fbd b4bf f5bc f5d5 8f3e 4b79 e6bd
000003b0: c5ce ac3d d141 78be 09e0 8fbd 9328 dfbd
000003c0: ea10 8dbd d862 c63d f848 96bc 4280 e1be
000003d0: 60cb ae3e f0ac c63d eb09 d5be 4c54 3dbe
000003e0: 95b2 0abe b58e 753c fed9 dbbd d9e4 88be
000003f0: e114 9f3d d65f 783c dfb7 053e 1a58 e43d

mlp_extractor.value_net.0.bias f4 [32]
0.0 0.0 0.0 0.0 0.0 0.0 0.0 0.0
0.0 0.0 0.0 0.0 0.0 0.0 0.0 0.0
0.0 0.0 0.0 0.0 0.0 0.0 0.0 0.0
0.0 0.0 0.0 0.0 0.0 0.0 0.0 0.0
00000000: 0000 0000 0000 0000 0000 0000 0000 0000
00000010: 0000 0000 0000 0000 0000 0000 0000 0000
00000020: 0000 0000 0000 0000 0000 0000 0000 0000
00000030: 0000 0000 0000 0000 0000 0000 0000 0000
00000040: 0000 0000 0000 0000 0000 0000 0000 0000
00000050: 0000 0000 0000 0000 0000 0000 0000 0000
00000060: 0000 0000 0000 0000 0000 0000 0000 0000
00000070: 0000 0000 0000 0000 0000 0000 0000 0000

mlp_extractor.value_net.2.weight f4 [32, 32]
0.090842135 0.29261038 0.17816219 0.43575874 0.40780523 -0.25669387 -0.035818033 -0.05538122
0.093491055 -0.1441835 0.32393917 -0.41190666 0.051347777 0.3755087 -0.3995487 0.4016725
0.27103972 -0.13843206 -0.012057279 0.09764639 0.37019074 -0.1319277 0.019039989 -0.34101653
0.032234035 -0.2946779 -0.26675597 0.014713935 0.1869709 -0.03083275 0.30058262 -0.1424106
-0.12740256 0.469515 0.16107093 -0.0024936306 -0.3273685 -0.013212002 0.32007235 0.1967932
-0.271547 0.19124067 -0.20667093 -0.33520564 0.23611064 -0.03186927 0.028448517 0.25988653
0.21636134 -0.048617654 -0.14854881 -0.072148524 -0.38675988 0.17114809 0.39962777 -0.27819514
-0.36494535 -0.2654846 0.42472818 0.026087474 -0.023517739 -0.35708526 -0.09281523 0.29071817
0.10754658 -0.014945442 0.04099834 0.2400115 -0.1043177 0.01241003 0.41178426 0.11414013
0.10739725 -0.022541659 0.36232784 0.3584174 -0.21021156 0.040224377 -0.08852661 -0.2503487
-0.51745653 0.18003422 -0.26259425 -0.38164267 -0.28671056 -0.520174 0.13968368 -0.20221908
-0.21741422 -0.255391 0.094182976 0.15159741 -0.07677149 0.07837917 0.50582576 -0.083530545
0.33500966 0.2980199 -0.49414828 -0.10816266 -0.090813816 -0.16437434 0.18553881 0.3567249
0.1213941 0.1329985 0.027200492 0.48604617 0.4435306 0.19150725 -0.15982302 0.027931103
0.49006686 0.11013412 -0.013047454 -0.20253341 0.12013756 -0.4127075 -0.076515034 -0.10426316
0.15919478 0.19488494 -0.09247122 -0.35446733 -0.2355588 -0.012707474 -0.2515645 0.07468177
-0.32766914 0.1291781 0.001354425 0.23981811 -0.42703444 0.33079737 -0.1917343 -0.51806736
0.08233262 -0.16785417 0.06637587 0.40656987 0.24556392 0.122938216 -0.011040112 0.059210025
0.14301652 -0.053937033 -0.009050601 0.1632311 -0.101064056 -0.22071557 0.38512364 -0.040899836
-0.23698474 -0.018711172 -0.38728195 0.12105819 0.43629396 0.386297 -0.2594933 0.225184
-0.25517228 -0.10163556 -0.14807904 0.2904551 0.4102899 0.045352872 -0.15406466 0.036675215
-0.29375827 -0.24463078 0.20865001 -0.10836119 -0.08515336 -0.25463152 0.12822369 -0.098461635
0.27644265 -0.15991685 0.24922523 0.026470602 0.06590993 -0.50768846 0.15534307 -0.053751186
0.03550269 0.28567833 0.71538 -0.021701915 -0.085208096 0.29128793 0.048134115 0.4239009
-0.2206724 -0.04583506 -0.1694211 0.045480035 0.061965074 0.33590838 -0.07312839 0.0044323853
0.2967151 -0.020913301 -0.24171485 -0.3339567 0.018604869 0.21293156 0.20146099 0.124123506
-0.31070855 -0.23460959 0.23835623 -0.4352078 0.06627667 -0.17476511 -0.33154622 -0.047448024
-0.19852343 -0.25238672 -0.382549 -0.22853342 -0.41026756 -0.061292402 0.0064851884 0.64619595
-0.14479773 -0.01827473 -0.33281118 0.0481563 0.20494162 0.14709717 -0.026369309 0.33929294
0.10254546 0.08990431 0.32869732 -0.015448838 -0.03492337 -0.059222374 0.6613437 0.38024595
-0.03514958 -0.35198116 -0.14248078 -0.0907803 0.08446586 -0.20720258 0.23068902 0.1754759
-0.24889621 0.095572695 -0.1603434 0.34827718 0.07465842 -0.3369315 -0.2960166 -0.50993866
00000000: 710b ba3d 07d1 953e 2670 363e c51b df3e
00000010: d9cb d03e 616d 83be eeb5 12bd 6bd7 62bd
00000020: 3d78 bf3d d7a4 13be 5bdb a53e 6ee5 d2be
00000030: 0c52 523d ad42 c03e a691 ccbe 05a8 cd3e
00000040: b8c5 8a3e 22c1 0dbe e58b 45bc d5fa c73d
00000050: a489 bd3e 0e18 07be c0f9 9b3c b899 aebe
00000060: d607 043d 06e0 96be 3d94 88be b712 713c
00000070: 4d75 3f3e f794 fcbc f7e5 993e 16d4 11be
00000080: d175 02be 4564 f03e c7ef 243e 2e6c 23bb
00000090: d89c a7be 2777 58bc 86e0 a33e 2884 493e
000000a0: 3508 8bbe 98d4 433e 8ba1 53be 13a0 abbe
000000b0: fdc6 713e 5a89 02bd dd0c e93c d90f 853e
000000c0: d48d 5d3e 4e23 47bd 2e1d 18be 9bc2 93bd
000000d0: 6405 c6be 7241 2f3e 039c cc3e 986f 8ebe
000000e0: 1eda babe 99ed 87be f975 d93e 66b5 d53c
000000f0: 46a8 c0bc e1d3 b6be e915 bebd 03d9 943e
00000100: 6241 dc3d badd 74bc e0ed 273d 93c5 753e
00000110: 85a4 d5bd 7053 4b3c 63d5 d23e 4dc2 e93d
00000120: 17f3 db3d 49a9 b8bc 0983 b93e 7c82 b73e
00000130: b341 57be 51c2 243d 704d b5bd b42d 80be
00000140: 0878 04bf e45a 383e c172 86be ab66 c3be
00000150: bacb 92be 202a 05bf 3d09 0f3e 8512 4fbe
00000160: d5a1 5ebe 9cc2 82be 01e3 c03d 5a3c 1b3e
00000170: 5f3a 9dbd 4285 a03d cc7d 013f 1012 abbd
00000180: 6386 ab3e 1096 983e 0101 fdbe 6284 ddbd
00000190: 98fc b9bd bf51 28be e3fd 3d3e a5a4 b63e
000001a0: 789d f83d c230 083e 91d3 de3c 0bdb f83e
000001b0: 7116 e33e 7a1a 443e a5a8 23be c5cf e43c
000001c0: 0bea fa3e ff8d e13d fdc4 55bc eb64 4fbe
000001d0: ae0a f63d 664e d3be eab3 9cbd ec87 d5bd
000001e0: f503 233e eb8f 473e 8d61 bdbd be7c b5be
000001f0: 5336 71be 0233 50bc 10cd 80be c1f2 983d
00000200: 40c4 a7be 4447 043e f686 b13a e192 753e
00000210: 42a4 dabe 465e a93e ff55 44be 10a0 04bf
00000220: 019e a83d f7e1 2bbe 12f0 873d ed29 d03e
00000230: 1c75 7b3e 08c7 fb3d 96e1 34bc 3686 723d
00000240: ec72 123e 14ed 5cbd f948 14bc 0e26 273e
00000250: acfa cebd 4303 62be ed2e c53e 9686 27bd
00000260: 21ac 72be 2c48 99bc d249 c6be 5bed f73d
00000270: ec61 df3e b8c8 c53e 4edc 84be a296 663e
00000280: f1a5 82be 4e26 d0bd 08a2 17be 88b6 943e
00000290: 8511 d23e efc3 393d 20c3 1dbe c038 163d
000002a0: 7c67 96be 7e80 7abe 59a8 553e 79ec ddbd
000002b0: e364 aebd 105f 82be 124d 033e 41a6 c9bd
000002c0: e489 8d3e 3ec1 23be e634 7f3e e0d8 d83c
000002d0: c9fb 863d dff7 01bf 4112 1f3e 342a 5cbd
000002e0: 456b 113d 6e44 923e 2523 373f 37c8 b1bc
000002f0: 9581 aebd b123 953e 4728 453d 8a09 d93e
00000300: f2f7 61be 8bbd 3bbd ba7c 2dbe 4649 3a3d
00000310: 17cf 7d3d 2ffc ab3e 56c4 95bd 8b3d 913b
00000320: 0beb 973e 5f52 abbc 1984 77be 5ffc aabe
00000330: 3d69 983c bb0a 5a3e ca4b 4e3e 7734 fe3d
00000340: 3115 9fbe 7f3d 70be a813 743e 8fd3 debe
00000350: 10bc 873d a0f5 32be 6dc0 a9be dc58 42bd
00000360: ba49 4bbe d538 81be 76dd c3be aa04 6abe
00000370: 970e d2be be0d 7bbd b481 d43b 196d 253f
00000380: db45 14be e3b4 95bc 3a66 aabe 8a3f 453d
00000390: 37dc 513e a4a0 163e 7304 d8bc ceb7 ad3e
000003a0: 5b03 d23d c01f b83d 044b a83e 1f1d 7dbc
000003b0: cf0b 0fbd 2993 72bd d24d 293f 99af c23e
000003c0: 02f9 0fbd e036 b4be 7be6 11be 06eb b9bd
000003d0: 70fc ac3d ea2c 54be be39 6c3e f4af 333e
000003e0: a6de 7ebe 9ebb c33d 0f31 24be 6351 b23e
000003f0: 84e6 983d 4982 acbe 7d8f 97be 578b 02bf

mlp_extractor.value_net.2.bias f4 [32]
0.0 0.0 0.0 0.0 0.0 0.0 0.0 0.0
0.0 0.0 0.0 0.0 0.0 0.0 0.0 0.0
0.0 0.0 0.0 0.0 0.0 0.0 0.0 0.0
0.0 0.0 0.0 0.0 0.0 0.0 0.0 0.0
00000000: 0000 0000 0000 0000 0000 0000 0000 0000
00000010: 0000 0000 0000 0000 0000 0000 0000 0000
00000020: 0000 0000 0000 0000 0000 0000 0000 0000
00000030: 0000 0000 0000 0000 0000 0000 0000 0000
00000040: 0000 0000 0000 0000 0000 0000 0000 0000
00000050: 0000 0000 0000 0000 0000 0000 0000 0000
00000060: 0000 0000 0000 0000 0000 0000 0000 0000
00000070: 0000 0000 0000 0000 0000 0000 0000 0000

action_net.weight f4 [5, 32]
0.2085618 -0.36467028 0.04425063 -0.48025072 0.28528997 0.19913611 0.34469524 -0.12599127
-0.48119512 -0.087574326 0.2725328 0.30282503 0.07442384 -0.03975894 -0.32847294 0.6335722
-0.42797384 -0.1118026 -0.45609227 -0.053412993 0.53817487 0.53401345 -0.5052251 -0.26150122
0.5035242 -0.28594184 0.3450202 -0.25463367 -0.47899938 0.5814428 -0.20867474 -0.12084819
0.9661471 -0.015135111 -0.79430735 0.07320989 -0.27777186 0.14068778 0.044508442 0.298225
0.17120652 0.24707854 -0.56129444 -0.8525357 -0.06311619 -0.019118462 -0.4513947 -0.7401501
-0.30990717 0.61337245 0.032264095 -0.6099436 -0.43566912 0.06477046 -0.25925258 0.32905093
0.12903239 0.9698704 0.029747244 -0.07849603 0.41522187 -0.21881892 0.32822344 -0.63397574
-0.46699277 0.58573556 0.26142153 0.34405452 -0.53197354 -0.17974366 -0.1019113 0.5928163
-0.26069084 -0.60869 0.31698313 0.5430335 0.3563701 0.5907611 0.15236454 0.0714977
-0.3666803 -0.19304012 0.23489872 0.45692682 -0.4278566 -0.44182903 0.46495372 0.40789878
-0.3249128 -0.6955676 -0.018641554 0.27208865 0.22679844 -0.3543745 0.112154596 -0.059981212
-0.4882398 -0.79316455 0.7821738 -0.553887 0.12515025 -0.14344414 -0.5204396 -0.7413099
0.41470656 0.39117303 0.51804876 -0.025441581 -0.0059216856 -0.46318 0.325992 -0.59332275
0.7514796 -0.6113636 0.35463345 0.21147898 0.56910735 0.22746241 0.65157175 -0.24979521
-0.20032437 0.21053591 -0.4678612 0.2834181 -0.5429915 0.41379526 -0.59178185 0.7642224
-0.25950822 0.34771496 -0.3130638 0.59165496 0.69533455 0.07444525 0.2472937 -0.64414704
-0.17301427 -0.2508567 -0.6929179 0.19888063 -0.52939826 0.121162 0.34626722 0.40071714
0.65031177 0.35031998 -0.19432084 0.40367556 -0.46080646 -0.5086828 -0.29921827 -0.2919258
-0.3946052 -0.22390507 0.24433146 -0.32168877 0.43455574 -0.32421193 0.29299116 0.61638606
00000000: 3991 553e 10b6 babe 2640 353d 6ce3 f5be
00000010: 8711 923e 56ea 4b3e e57b b03e db03 01be
00000020: 355f f6be 2b5a b3bd 6b89 8b3e e20b 9b3e
00000030: 876b 983d 45da 22bd 9b2d a8be ca31 223f
00000040: 631f dbbe c3f8 e4bd ed84 e9be 95c7 5abd
00000050: d4c5 093f 1bb5 083f 6f56 01bf 7de3 85be
00000060: f6e6 003f f866 92be 7da6 b03e 585f 82be
00000070: 683f f5be 6fd9 143f d5ae 55be 417f f7bd
00000080: 6b55 773f 42f9 77bc ba57 4bbf 11ef 953d
00000090: 1d38 8ebe 7510 103e 7c4e 363d f2b0 983e
000000a0: c350 2f3e 2802 7d3e feb0 0fbf c83f 5abf
000000b0: 1043 81bd 529e 9cbc 351d e7be 7a7a 3dbf
000000c0: 27ac 9ebe fa05 1d3f 5b27 043d 4425 1cbf
000000d0: 0610 dfbe 60a6 843d c1bc 84be 5d79 a83e
000000e0: 1121 043e 6d49 783f 7eb0 f33c 87c2 a0bd
000000f0: f697 d43e 1112 60be e70c a83e 3c4c 22bf
00000100: ad19 efbe c4f2 153f 0bd9 853e ea27 b03e
00000110: 6b2f 08bf b90e 38be dfb6 d0bd cfc2 173f
00000120: 4579 85be 1cd3 1bbf 9d4b a23e 3e04 0b3f
00000130: 2476 b63e 1f3c 173f 7305 1c3e 636d 923d
00000140: 85bd bbbe 4fac 45be 4a89 703e 50f2 e93e
00000150: 0510 dbbe 6a37 e2be 6a0e ee3e 1cd8 d03e
00000160: f85a a6be b810 32bf 2cb6 98bc 344f 8b3e
00000170: da3d 683e 9370 b5be 4fb1 e53d dcae 75bd
00000180: 91fa f9be d50c 4bbf 8b3c 483f 8acb 0dbf
00000190: 6327 003e 05e3 12be 883b 05bf 7cc6 3dbf
000001a0: 6b54 d43e d547 c83e d89e 043f dd6a d0bc
000001b0: b30a c2bb ee25 edbe 6ce8 a63e 00e4 17bf
000001c0: f860 403f 5382 1cbf 8492 b53e f28d 583e
000001d0: 05b1 113f e8eb 683e 68cd 263f 51ca 7fbe
000001e0: d521 4dbe ba96 573e 818b efbe 2d1c 913e
000001f0: 7e01 0bbf f9dc d33e 047f 17bf 14a4 433f
00000200: 43de 84be b207 b23e e649 a0be b376 173f
00000210: 7201 323f c076 983d 8f3a 7d3e d2e6 24bf
00000220: a72a 31be 4a70 80be 1163 31bf 5da7 4b3e
00000230: a586 07bf c823 f83d f049 b13e cc2a cd3e
00000240: d57a 263f 245d b33e 0bfc 46be 90ae ce3e
00000250: d3ee ebbe 0939 02bf 2333 99be 4c77 95be
00000260: b109 cabe 5f47 65be 0732 7a3e 64b4 a4be
00000270: 177e de3e 1bff a5be f002 963e 7acb 1d3f

action_net.bias f4 [5]
0.00778264 -0.010971714 0.018888537 -0.083334826 -0.14788187
00000000: 8405 ff3b b4c2 33bc 22bc 9a3c 73ab aabd
00000010: 586e 17be

value_net.weight f4 [1, 32]
-0.03941834 0.09761093 -0.16213125 0.018725082 0.33619007 0.090046234 -0.055702444 -0.24731149
0.2658071 0.007770754 0.20661806 0.15698127 0.16518548 0.2395852 -0.22948013 -0.19503641
0.15066408 -0.056240033 0.019374654 0.011763537 0.21976523 0.03718961 -0.16292475 0.25166
0.18153389 -0.28544474 -0.2845788 -0.12837338 -0.25505155 0.043884132 0.013371893 -0.13586865
00000000: 2075 21bd 3de8 c73d bc05 26be 5865 993c
00000010: 1b21 ac3e 296a b83d 3f28 64bd 393f 7dbe
00000020: de17 883e cfa1 fe3b af93 533e b3bf 203e
00000030: 6226 293e d355 753e d7fc 6abe a0b7 47be
00000040: af47 1a3e f35b 66bd 98b7 9e3c dabb 403c
00000050: 230a 613e 2254 183d bfd5 26be 94d9 803e
00000060: 05e4 393e d025 92be 50b4 91be 5074 03be
00000070: 1e96 82be d9bf 333d c915 5b3c 2721 0bbe
