toy_its/train_logs/map2_fixpos/eval/bc_model_2000000.pth (torch, 38914 bytes, 11 tensors)

mlp_extractor.policy_net.0.weight f4 [32, 81]
000000 90 a1 b0 3e e9 e7 0a bd 68 50 e9 bc 35 2c ef 3c
       0.34498262 -0.033912573 -0.028480724 0.029195884
000010 fc 6a e7 3e f5 0e da be 80 51 6d bd b8 30 46 3c
       0.4519881 -0.42589536 -0.057939053 0.012096576
000020 dc 80 88 bd 53 c1 42 be 21 2f 23 bc 5f 23 93 bd
       -0.06665203 -0.1901906 -0.009959967 -0.07184481
000030 66 b8 cb 3c 46 de 6e bd b7 ca f3 3d a7 85 36 3e
       0.024868201 -0.058317445 0.11903899 0.17824422
000040 e5 e8 8c 3e 4b 90 01 bf f9 f0 41 3d cd 56 88 3e
       0.27521434 -0.506108 0.04734895 0.26628724
000050 4d 31 9b be 5d e1 99 be 87 82 b4 3d 6a 1b b4 3d
       -0.3031105 -0.3005475 0.088139586 0.08794291
000060 a9 eb ad bc 6d ad 70 be 2c 18 6e be d1 d2 2c 3e
       -0.021230536 -0.23503657 -0.23251408 0.16877295
000070 ca 0a 66 bd 1d 49 63 bd 00 5e 97 be 62 cd 87 3e
       -0.056162633 -0.055489648 -0.29563904 0.26523882
000080 45 d4 93 3d 73 c4 7b be d0 0c 07 be ce 62 5c 3e
       0.072182216 -0.24586658 -0.13188481 0.21522066
000090 0e 7b 3e 3e d8 28 a8 3d 7c 32 06 be de 54 2b 3e
       0.18601629 0.08210915 -0.13105196 0.16731593
0000a0 17 a4 42 3e 35 a5 6f bd c8 f3 13 be c8 67 66 3e
       0.19007908 -0.058507163 -0.14448464 0.22500527
0000b0 33 25 17 bf 4d b3 6b 3d 10 cd de 3d fd ce 15 3e
       -0.59041137 0.05754404 0.10878956 0.14629741
0000c0 3e 51 9f 3d 67 c0 0f 3e 34 e6 a6 3e 1d 4c 5b 3e
       0.077791676 0.1403824 0.32597506 0.21415754
0000d0 29 ac 3b be d1 aa 0c 3f d0 7a 40 be 9c 94 51 3d
       -0.18327393 0.54948145 -0.18796849 0.051167116
0000e0 1a d1 84 bd 73 af 30 bd 60 30 59 3e 46 fd e1 bc
       -0.064851955 -0.04313607 0.2120986 -0.02758659
0000f0 8f e4 94 3e d6 cc b4 be 01 ae fc 3e cb 7c 9f 3d
       0.29080626 -0.35312527 0.49351504 0.07787474
000100 97 34 49 be 60 c4 f6 3d 72 58 07 bd a1 30 2f be
       -0.19648968 0.12049174 -0.033043332 -0.17108394
000110 26 4a 82 bd 80 a6 55 be c1 59 80 3e a9 ed b0 bc
       -0.06361799 -0.20864296 0.25068477 -0.0215977
000120 a0 6a a0 3d 7a 80 cd 3e 0f 70 c0 3d 1a 01 5a bd
       0.07832837 0.40137082 0.093963735 -0.053223707
000130 27 ed 0c be 86 08 c3 be 32 27 8c 3e 77 d7 37 3d
       -0.13762341 -0.3809244 0.27373654 0.044883218
000140 d7 7e 93 bd 47 51 ce be 21 83 3c 3d 5b e9 03 3f
       -0.07201927 -0.40296385 0.04602349 0.5152795
000150 fc 80 4c 3e a8 e3 26 be 56 85 ae 3e a2 84 3d be
       0.19971079 -0.16297781 0.34086102 -0.18507627
000160 2d 59 bf 3e 35 d1 34 be 56 19 c8 3d 32 c0 01 3e
       0.37372723 -0.17657931 0.097704574 0.12670973
000170 7a 7a 1a 3e 9c fb 9b 3e 37 81 94 bd 16 bd a3 be
       0.15085784 0.304654 -0.07251208 -0.319802
000180 52 2d 4c 3e 84 27 69 be 55 f2 8e 39 24 33 82 3e
       0.19939163 -0.2276898 0.00027264902 0.25429642
000190 46 45 bd 3d 63 ce 9e bd 6e 90 94 3e c0 69 aa 3c
       0.092417285 -0.07754209 0.2901644 0.020802379
0001a0 7f fd 57 be df 52 d3 3e c6 ae 8f bd a8 3f 02 3e
       -0.21092795 0.41274163 -0.07015757 0.12719595
0001b0 27 3b 6a be 6d 85 a6 bd 07 7a e3 bd 04 26 ae 3d
       -0.22874127 -0.08130918 -0.11107259 0.08503345
0001c0 db c6 d5 be a5 1a 38 3f d8 7d 8f 3e 0d 03 d7 3a
       -0.41753277 0.71915656 0.280257 0.0016404107
0001d0 56 2b 06 3e c2 8a 02 be 9a 57 0b 3d 4f 78 f8 bc
       0.13102469 -0.12748244 0.03401909 -0.030330805
0001e0 8e 5c 8f bd e4 8d cc 3e 80 2b 99 3d 44 3e 48 be
       -0.07000075 0.39952004 0.07479 -0.19555002
0001f0 48 9e 0f 3e 4b c3 59 3f d2 7a 85 3b 68 4f 74 3c
       0.14025223 0.8506362 0.004073479 0.01491151
000200 47 ad ee bd 6a 07 fc bd d9 9e 4d be d2 11 01 3e
       -0.11654144 -0.123061016 -0.20080127 0.12604454
000210 50 cb 1b 3e e7 54 81 be 1a eb 0f be 0f f1 42 3e
       0.15214276 -0.25260088 -0.14054528 0.19037269
000220 f3 08 3d 3e 6c 08 30 3e d0 c7 9c 3d 8f cf 62 bd
       0.18460445 0.17190713 0.07655299 -0.055373725
000230 80 d7 46 3e 0f 8b 67 be 09 e4 5b be 4c fc ab be
       0.19418144 -0.2261164 -0.21473707 -0.33590925
000240 c0 16 62 be 74 da 64 3e c7 1c 1f be 3a d1 8f 3d
       -0.22078991 0.22348958 -0.15538321 0.07022329
000250 da 47 7a 3e 51 d2 a5 bd 65 77 a9 be 66 06 3b bd
       0.24441472 -0.08096755 -0.33098903 -0.0456604
000260 ea 94 6c be 24 58 11 3e 28 33 40 bd bd c1 0b be
       -0.23103681 0.14193779 -0.046923786 -0.13648124
000270 32 21 66 3c 34 fb be be 6e 4d 2c 3d 9a f8 b4 bd
       0.014046 -0.37301028 0.04206603 -0.088364795
000280 df c7 b9 bd 08 7c 2d 3e b1 46 88 3e b2 bb 80 3e
       -0.090713255 0.16941845 0.26616433 0.251432
000290 37 8d 31 bd f1 79 80 3b 08 11 5c bc 2c 7a b7 3e
       -0.043347564 0.0039207865 -0.013431795 0.35835397
0002a0 f6 f9 a7 be b7 29 cd bd b6 ef bc 3c d9 60 fb 3d
       -0.32807893 -0.10017722 0.023063522 0.122743316
0002b0 ac f1 d3 3b 84 c8 56 be d5 29 79 be 92 f7 95 bd
       0.0064680185 -0.20974928 -0.24332364 -0.07322611
0002c0 70 30 93 bd 83 fc 7b be 83 54 f6 bc 7f f1 9a be
       -0.07186973 -0.24608044 -0.030069595 -0.30262372
0002d0 9f 8f dc 3d 11 6f c3 be 45 71 d1 be 2d 4a 29 3d
       0.10769581 -0.38170674 -0.4090673 0.041330505
0002e0 79 b6 03 be a4 db 80 3d 9d c5 2c bf 37 0b f8 bd
       -0.12862577 0.06291893 -0.67489034 -0.12111514
0002f0 9a dc 0f 3e 84 b7 af 3e 5e 84 e7 be 77 cb 46 3e
       0.14048997 0.343197 -0.45218176 0.19413553
000300 c2 05 0d be 1e 10 85 be 23 92 e0 3e ab 5e d9 3e
       -0.13771728 -0.2598886 0.43861493 0.42455038
000310 0e 67 94 3e f9 ff 5a be c0 f1 69 3c aa 50 ab be
       0.28984874 -0.21386708 0.014278829 -0.3345998
000320 f5 90 ef bd 21 90 75 be 60 d6 53 3e 28 ce 1e 3e
       -0.1169757 -0.23980762 0.20687246 0.1550833
000330 fd 16 92 be cb 88 9a be 52 80 82 3d 53 bd 10 bd
       -0.28533164 -0.3018249 0.063721314 -0.035336804
000340 ac c8 a4 be 8a 1a bb 3d 43 1d 99 3d c8 b5 94 3d
       -0.3218435 0.09135921 0.07476284 0.072612345
000350 b6 1b 08 be 68 16 1f 3e cf 0d 42 bd 45 1a 0e 3b
       -0.13291821 0.15535891 -0.04737645 0.0021683138
000360 7f 94 b2 3d 45 61 59 3d 15 3f 02 3e 0b dc ac bd
       0.0871973 0.05307128 0.12719376 -0.08440407
000370 56 e4 05 bd 0d 46 5f 3e ab c4 a1 3e 3d 94 33 3a
       -0.03268846 0.21804066 0.31595358 0.00068503973
000380 72 cf a8 bd a3 dc 27 bd cd 06 c1 3d ab 7d 33 3e
       -0.08242692 -0.0409819 0.09425125 0.17528407
000390 53 0c 74 be ce c1 04 3d 9b f6 bb bd 2d 1a 81 be
       -0.23832826 0.03241139 -0.09177896 -0.25215283
0003a0 b0 fe 15 be 1e 6e 6b be 3e 89 f8 bc 5e 5d 6b bc
       -0.14647937 -0.22991225 -0.03033888 -0.014365522
0003b0 8b 81 a5 bd 61 bb 5c be c2 77 67 3e de d7 c8 3d
       -0.08081349 -0.21555854 0.22604278 0.098067984
0003c0 9d 2a 77 be b2 5c 8e 3d 0f 10 2b 3e e3 f0 ae be
       -0.2413735 0.06951274 0.16705345 -0.34168157
0003d0 5a 6f 23 3e eb 00 2e 3e b8 3c 36 3e c3 0c 80 3d
       0.15960446 0.16992538 0.177966 0.06252434
0003e0 cf cf b6 3e 33 6d 63 3e 25 49 f5 bc 25 18 03 3e
       0.3570542 0.22209625 -0.029942105 0.12802179
0003f0 7c ef f4 3d bb 31 93 3c 8b 59 6c 3d 76 64 b4 bb
       0.119597405 0.01796805 0.057702582 -0.00550514

mlp_extractor.policy_net.0.bias f4 [32]
000000 0c ec 59 bd a0 85 04 3d 37 db 95 3d 8f 99 0f be
       -0.053203627 0.032353997 0.073172025 -0.14023422
000010 02 4b b8 bd 97 b1 1b 3d 10 88 d7 3c aa 11 0e be
       -0.089986816 0.03801116 0.026309997 -0.13873926
000020 b0 a3 50 bc af f4 ce bd f0 3b c9 bd 84 85 fc bc
       -0.012734339 -0.101052634 -0.09825885 -0.030825384
000030 b1 bf 66 3d e4 49 82 bd 27 f6 4e bc 43 94 86 3e
       0.056335155 -0.0636175 -0.0126319295 0.2628499
000040 88 22 06 3d cb 93 48 3d 7a 6f 4a 3d 87 ae b5 bc
       0.032747775 0.04896907 0.04942272 -0.022177948
000050 71 ac e0 bd 78 c5 c5 3c e6 8d 53 bd 71 d1 18 3d
       -0.109703906 0.024142012 -0.051648997 0.037309114
000060 2c 1d dc 3d b7 87 48 3c f0 2b 95 3d 39 63 6c 3d
       0.107477516 0.012239388 0.07283771 0.057711814
000070 05 ac a7 bc 45 2c 2c 3d 26 26 d1 3d a0 11 09 be
       -0.020467767 0.042034406 0.10212354 -0.1338563

mlp_extractor.policy_net.2.weight f4 [32, 32]
000000 c3 37 eb 3e f7 3b e5 be 87 a4 a0 3d 0c cc 9b 3e
       0.4594098 -0.44772312 0.07843881 0.30429113
000010 ff e3 4b bd 8e a7 0a bf 7d 3c 82 be c6 e3 90 3e
       -0.04977798 -0.5416192 -0.25436774 0.28298777
000020 c9 87 56 3e 70 15 72 be 57 a6 e6 3e 36 33 24 bf
       0.20950235 -0.2364099 0.45048782 -0.6414064
000030 db 95 46 3e 45 88 8a be 48 89 36 be ac 02 b2 3d
       0.19393103 -0.2705709 -0.17825806 0.08691916
000040 82 24 bf be 8b 5b 88 be 67 e5 14 3e 2c cb a5 be
       -0.3733254 -0.26632342 0.14540635 -0.3238157
000050 c1 f4 c7 be 44 c8 00 3f bd 2a 5b be 89 f3 33 be
       -0.3905392 0.5030558 -0.21403022 -0.1757337
000060 84 d8 0d 3e db 55 df be 37 38 d4 bd 66 b5 21 bf
       0.13852125 -0.4362019 -0.10362285 -0.6316742
000070 55 da 13 bf 3d 2b f9 be 55 09 03 3e 9b 9d 60 be
       -0.57755023 -0.486658 0.12796529 -0.21935122
000080 dc 2b b7 3d 66 37 90 be 36 5d 7f 3e 00 23 63 3d
       0.089439124 -0.28167266 0.24937901 0.0554533
000090 32 36 b8 be 9d 73 b1 be 08 36 06 3f 0f 7a bc 3d
       -0.35978848 -0.34658518 0.52426195 0.09202968
0000a0 b2 38 c5 3d 68 e2 12 3f 49 f5 ec 3d 3d 00 1f 3d
       0.096299544 0.5737672 0.11570222 0.038818587
0000b0 3f 7b 80 be 45 b5 0d bf 2b c6 e6 be 41 e8 36 bd
       -0.2509403 -0.5535472 -0.45073065 -0.04465509
0000c0 32 5d c0 3e 60 95 36 3e 39 78 38 3e fd 68 db be
       0.37571102 0.1783042 0.18014611 -0.42853537
0000d0 27 25 e1 3e b2 9d 86 3e 39 a3 87 3f ee 67 0e be
       0.43973657 0.26292187 1.0596687 -0.13906834
0000e0 17 e1 05 bd 8e d0 89 be d0 7e 6d be 70 fd 0a 3f
       -0.032685366 -0.26916927 -0.23192906 0.54292965
0000f0 c9 f3 68 3f 05 5f 08 3f bb 43 08 3e 45 62 6a bd
       0.90996987 0.5326999 0.13307087 -0.057222623
000100 66 ca 24 be 01 00 01 3e be bb 8d 3f 26 8b 7a bd
       -0.16092834 0.12597658 1.1072919 -0.06116786
000110 96 7c d0 be a9 12 07 3f 79 22 ea 3e 4d 16 69 be
       -0.40720052 0.5276285 0.45729426 -0.22762413
000120 6f 2f 7f 3e 8e b1 59 bf a8 16 38 be 61 a4 99 bd
       0.24920438 -0.8503655 -0.17977393 -0.07502056
000130 de 4f be be 8c 0b 08 3e 30 a8 06 3e 21 5c 5b 3e
       -0.3717031 0.13285655 0.13150096 0.21421863
000140 d2 28 5d 3e 9a 96 ab be e4 03 47 3f 5c 3a 17 3f
       0.21597603 -0.33513337 0.7774031 0.59073424
000150 61 a5 d5 3d 4a 0a 46 be f5 c9 d8 be 96 16 64 be
       0.10431934 -0.19339862 -0.4234158 -0.22274241
000160 59 a2 0a 3d 93 32 9b 3e 69 cb d8 bc 60 af df 3e
       0.033846233 0.30312023 -0.026464181 0.43688488
000170 b0 20 a3 be 01 f9 b4 3e b8 97 58 3e 74 7b b1 be
       -0.31860876 0.35346225 0.21151626 -0.346645
000180 0e 14 29 3e 7c ea 8b be 81 ff 95 bd 49 d9 c0 be
       0.16511557 -0.27327335 -0.07324124 -0.37665775
000190 12 f5 c9 3c 8a 47 5e 3e 67 a9 a9 bc 24 a9 9b be
       0.024652991 0.21706977 -0.02071066 -0.30402482
0001a0 51 2d 2c 3f d6 be ec 3e 72 44 bc 3e 0e dc 05 3e
       0.6725665 0.46239346 0.3677097 0.13072225
0001b0 58 98 97 be 20 06 fd be 64 74 14 3c 19 e8 d3 bd
       -0.29608417 -0.49418736 0.009060953 -0.103470035
0001c0 c5 a1 9b 3e 03 e1 42 3e 97 5a 1a be fc d8 8c 3c
       0.30396858 0.19031148 -0.1507362 0.01719331
0001d0 6b af 85 3f d1 8f 39 3f 43 ff 3b 3f d3 f5 b7 3e
       1.0444158 0.7248507 0.73436373 0.35929736
0001e0 68 7d 59 3e 32 3e ab be 2e 83 b1 3e 73 ac 2d 3e
       0.21239245 -0.3344589 0.34670395 0.16960315
0001f0 5a 12 2d 3f 17 87 54 3f aa b6 b2 3d a6 c1 8d be
       0.6760613 0.8301863 0.08726247 -0.27686805
000200 f5 49 49 be 6f c4 ad be 6f 9e ce be e9 7c 2b 3e
       -0.19657119 -0.3393893 -0.4035525 0.16746868
000210 a1 74 51 3f fe 67 f8 3d 9e 1f 13 be c5 87 97 bd
       0.81818587 0.1212921 -0.1436753 -0.07398943
000220 98 82 5d be b2 4d 48 be ff 66 24 3d c0 4c dc 3d
       -0.21631849 -0.19560888 0.040137287 0.107568264
000230 54 bf ba bd 76 5a 84 3e c9 e3 4d be 13 4d 48 be
       -0.09118524 0.25850266 -0.20106424 -0.19560651
000240 ee bc 95 3e 11 26 3d bf 66 a0 5d bf 86 86 64 3e
       0.29245704 -0.7388621 -0.86572874 0.22316942
000250 cd 62 d3 bd 89 c5 32 bf 83 26 3f bd 7d 61 5f be
       -0.10321579 -0.69832665 -0.046667587 -0.21814533
000260 2f 6b 2d bf 0c 66 53 be 7b 83 45 3d 34 cd de 3e
       -0.67741674 -0.20644397 0.048221093 0.43515933
000270 05 a8 2d bf 22 6f 6f be 2b 0f 37 be 64 cf 3f 3e
       -0.678345 -0.23382238 -0.1787688 0.18731457
000280 94 a4 9b be c7 84 27 3e f6 ef d6 bb 8e 03 64 be
       -0.30399 0.16359244 -0.0065593673 -0.22266981
000290 dc 5c 30 3f 72 0d 5d 3e 26 d9 b3 be e3 7b 0d bf
       0.6889169 0.2158716 -0.3512661 -0.5526716
0002a0 f1 86 c3 3e 20 5e 74 3c a2 93 8b be 27 98 08 be
       0.3818889 0.014915019 -0.27261072 -0.13339292
0002b0 44 3c 97 3d 49 e4 1a be 25 d1 03 bd e5 b4 bf bd
       0.07384542 -0.15126146 -0.032181878 -0.09360675
0002c0 28 3e 28 bf 1b 51 da 3d bb ac 9f be ff 96 dd bd
       -0.6571984 0.10660001 -0.3118647 -0.10819816
0002d0 ea b0 8c be b5 ef df 3c 0e 3b 11 3f e0 27 e6 be
       -0.27478725 0.02733598 0.56730735 -0.44952297
0002e0 b0 be 3f be c1 c8 09 be f0 69 c7 3d 5c f7 46 3d
       -0.18725085 -0.13455488 0.09737003 0.048575744
0002f0 d3 42 22 3e de b6 93 3e 60 97 44 3f c1 96 d7 bd
       0.15845804 0.28850454 0.7679348 -0.10526801
000300 29 e0 2a 3e eb 2f 3f 3e b7 a1 05 be 4b 29 b3 bc
       0.16687073 0.18670623 -0.1304997 -0.021870276
000310 fe 19 5c be 98 64 74 3c 4c cc 9f bc 00 61 b7 3e
       -0.2149429 0.014916562 -0.019506596 0.35816193
000320 97 55 10 3f 3e c0 e9 3d 21 eb 9e be bc cd ac 3e
       0.563806 0.114136204 -0.31038764 0.33750713
000330 f7 6d 78 3e 2d c9 02 bf e3 02 25 3f 9a 5d 99 3d
       0.24260698 -0.5108822 0.6445753 0.07488556
000340 36 66 d0 be 16 a6 dc bd 8f 54 3e bf 0f 3e e4 be
       -0.4070298 -0.10773866 -0.74347776 -0.44578597
000350 03 24 36 3e a6 31 68 3d 42 4f 87 be 50 c0 6f be
       0.17787175 0.056687973 -0.26427656 -0.23413205
000360 0d e2 44 be 05 07 c2 bd 21 de d2 3d 4e 60 c7 bd
       -0.19226857 -0.09473995 0.10296274 -0.097351655
000370 16 ba 8c 3e 47 64 d4 bd 41 24 63 3e 77 98 8a 3e
       0.27485722 -0.10370689 0.22181799 0.27069446
000380 f3 7e b1 3e 45 68 19 bf 22 52 08 3f 26 45 7d be
       0.34667167 -0.5992473 0.53250325 -0.2473341
000390 d6 0b 33 bf f8 3b 26 3e 61 c1 21 3e c6 88 b0 3e
       -0.69939935 0.16233814 0.15796424 0.3447935
0003a0 90 3c 4c be a5 45 13 3e 92 2c c7 be c0 4c 0a bf
       -0.19944978 0.14382036 -0.38901192 -0.5402336
0003b0 cd 04 fe 3e d7 d7 fb be 6a 78 c5 3d 1c 75 5c be
       0.49613038 -0.4918811 0.09642108 -0.21529049
0003c0 08 de 73 3e be 8a 85 3e 3f b4 c5 3d 44 10 00 be
       0.23815167 0.26082414 0.0965352 -0.12506205
0003d0 38 93 71 3e 17 6b 1e 3f fe 1f dd 3d 8d c5 0b 3e
       0.23591316 0.61882156 0.10797118 0.13649578
0003e0 00 17 9a 3e 95 09 97 bd 7f fb ac 3d 96 de a3 be
       0.30095673 -0.073748745 0.084464066 -0.32005757
0003f0 61 13 50 3f 68 dc 2d 3f d4 7f 06 3d 06 41 f0 be
       0.8127957 0.6791444 0.03283675 -0.4692461

mlp_extractor.policy_net.2.bias f4 [32]
000000 d2 d6 b7 3d 3e 91 75 3c 47 61 41 3d 11 78 23 3e
       0.089765206 0.014988242 0.04721191 0.1596377
000010 e9 fc 37 3d 18 48 d3 3d b7 a0 ae 3d 78 3e d0 3d
       0.04491893 0.10316485 0.08526748 0.10168165
000020 f6 b8 65 3e 85 19 96 3d b0 78 1e 3d 1d 38 5e 3d
       0.22433838 0.07329086 0.038689315 0.054252733
000030 60 7f d8 3d 36 e0 ca bc fc 2f 55 bd f0 fe 0a 3a
       0.1057117 -0.024765115 -0.052047715 0.0005302271
000040 06 b3 c5 bd a0 c3 52 bd 8c 00 2c be f2 e4 a2 3d
       -0.09653287 -0.051456094 -0.16797084 0.07953824
000050 0d 79 2d 3d 42 94 d8 3d 9c f4 ba 3d 23 34 03 3d
       0.04235177 0.10575153 0.09128687 0.032032143
000060 03 86 47 3d b9 c8 59 be da a5 1f 3e 96 9a 8c 3d
       0.048711788 -0.21267976 0.15590611 0.068654224
000070 ec a3 2c 3d ca e2 e5 bd 99 09 86 bb 62 f5 75 bc
       0.042148516 -0.11224897 -0.0040904996 -0.015012117

mlp_extractor.value_net.0.weight f4 [32, 81]
000000 42 aa 87 bd 8a f5 1d be 7d a9 82 bd f1 02 44 be
       -0.06624271 -0.15425697 -0.063799836 -0.19141747
000010 7c 56 2f 3e 88 ea fc 3b 65 9c 44 3e 37 71 4b be
       0.17122835 0.007718388 0.19200285 -0.19867407
000020 51 f6 b1 bc 46 53 ce 3d 00 7e 17 be f5 a8 2e 3c
       -0.021723898 0.10074477 -0.14794159 0.0106604
000030 fa 28 ec bc 4f 5c 5f 3e 26 d1 97 bd e6 36 d5 bc
       -0.028828133 0.21812557 -0.07412939 -0.026027154
000040 4e 26 28 be bd 96 aa 3e eb b4 0f 3d ab fc d6 bb
       -0.16420862 0.3331813 0.035084646 -0.006560882
000050 28 1b 2f be a6 2e 05 bd 90 5c 81 3e b8 37 84 3d
       -0.17100203 -0.03251519 0.25265932 0.0645594
000060 fb 48 9c 3c 15 ff 10 be 32 b0 46 be 44 6e bb 3d
       0.019077769 -0.14159806 -0.1940315 0.09151891
000070 56 f5 43 be e5 22 c9 3d ef b3 3b be 2c 96 4a bd
       -0.19136557 0.09821109 -0.18330358 -0.04945962
000080 f6 81 c3 3d 13 b4 cb 3d 2f 08 22 be c0 f9 6a 3c
       0.095462725 0.09946456 -0.15823434 0.014341772
000090 9d f7 23 3e 4c 0b b5 3e 1a cf a5 be ee 36 4e be
       0.16012426 0.3536018 -0.32384568 -0.20138142
0000a0 fe 2d a1 3d 6d 9d 83 3c 5a bc 23 3e 24 8d 9c 3e
       0.078701004 0.016066277 0.15989819 0.30576432
0000b0 14 2d b6 3c f0 94 8e 3e 27 28 40 3c 97 81 50 be
       0.022238292 0.27848005 0.011728323 -0.20361935
0000c0 f7 75 cc 3d e6 c6 25 be 5d 56 59 3c bc 9e 7a be
       0.099834375 -0.16189155 0.0132652195 -0.24474615
0000d0 48 b5 3d 3c 83 49 89 be 88 f5 64 be ed 94 a9 bd
       0.011578865 -0.26813897 -0.22359288 -0.082803585
0000e0 c1 8c c9 bd 68 59 f4 bd 88 68 78 3d e1 be 97 bd
       -0.098413 -0.119311154 0.060646564 -0.07409454
0000f0 75 ea ab 3d f5 ac 21 be d5 dc 82 3d cd 83 d0 3e
       0.083943285 -0.15788634 0.063897766 0.40725556
000100 cf 11 25 bd 63 84 91 be 9f 24 0b 3e 9d 67 a5 bd
       -0.040300187 -0.28421316 0.13588189 -0.08076403
000110 12 3c b2 bd c4 e8 e7 3c 7e c9 71 3e e0 ce ab bd
       -0.08702864 0.028309233 0.2361202 -0.08389068
000120 d9 af 39 bc 0f e9 cc 3d b5 3c 19 be 06 5c a0 3d
       -0.011333429 0.1000539 -0.14964564 0.07830052
000130 5d 4e a1 3d 94 51 90 3d 02 25 92 3d 3a 38 7a be
       0.07876275 0.0704681 0.07135965 -0.24435511
000140 e9 ed e9 3d 22 67 91 3c 50 52 8b 3e 4b f5 19 3e
       0.11422331 0.017749373 0.27211237 0.15034978
000150 c6 28 ab bd 64 a6 4f 3d 9d 2c ed 3d 13 99 17 bc
       -0.08357386 0.05069579 0.11580775 -0.009252804
000160 3c 84 8c bd 4e 08 9d bd aa 17 b2 3d f5 b1 7d 3d
       -0.06861159 -0.076675996 0.0869592 0.06193729
000170 e8 72 52 bd 83 70 57 bc 76 e9 3a bd e9 08 86 3e
       -0.051379114 -0.0131493835 -0.045632802 0.26178673
000180 9a 3e 63 bd 3f 96 32 be 38 40 4e 3c 57 21 80 3e
       -0.055479623 -0.17440127 0.012588553 0.25025436
000190 47 75 e4 bd e8 a8 f8 3d b3 43 80 3e 16 46 d8 3d
       -0.111551814 0.12141591 0.2505165 0.10560243
0001a0 5d ad 0f 3e f1 e9 d7 bd 47 f2 90 bd 8c dd bc bd
       0.14030977 -0.10542668 -0.07077461 -0.09221944
0001b0 49 5b 38 3d 93 10 e0 3c d1 cd 6f bb c3 82 1a 3e
       0.04500893 0.027351653 -0.0036591182 0.15088944
0001c0 de f2 4a 3e 44 ae 87 bc 16 fd 9d bd ce 2d 78 3d
       0.19819209 -0.016562589 -0.07714288 0.060590558
0001d0 f9 af 89 bd cb 93 b0 3e 00 27 27 3e 61 b2 4f 3e
       -0.06723017 0.34487757 0.16323471 0.2028289
0001e0 a4 99 c4 bd 78 08 33 be 32 14 e1 3d 97 76 da bd
       -0.09599617 -0.174837 0.1099018 -0.106671505
0001f0 bd a6 92 be d9 f4 85 3b 8f 3b 19 be a0 6b 8b 3e
       -0.28642836 0.004088026 -0.14964126 0.2723055
000200 f4 5e f5 3d ad 29 b2 bc 2c 66 a0 bd 5f 8c 5c 3d
       0.119810015 -0.021748388 -0.07831988 0.053844806
000210 b5 d0 26 be ec 71 75 be b9 5b 66 be f8 6c 59 be
       -0.16290553 -0.23969239 -0.22495927 -0.21232975
000220 7a cf b9 3d 7a 92 88 be 81 83 80 3e 73 b6 19 be
       0.09072776 -0.26674253 0.2510033 -0.15011005
000230 3f fd a7 bd 71 e3 61 3e 1b 0d 93 3d 3b 26 b9 bd
       -0.082026 0.22059418 0.07180234 -0.09040495
000240 58 4e a4 bd 73 7b 87 bd 0a a7 10 be 12 d4 6c be
       -0.080227554 -0.06615343 -0.1412622 -0.23127773
000250 6b f9 6d bc b1 0c b0 bd ac f2 81 bd f7 b7 7a be
       -0.014524798 -0.08596171 -0.06345114 -0.2448424
000260 21 12 0e be 46 73 96 3e d1 08 05 3e 34 43 53 3e
       -0.13874103 0.29384822 0.12991644 0.20631105
000270 9c 03 81 bd 3d 05 60 3c 3f 7e 5b 3e e5 05 ac be
       -0.062995166 0.013673124 0.21434878 -0.33598247
000280 6f 71 a6 be 3c 1e bb 3d 6b d8 c7 3d f6 e4 a4 bc
       -0.32508418 0.09136626 0.09758075 -0.020128708
000290 ed d2 23 3e 14 8d 43 be 3e 36 85 3e a5 0a d6 bb
       0.1599843 -0.19096786 0.26017946 -0.0065320306
0002a0 c1 98 e5 3d 20 45 05 3e 5d a3 22 3e 65 ce 7d bd
       0.11210776 0.1301465 0.1588263 -0.06196441
0002b0 ad d5 34 3d 95 5d 9d be 9c 31 e9 bd 1f 53 bc bd
       0.04414909 -0.3073546 -0.11386415 -0.091955416
0002c0 5e a0 dd bd f5 06 3a be 6f 56 f7 bc 08 7b d0 3d
       -0.10821603 -0.18166716 -0.030192582 0.10179716
0002d0 d6 5d 1b bb 34 52 8b 3d 51 ed 12 3d 14 b4 01 be
       -0.0023707054 0.068027884 0.035870854 -0.1266635
0002e0 c8 71 09 be a3 f3 8d 3c 59 22 9d 3b 8c ca 76 3e
       -0.1342231 0.01732809 0.0047953543 0.24100703
0002f0 c1 33 9d bd 60 b8 64 3d d0 26 41 be f7 0f b2 3e
       -0.07675887 0.055839896 -0.18862462 0.34777805
000300 2a 27 88 be 57 ac eb bd 47 e9 0f 3e 6c e4 82 3e
       -0.2659238 -0.115074806 0.14053832 0.25564897
000310 95 94 7e be 5d 84 c4 bc 69 6a 7d bd 05 10 76 3e
       -0.24861367 -0.023988897 -0.06186906 0.24029548
000320 66 19 9b 3e fa 65 47 be 4a e1 5c be ea 89 97 3d
       0.30292815 -0.19472495 -0.21570316 0.07399352
000330 4a e6 05 3e 5a 9a a8 be a5 17 49 3e 6b 37 73 3e
       0.1307613 -0.3293026 0.19637926 0.23751609
000340 8e c9 3b be 18 e7 13 be f7 cf 93 3e a5 db ce bd
       -0.18338606 -0.14443624 0.28869602 -0.101004876
000350 50 19 d0 3d 6c 1d 3b 3e b8 61 3d bd 5b 23 79 3e
       0.10161078 0.18272942 -0.04623577 0.24329893
000360 65 03 9f 3d b6 9a c1 bd 26 d7 45 be c9 1f 61 bd
       0.07764319 -0.09453337 -0.19320354 -0.054961953
000370 66 b3 e7 3d 84 04 50 3d 77 8d 96 bd 20 d4 e0 bd
       0.113135144 0.050785556 -0.07351201 -0.1097796
000380 46 0c a4 3d 0b 4f 9b be da 94 46 ba b4 40 25 bc
       0.080101535 -0.30333742 -0.0007575281 -0.010086227
000390 d0 40 04 bd 33 bf 0a be 04 78 93 3d 24 11 cb 3d
       -0.032288373 -0.13549499 0.072006255 0.09915379
0003a0 2a 34 8f bd b4 bf f5 bc f5 d5 8f 3e 4b 79 e6 bd
       -0.069923714 -0.029998638 0.28092924 -0.112536035
0003b0 c5 ce ac 3d d1 41 78 be 09 e0 8f bd 93 28 df bd
       0.08437876 -0.24243857 -0.07025153 -0.10896411
0003c0 ea 10 8d bd d8 62 c6 3d f8 48 96 bc 42 80 e1 be
       -0.06887992 0.09686822 -0.018345341 -0.44043165
0003d0 60 cb ae 3e f0 ac c6 3d eb 09 d5 be 4c 54 3d be
       0.34139538 0.09700954 -0.4160913 -0.18489188
0003e0 95 b2 0a be b5 8e 75 3c fe d9 db bd d9 e4 88 be
       -0.13544686 0.014987637 -0.10734938 -0.26737097
0003f0 e1 14 9f 3d d6 5f 78 3c df b7 05 3e 1a 58 e4 3d
       0.07767654 0.015159568 0.13058423 0.111496165

mlp_extractor.value_net.0.bias f4 [32]
000000 00 00 00 00 00 00 00 00 00 00 00 00 00 00 00 00
       0.0 0.0 0.0 0.0
000010 00 00 00 00 00 00 00 00 00 00 00 00 00 00 00 00
       0.0 0.0 0.0 0.0
000020 00 00 00 00 00 00 00 00 00 00 00 00 00 00 00 00
       0.0 0.0 0.0 0.0
000030 00 00 00 00 00 00 00 00 00 00 00 00 00 00 00 00
       0.0 0.0 0.0 0.0
000040 00 00 00 00 00 00 00 00 00 00 00 00 00 00 00 00
       0.0 0.0 0.0 0.0
000050 00 00 00 00 00 00 00 00 00 00 00 00 00 00 00 00
       0.0 0.0 0.0 0.0
000060 00 00 00 00 00 00 00 00 00 00 00 00 00 00 00 00
       0.0 0.0 0.0 0.0
000070 00 00 00 00 00 00 00 00 00 00 00 00 00 00 00 00
       0.0 0.0 0.0 0.0

mlp_extractor.value_net.2.weight f4 [32, 32]
000000 71 0b ba 3d 07 d1 95 3e 26 70 36 3e c5 1b df 3e
       0.090842135 0.29261038 0.17816219 0.43575874
000010 d9 cb d0 3e 61 6d 83 be ee b5 12 bd 6b d7 62 bd
       0.40780523 -0.25669387 -0.035818033 -0.05538122
000020 3d 78 bf 3d d7 a4 13 be 5b db a5 3e 6e e5 d2 be
       0.093491055 -0.1441835 0.32393917 -0.41190666
000030 0c 52 52 3d ad 42 c0 3e a6 91 cc be 05 a8 cd 3e
       0.051347777 0.3755087 -0.3995487 0.4016725
000040 b8 c5 8a 3e 22 c1 0d be e5 8b 45 bc d5 fa c7 3d
       0.27103972 -0.13843206 -0.012057279 0.09764639
000050 a4 89 bd 3e 0e 18 07 be c0 f9 9b 3c b8 99 ae be
       0.37019074 -0.1319277 0.019039989 -0.34101653
000060 d6 07 04 3d 06 e0 96 be 3d 94 88 be b7 12 71 3c
       0.032234035 -0.2946779 -0.26675597 0.014713935
000070 4d 75 3f 3e f7 94 fc bc f7 e5 99 3e 16 d4 11 be
       0.1869709 -0.03083275 0.30058262 -0.1424106
000080 d1 75 02 be 45 64 f0 3e c7 ef 24 3e 2e 6c 23 bb
       -0.12740256 0.469515 0.16107093 -0.0024936306
000090 d8 9c a7 be 27 77 58 bc 86 e0 a3 3e 28 84 49 3e
       -0.3273685 -0.013212002 0.32007235 0.1967932
0000a0 35 08 8b be 98 d4 43 3e 8b a1 53 be 13 a0 ab be
       -0.271547 0.19124067 -0.20667093 -0.33520564
0000b0 fd c6 71 3e 5a 89 02 bd dd 0c e9 3c d9 0f 85 3e
       0.23611064 -0.03186927 0.028448517 0.25988653
0000c0 d4 8d 5d 3e 4e 23 47 bd 2e 1d 18 be 9b c2 93 bd
       0.21636134 -0.048617654 -0.14854881 -0.072148524
0000d0 64 05 c6 be 72 41 2f 3e 03 9c cc 3e 98 6f 8e be
       -0.38675988 0.17114809 0.39962777 -0.27819514
0000e0 1e da ba be 99 ed 87 be f9 75 d9 3e 66 b5 d5 3c
       -0.36494535 -0.2654846 0.42472818 0.026087474
0000f0 46 a8 c0 bc e1 d3 b6 be e9 15 be bd 03 d9 94 3e
       -0.023517739 -0.35708526 -0.09281523 0.29071817
000100 62 41 dc 3d ba dd 74 bc e0 ed 27 3d 93 c5 75 3e
       0.10754658 -0.014945442 0.04099834 0.2400115
000110 85 a4 d5 bd 70 53 4b 3c 63 d5 d2 3e 4d c2 e9 3d
       -0.1043177 0.01241003 0.41178426 0.11414013
000120 17 f3 db 3d 49 a9 b8 bc 09 83 b9 3e 7c 82 b7 3e
       0.10739725 -0.022541659 0.36232784 0.3584174
000130 b3 41 57 be 51 c2 24 3d 70 4d b5 bd b4 2d 80 be
       -0.21021156 0.040224377 -0.08852661 -0.2503487
000140 08 78 04 bf e4 5a 38 3e c1 72 86 be ab 66 c3 be
       -0.51745653 0.18003422 -0.26259425 -0.38164267
000150 ba cb 92 be 20 2a 05 bf 3d 09 0f 3e 85 12 4f be
       -0.28671056 -0.520174 0.13968368 -0.20221908
000160 d5 a1 5e be 9c c2 82 be 01 e3 c0 3d 5a 3c 1b 3e
       -0.21741422 -0.255391 0.094182976 0.15159741
000170 5f 3a 9d bd 42 85 a0 3d cc 7d 01 3f 10 12 ab bd
       -0.07677149 0.07837917 0.50582576 -0.083530545
000180 63 86 ab 3e 10 96 98 3e 01 01 fd be 62 84 dd bd
       0.33500966 0.2980199 -0.49414828 -0.10816266
000190 98 fc b9 bd bf 51 28 be e3 fd 3d 3e a5 a4 b6 3e
       -0.090813816 -0.16437434 0.18553881 0.3567249
0001a0 78 9d f8 3d c2 30 08 3e 91 d3 de 3c 0b db f8 3e
       0.1213941 0.1329985 0.027200492 0.48604617
0001b0 71 16 e3 3e 7a 1a 44 3e a5 a8 23 be c5 cf e4 3c
       0.4435306 0.19150725 -0.15982302 0.027931103
0001c0 0b ea fa 3e ff 8d e1 3d fd c4 55 bc eb 64 4f be
       0.49006686 0.11013412 -0.013047454 -0.20253341
0001d0 ae 0a f6 3d 66 4e d3 be ea b3 9c bd ec 87 d5 bd
       0.12013756 -0.4127075 -0.076515034 -0.10426316
0001e0 f5 03 23 3e eb 8f 47 3e 8d 61 bd bd be 7c b5 be
       0.15919478 0.19488494 -0.09247122 -0.35446733
0001f0 53 36 71 be 02 33 50 bc 10 cd 80 be c1 f2 98 3d
       -0.2355588 -0.012707474 -0.2515645 0.07468177
000200 40 c4 a7 be 44 47 04 3e f6 86 b1 3a e1 92 75 3e
       -0.32766914 0.1291781 0.001354425 0.23981811
000210 42 a4 da be 46 5e a9 3e ff 55 44 be 10 a0 04 bf
       -0.42703444 0.33079737 -0.1917343 -0.51806736
000220 01 9e a8 3d f7 e1 2b be 12 f0 87 3d ed 29 d0 3e
       0.08233262 -0.16785417 0.06637587 0.40656987
000230 1c 75 7b 3e 08 c7 fb 3d 96 e1 34 bc 36 86 72 3d
       0.24556392 0.122938216 -0.011040112 0.059210025
000240 ec 72 12 3e 14 ed 5c bd f9 48 14 bc 0e 26 27 3e
       0.14301652 -0.053937033 -0.009050601 0.1632311
000250 ac fa ce bd 43 03 62 be ed 2e c5 3e 96 86 27 bd
       -0.101064056 -0.22071557 0.38512364 -0.040899836
000260 21 ac 72 be 2c 48 99 bc d2 49 c6 be 5b ed f7 3d
       -0.23698474 -0.018711172 -0.38728195 0.12105819
000270 ec 61 df 3e b8 c8 c5 3e 4e dc 84 be a2 96 66 3e
       0.43629396 0.386297 -0.2594933 0.225184
000280 f1 a5 82 be 4e 26 d0 bd 08 a2 17 be 88 b6 94 3e
       -0.25517228 -0.10163556 -0.14807904 0.2904551
000290 85 11 d2 3e ef c3 39 3d 20 c3 1d be c0 38 16 3d
       0.4102899 0.045352872 -0.15406466 0.036675215
0002a0 7c 67 96 be 7e 80 7a be 59 a8 55 3e 79 ec dd bd
       -0.29375827 -0.24463078 0.20865001 -0.10836119
0002b0 e3 64 ae bd 10 5f 82 be 12 4d 03 3e 41 a6 c9 bd
       -0.08515336 -0.25463152 0.12822369 -0.098461635
0002c0 e4 89 8d 3e 3e c1 23 be e6 34 7f 3e e0 d8 d8 3c
       0.27644265 -0.15991685 0.24922523 0.026470602
0002d0 c9 fb 86 3d df f7 01 bf 41 12 1f 3e 34 2a 5c bd
       0.06590993 -0.50768846 0.15534307 -0.053751186
0002e0 45 6b 11 3d 6e 44 92 3e 25 23 37 3f 37 c8 b1 bc
       0.03550269 0.28567833 0.71538 -0.021701915
0002f0 95 81 ae bd b1 23 95 3e 47 28 45 3d 8a 09 d9 3e
       -0.085208096 0.29128793 0.048134115 0.4239009
000300 f2 f7 61 be 8b bd 3b bd ba 7c 2d be 46 49 3a 3d
       -0.2206724 -0.04583506 -0.1694211 0.045480035
000310 17 cf 7d 3d 2f fc ab 3e 56 c4 95 bd 8b 3d 91 3b
       0.061965074 0.33590838 -0.07312839 0.0044323853
000320 0b eb 97 3e 5f 52 ab bc 19 84 77 be 5f fc aa be
       0.2967151 -0.020913301 -0.24171485 -0.3339567
000330 3d 69 98 3c bb 0a 5a 3e ca 4b 4e 3e 77 34 fe 3d
       0.018604869 0.21293156 0.20146099 0.124123506
000340 31 15 9f be 7f 3d 70 be a8 13 74 3e 8f d3 de be
       -0.31070855 -0.23460959 0.23835623 -0.4352078
000350 10 bc 87 3d a0 f5 32 be 6d c0 a9 be dc 58 42 bd
       0.06627667 -0.17476511 -0.33154622 -0.047448024
000360 ba 49 4b be d5 38 81 be 76 dd c3 be aa 04 6a be
       -0.19852343 -0.25238672 -0.382549 -0.22853342
000370 97 0e d2 be be 0d 7b bd b4 81 d4 3b 19 6d 25 3f
       -0.41026756 -0.061292402 0.0064851884 0.64619595
000380 db 45 14 be e3 b4 95 bc 3a 66 aa be 8a 3f 45 3d
       -0.14479773 -0.01827473 -0.33281118 0.0481563
000390 37 dc 51 3e a4 a0 16 3e 73 04 d8 bc ce b7 ad 3e
       0.20494162 0.14709717 -0.026369309 0.33929294
0003a0 5b 03 d2 3d c0 1f b8 3d 04 4b a8 3e 1f 1d 7d bc
       0.10254546 0.08990431 0.32869732 -0.015448838
0003b0 cf 0b 0f bd 29 93 72 bd d2 4d 29 3f 99 af c2 3e
       -0.03492337 -0.059222374 0.6613437 0.38024595
0003c0 02 f9 0f bd e0 36 b4 be 7b e6 11 be 06 eb b9 bd
       -0.03514958 -0.35198116 -0.14248078 -0.0907803
0003d0 70 fc ac 3d ea 2c 54 be be 39 6c 3e f4 af 33 3e
       0.08446586 -0.20720258 0.23068902 0.1754759
0003e0 a6 de 7e be 9e bb c3 3d 0f 31 24 be 63 51 b2 3e
       -0.24889621 0.095572695 -0.1603434 0.34827718
0003f0 84 e6 98 3d 49 82 ac be 7d 8f 97 be 57 8b 02 bf
       0.07465842 -0.3369315 -0.2960166 -0.50993866

mlp_extractor.value_net.2.bias f4 [32]
000000 00 00 00 00 00 00 00 00 00 00 00 00 00 00 00 00
       0.0 0.0 0.0 0.0
000010 00 00 00 00 00 00 00 00 00 00 00 00 00 00 00 00
       0.0 0.0 0.0 0.0
000020 00 00 00 00 00 00 00 00 00 00 00 00 00 00 00 00
       0.0 0.0 0.0 0.0
000030 00 00 00 00 00 00 00 00 00 00 00 00 00 00 00 00
       0.0 0.0 0.0 0.0
000040 00 00 00 00 00 00 00 00 00 00 00 00 00 00 00 00
       0.0 0.0 0.0 0.0
000050 00 00 00 00 00 00 00 00 00 00 00 00 00 00 00 00
       0.0 0.0 0.0 0.0
000060 00 00 00 00 00 00 00 00 00 00 00 00 00 00 00 00
       0.0 0.0 0.0 0.0
000070 00 00 00 00 00 00 00 00 00 00 00 00 00 00 00 00
       0.0 0.0 0.0 0.0

action_net.weight f4 [5, 32]
000000 77 95 2e 3e e8 6d 88 be c1 bc 9c bd d5 95 d9 be
       0.17049204 -0.26646352 -0.076531895 -0.42497125
000010 88 67 90 3e 05 52 ad b9 99 73 4c 3d c5 1c 2c be
       0.28203988 -0.0003305824 0.04991493 -0.1680785
000020 a9 a3 dd be c2 e2 96 be 9e e2 80 3e 13 57 93 3e
       -0.43288925 -0.29469877 0.25172895 0.2877737
000030 f6 40 35 3e 9d 5b 6a be 53 8c 6e bc 06 cc 29 3f
       0.17700562 -0.2288651 -0.014559823 0.6632694
000040 92 dd f8 be ac 28 d6 bd 26 5f 87 3d 1c 4f 41 be
       -0.48606545 -0.10456976 0.06609945 -0.18877834
000050 b7 6a 69 3e e5 62 1c 3f 18 25 0f bf af fd ab be
       0.22794615 0.610884 -0.55915976 -0.33591983
000060 15 f0 1b 3f 13 97 93 be 2a 32 84 bc 01 7d 69 bd
       0.6091321 -0.28826198 -0.016137201 -0.05700398
000070 9e 1c 69 be 5d 6e e9 3e 90 ec d1 be 68 dd 55 be
       -0.22764823 0.45592013 -0.41000795 -0.20885241
000080 ab 5b 40 3f a3 7b 23 3e cf bd 01 bf a3 6a 3f 3e
       0.75139874 0.15965132 -0.5068025 0.18693022
000090 33 0d 92 be e2 2b 3e 3c 9f 5a b7 3c 55 26 d7 3e
       -0.28525695 0.011607142 0.022382079 0.42021433
0000a0 22 81 71 3e f9 da 57 3e d9 eb 40 be 92 15 13 bf
       0.23584417 0.21079625 -0.18839969 -0.5745479
0000b0 f1 6a a1 3c 26 09 38 bd 51 e6 b0 be 0b 17 04 bf
       0.019704314 -0.0449306 -0.34550717 -0.5159766
0000c0 49 38 a6 be 62 b9 7a 3e f5 ac 46 bd ac 10 01 bf
       -0.32464817 0.2448478 -0.04850479 -0.50416064
0000d0 ed 1f cd bd 07 19 b6 3d 60 9b 38 be 68 ca 48 3e
       -0.10015855 0.08891492 -0.18028021 0.19608462
0000e0 b0 2f ab 3d d6 7a 42 3f 61 2a b2 3c 4c 82 93 3d
       0.08358705 0.7596868 0.021748723 0.072025865
0000f0 13 b6 24 3e 02 06 51 be e4 f7 5d 3e 2e 44 2f bf
       0.16085081 -0.20412448 0.21676594 -0.6846341
000100 a7 dc 12 bf 01 9d dd 3e b5 69 06 3f 7e 52 90 3e
       -0.5736794 0.43283847 0.52505046 0.28187937
000110 13 95 19 bf 9a fa 5a be 23 12 40 be 52 d0 27 3f
       -0.59993094 -0.2138466 -0.18756919 0.65552247
000120 94 9b 02 be 4a 72 15 be 2a 26 c4 3e 32 81 8f 3e
       -0.12754661 -0.14594379 0.38310367 0.28028256
000130 06 65 e0 3e 8b f3 ba 3e d4 86 13 3e 57 05 85 be
       0.43827075 0.36513934 0.14406902 -0.25980636
000140 ea 98 d7 be 39 13 a5 be a6 eb 33 3e 43 09 b5 3e
       -0.42108852 -0.32241228 0.17570361 0.3535863
000150 18 26 98 3c 26 74 a5 be 33 2c 1d 3f 7e b5 fd 3e
       0.018572852 -0.32315177 0.6139557 0.4955253
000160 b2 34 50 be 39 61 d0 be d7 42 26 be 25 48 6b 3e
       -0.20332602 -0.40699175 -0.16236435 0.2297674
000170 bf 68 02 be 79 d8 72 be c0 47 90 bd b5 b4 85 3c
       -0.1273527 -0.2371539 -0.07044935 0.01632152
000180 aa 73 c9 bd 30 16 52 bf ae cd 23 3f 74 67 24 bf
       -0.09836514 -0.82065105 0.6398572 -0.64220357
000190 2b 38 29 3e 3a 69 08 3e ed a3 cb bc 1e ca 55 bf
       0.16525333 0.13321391 -0.02485844 -0.8351153
0001a0 42 6f 78 3e e7 15 b5 3e 61 48 58 3e 5a 11 56 bd
       0.24261191 0.35368273 0.2112136 -0.05226264
0001b0 e2 11 26 be cc b9 2c be 99 be ee bc 4a 48 11 bf
       -0.16217759 -0.16867751 -0.029143618 -0.5675093
0001c0 ed 33 77 3f 0d b7 d8 be 3b 49 88 bd eb 69 23 3e
       0.9656361 -0.42327157 -0.066545926 0.15958373
0001d0 80 b3 fd 3e 54 05 0a 3e fd 50 11 3f 0e 68 f7 bd
       0.4955101 0.13478595 0.56764203 -0.12080394
0001e0 f4 3c d9 be aa 77 49 3e cb 70 73 3d 3a ec c8 bd
       -0.42429316 0.19674554 0.05943374 -0.09810682
0001f0 bb 07 86 be cf b7 f6 3e 97 74 08 be 89 e0 4f 3f
       -0.26177773 0.4818711 -0.13325725 0.8120199
000200 98 88 90 be 0c 5d a2 3e 65 21 ba be 43 d4 e8 3e
       -0.28229213 0.31711614 -0.36353603 0.45474443
000210 8f 11 1a 3f 9b c2 c5 3d 74 3b 06 3e 8d 19 f0 be
       0.6018304 0.09656259 0.13108617 -0.46894494
000220 37 77 eb bd 06 1e 9a be 3c 91 06 bf a9 e1 51 3e
       -0.11497348 -0.3010103 -0.5256536 0.20496239
000230 3c 11 ff be c8 92 93 3d c4 f7 bb 3e 8f 35 0b 3f
       -0.49817836 0.07205731 0.36712468 0.543786
000240 40 57 05 3f 38 ea be 3e e1 f5 c9 bd 2e 84 eb 3e
       0.5208626 0.3728807 -0.09861351 0.45999283
000250 12 35 e8 be d2 78 f0 be 0b 68 b0 be db 45 8d be
       -0.4535299 -0.4696718 -0.34454378 -0.27592358
000260 a4 41 84 be da 13 61 be fd fc a8 3d 9a f4 58 be
       -0.2583133 -0.21980229 0.08251379 -0.21187058
000270 11 f0 9c 3e 69 00 ae be c2 ce 6d 3e 51 ff d9 3e
       0.30651906 -0.33984688 0.23223403 0.42577603

action_net.bias f4 [5]
000000 48 1f b1 3d ac 68 83 3d 9c f4 b7 3d 63 99 6a be
       0.086485445 0.06416449 0.089822024 -0.22910075
000010 ef 76 9d bd
       -0.076887004

value_net.weight f4 [1, 32]
000000 20 75 21 bd 3d e8 c7 3d bc 05 26 be 58 65 99 3c
       -0.03941834 0.09761093 -0.16213125 0.018725082
000010 1b 21 ac 3e 29 6a b8 3d 3f 28 64 bd 39 3f 7d be
       0.33619007 0.090046234 -0.055702444 -0.24731149
000020 de 17 88 3e cf a1 fe 3b af 93 53 3e b3 bf 20 3e
       0.2658071 0.007770754 0.20661806 0.15698127
000030 62 26 29 3e d3 55 75 3e d7 fc 6a be a0 b7 47 be
       0.16518548 0.2395852 -0.22948013 -0.19503641
000040 af 47 1a 3e f3 5b 66 bd 98 b7 9e 3c da bb 40 3c
       0.15066408 -0.056240033 0.019374654 0.011763537
000050 23 0a 61 3e 22 54 18 3d bf d5 26 be 94 d9 80 3e
       0.21976523 0.03718961 -0.16292475 0.25166
000060 05 e4 39 3e d0 25 92 be 50 b4 91 be 50 74 03 be
       0.18153389 -0.28544474 -0.2845788 -0.12837338
000070 1e 96 82 be d9 bf 33 3d c9 15 5b 3c 27 21 0b be
       -0.25505155 0.043884132 0.013371893 -0.13586865
