toy_its/train_logs/map2_fixpos/eval/bc_model_5000000.pth (torch, 38914 bytes, 11 tensors)

mlp_extractor.policy_net.0.weight f4 [32, 81]
0	0x3eb0a190	0.34498262
1	0xbd0ae7e9	-0.033912573
2	0xbce95068	-0.028480724
3	0x3c9a6b5b	0.01885002
4	0x3ee76e71	0.45201448
5	0xbeda0efb	-0.42589554
6	0xbe3df4be	-0.18550393
7	0xb9b81408	-0.0003511014
8	0xbd8880dc	-0.06665203
9	0xbe42c153	-0.1901906
10	0xbc232f21	-0.009959967
11	0xbd93235f	-0.07184481
12	0x3c6def16	0.014522335
13	0xbd6e91e1	-0.05824459
14	0x3df3cab7	0.11903899
15	0x3e076fa4	0.13226181
16	0x3dd9addd	0.10628865
17	0xbf091646	-0.5354961
18	0x3d41f0f9	0.04734895
19	0x3e8856cd	0.26628724
20	0xbe9b314d	-0.3031105
21	0xbe99e15d	-0.3005475
22	0x3db484c7	0.08814388
23	0x3da9bf4a	0.082884386
24	0x3de08957	0.109636955
25	0xbe2d4df6	-0.16924271
26	0xbe2bc007	-0.16772471
27	0x3e2cd2d1	0.16877295
28	0xbd660aca	-0.056162633
29	0xbd63491d	-0.055489648
30	0xbe9caa36	-0.3059861
31	0x3e87fb7a	0.2655905
32	0x3d93bc82	0.072136894
33	0xbf0a62aa	-0.540568
34	0xbd87249e	-0.06598781
35	0xbe01d2ec	-0.12678117
36	0x3e33e2e8	0.17567027
37	0x3da828d8	0.08210915
38	0xbe10caa3	-0.141398
39	0x3e20bcb8	0.1569699
40	0x3e51aacc	0.2047531
41	0xbca7e4b0	-0.020494789
42	0xbe46e4f9	-0.19423284
43	0x3f0ca376	0.5493692
44	0xbedcaf03	-0.43102273
45	0x3d6bb34d	0.05754404
46	0x3ddecd10	0.10878956
47	0x3e15cefd	0.14629741
48	0x3d8a2107	0.06744581
49	0x3e6973e6	0.22798118
50	0x3ea8ece0	0.3299322
51	0x3e1d3e8c	0.15355891
52	0xbdbef899	-0.0932476
53	0x3ea0ceb1	0.31407693
54	0xbe407ad0	-0.18796849
55	0x3d51949c	0.051167116
56	0x3dc9ac56	0.098473236
57	0x3e0070da	0.1254305
58	0x3ec34a7d	0.38142768
59	0xbb70e4ce	-0.0036757472
60	0x3f043fbc	0.5165975
61	0xbee1504e	-0.4400658
62	0x3e74fb0c	0.23923892
63	0x3d9f7ccb	0.07787474
64	0xbe493497	-0.19648968
65	0x3e4d70f3	0.20062618
66	0xbd31b8e1	-0.043389205
67	0xbe2f30a1	-0.17108394
68	0xbd824e5f	-0.06362604
69	0xbdff5860	-0.12468028
70	0xbd3b50ff	-0.04573154
71	0xbcb18672	-0.021670554
72	0x3da06aa0	0.07832837
73	0x3f068a93	0.525552
74	0x3e95f38f	0.29287383
75	0xbd8230c5	-0.06356958
76	0xbe0ced27	-0.13762341
77	0xbec30aa6	-0.38094062
78	0x3e8b196d	0.27167836
79	0xbd0ec69f	-0.03485739
80	0xbd937ed7	-0.07201927
81	0xbece5147	-0.40296385
82	0x3d3c8321	0.04602349
83	0x3f03e95b	0.5152795
84	0x3e9ffcd9	0.31247595
85	0xbe270c69	-0.16313328
86	0x3eae856d	0.3408617
87	0xbe8b4eeb	-0.27208647
88	0x3ef97a7b	0.48726258
89	0xbe34d135	-0.17657931
90	0x3dc81956	0.097704574
91	0x3e01c032	0.12670973
92	0x3e1a7a7a	0.15085784
93	0x3ed5b7eb	0.4174188
94	0xbd94aa56	-0.072590515
95	0xbea3bd16	-0.319802
96	0x3e632d7b	0.22185318
97	0xbebc1648	-0.3673575
98	0x3cf1ff9f	0.029540835
99	0x3e823324	0.25429642
100	0x3dbd4546	0.092417285
101	0xbd9ece63	-0.07754209
102	0x3e94906e	0.2901644
103	0x3caa67c4	0.020801432
104	0xbe9cc701	-0.30620578
105	0x3ea753a9	0.32681015
106	0xbd9c2d0e	-0.07625781
107	0x3d8cb4b8	0.06870407
108	0xbe6a3b27	-0.22874127
109	0xbda6856d	-0.08130918
110	0xbde37a07	-0.11107259
111	0x3e4a8bf2	0.19779947
112	0xbed5d423	-0.4176341
113	0x3f381ab9	0.71915776
114	0xbe98f1e4	-0.29872048
115	0xbe2c44ba	-0.16823092
116	0x3d4a7480	0.04942751
117	0xbc711ec0	-0.014716804
118	0x3d0b579a	0.03401909
119	0x3da8d3bc	0.0824351
120	0x3d2f2a91	0.042765204
121	0x3f27f639	0.6561008
122	0x3da5d015	0.08096329
123	0xbeb3ee2e	-0.35142654
124	0xbdb82ff6	-0.08993523
125	0x3f7bbb63	0.98332804
126	0x3b857ad2	0.004073479
127	0x3c744f68	0.01491151
128	0xbdeead47	-0.11654144
129	0xbc28ad07	-0.010295159
130	0xbe9da8ec	-0.3079294
131	0x3e4bc929	0.19900955
132	0x3e9e7de6	0.30955428
133	0xbe81fc87	-0.25387976
134	0xbdbcc70d	-0.092176534
135	0x3e42f10f	0.19037269
136	0x3e3d08f3	0.18460445
137	0x3f153a60	0.582922
138	0x3e535da3	0.20641188
139	0xbd3cf350	-0.04613048
140	0x3d84e423	0.06488826
141	0x3d0705c1	0.03296447
142	0xbe779919	-0.24179496
143	0xbe469c8b	-0.19395654
144	0xbe6216c0	-0.22078991
145	0x3e64da74	0.22348958
146	0xbe38c127	-0.18042432
147	0x3e3b6194	0.18298942
148	0x3e7a47da	0.24441472
149	0xbda5edfa	-0.08102031
150	0xbe66c769	-0.22537006
151	0xbdad93fa	-0.0847549
152	0xbe6ca07c	-0.23108095
153	0x3e115824	0.14193779
154	0x3f25e443	0.64801425
155	0xbe323f84	-0.17407042
156	0x3e01daf8	0.12681186
157	0xbebefb34	-0.37301028
158	0x3d2c4555	0.042058308
159	0xbe0b91bb	-0.1362981
160	0x3b8b7910	0.004256375
161	0x3e2d7c08	0.16941845
162	0x3e8846b1	0.26616433
163	0x3e80bbb2	0.251432
164	0xbd318d37	-0.043347564
165	0xbe325fe4	-0.17419392
166	0xbc5d68b6	-0.013513735
167	0x3eb77a17	0.35835335
168	0xbee92a36	-0.45540017
169	0xbd840907	-0.06447034
170	0x3cbcefb6	0.023063522
171	0x3dfb60d9	0.122743316
172	0x3bd3f1ac	0.0064680185
173	0xbe56c884	-0.20974928
174	0xbed7c6dc	-0.42143905
175	0xbd95f068	-0.073212445
176	0xbd933070	-0.07186973
177	0xbd7be87f	-0.061501022
178	0x3e0db52d	0.13838644
179	0xbe8a872f	-0.27056262
180	0x3ddc8f9f	0.10769581
181	0xbec36f11	-0.38170674
182	0xbed17145	-0.4090673
183	0x3d294a2d	0.041330505
184	0xbe03b6b6	-0.12862667
185	0xbd59e1f9	-0.05319402
186	0xbf32fb03	-0.69914263
187	0x3dd1c369	0.1024235
188	0x3e6c3399	0.23066558
189	0x3eafb784	0.343197
190	0xbee7845e	-0.45218176
191	0x3e46cb77	0.19413553
192	0xbea1b4d4	-0.31583273
193	0xbe851717	-0.2599418
194	0x3ee08dbc	0.43858135
195	0x3f0eec4e	0.5582932
196	0x3e99f8c7	0.30072615
197	0x3c6ef31f	0.014584332
198	0xbe27c4a1	-0.16383602
199	0xbeab50aa	-0.3345998
200	0xbe971630	-0.29509115
201	0xbed5fa02	-0.41792303
202	0x3c97c0fb	0.018524637
203	0x3eb8ad48	0.36069703
204	0xbe3a5a48	-0.18198502
205	0xbe3aa453	-0.18226747
206	0x3d93566a	0.071942165
207	0xbd10bd53	-0.035336804
208	0xbea4c8ac	-0.3218435
209	0x3dbb1a8a	0.09135921
210	0xbdd3aa41	-0.10335208
211	0x3e8695b9	0.26286104
212	0xbcb9819c	-0.02264481
213	0x3e3cb0f4	0.18426877
214	0x3da3f144	0.08005002
215	0xbc97d408	-0.018533722
216	0x3db2947f	0.0871973
217	0x3d596145	0.05307128
218	0x3c0e3e6c	0.008681875
219	0xbdd7bc53	-0.10533967
220	0x3d0e377e	0.03472089
221	0x3e6455b4	0.22298318
222	0x3ee301f0	0.44337416
223	0x3dcbf71b	0.09959241
224	0x3d5dd24d	0.054155637
225	0xbd27dca3	-0.0409819
226	0x3dc106cd	0.09425125
227	0x3e58673a	0.21133128
228	0xbed5381a	-0.41644365
229	0x3d04c1ce	0.03241139
230	0xbdbbf061	-0.09176708
231	0xbe146ddd	-0.14495035
232	0x3cf72285	0.030167827
233	0xbe6b949c	-0.23005909
234	0xbcf8893e	-0.03033888
235	0xbe44ed88	-0.19231236
236	0xbc139755	-0.009008248
237	0xbec98faa	-0.3936742
238	0x3e6777c2	0.22604278
239	0x3dc8d9e0	0.09807181
240	0xbce32713	-0.027728593
241	0x3deb77d3	0.11497464
242	0x3e2b100f	0.16705345
243	0xbeaef0e3	-0.34168157
244	0x3e236f5a	0.15960446
245	0x3e2e00eb	0.16992538
246	0x3e490f75	0.19634803
247	0x3d80191f	0.062547915
248	0x3eb6d017	0.35705635
249	0x3e91f359	0.28505972
250	0xbe3749c2	-0.1789923
251	0x3e031825	0.12802179
252	0x3df4ef7c	0.119597405
253	0x3c9331bb	0.01796805
254	0x3d6c598b	0.057702582
255	0x3c52fa11	0.012877003

mlp_extractor.policy_net.0.bias f4 [32]
0	0xbd2f8b82	-0.042857654
1	0xbda4aef7	-0.080411844
2	0x3e80a8bb	0.2512873
3	0xbe226c4c	-0.15861624
4	0xbdc964dc	-0.098336905
5	0x3c66b7dd	0.014081922
6	0x3d30da6f	0.043177065
7	0x3d268a06	0.040658973
8	0xbbdd0b3a	-0.006745723
9	0xbe1bb1fe	-0.15204617
10	0xbe61cf1e	-0.22051665
11	0x3da01799	0.07817001
12	0xbb6d1232	-0.0036174175
13	0xbe03dbfa	-0.12876883
14	0xbd5ca303	-0.053866398
15	0x3e3b5a9d	0.18296285
16	0x3e38c936	0.18045506
17	0x3e038c60	0.12846518
18	0x3ddf38b2	0.10899486
19	0x3dd9a483	0.10627081
20	0xbd998d9e	-0.074977145
21	0xbcced3fc	-0.025247566
22	0x3d2a7163	0.04161204
23	0x3d35f3e7	0.044422057
24	0x3e5a9462	0.21345666
25	0x3da6f849	0.081528254
26	0x3d57ad16	0.052655302
27	0xbd2ba42e	-0.04190462
28	0x3d3b9b79	0.045802567
29	0x3d26415e	0.040589683
30	0x3c2ccb18	0.010546468
31	0xbe2bf9f9	-0.16794576

mlp_extractor.policy_net.2.weight f4 [32, 32]
0	0x3daca273	0.08429422
1	0xbe70764c	-0.23482627
2	0x3e157880	0.14596748
3	0x3f0f9a7e	0.5609511
4	0x3e5cddbc	0.2156896
5	0xbeacaef7	-0.33727238
6	0xbe21ff42	-0.1582003
7	0x3efd9f0a	0.495354
8	0x3e95ab9e	0.29232496
9	0xbdeabfa5	-0.114623345
10	0x3f19e650	0.60117054
11	0xbf04ba8c	-0.5184715
12	0x3dbdf981	0.09276105
13	0xbd3c9787	-0.046042945
14	0x3cff574f	0.031169562
15	0x3e3d5d71	0.18492676
16	0xbf110a5a	-0.5665642
17	0xbf0ce384	-0.5503466
18	0x3ebffa47	0.37495634
19	0xbe8525e8	-0.26005483
20	0xbe910ca6	-0.28329962
21	0x3f30aac2	0.69010556
22	0xbeba2d5c	-0.3636273
23	0xbf14673c	-0.57970023
24	0xbd86e89c	-0.065873355
25	0xbec82289	-0.39088848
26	0xbe361508	-0.1778146
27	0xbf389a98	-0.7211089
28	0xbf1fca50	-0.6241808
29	0xbf07fe4a	-0.5312239
30	0x3e61e7ce	0.22061083
31	0xbdca0658	-0.09864491
32	0x3e8bbd18	0.27292705
33	0xbe807895	-0.25091997
34	0x3d764a82	0.06012965
35	0x3e930a42	0.28718764
36	0xbeb31855	-0.349795
37	0xbf011c2e	-0.50433624
38	0x3f26135c	0.6487329
39	0xbd890424	-0.06690243
40	0x3daf8ed0	0.08572161
41	0x3f20014d	0.62501985
42	0x3dedd7b9	0.116134115
43	0x3d849cad	0.06475196
44	0xbe9072e9	-0.2821267
45	0xbeb51b24	-0.3537227
46	0xbf09ab3f	-0.53776926
47	0xbe532c9a	-0.20622483
48	0x3dea8cbe	0.11452626
49	0xbc919725	-0.017772267
50	0x3e39f48e	0.18159696
51	0xbed4a787	-0.41534063
52	0x3f015485	0.5051959
53	0x3e958581	0.29203418
54	0x3f92b596	1.1461666
55	0x3e19952d	0.14998312
56	0xbe476179	-0.19470777
57	0xbee0e613	-0.43925533
58	0xbe96c161	-0.2944441
59	0x3f0c9fb2	0.54931176
60	0x3f45fdb0	0.7734022
61	0x3f220d4e	0.6330155
62	0xbc66f5e8	-0.014096715
63	0x3e3aa8de	0.1822848
64	0x3e032ac1	0.12809278
65	0x3e35a05d	0.17736955
66	0x3fa729b8	1.3059607
67	0xbe09f390	-0.13471818
68	0xbf144433	-0.57916564
69	0x3edf7a6a	0.43648082
70	0x3ed72403	0.42019662
71	0xbe8cb731	-0.27483514
72	0x3e1e1fbb	0.15441792
73	0xbf633330	-0.8874998
74	0xbe60c857	-0.21951424
75	0xbe3be630	-0.18349528
76	0xbea0c7f4	-0.31402552
77	0xbdddc269	-0.108280964
78	0x3e022425	0.127091
79	0x3e7be0c4	0.2459746
80	0x3ebd6bd8	0.3699634
81	0xbdacbd98	-0.084346
82	0x3f374ca9	0.7160135
83	0x3f28c89e	0.6593112
84	0x3d7ec490	0.062199175
85	0xbea49c1b	-0.3215035
86	0xbf0065ee	-0.5015553
87	0xbbf3c7cf	-0.0074395905
88	0x3e0575fa	0.13033286
89	0x3e969a71	0.29414704
90	0x3cad8835	0.021183113
91	0x3ea66d16	0.325051
92	0xbe83f88a	-0.25775558
93	0x3ec25a58	0.37959552
94	0x3de4f965	0.11180381
95	0xbf0cce8b	-0.5500266
96	0x3eb566f8	0.3543012
97	0xbe8d12bd	-0.2755336
98	0xbe2db4d1	-0.16963507
99	0xbea43176	-0.32068986
100	0xbd791e09	-0.06081966
101	0x3dd0c434	0.10193673
102	0xbbabef2d	-0.005247018
103	0xbecc6394	-0.39919722
104	0x3f300115	0.6875165
105	0x3ee91e39	0.4553087
106	0x3ea878e7	0.3290474
107	0x3d9696d7	0.07352989
108	0xbe8a89df	-0.27058312
109	0xbefd2687	-0.49443457
110	0x3d961a4d	0.07329235
111	0xbdf6c7a5	-0.12049798
112	0x3e5ccc34	0.21562272
113	0x3de0ed9b	0.1098282
114	0x3cf17077	0.029472573
115	0xbd9359db	-0.07194873
116	0x3f8984c8	1.0743647
117	0x3f46d632	0.77670586
118	0x3f5201d4	0.8203404
119	0x3f2b7584	0.6697619
120	0x3dc2bf98	0.095092
121	0xbee07990	-0.43842745
122	0x3ef77c06	0.4833681
123	0x3e55a930	0.20865321
124	0x3f132b4d	0.57487947
125	0x3f729ca4	0.94770265
126	0x3d88d02c	0.06680331
127	0xbe5be7cc	-0.21475142
128	0xbed0539b	-0.40688786
129	0xbe4fe223	-0.20301108
130	0xbe964f6f	-0.29357478
131	0x3e678339	0.22608651
132	0x3f6c6303	0.9233858
133	0x3ebc5c15	0.36789003
134	0x3ab0c3a0	0.0013486035
135	0x3dfc3b17	0.12315958
136	0xbe87c990	-0.26520967
137	0xbdabd11e	-0.08389495
138	0x3e1783f6	0.14796433
139	0x3e8a50a7	0.27014658
140	0xbe585df0	-0.21129584
141	0x3eafa44f	0.34305045
142	0xbd154be1	-0.036449317
143	0xbea957c7	-0.3307478
144	0x3f035588	0.51302385
145	0xbf5bc305	-0.8584445
146	0xbf383c25	-0.71966773
147	0x3ebe992a	0.3722623
148	0x3c9f4f7a	0.019447077
149	0xbf14c087	-0.58106273
150	0xbe6fb70b	-0.23409669
151	0xbe92fe5b	-0.28709683
152	0xbf1f4d23	-0.62227076
153	0xbdc6d51c	-0.09708616
154	0xbde20d68	-0.11037713
155	0x3ed7499f	0.42048356
156	0xbf3dbea0	-0.74118996
157	0xbdacac6f	-0.084313266
158	0xbe9c7a8b	-0.30562243
159	0xbd67431f	-0.056460496
160	0xbf417bc4	-0.75579476
161	0x3edaf568	0.42765355
162	0xbce4e5df	-0.027941642
163	0xbcb217e8	-0.021739915
164	0x3f361921	0.71132094
165	0x3dc8efca	0.09811361
166	0xbdf09d3d	-0.11748741
167	0xbdfa0a81	-0.12209035
168	0x3e9d370b	0.30706057
169	0x3e66dc18	0.22544897
170	0x3d090de6	0.03346052
171	0xbd4dede1	-0.050275687
172	0x3d9f670e	0.07783328
173	0xbd4a3005	-0.0493622
174	0x3e908a28	0.28230405
175	0x3e534eed	0.20635577
176	0xbf56914c	-0.83815455
177	0xbe6978e9	-0.2280003
178	0xbec4e4f5	-0.3845593
179	0xbe1950ef	-0.1497228
180	0xbdb7bd5f	-0.089716665
181	0x3e2a89e4	0.16654164
182	0x3e44278c	0.19155711
183	0xbf2672f9	-0.65019184
184	0xbebcaaba	-0.36849004
185	0xbec77759	-0.38958243
186	0x3dc75a81	0.09734059
187	0xbe878dd8	-0.26475406
188	0x3dac60e1	0.08416916
189	0x3e7be399	0.2459854
190	0x3f41f157	0.7575888
191	0xbe636f83	-0.22210507
192	0xbe64f54f	-0.22359203
193	0x3dc4fe79	0.09618849
194	0x3de04380	0.109503746
195	0xbcfb7134	-0.030693628
196	0xbe1686e2	-0.14699891
197	0x3e2aee2a	0.16692415
198	0x3dbac7f5	0.0912017
199	0x3f5a9df0	0.85397243
200	0x3f3017a4	0.6878607
201	0x3e3c6381	0.18397333
202	0xbe653be3	-0.22386126
203	0x3f13a81e	0.576784
204	0x3e7c37de	0.24630687
205	0xbee5ecc8	-0.44907212
206	0x3f4f54ce	0.80988777
207	0x3c21f9f7	0.009886256
208	0xbf4abe07	-0.7919621
209	0xbeea1b13	-0.4572378
210	0xbeeb0964	-0.45905602
211	0xbe9f2eb8	-0.3109033
212	0x3e4a5839	0.19760217
213	0x3eb95de4	0.36204445
214	0xbec5b49c	-0.38614357
215	0xbeac08f1	-0.33600572
216	0xbe0faea9	-0.14031471
217	0xbed796bc	-0.4210719
218	0x3ad26ed2	0.0016054756
219	0xbd92a36d	-0.07160077
220	0x3edfa0b0	0.43677282
221	0x3e144e9a	0.14483109
222	0x3e8d2f62	0.27575213
223	0x3dfc2c38	0.123131216
224	0x3ee03fd7	0.43798706
225	0xbf382460	-0.71930504
226	0x3f04e41d	0.51910573
227	0xbe09c9ad	-0.1345584
228	0xbf3a6bfe	-0.72821033
229	0xbc9d4a36	-0.019200426
230	0x3e0264e7	0.12733804
231	0x3e805350	0.25063562
232	0xbe1f9c4a	-0.15586963
233	0x3e096912	0.13418987
234	0xbec762c3	-0.38942537
235	0xbf48ff48	-0.7851453
236	0x3f3053e5	0.6887801
237	0xbef0ff0b	-0.47069582
238	0xbc073b31	-0.008253858
239	0xbe7c63b5	-0.2464741
240	0xbddbb78e	-0.1072837
241	0x3e1f8a8b	0.15580194
242	0x3d4b4ded	0.049634863
243	0xbeeb8444	-0.45999348
244	0x3e5b1d65	0.21397932
245	0x3f2102b6	0.6289476
246	0x3e00a77d	0.12563892
247	0x3e8fc6a0	0.28081226
248	0x3e40deda	0.18835011
249	0xbe90863f	-0.28227422
250	0x3e68ba20	0.22727251
251	0xbeccb3ac	-0.3998083
252	0x3f3c7600	0.73617554
253	0x3f26a67a	0.65097773
254	0x3d87bfd8	0.06628388
255	0xbe35f8c8	-0.17770684

mlp_extractor.policy_net.2.bias f4 [32]
0	0xbc29849f	-0.010346561
1	0xbd81ead8	-0.06343621
2	0x3dd25c3b	0.10271498
3	0x3e32e17b	0.17468826
4	0xbdaf33e2	-0.08554818
5	0xbdf34865	-0.118790425
6	0x3b0a95a4	0.0021146322
7	0x3de75b99	0.11296768
8	0x3ed74f13	0.42052516
9	0x3e013197	0.12616573
10	0x3e3cbf82	0.1843243
11	0x3dccd6c2	0.10001899
12	0x3e834db2	0.25645214
13	0xbba077e3	-0.004897104
14	0x3dd482fd	0.103765465
15	0x3bee4823	0.007271783
16	0xbdfb970e	-0.12284671
17	0xbda309d5	-0.0796086
18	0xbca60948	-0.020268098
19	0x3ea02783	0.31280145
20	0x3d298701	0.041388515
21	0x3e3bd307	0.1834222
22	0x3e04f05e	0.12982318
23	0x3de3fbeb	0.11132034
24	0x3d559710	0.052146018
25	0xbe6b216a	-0.22961965
26	0x3d85f305	0.06540493
27	0x3d8f31da	0.0699193
28	0xbdeb9c2a	-0.11504395
29	0xbe0508c2	-0.12991622
30	0xbd1f5289	-0.03889707
31	0xbca68a29	-0.020329552

mlp_extractor.value_net.0.weight f4 [32, 81]
0	0xbd87aa42	-0.06624271
1	0xbe1df58a	-0.15425697
2	0xbd82a97d	-0.063799836
3	0xbe4402f1	-0.19141747
4	0x3e2f567c	0.17122835
5	0x3bfcea88	0.007718388
6	0x3e449c65	0.19200285
7	0xbe4b7137	-0.19867407
8	0xbcb1f651	-0.021723898
9	0x3dce5346	0.10074477
10	0xbe177e00	-0.14794159
11	0x3c2ea8f5	0.0106604
12	0xbcec28fa	-0.028828133
13	0x3e5f5c4f	0.21812557
14	0xbd97d126	-0.07412939
15	0xbcd536e6	-0.026027154
16	0xbe28264e	-0.16420862
17	0x3eaa96bd	0.3331813
18	0x3d0fb4eb	0.035084646
19	0xbbd6fcab	-0.006560882
20	0xbe2f1b28	-0.17100203
21	0xbd052ea6	-0.03251519
22	0x3e815c90	0.25265932
23	0x3d8437b8	0.0645594
24	0x3c9c48fb	0.019077769
25	0xbe10ff15	-0.14159806
26	0xbe46b032	-0.1940315
27	0x3dbb6e44	0.09151891
28	0xbe43f556	-0.19136557
29	0x3dc922e5	0.09821109
30	0xbe3bb3ef	-0.18330358
31	0xbd4a962c	-0.04945962
32	0x3dc381f6	0.095462725
33	0x3dcbb413	0.09946456
34	0xbe22082f	-0.15823434
35	0x3c6af9c0	0.014341772
36	0x3e23f79d	0.16012426
37	0x3eb50b4c	0.3536018
38	0xbea5cf1a	-0.32384568
39	0xbe4e36ee	-0.20138142
40	0x3da12dfe	0.078701004
41	0x3c839d6d	0.016066277
42	0x3e23bc5a	0.15989819
43	0x3e9c8d24	0.30576432
44	0x3cb62d14	0.022238292
45	0x3e8e94f0	0.27848005
46	0x3c402827	0.011728323
47	0xbe508197	-0.20361935
48	0x3dcc75f7	0.099834375
49	0xbe25c6e6	-0.16189155
50	0x3c59565d	0.0132652195
51	0xbe7a9ebc	-0.24474615
52	0x3c3db548	0.011578865
53	0xbe894983	-0.26813897
54	0xbe64f588	-0.22359288
55	0xbda994ed	-0.082803585
56	0xbdc98cc1	-0.098413
57	0xbdf45968	-0.119311154
58	0x3d786888	0.060646564
59	0xbd97bee1	-0.07409454
60	0x3dabea75	0.083943285
61	0xbe21acf5	-0.15788634
62	0x3d82dcd5	0.063897766
63	0x3ed083cd	0.40725556
64	0xbd2511cf	-0.040300187
65	0xbe918463	-0.28421316
66	0x3e0b249f	0.13588189
67	0xbda5679d	-0.08076403
68	0xbdb23c12	-0.08702864
69	0x3ce7e8c4	0.028309233
70	0x3e71c97e	0.2361202
71	0xbdabcee0	-0.08389068
72	0xbc39afd9	-0.011333429
73	0x3dcce90f	0.1000539
74	0xbe193cb5	-0.14964564
75	0x3da05c06	0.07830052
76	0x3da14e5d	0.07876275
77	0x3d905194	0.0704681
78	0x3d922502	0.07135965
79	0xbe7a383a	-0.24435511
80	0x3de9ede9	0.11422331
81	0x3c916722	0.017749373
82	0x3e8b5250	0.27211237
83	0x3e19f54b	0.15034978
84	0xbdab28c6	-0.08357386
85	0x3d4fa664	0.05069579
86	0x3ded2c9d	0.11580775
87	0xbc179913	-0.009252804
88	0xbd8c843c	-0.06861159
89	0xbd9d084e	-0.076675996
90	0x3db217aa	0.0869592
91	0x3d7db1f5	0.06193729
92	0xbd5272e8	-0.051379114
93	0xbc577083	-0.0131493835
94	0xbd3ae976	-0.045632802
95	0x3e8608e9	0.26178673
96	0xbd633e9a	-0.055479623
97	0xbe32963f	-0.17440127
98	0x3c4e4038	0.012588553
99	0x3e802157	0.25025436
100	0xbde47547	-0.111551814
101	0x3df8a8e8	0.12141591
102	0x3e8043b3	0.2505165
103	0x3dd84616	0.10560243
104	0x3e0fad5d	0.14030977
105	0xbdd7e9f1	-0.10542668
106	0xbd90f247	-0.07077461
107	0xbdbcdd8c	-0.09221944
108	0x3d385b49	0.04500893
109	0x3ce01093	0.027351653
110	0xbb6fcdd1	-0.0036591182
111	0x3e1a82c3	0.15088944
112	0x3e4af2de	0.19819209
113	0xbc87ae44	-0.016562589
114	0xbd9dfd16	-0.07714288
115	0x3d782dce	0.060590558
116	0xbd89aff9	-0.06723017
117	0x3eb093cb	0.34487757
118	0x3e272700	0.16323471
119	0x3e4fb261	0.2028289
120	0xbdc499a4	-0.09599617
121	0xbe330878	-0.174837
122	0x3de11432	0.1099018
123	0xbdda7697	-0.106671505
124	0xbe92a6bd	-0.28642836
125	0x3b85f4d9	0.004088026
126	0xbe193b8f	-0.14964126
127	0x3e8b6ba0	0.2723055
128	0x3df55ef4	0.119810015
129	0xbcb229ad	-0.021748388
130	0xbda0662c	-0.07831988
131	0x3d5c8c5f	0.053844806
132	0xbe26d0b5	-0.16290553
133	0xbe7571ec	-0.23969239
134	0xbe665bb9	-0.22495927
135	0xbe596cf8	-0.21232975
136	0x3db9cf7a	0.09072776
137	0xbe88927a	-0.26674253
138	0x3e808381	0.2510033
139	0xbe19b673	-0.15011005
140	0xbda7fd3f	-0.082026
141	0x3e61e371	0.22059418
142	0x3d930d1b	0.07180234
143	0xbdb9263b	-0.09040495
144	0xbda44e58	-0.080227554
145	0xbd877b73	-0.06615343
146	0xbe10a70a	-0.1412622
147	0xbe6cd412	-0.23127773
148	0xbc6df96b	-0.014524798
149	0xbdb00cb1	-0.08596171
150	0xbd81f2ac	-0.06345114
151	0xbe7ab7f7	-0.2448424
152	0xbe0e1221	-0.13874103
153	0x3e967346	0.29384822
154	0x3e0508d1	0.12991644
155	0x3e534334	0.20631105
156	0xbd81039c	-0.062995166
157	0x3c60053d	0.013673124
158	0x3e5b7e3f	0.21434878
159	0xbeac05e5	-0.33598247
160	0xbea6716f	-0.32508418
161	0x3dbb1e3c	0.09136626
162	0x3dc7d86b	0.09758075
163	0xbca4e4f6	-0.020128708
164	0x3e23d2ed	0.1599843
165	0xbe438d14	-0.19096786
166	0x3e85363e	0.26017946
167	0xbbd60aa5	-0.0065320306
168	0x3de598c1	0.11210776
169	0x3e054520	0.1301465
170	0x3e22a35d	0.1588263
171	0xbd7dce65	-0.06196441
172	0x3d34d5ad	0.04414909
173	0xbe9d5d95	-0.3073546
174	0xbde9319c	-0.11386415
175	0xbdbc531f	-0.091955416
176	0xbddda05e	-0.10821603
177	0xbe3a06f5	-0.18166716
178	0xbcf7566f	-0.030192582
179	0x3dd07b08	0.10179716
180	0xbb1b5dd6	-0.0023707054
181	0x3d8b5234	0.068027884
182	0x3d12ed51	0.035870854
183	0xbe01b414	-0.1266635
184	0xbe0971c8	-0.1342231
185	0x3c8df3a3	0.01732809
186	0x3b9d2259	0.0047953543
187	0x3e76ca8c	0.24100703
188	0xbd9d33c1	-0.07675887
189	0x3d64b860	0.055839896
190	0xbe4126d0	-0.18862462
191	0x3eb20ff7	0.34777805
192	0xbe88272a	-0.2659238
193	0xbdebac57	-0.115074806
194	0x3e0fe947	0.14053832
195	0x3e82e46c	0.25564897
196	0xbe7e9495	-0.24861367
197	0xbcc4845d	-0.023988897
198	0xbd7d6a69	-0.06186906
199	0x3e761005	0.24029548
200	0x3e9b1966	0.30292815
201	0xbe4765fa	-0.19472495
202	0xbe5ce14a	-0.21570316
203	0x3d9789ea	0.07399352
204	0x3e05e64a	0.1307613
205	0xbea89a5a	-0.3293026
206	0x3e4917a5	0.19637926
207	0x3e73376b	0.23751609
208	0xbe3bc98e	-0.18338606
209	0xbe13e718	-0.14443624
210	0x3e93cff7	0.28869602
211	0xbdcedba5	-0.101004876
212	0x3dd01950	0.10161078
213	0x3e3b1d6c	0.18272942
214	0xbd3d61b8	-0.04623577
215	0x3e79235b	0.24329893
216	0x3d9f0365	0.07764319
217	0xbdc19ab6	-0.09453337
218	0xbe45d726	-0.19320354
219	0xbd611fc9	-0.054961953
220	0x3de7b366	0.113135144
221	0x3d500484	0.050785556
222	0xbd968d77	-0.07351201
223	0xbde0d420	-0.1097796
224	0x3da40c46	0.080101535
225	0xbe9b4f0b	-0.30333742
226	0xba4694da	-0.0007575281
227	0xbc2540b4	-0.010086227
228	0xbd0440d0	-0.032288373
229	0xbe0abf33	-0.13549499
230	0x3d937804	0.072006255
231	0x3dcb1124	0.09915379
232	0xbd8f342a	-0.069923714
233	0xbcf5bfb4	-0.029998638
234	0x3e8fd5f5	0.28092924
235	0xbde6794b	-0.112536035
236	0x3daccec5	0.08437876
237	0xbe7841d1	-0.24243857
238	0xbd8fe009	-0.07025153
239	0xbddf2893	-0.10896411
240	0xbd8d10ea	-0.06887992
241	0x3dc662d8	0.09686822
242	0xbc9648f8	-0.018345341
243	0xbee18042	-0.44043165
244	0x3eaecb60	0.34139538
245	0x3dc6acf0	0.09700954
246	0xbed509eb	-0.4160913
247	0xbe3d544c	-0.18489188
248	0xbe0ab295	-0.13544686
249	0x3c758eb5	0.014987637
250	0xbddbd9fe	-0.10734938
251	0xbe88e4d9	-0.26737097
252	0x3d9f14e1	0.07767654
253	0x3c785fd6	0.015159568
254	0x3e05b7df	0.13058423
255	0x3de4581a	0.111496165

mlp_extractor.value_net.0.bias f4 [32]
0	0x00000000	0.0
1	0x00000000	0.0
2	0x00000000	0.0
3	0x00000000	0.0
4	0x00000000	0.0
5	0x00000000	0.0
6	0x00000000	0.0
7	0x00000000	0.0
8	0x00000000	0.0
9	0x00000000	0.0
10	0x00000000	0.0
11	0x00000000	0.0
12	0x00000000	0.0
13	0x00000000	0.0
14	0x00000000	0.0
15	0x00000000	0.0
16	0x00000000	0.0
17	0x00000000	0.0
18	0x00000000	0.0
19	0x00000000	0.0
20	0x00000000	0.0
21	0x00000000	0.0
22	0x00000000	0.0
23	0x00000000	0.0
24	0x00000000	0.0
25	0x00000000	0.0
26	0x00000000	0.0
27	0x00000000	0.0
28	0x00000000	0.0
29	0x00000000	0.0
30	0x00000000	0.0
31	0x00000000	0.0

mlp_extractor.value_net.2.weight f4 [32, 32]
0	0x3dba0b71	0.090842135
1	0x3e95d107	0.29261038
2	0x3e367026	0.17816219
3	0x3edf1bc5	0.43575874
4	0x3ed0cbd9	0.40780523
5	0xbe836d61	-0.25669387
6	0xbd12b5ee	-0.035818033
7	0xbd62d76b	-0.05538122
8	0x3dbf783d	0.093491055
9	0xbe13a4d7	-0.1441835
10	0x3ea5db5b	0.32393917
11	0xbed2e56e	-0.41190666
12	0x3d52520c	0.051347777
13	0x3ec042ad	0.3755087
14	0xbecc91a6	-0.3995487
15	0x3ecda805	0.4016725
16	0x3e8ac5b8	0.27103972
17	0xbe0dc122	-0.13843206
18	0xbc458be5	-0.012057279
19	0x3dc7fad5	0.09764639
20	0x3ebd89a4	0.37019074
21	0xbe07180e	-0.1319277
22	0x3c9bf9c0	0.019039989
23	0xbeae99b8	-0.34101653
24	0x3d0407d6	0.032234035
25	0xbe96e006	-0.2946779
26	0xbe88943d	-0.26675597
27	0x3c7112b7	0.014713935
28	0x3e3f754d	0.1869709
29	0xbcfc94f7	-0.03083275
30	0x3e99e5f7	0.30058262
31	0xbe11d416	-0.1424106
32	0xbe0275d1	-0.12740256
33	0x3ef06445	0.469515
34	0x3e24efc7	0.16107093
35	0xbb236c2e	-0.0024936306
36	0xbea79cd8	-0.3273685
37	0xbc587727	-0.013212002
38	0x3ea3e086	0.32007235
39	0x3e498428	0.1967932
40	0xbe8b0835	-0.271547
41	0x3e43d498	0.19124067
42	0xbe53a18b	-0.20667093
43	0xbeaba013	-0.33520564
44	0x3e71c6fd	0.23611064
45	0xbd02895a	-0.03186927
46	0x3ce90cdd	0.028448517
47	0x3e850fd9	0.25988653
48	0x3e5d8dd4	0.21636134
49	0xbd47234e	-0.048617654
50	0xbe181d2e	-0.14854881
51	0xbd93c29b	-0.072148524
52	0xbec60564	-0.38675988
53	0x3e2f4172	0.17114809
54	0x3ecc9c03	0.39962777
55	0xbe8e6f98	-0.27819514
56	0xbebada1e	-0.36494535
57	0xbe87ed99	-0.2654846
58	0x3ed975f9	0.42472818
59	0x3cd5b566	0.026087474
60	0xbcc0a846	-0.023517739
61	0xbeb6d3e1	-0.35708526
62	0xbdbe15e9	-0.09281523
63	0x3e94d903	0.29071817
64	0x3ddc4162	0.10754658
65	0xbc74ddba	-0.014945442
66	0x3d27ede0	0.04099834
67	0x3e75c593	0.2400115
68	0xbdd5a485	-0.1043177
69	0x3c4b5370	0.01241003
70	0x3ed2d563	0.41178426
71	0x3de9c24d	0.11414013
72	0x3ddbf317	0.10739725
73	0xbcb8a949	-0.022541659
74	0x3eb98309	0.36232784
75	0x3eb7827c	0.3584174
76	0xbe5741b3	-0.21021156
77	0x3d24c251	0.040224377
78	0xbdb54d70	-0.08852661
79	0xbe802db4	-0.2503487
80	0xbf047808	-0.51745653
81	0x3e385ae4	0.18003422
82	0xbe8672c1	-0.26259425
83	0xbec366ab	-0.38164267
84	0xbe92cbba	-0.28671056
85	0xbf052a20	-0.520174
86	0x3e0f093d	0.13968368
87	0xbe4f1285	-0.20221908
88	0xbe5ea1d5	-0.21741422
89	0xbe82c29c	-0.255391
90	0x3dc0e301	0.094182976
91	0x3e1b3c5a	0.15159741
92	0xbd9d3a5f	-0.07677149
93	0x3da08542	0.07837917
94	0x3f017dcc	0.50582576
95	0xbdab1210	-0.083530545
96	0x3eab8663	0.33500966
97	0x3e989610	0.2980199
98	0xbefd0101	-0.49414828
99	0xbddd8462	-0.10816266
100	0xbdb9fc98	-0.090813816
101	0xbe2851bf	-0.16437434
102	0x3e3dfde3	0.18553881
103	0x3eb6a4a5	0.3567249
104	0x3df89d78	0.1213941
105	0x3e0830c2	0.1329985
106	0x3cded391	0.027200492
107	0x3ef8db0b	0.48604617
108	0x3ee31671	0.4435306
109	0x3e441a7a	0.19150725
110	0xbe23a8a5	-0.15982302
111	0x3ce4cfc5	0.027931103
112	0x3efaea0b	0.49006686
113	0x3de18dff	0.11013412
114	0xbc55c4fd	-0.013047454
115	0xbe4f64eb	-0.20253341
116	0x3df60aae	0.12013756
117	0xbed34e66	-0.4127075
118	0xbd9cb3ea	-0.076515034
119	0xbdd587ec	-0.10426316
120	0x3e2303f5	0.15919478
121	0x3e478feb	0.19488494
122	0xbdbd618d	-0.09247122
123	0xbeb57cbe	-0.35446733
124	0xbe713653	-0.2355588
125	0xbc503302	-0.012707474
126	0xbe80cd10	-0.2515645
127	0x3d98f2c1	0.07468177
128	0xbea7c440	-0.32766914
129	0x3e044744	0.1291781
130	0x3ab186f6	0.001354425
131	0x3e7592e1	0.23981811
132	0xbedaa442	-0.42703444
133	0x3ea95e46	0.33079737
134	0xbe4455ff	-0.1917343
135	0xbf04a010	-0.51806736
136	0x3da89e01	0.08233262
137	0xbe2be1f7	-0.16785417
138	0x3d87f012	0.06637587
139	0x3ed029ed	0.40656987
140	0x3e7b751c	0.24556392
141	0x3dfbc708	0.122938216
142	0xbc34e196	-0.011040112
143	0x3d728636	0.059210025
144	0x3e1272ec	0.14301652
145	0xbd5ced14	-0.053937033
146	0xbc1448f9	-0.009050601
147	0x3e27260e	0.1632311
148	0xbdcefaac	-0.101064056
149	0xbe620343	-0.22071557
150	0x3ec52eed	0.38512364
151	0xbd278696	-0.040899836
152	0xbe72ac21	-0.23698474
153	0xbc99482c	-0.018711172
154	0xbec649d2	-0.38728195
155	0x3df7ed5b	0.12105819
156	0x3edf61ec	0.43629396
157	0x3ec5c8b8	0.386297
158	0xbe84dc4e	-0.2594933
159	0x3e6696a2	0.225184
160	0xbe82a5f1	-0.25517228
161	0xbdd0264e	-0.10163556
162	0xbe17a208	-0.14807904
163	0x3e94b688	0.2904551
164	0x3ed21185	0.4102899
165	0x3d39c3ef	0.045352872
166	0xbe1dc320	-0.15406466
167	0x3d1638c0	0.036675215
168	0xbe96677c	-0.29375827
169	0xbe7a807e	-0.24463078
170	0x3e55a859	0.20865001
171	0xbdddec79	-0.10836119
172	0xbdae64e3	-0.08515336
173	0xbe825f10	-0.25463152
174	0x3e034d12	0.12822369
175	0xbdc9a641	-0.098461635
176	0x3e8d89e4	0.27644265
177	0xbe23c13e	-0.15991685
178	0x3e7f34e6	0.24922523
179	0x3cd8d8e0	0.026470602
180	0x3d86fbc9	0.06590993
181	0xbf01f7df	-0.50768846
182	0x3e1f1241	0.15534307
183	0xbd5c2a34	-0.053751186
184	0x3d116b45	0.03550269
185	0x3e92446e	0.28567833
186	0x3f372325	0.71538
187	0xbcb1c837	-0.021701915
188	0xbdae8195	-0.085208096
189	0x3e9523b1	0.29128793
190	0x3d452847	0.048134115
191	0x3ed9098a	0.4239009
192	0xbe61f7f2	-0.2206724
193	0xbd3bbd8b	-0.04583506
194	0xbe2d7cba	-0.1694211
195	0x3d3a4946	0.045480035
196	0x3d7dcf17	0.061965074
197	0x3eabfc2f	0.33590838
198	0xbd95c456	-0.07312839
199	0x3b913d8b	0.0044323853
200	0x3e97eb0b	0.2967151
201	0xbcab525f	-0.020913301
202	0xbe778419	-0.24171485
203	0xbeaafc5f	-0.3339567
204	0x3c98693d	0.018604869
205	0x3e5a0abb	0.21293156
206	0x3e4e4bca	0.20146099
207	0x3dfe3477	0.124123506
208	0xbe9f1531	-0.31070855
209	0xbe703d7f	-0.23460959
210	0x3e7413a8	0.23835623
211	0xbeded38f	-0.4352078
212	0x3d87bc10	0.06627667
213	0xbe32f5a0	-0.17476511
214	0xbea9c06d	-0.33154622
215	0xbd4258dc	-0.047448024
216	0xbe4b49ba	-0.19852343
217	0xbe8138d5	-0.25238672
218	0xbec3dd76	-0.382549
219	0xbe6a04aa	-0.22853342
220	0xbed20e97	-0.41026756
221	0xbd7b0dbe	-0.061292402
222	0x3bd481b4	0.0064851884
223	0x3f256d19	0.64619595
224	0xbe1445db	-0.14479773
225	0xbc95b4e3	-0.01827473
226	0xbeaa663a	-0.33281118
227	0x3d453f8a	0.0481563
228	0x3e51dc37	0.20494162
229	0x3e16a0a4	0.14709717
230	0xbcd80473	-0.026369309
231	0x3eadb7ce	0.33929294
232	0x3dd2035b	0.10254546
233	0x3db81fc0	0.08990431
234	0x3ea84b04	0.32869732
235	0xbc7d1d1f	-0.015448838
236	0xbd0f0bcf	-0.03492337
237	0xbd729329	-0.059222374
238	0x3f294dd2	0.6613437
239	0x3ec2af99	0.38024595
240	0xbd0ff902	-0.03514958
241	0xbeb436e0	-0.35198116
242	0xbe11e67b	-0.14248078
243	0xbdb9eb06	-0.0907803
244	0x3dacfc70	0.08446586
245	0xbe542cea	-0.20720258
246	0x3e6c39be	0.23068902
247	0x3e33aff4	0.1754759
248	0xbe7edea6	-0.24889621
249	0x3dc3bb9e	0.095572695
250	0xbe24310f	-0.1603434
251	0x3eb25163	0.34827718
252	0x3d98e684	0.07465842
253	0xbeac8249	-0.3369315
254	0xbe978f7d	-0.2960166
255	0xbf028b57	-0.50993866

mlp_extractor.value_net.2.bias f4 [32]
0	0x00000000	0.0
1	0x00000000	0.0
2	0x00000000	0.0
3	0x00000000	0.0
4	0x00000000	0.0
5	0x00000000	0.0
6	0x00000000	0.0
7	0x00000000	0.0
8	0x00000000	0.0
9	0x00000000	0.0
10	0x00000000	0.0
11	0x00000000	0.0
12	0x00000000	0.0
13	0x00000000	0.0
14	0x00000000	0.0
15	0x00000000	0.0
16	0x00000000	0.0
17	0x00000000	0.0
18	0x00000000	0.0
19	0x00000000	0.0
20	0x00000000	0.0
21	0x00000000	0.0
22	0x00000000	0.0
23	0x00000000	0.0
24	0x00000000	0.0
25	0x00000000	0.0
26	0x00000000	0.0
27	0x00000000	0.0
28	0x00000000	0.0
29	0x00000000	0.0
30	0x00000000	0.0
31	0x00000000	0.0

action_net.weight f4 [5, 32]
0	0x3e2a6da7	0.16643392
1	0xbeb3e9c9	-0.351393
2	0x3e25e645	0.16201122
3	0xbefc7326	-0.493066
4	0x3e12e094	0.14343482
5	0x3e4b9ecb	0.19884793
6	0x3ebd07a3	0.3691989
7	0x3c646cd3	0.013941961
8	0xbef7af5c	-0.48375976
9	0xbdab7a4f	-0.08372938
10	0x3eab6e41	0.33482555
11	0x3e9410aa	0.28918964
12	0x3d933e8a	0.07189663
13	0x3d5d782c	0.054069683
14	0xbeb74f05	-0.35802475
15	0x3f006e74	0.5016854
16	0xbee3cfea	-0.44494563
17	0xbe01368d	-0.12618466
18	0xbee8f296	-0.45497578
19	0xbb3b63de	-0.002859346
20	0x3f0f1499	0.55890805
21	0x3f0dd882	0.5540849
22	0xbf0e6340	-0.55620193
23	0xbe0adf61	-0.13561775
24	0x3f02b4b5	0.5105699
25	0xbe964205	-0.29347244
26	0x3eb1ce67	0.34727785
27	0xbe9cceca	-0.30626518
28	0xbf023bf0	-0.5087271
29	0x3f173dcf	0.5907869
30	0xbe357e44	-0.17723948
31	0xbea2b7bb	-0.317808
32	0x3f7167a5	0.94298774
33	0xbe260db2	-0.16216162
34	0xbf3eb52f	-0.74495214
35	0xbdcefd0d	-0.10106859
36	0xbe1c1f0e	-0.15246221
37	0x3e21f8a9	0.15817513
38	0x3e42b933	0.1901596
39	0x3de90b42	0.113791004
40	0x3d82b719	0.06382579
41	0x3e215984	0.15756804
42	0xbf274f93	-0.65355796
43	0xbf43fb44	-0.76555276
44	0xbe34b4f8	-0.17647159
45	0x3d560364	0.052249327
46	0xbeb593e3	-0.3546439
47	0xbf203b9d	-0.6259096
48	0xbdeaa512	-0.11457266
49	0x3f2965de	0.6617106
50	0xbe099a3e	-0.13437745
51	0xbee96ce7	-0.45590898
52	0xbece07fa	-0.4024046
53	0xbd1e5a16	-0.03866013
54	0xbe316889	-0.17325033
55	0x3e46e0f0	0.19421744
56	0xbd688f38	-0.05677721
57	0x3f642582	0.8911973
58	0x3e3e66e7	0.18593942
59	0xbe8565e9	-0.26054314
60	0x3ef5792b	0.47944006
61	0xbd73b110	-0.05949503
62	0x3e68d3a3	0.22736983
63	0xbf0028b2	-0.50062096
64	0xbec47ba3	-0.38375577
65	0x3f17524a	0.5910994
66	0x3e3963ee	0.18104526
67	0x3ed27f73	0.4111286
68	0xbf1fcac7	-0.6241879
69	0xbe42d2c7	-0.19025718
70	0xbe266cb1	-0.162524
71	0x3f3dc825	0.7413352
72	0xbe278dd1	-0.16362692
73	0xbf097631	-0.5369597
74	0x3eaaac01	0.33334354
75	0x3f01b3de	0.5066508
76	0x3ee834b4	0.4535271
77	0x3efd3196	0.49451894
78	0x3db72f91	0.089446194
79	0x3d781466	0.06056633
80	0xbf00aa1d	-0.5025957
81	0xbe6fd771	-0.23422028
82	0x3ebd26d6	0.36943692
83	0x3eb3139a	0.34975892
84	0xbee80d46	-0.45322627
85	0xbebcfd84	-0.36912167
86	0x3edbee91	0.4295545
87	0x3eca5c1c	0.395234
88	0xbe5822d8	-0.21107042
89	0xbf252190	-0.6450434
90	0xbdedb3f4	-0.11606589
91	0x3ed5a699	0.41728666
92	0x3e51ba45	0.20481212
93	0xbed2c078	-0.41162467
94	0x3e48ccc9	0.1960937
95	0xbe49d513	-0.19710188
96	0xbf0f03cd	-0.55865175
97	0xbf3cb959	-0.7372032
98	0x3f24be4b	0.64352864
99	0xbeffb4f2	-0.49942738
100	0x3e947573	0.28995857
101	0xbdf3ce20	-0.119045496
102	0xbf144bc7	-0.5792813
103	0xbf5f25aa	-0.87166846
104	0x3ea68e41	0.32530406
105	0x3ea56ed0	0.32311106
106	0x3ee9e94e	0.4568581
107	0x3ce61c58	0.028089687
108	0xbdc4f343	-0.09616711
109	0xbef6cf3a	-0.48204976
110	0x3eb2111a	0.34778672
111	0xbeee7586	-0.46574038
112	0x3f4a8cbb	0.7912099
113	0xbf107362	-0.5642606
114	0x3e9d9db8	0.30784392
115	0x3dd6b61d	0.10483954
116	0x3f0feb5e	0.56218517
117	0x3df1b0ba	0.11801286
118	0x3f39bdde	0.7255534
119	0xbeba5d83	-0.3639947
120	0xbe85280d	-0.2600712
121	0x3e560ffd	0.20904537
122	0xbed81915	-0.42206636
123	0x3eabc1df	0.3354635
124	0xbeffff22	-0.49999338
125	0x3eb4b578	0.352947
126	0xbf25f3d6	-0.6482519
127	0x3f7e8be9	0.99432236
128	0xbea8bccc	-0.3295654
129	0x3ee9e4d0	0.45682383
130	0xbe924ff4	-0.28576624
131	0x3f31f718	0.6951766
132	0x3f28c80f	0.65930265
133	0xbcc266d9	-0.023730682
134	0x3e118f86	0.14214906
135	0xbf0cd5bc	-0.5501363
136	0xbe9a18cb	-0.3009704
137	0xbebbb3bc	-0.36660564
138	0xbf2261a9	-0.6343027
139	0x3e7706c7	0.24123679
140	0xbf2a73d1	-0.6658297
141	0x3de81bfe	0.11333464
142	0x3ee22d9b	0.4417542
143	0x3edd3a78	0.4320867
144	0x3f0cc4b4	0.54987645
145	0x3eb4eb51	0.35335782
146	0xbd7cc116	-0.06170758
147	0x3e852805	0.26007095
148	0xbef63524	-0.48087418
149	0xbf13e500	-0.577713
150	0xbe69ca4d	-0.22831078
151	0xbe7400d1	-0.23828436
152	0xbe863195	-0.26209703
153	0xbe3fc7b5	-0.18728526
154	0x3d13b3e8	0.036060244
155	0xbe6e5498	-0.23274457
156	0x3ec5e3d7	0.3865039
157	0xbedb278e	-0.42803615
158	0x3e2894f8	0.16463077
159	0x3f12c157	0.57326263

action_net.bias f4 [5]
0	0x3b71d14d	0.0036898435
1	0xbdf1ee07	-0.11812978
2	0x3ded29d1	0.115802415
3	0xbe30de53	-0.1727231
4	0xbe8d0331	-0.27541497

value_net.weight f4 [1, 32]
0	0xbd217520	-0.03941834
1	0x3dc7e83d	0.09761093
2	0xbe2605bc	-0.16213125
3	0x3c996558	0.018725082
4	0x3eac211b	0.33619007
5	0x3db86a29	0.090046234
6	0xbd64283f	-0.055702444
7	0xbe7d3f39	-0.24731149
8	0x3e8817de	0.2658071
9	0x3bfea1cf	0.007770754
10	0x3e5393af	0.20661806
11	0x3e20bfb3	0.15698127
12	0x3e292662	0.16518548
13	0x3e7555d3	0.2395852
14	0xbe6afcd7	-0.22948013
15	0xbe47b7a0	-0.19503641
16	0x3e1a47af	0.15066408
17	0xbd665bf3	-0.056240033
18	0x3c9eb798	0.019374654
19	0x3c40bbda	0.011763537
20	0x3e610a23	0.21976523
21	0x3d185422	0.03718961
22	0xbe26d5bf	-0.16292475
23	0x3e80d994	0.25166
24	0x3e39e405	0.18153389
25	0xbe9225d0	-0.28544474
26	0xbe91b450	-0.2845788
27	0xbe037450	-0.12837338
28	0xbe82961e	-0.25505155
29	0x3d33bfd9	0.043884132
30	0x3c5b15c9	0.013371893
31	0xbe0b2127	-0.13586865
