toy_its/train_logs/map_randompos/eval/bc_model_4000000.pth (torch, 38914 bytes, 11 tensors)

mlp_extractor.policy_net.0.weight f4 [32, 81]
000000 0c 8f b7 bd f8 a1 34 bd 4c b1 8b bd 7b 30 99 bc
       -0.08962831 -0.044099778 -0.06820926 -0.018699875
000010 0e 65 b6 be 7b 99 f0 3e ac f7 a8 3e b9 09 51 39
       -0.35623974 0.46992096 0.3300146 0.00019935415
000020 a4 09 44 be 0a 7a 86 3d 0f 87 24 3e f4 72 f1 3d
       -0.19144303 0.06566246 0.16067146 0.11789504
000030 19 66 a4 be f6 70 19 3e bd 02 8f 3d f2 59 34 3e
       -0.32109144 0.14984497 0.06982944 0.17612436
000040 ae 79 0c be a5 1c bb bd 59 0a 2e 3e 25 14 55 3e
       -0.13718292 -0.09136323 0.16996135 0.20808466
000050 af a5 29 3d 91 c7 81 3e a7 bf 0d be 63 5f 7f 3e
       0.041417774 0.2534757 -0.13842641 0.24938731
000060 79 e9 b3 3e 51 c8 9c be a3 bf f3 3d 28 04 a2 bd
       0.35139063 -0.3062158 0.11901786 -0.07910949
000070 1b f5 82 3e 41 bf e6 be 0a 3d 5e bb e3 58 73 3e
       0.25577626 -0.4506779 -0.0033910894 0.23764376
000080 46 6e 0d be 70 de 6e be 34 8f 3c be fc a3 9b 3d
       -0.13811597 -0.2332704 -0.18414003 0.07599637
000090 ca 30 53 3d 3c 72 5a be 1f 90 5c be b4 b5 58 be
       0.0515602 -0.2133264 -0.21539353 -0.21163064
0000a0 bc 6f d1 3d 6c 20 c0 3e 1e 86 9d be 5d df bd bd
       0.1022639 0.37524736 -0.30766386 -0.09271119
0000b0 56 e0 d0 be b9 26 94 3d aa 29 81 3e b9 c6 2a be
       -0.40796155 0.07233948 0.252271 -0.16677369
0000c0 d9 b4 a0 be cb f2 d8 3e 2e d5 82 3e 6d 65 bc 3c
       -0.31387976 0.42372736 0.25553268 0.022997582
0000d0 f1 8b 85 3e e4 98 6b 3e 1d f2 b5 3e 5d fe 86 3e
       0.2608333 0.23007542 0.3553628 0.2636594
0000e0 94 25 99 3e 54 f8 ee 3e c8 81 23 bd 4c 61 42 3e
       0.29911482 0.46673834 -0.03991869 0.18982428
0000f0 10 c3 8b bf e0 ab 87 3e f2 57 bc bc 30 23 0f 3e
       -1.0918903 0.26498318 -0.022991154 0.13978267
000100 26 c7 15 be 0f 91 4d be 13 f3 e3 3a c6 de fd 3d
       -0.1462675 -0.20074867 0.0017391167 0.12396006
000110 dc 39 31 3e ee ec 85 3e 90 c1 8e bd 31 35 6f 3e
       0.17307228 0.26157326 -0.06970513 0.23360135
000120 43 7d e4 3d d5 e6 a7 3e 78 20 41 be d6 56 87 3d
       0.11156704 0.32793298 -0.18860042 0.066083595
000130 93 2f b6 3e 51 9a 07 3f 56 ee cc be 9d 26 ca be
       0.3558317 0.52969843 -0.40025586 -0.39482585
000140 2f 8a 50 be 6b 21 79 bc 88 8a ba bd 03 b1 d4 bd
       -0.20365213 -0.015205721 -0.09108454 -0.10385325
000150 5d 76 97 bd 6f 44 f5 bd f5 78 8c be c5 0c 89 be
       -0.07395623 -0.11975943 -0.27436033 -0.26767555
000160 cc 14 d6 3d 01 2f 69 3d 85 8c 21 3e 59 14 3d bd
       0.104531854 0.056929592 0.1577626 -0.046161983
000170 fb 5b 28 bd f5 0d 0f be af 4d b5 bd 61 af 83 be
       -0.041103344 -0.13970168 -0.088527076 -0.2571974
000180 b4 4a 49 3e 37 c4 81 3e 5a 21 97 3d 42 70 4c be
       0.19657403 0.25345013 0.07379408 -0.19964698
000190 8b 71 28 be 64 0c 8e be eb a4 72 be a6 8a ab 3d
       -0.16449563 -0.27743828 -0.23695724 0.083760545
0001a0 71 4e 54 be 29 be 11 bf c7 ef eb bd ee aa 68 3e
       -0.20733048 -0.56930786 -0.11520343 0.22721455
0001b0 f6 bf 42 be 8a 71 9e be 89 5b 86 3e 32 89 c7 bd
       -0.1901854 -0.30945998 0.2624171 -0.09742965
0001c0 c2 fb b1 bd a8 fa 9f 3d 59 dc f5 3e 89 e4 2e 3e
       -0.08690597 0.07811481 0.48019674 0.17079367
0001d0 e1 3d 38 3e b2 3a 77 3c 98 f9 71 be 8f 1f 37 bd
       0.17992355 0.015089678 -0.23630369 -0.04470783
0001e0 91 b9 22 3e bd f1 b4 3e bd 31 28 bd fa 87 1c be
       0.158911 0.35340682 -0.04106306 -0.15286246
0001f0 7b 50 9f be 93 8d 0c 3e 64 1d 12 be 48 e3 b3 be
       -0.3111609 0.13725881 -0.14269024 -0.3513434
000200 23 00 fd bc 89 51 5e 3e a9 ad a8 be f3 3f f0 bd
       -0.030883854 0.2171079 -0.32944992 -0.11730947
000210 78 85 4b be 85 15 1b be a4 0c 82 3e b1 d9 3d 3d
       -0.19875133 -0.15144928 0.2540027 0.046350185
000220 8c 19 44 be 02 88 7a be c8 c6 aa be 4d 7f 63 3d
       -0.1915037 -0.24465945 -0.33354783 0.055541325
000230 20 32 88 3e 98 e2 c8 3e 6f 57 cd bc 03 13 06 bd
       0.26600742 0.39235377 -0.025066106 -0.032732975
000240 34 a4 93 3d f9 b3 9f 3e 0d 1a a5 3e 05 4c 5b be
       0.07209054 0.31191996 0.32246438 -0.21415718
000250 92 fb 27 bd 59 8e 5a 3d 9a fd 5b 3d ee ce 35 bd
       -0.0410114 0.05335841 0.05370865 -0.044386797
000260 15 4a 07 be f4 9d 3e bc ad e6 ad be f3 05 a6 3e
       -0.13211854 -0.011634339 -0.33965054 0.32426414
000270 f5 cc 58 3e fa fc ca bd df e6 9a be 7f a6 19 3e
       0.21171935 -0.09911533 -0.30254266 0.1500492
000280 ac 6b 12 3f 91 1b 50 3d f7 58 27 be 82 05 25 3e
       0.57195544 0.05080754 -0.16342531 0.16115382
000290 dd bb 12 bd 59 b6 20 3d 78 62 9d 3d 75 5d 94 bc
       -0.03582369 0.0392364 0.07684797 -0.01811097
0002a0 ec 32 a2 3e b1 6f 65 bd 3d f0 03 3e 5b ea 08 bd
       0.31679475 -0.05601472 0.12884612 -0.033426624
0002b0 d0 06 4b 3e c3 c7 58 3d 9b 1e 75 be 9e 05 89 be
       0.19826818 0.052924883 -0.23937456 -0.26762098
0002c0 29 1c 05 3e e2 9a 1b bc 0b 2c 7b 3d 6c 5b 9c be
       0.12999023 -0.009497376 0.0613213 -0.305385
0002d0 50 04 70 be fb 39 6f bd e7 e3 8f be 13 47 99 be
       -0.23439145 -0.058404904 -0.28103563 -0.29937038
0002e0 be f1 0e 3d b1 33 34 be 43 82 82 3e be d6 98 3e
       0.034898512 -0.17597844 0.25490007 0.29851335
0002f0 78 93 24 3e 5b 04 c1 3d 3a 3b b1 be 3c 1f 39 be
       0.1607188 0.09424659 -0.346155 -0.18078321
000300 dd 5d 4a 3e e3 cc 5a be 49 42 5c bd 16 23 d7 bd
       0.19762369 -0.2136722 -0.053774152 -0.10504739
000310 ee 27 e1 3e b7 6b 63 3d 7f 5f 2d 3d 7e eb 65 bd
       0.43975776 0.055522647 0.0423274 -0.056132786
000320 27 3a 62 3d 28 cd 8d 3d ff cd 49 3d 91 3b 15 be
       0.05523124 0.06923896 0.04926872 -0.14573504
000330 bd 9b 5b 3e 81 aa 27 3e 07 cd 64 be f3 92 13 be
       0.21446128 0.16373636 -0.22343837 -0.14411525
000340 81 6c b1 be d7 79 02 3e 4f 8a bb bd a3 36 af be
       -0.34653094 0.1274179 -0.0915724 -0.34221372
000350 08 e9 83 be 7f a8 17 ba 37 91 69 3f a6 17 55 bd
       -0.25763726 -0.0005785301 0.91237205 -0.052024506
000360 0e 5f 87 be ec 97 24 be 35 c6 84 be 2e 31 cd bd
       -0.26439708 -0.16073579 -0.2593247 -0.10019146
000370 b7 ba 8e 3d 7c f6 08 3e 2b 6f 39 bf dc 87 0a 3e
       0.06969207 0.13375276 -0.72435254 0.13528389
000380 a8 07 f9 3d e8 6b 85 bd 92 64 95 3d 2e 40 14 bc
       0.121596634 -0.06514722 0.07294573 -0.009048505
000390 43 36 ec bd 8a 1f 9f 3e ed 99 01 3f c0 a4 25 3d
       -0.11533787 0.3107875 0.506255 0.04044032
0003a0 49 18 42 3e d0 7e 02 3e 81 7b 66 be 44 35 a0 bd
       0.18954577 0.12743688 -0.2250805 -0.078226596
0003b0 0e d1 74 be 73 dc 8f 3e ff 4f a6 be d9 f2 8d be
       -0.23907873 0.28097877 -0.32482907 -0.2772434
0003c0 fe 41 c8 bd 9f 6e d2 3e 94 8e c2 3d c3 bb 66 3e
       -0.09778212 0.41100022 0.09499851 0.22532563
0003d0 f0 75 af 3d 13 08 a0 3c 60 57 05 be 15 11 f6 bc
       0.08567417 0.0195351 -0.13021612 -0.030037442
0003e0 ea 22 8e be 50 16 fa bc 01 46 42 3e bb a0 14 3e
       -0.27761012 -0.030528218 0.18972017 0.14514439
0003f0 09 40 ca bd e7 7a 10 be 5a bb 74 bd 93 30 23 bd
       -0.09875495 -0.14109384 -0.059748985 -0.039841246

mlp_extractor.policy_net.0.bias f4 [32]
000000 8a 33 20 3d ac 2b 2c 3c 22 22 d7 3b 00 bc 5a 3d
       0.03911165 0.010508459 0.0065653482 0.053401947
000010 21 c7 e2 3c e7 df 24 be 6d 1b 85 3c 45 4d 09 3d
       0.027682843 -0.16101037 0.01624843 0.033520956
000020 d7 bb 6e 3d c0 c0 0e be f0 ec 56 bd b5 aa 69 be
       0.058284607 -0.13940716 -0.052472055 -0.22819026
000030 01 ec 7a bd 91 cd fe 3c 5c 02 84 bb 5d a9 d4 bd
       -0.061260227 0.031103881 -0.0040286016 -0.10383866
000040 53 ef e3 bc 86 23 81 bd 8f f8 6a be 56 0b 89 bb
       -0.02782408 -0.06305604 -0.2294638 -0.0041822596
000050 4c 75 0b 3e 1f e9 25 be e5 3c 53 bd 01 36 22 bd
       0.13618964 -0.1620221 -0.051571745 -0.039602283
000060 f9 e9 53 3e 04 8d 13 3d a7 c8 24 bd 99 74 05 bd
       0.20694722 0.036023155 -0.04023042 -0.0325819
000070 e5 84 00 be 47 b1 ba 3d 3e c9 90 3c c2 65 6c 39
       -0.12550695 0.09115844 0.017674085 0.00022544622

mlp_extractor.policy_net.2.weight f4 [32, 32]
000000 44 0c ea 3c 75 e9 a3 bb fb 52 c6 3e bb 9a 08 3f
       0.028570302 -0.0050021955 0.38735184 0.533611
000010 ae 04 10 bc b3 c2 4a bf 31 32 18 bc ba ad 11 3f
       -0.008790178 -0.7920334 -0.00928931 0.5690571
000020 c5 09 9c bd f3 53 68 bc 0e 8d 08 3e ba 0a b0 3e
       -0.07619051 -0.014180171 0.13335058 0.34383184
000030 e3 25 11 3e 61 0c 3a 3e 00 71 a4 be 84 11 af 3d
       0.14174609 0.18168785 -0.32117462 0.08548263
000040 72 de 1a bf b3 ec cf 3e e3 26 4f 3e 3e 8a c4 be
       -0.60495675 0.40610275 0.20229678 -0.3838672
000050 5d d5 57 be 2e 80 43 be bc a9 9b 3e 3a 6f eb 3d
       -0.21077485 -0.19091865 0.30402935 0.11495824
000060 e3 06 51 3e c5 80 97 bd eb a3 d6 be 4f ca 19 3f
       0.20412783 -0.07397608 -0.41921934 0.60074323
000070 c4 4e 5e 3d a3 53 f6 3d d0 9a 64 3f bd e5 01 3f
       0.054274336 0.12027671 0.89298725 0.5074118
000080 b5 be ca be d5 c4 30 be 56 a2 fb be cf 1f 08 bf
       -0.39598623 -0.17262585 -0.4914729 -0.53173536
000090 69 96 b3 be 9b de ec 3d 68 fc 17 3e e7 b7 d0 be
       -0.3507569 0.11565896 0.14842379 -0.40765306
0000a0 a4 cd 7b bd 39 76 0c 3f 45 9b 4d be 7e 05 79 3e
       -0.06147541 0.54867893 -0.20078762 0.24318501
0000b0 23 88 16 bf b6 c9 b8 3e 3d 02 d6 3d 0e 95 43 3e
       -0.5880148 0.36091393 0.10449646 0.19099829
0000c0 16 5d 74 be b6 16 e1 3e b9 b3 c5 3e e9 f2 a7 3e
       -0.23863634 0.4396264 0.3861368 0.32802513
0000d0 c1 b6 8b bd 8f 4d fe bd 22 a8 4c bd 34 fc 54 be
       -0.06821967 -0.12417137 -0.04996503 -0.20799333
0000e0 5e 01 dd be 82 04 18 3e de 43 17 3f 25 75 24 be
       -0.43165106 0.1484547 0.5908793 -0.16060312
0000f0 9b 46 50 3d f6 94 c3 3d d3 27 1e bf d7 86 6e 3e
       0.050848585 0.095498964 -0.61779517 0.23293625
000100 38 5f ab 3e 8c fa 0c bf c2 5d 25 3e 5c 4c 04 bf
       0.33471084 -0.55069804 0.16149047 -0.51679015
000110 46 9d a2 be 48 7d 9b 3d a6 1a a6 3e 01 60 20 3c
       -0.31760615 0.07592255 0.32442206 0.009788514
000120 e7 6f 45 bd d4 8c f3 be 9c 76 8f be 1a 33 e8 ba
       -0.04820242 -0.4756838 -0.2802018 -0.0017715425
000130 0a 64 8a be 24 78 04 bf ae 84 a9 3c 82 62 05 be
       -0.2702945 -0.5174582 0.02069315 -0.13025859
000140 55 8f 8c bd a4 c1 c0 3e ee fb bd be 93 31 0d 3f
       -0.06863276 0.37647736 -0.3710627 0.5515377
000150 c4 7d a8 be 9d 2c 41 3f 2b 25 d8 be f6 b4 2e bf
       -0.32908452 0.754587 -0.42215857 -0.68244874
000160 0e 9d e6 be 9c c1 2f bf 79 a3 38 3e 0a a8 33 ba
       -0.45041698 -0.686548 0.1803111 -0.0006853348
000170 6e e4 20 3f f3 ba 23 3f 84 99 0d bf bc 3d 1d 3d
       0.62848556 0.63957137 -0.5531237 0.038388953
000180 3e 99 88 be 9a db b0 3e 7c 05 91 3d e1 9e c7 3d
       -0.26679415 0.34542543 0.07081124 0.097471006
000190 40 7e 89 3e 5e 8d a2 3e 4e c2 0b 3e 78 f3 ef be
       0.26854134 0.3174848 0.1364834 -0.4686544
0001a0 60 61 49 3e a5 41 16 3f 72 f3 15 3e cd 63 74 3e
       0.19666052 0.58693916 0.14643648 0.23866196
0001b0 a6 2c 3c 3f 7c 37 93 3e 04 5b 49 bf 5e 2a 0c be
       0.7350563 0.2875327 -0.78654504 -0.13688037
0001c0 9c ba 3f 3f 4a ae 75 3d 7d d4 2b 3d ed ea 85 3e
       0.7489412 0.059980668 0.04195069 0.26155797
0001d0 7a 52 78 3d 3d eb 0a 3e 3f d5 97 bd 2c 0f 54 bb
       0.06062553 0.13566299 -0.0741372 -0.0032357676
0001e0 e0 52 4f bf 88 6c c5 3e c7 01 ba 3e fb 80 f7 be
       -0.8098583 0.38559365 0.3632948 -0.48340592
0001f0 0a 08 07 3e 04 6f b2 bd 9d 55 61 bf ec 4c 1e be
       0.1318666 -0.08712581 -0.8802126 -0.15459031
000200 89 b5 7f 3f 32 3f b2 be 4c a2 63 be 8c e4 a7 bd
       0.99886376 -0.3481384 -0.2222988 -0.08197889
000210 30 4c 02 3f a0 94 8b be 39 c9 21 bf 04 d7 0e bd
       0.508975 -0.2726183 -0.63197666 -0.034873024
000220 16 75 75 3c 38 82 28 3e 2f f7 d3 be 40 08 27 3e
       0.014981529 0.16455925 -0.41399524 0.16311741
000230 a9 22 97 be 0b f9 83 3f 7c 3a 27 3f f6 f4 c5 be
       -0.2951863 1.0310377 0.65323615 -0.38663453
000240 91 40 ae be 3e fe cc be 1d 6e da 3b 75 97 7f 3d
       -0.34033635 -0.4003772 0.0066659586 0.0624003
000250 e7 f5 90 be 76 01 35 bf c4 05 6c be 7e e4 27 bc
       -0.2831261 -0.70705354 -0.23049074 -0.010247348
000260 0c 2a 1b 3e cf 58 17 bf 41 bb c7 3d 3f 28 36 bd
       0.15152758 -0.59119886 0.09752513 -0.044471975
000270 ed 8d e7 be 02 ff 28 3e 50 09 0b be b1 55 e3 bd
       -0.45225468 0.16503528 -0.13577771 -0.11100329
000280 bd ed 7c 3e 0d 80 cc be 47 03 cb 3c af a7 62 3c
       0.24700065 -0.39941445 0.024781836 0.013833924
000290 2c d5 52 3f 42 ef 86 be ab f8 f7 be 84 15 d3 3d
       0.82356524 -0.26354414 -0.48431906 0.10306838
0002a0 ec f9 a1 3e cf a9 93 bd c6 28 66 bf 43 e1 c4 3d
       0.31635988 -0.07210123 -0.89905965 0.09613278
0002b0 1c e4 d7 bd 2c fc 13 be 52 82 a6 3e eb ff cb 3d
       -0.10541555 -0.14451665 0.32521302 0.09960922
0002c0 5d 53 03 bf ae 6e bc be bc 70 19 3e 30 27 8a 3e
       -0.5129908 -0.36803192 0.14984411 0.26983023
0002d0 68 a4 c1 be 61 2e 1f bf 6b d1 40 be 72 ac 27 3e
       -0.37820745 -0.62180144 -0.18829887 0.16374376
0002e0 f0 a1 98 be 2b 28 1f be 0d ea ce 3e de c1 95 3d
       -0.29811049 -0.15542667 0.40412942 0.07312368
0002f0 d4 94 06 be bd 7e b4 be 73 98 d3 3c 8a b5 1e bf
       -0.13142711 -0.35252944 0.02582953 -0.61995757
000300 1a cc a1 be 12 a8 13 3f 82 9d d9 bd ff cf 06 3f
       -0.3160103 0.5767833 -0.10625745 0.52661127
000310 e3 a4 00 be ae b6 ee 3e 6a cf 2e 3e cb 1e c8 3e
       -0.125629 0.4662375 0.1707131 0.39085993
000320 70 ab eb 3e 96 e9 c0 3e d5 5a 2c 3e 7e ac e2 3d
       0.46029234 0.37678212 0.16831525 0.110680565
000330 b5 b0 6a 3e b4 e0 1c 3f b1 86 14 bf e6 c5 d1 be
       0.22918971 0.6128037 -0.5801802 -0.40971297
000340 92 a9 9f 3e af ea 7b be c4 53 06 be e2 8b 33 bf
       0.3118406 -0.24601243 -0.13117892 -0.7013532
000350 26 82 b4 3e 66 45 39 bf 86 41 3e 3e 2e e0 83 3f
       0.35255545 -0.7237152 0.18579683 1.0302789
000360 bb 57 a1 3e c5 b6 e3 3d db 4f ab be 9b fb 0d 3f
       0.31512246 0.11118845 -0.33459362 0.55462044
000370 96 91 8b be 58 0e 83 be 38 db 1d 3f f3 a6 c8 be
       -0.2725951 -0.2559688 0.61662626 -0.39189872
000380 6c b9 46 3d 6c 5b 3d bf fb a2 42 be 63 31 be be
       0.048516676 -0.73967624 -0.19007485 -0.37147054
000390 b4 0e 25 3e b8 3f 80 be d2 96 cf 3e bf 4d 1a bf
       0.1611889 -0.25048614 0.40544754 -0.6027488
0003a0 e7 91 f4 3c 44 85 25 be 5a d9 11 3b 5b 0f 48 3b
       0.029854728 -0.16164118 0.0022254796 0.003052673
0003b0 a9 d2 fb bd c1 2a 25 bf 38 d1 15 3f 00 ca 68 bc
       -0.122960396 -0.6451836 0.5852237 -0.014208317
0003c0 72 aa aa be f3 14 c5 ba da 98 f5 be 5d 34 2c be
       -0.33333164 -0.001503615 -0.4796818 -0.1681685
0003d0 57 63 73 bc 32 6a 22 3f ac ea 39 bf 1b 7d 6a bd
       -0.014855227 0.6344329 -0.72623706 -0.057248216
0003e0 44 03 45 be 2c 1e 0a 3e 2e ed be 3e e3 d7 eb be
       -0.19239527 0.13488072 0.3729033 -0.46063146
0003f0 bb b6 19 3f a8 16 4c 3f 18 86 88 be 02 0f 20 3e
       0.6004445 0.7972207 -0.26664805 0.15630725

mlp_extractor.policy_net.2.bias f4 [32]
000000 11 97 9a 3c d3 3e e1 bd 2e ec 1c 3d 6c 78 bc bd
       0.018870862 -0.10998311 0.038311176 -0.09202656
000010 09 ab ac 3d f9 9f 65 bd 45 de 2d be 30 f0 f9 3d
       0.0843106 -0.056060765 -0.1697932 0.12204015
000020 39 b2 bb 3c 3c e6 dd 3c 63 27 09 3e cb d9 3d bc
       0.022912132 0.027087323 0.13393931 -0.01158757
000030 92 7e f6 3d a6 23 bb 3d 2e ca aa bd 44 7f d9 3d
       0.1203586 0.09137659 -0.08339344 0.10619977
000040 0b 3a 9d 3e 66 b8 9f bd f6 04 64 3d 35 b1 cf 3d
       0.30708346 -0.07798843 0.055668794 0.101412214
000050 94 12 46 3d b2 c6 cf 3d 62 f3 69 3d 00 61 59 3d
       0.04835756 0.1014532 0.057116874 0.053071022
000060 6a df e1 bd fb 91 5b bc ab 85 3d 3d 4f 71 96 bd
       -0.11028941 -0.013401504 0.046270054 -0.07345831
000070 9d 54 91 3d d2 08 cb 3c 21 85 55 3c 85 d2 56 3c
       0.07096217 0.02478448 0.013032229 0.013111715

mlp_extractor.value_net.0.weight f4 [32, 81]
000000 da 90 92 bc 0a 75 50 bd ee bf f3 bc 3d 80 1b be
       -0.017891336 -0.050892867 -0.029754605 -0.15185638
000010 e0 21 e6 bd 85 ff 89 3d 8e e8 d8 bc 9e a3 dd 3c
       -0.1123693 0.067381896 -0.026478078 0.027055558
000020 a1 43 e9 3d df ea 11 3d 5f 69 2a bd 43 1e af bd
       0.11389852 0.03562438 -0.041604396 -0.08550694
000030 c6 ed 52 bc 1f 4f 2f be 58 aa 67 be 47 2b 66 bd
       -0.012874072 -0.17120026 -0.22623575 -0.056193616
000040 6b 9a 97 be 73 e5 9f bd ea 48 9b 3d b0 38 2d 3c
       -0.2961 -0.07807436 0.07582267 0.010572597
000050 2a 1c 4b bd c7 f4 fa bd 96 59 7d 3e 05 e7 b5 3d
       -0.049587406 -0.12253719 0.24741206 0.08881954
000060 6a ac 7c 3d 49 ff a2 bd f3 f2 94 be 65 4d 3c be
       0.061687864 -0.07958848 -0.29091606 -0.18388899
000070 dd 58 64 be 9f c6 62 3e 21 3d 53 3e b9 1e 12 bc
       -0.22299524 0.2214608 0.20628788 -0.008918458
000080 d7 dd bd 3d 7b 12 ad 3e ae 5b eb be c4 ee e0 bd
       0.09270828 0.33803162 -0.45968384 -0.10983041
000090 aa 30 9d bd 8d 8b 61 3e fd ad a0 bd cd 4f 2d 3e
       -0.076752976 0.2202589 -0.07845686 0.16924973
0000a0 b6 41 5c 3d 3b be ec 3d 13 c5 0e 3c d5 8d c3 3e
       0.053773604 0.11559721 0.008713978 0.38194147
0000b0 f6 b3 98 be cf 55 9f 3d f0 b1 ca 3d 80 4a 08 be
       -0.298248 0.077800386 0.0989722 -0.1330967
0000c0 b0 d3 80 3c da 6f 51 be 3e 16 1b be 23 a8 52 be
       0.01572594 -0.20452824 -0.15145203 -0.20571952
0000d0 78 45 c9 be e0 1e 66 3c 8c 5d 39 bd 23 62 fd bd
       -0.39310813 0.014045447 -0.04525523 -0.12372234
0000e0 cf 33 0f 3e 7b 0a e6 bc f3 a9 e3 bd 15 db 9c bd
       0.13984607 -0.02808117 -0.111163996 -0.07658974
0000f0 bf 7f 70 3e f0 09 f7 bc 14 71 ba 3d 35 e2 46 be
       0.23486231 -0.030156106 0.09103599 -0.19422229
000100 f9 94 9b bd 79 61 77 bd 1a bd 93 3d 5a 03 a7 bd
       -0.07596774 -0.06039569 0.07213803 -0.08154936
000110 18 e7 56 bd aa c1 8f bd e1 2a 5d be 34 92 49 3e
       -0.052466482 -0.0701936 -0.21598388 0.19684678
000120 c6 fc 9c 3c 85 54 b5 3d 6b 4e 85 be 5b f0 b3 bd
       0.0191635 0.088540114 -0.2603639 -0.087860785
000130 ad fe f3 bd 5c c0 cb 3d 9d fe 5a bd 52 6b f5 bd
       -0.1191381 0.09948799 -0.053465474 -0.1198336
000140 d5 e0 dc 3d 8c 11 2d 3e d1 03 d9 bd 7e 21 1a be
       0.10785071 0.16901225 -0.10596431 -0.15051839
000150 03 80 33 be 69 6d 42 3d 16 fa 3e 3e 95 9d 89 be
       -0.17529301 0.047467623 0.18650088 -0.26878038
000160 59 20 53 be cb 8a a3 be da bc 69 be 85 12 08 be
       -0.20617808 -0.31941828 -0.22825947 -0.13288315
000170 ef 8e c8 bc c1 3e 19 bd ac e6 2b 3e 44 41 c3 3d
       -0.024482219 -0.037413362 0.16787213 0.09533933
000180 7c 1c ad be fb 5e 21 bc 4b 4a 8b 3e aa 49 9d bd
       -0.33810794 -0.009849305 0.2720512 -0.07680066
000190 6c 9c 89 bd a3 df 53 3d c6 c9 85 3e 1b db 61 be
       -0.06719288 0.05172695 0.26130503 -0.22056238
0001a0 19 1a 94 bc 6f a2 99 3c a7 d2 21 bd e2 71 50 3d
       -0.01807885 0.018754212 -0.039507534 0.050889857
0001b0 e4 2d 28 bd 5c 42 b7 3b 40 0f da 3e c1 52 5d bd
       -0.04105939 0.0055926275 0.4258976 -0.054034
0001c0 2d 65 cd bd 3c ad 98 bb ab 3d 79 bd 19 de 94 3d
       -0.100290634 -0.004659323 -0.060849827 0.07268924
0001d0 66 9b 53 bc 25 4e d8 3d 86 ac df bd 74 33 80 3d
       -0.012915468 0.1056178 -0.10921578 0.06259814
0001e0 6a a0 e6 3d 40 c4 12 be c3 a0 fa bc 8d 19 df 3e
       0.11261065 -0.14332676 -0.030594235 0.4357418
0001f0 20 40 b5 bc cf a3 13 be 94 a6 38 3e 5e 68 6a be
       -0.022125304 -0.14417957 0.18032295 -0.22891375
000200 a8 f1 67 be ce 46 27 3d 58 7d 42 be ab fb d5 bd
       -0.22650778 0.04083901 -0.18993127 -0.104483925
000210 f4 70 2f 3d 83 df 3a be 37 7c d3 bd 3b 6f e0 bd
       0.04283233 -0.18249325 -0.103264265 -0.109587155
000220 01 f7 27 3e 82 9a 28 be 3e 26 d8 3d 49 df 85 bd
       0.16402818 -0.1646519 0.10554169 -0.06536729
000230 5a ac 51 bc f8 fa 9e 3c cf bb ef bd 9a 50 ec bd
       -0.0127974395 0.01940678 -0.117057435 -0.11538811
000240 b0 a3 20 be 45 9f cf 3e 7c d5 0f 3d ed d3 cb 3b
       -0.15687442 0.405512 0.035115704 0.006220332
000250 23 e1 03 be 41 b6 13 be 3e 2d 69 3e e0 0d 40 bd
       -0.12878852 -0.14424993 0.22771165 -0.046888232
000260 58 70 ae 3d 8d 04 07 bd 84 5b 13 3e 9d 5d 74 3d
       0.085175216 -0.032963324 0.14390379 0.05965959
000270 6b ee f5 bd 19 bf 25 3e 80 91 0d 3e 61 a4 93 3d
       -0.12008365 0.16186179 0.13825035 0.07209087
000280 09 79 19 3e c1 5f 28 bd 96 82 16 be f2 e0 30 3d
       0.14987577 -0.041106943 -0.14698252 0.043183275
000290 ba 93 fd bd c5 a5 a3 3d d0 5c 2c bd d0 47 83 bd
       -0.12381692 0.079906024 -0.0420807 -0.064101815
0002a0 91 60 78 bd 55 3a 35 be b5 d9 0f 3d ca 45 85 3d
       -0.060638968 -0.17698033 0.03511973 0.06507452
0002b0 fb ea 14 3e 03 97 a4 bd cf 0f 5e bd 32 95 ca 3d
       0.14542763 -0.08036616 -0.054214295 0.09891738
0002c0 14 5a 04 3e 46 25 f2 3d 43 20 ef 3d 93 92 39 be
       0.12924987 0.118235156 0.11676075 -0.1812232
0002d0 c4 12 cc bd 13 25 68 be 72 8b 04 3e 94 43 35 be
       -0.09964517 -0.22670393 0.12943819 -0.1770156
0002e0 ac 30 0f 3e ad d9 59 bd 2f e5 fe bb f8 ed 29 be
       0.1398341 -0.053186107 -0.0077787857 -0.16594684
0002f0 6b 7b d2 bd 1e f1 4d be 58 ad 17 3e a1 ea 41 bd
       -0.10277446 -0.2011151 0.14812219 -0.0473429
000300 dc 6c 28 3d 70 d7 0f bd 2b 81 78 be b6 8a 0d 3e
       0.04111944 -0.035117567 -0.24268024 0.13822445
000310 1d b0 b7 bc 46 1a d1 3e f1 44 0d be 34 df 9f 3b
       -0.022422845 0.40840358 -0.1379583 0.004878903
000320 89 c8 fe 3d 0d 7a ff bc e2 f2 65 3e f7 7d 77 bb
       0.12440593 -0.031186128 0.22455934 -0.003776429
000330 03 69 c0 bd c9 4f 8c 3d 35 d5 82 bd e8 5a b6 3e
       -0.093950294 0.06851155 -0.06388322 0.3561623
000340 38 35 97 be a1 f3 87 be 3c d9 55 3e 44 d4 c8 bd
       -0.2953279 -0.26553062 0.2088365 -0.098061115
000350 5c 1c 9b bd e9 31 45 3e 5d 91 15 bc 0a 2f 90 bd
       -0.075737685 0.1925732 -0.009128896 -0.07040222
000360 42 1e 55 3e 92 f8 f6 bb cd 31 32 3e 87 46 96 bd
       0.20812324 -0.007536956 0.1740181 -0.07337671
000370 ed 86 4c be 12 d6 8f bd 53 e9 78 3e 79 ca 97 bd
       -0.19973345 -0.070232525 0.24307756 -0.074116655
000380 c1 ca a7 bc 27 4f af 3e 42 7c 9e 3d f0 b1 00 bb
       -0.020482423 0.34240076 0.07738544 -0.001963731
000390 ad fd 0f bd 18 bd 87 3d 39 49 6a 3e 88 c9 3b 3e
       -0.035154033 0.06627864 0.22879495 0.18338597
0003a0 43 36 14 be 2f 64 9f 3e e0 89 c6 bc 43 35 d1 bc
       -0.14473824 0.31131122 -0.024235666 -0.025538092
0003b0 2b 4b cc 3e fa c8 f3 3d dc d0 44 3e ce f3 3e be
       0.399011 0.119035676 0.19220299 -0.18647692
0003c0 77 54 ed 3d cb 9f e6 bd 7d bd 21 be 4d 0c 0b 3e
       0.11588376 -0.11260947 -0.1579494 0.13578911
0003d0 8e ce 11 be 20 ae 4f bd 68 ac 3a bd dd 8d 49 3d
       -0.1423895 -0.050703168 -0.045574576 0.049207557
0003e0 b7 be 0c 3e 6c eb ce bd c1 48 9c bd 29 9f 28 be
       0.13744627 -0.10103497 -0.07631064 -0.16466965
0003f0 99 0d 1c 3e 8b e3 a9 3d 7b dd 7b 3c 42 0b 4b be
       0.15239562 0.082953535 0.015372629 -0.19828513

mlp_extractor.value_net.0.bias f4 [32]
000000 00 00 00 00 00 00 00 00 00 00 00 00 00 00 00 00
       0.0 0.0 0.0 0.0
000010 00 00 00 00 00 00 00 00 00 00 00 00 00 00 00 00
       0.0 0.0 0.0 0.0
000020 00 00 00 00 00 00 00 00 00 00 00 00 00 00 00 00
       0.0 0.0 0.0 0.0
000030 00 00 00 00 00 00 00 00 00 00 00 00 00 00 00 00
       0.0 0.0 0.0 0.0
000040 00 00 00 00 00 00 00 00 00 00 00 00 00 00 00 00
       0.0 0.0 0.0 0.0
000050 00 00 00 00 00 00 00 00 00 00 00 00 00 00 00 00
       0.0 0.0 0.0 0.0
000060 00 00 00 00 00 00 00 00 00 00 00 00 00 00 00 00
       0.0 0.0 0.0 0.0
000070 00 00 00 00 00 00 00 00 00 00 00 00 00 00 00 00
       0.0 0.0 0.0 0.0

mlp_extractor.value_net.2.weight f4 [32, 32]
000000 76 2c 82 be 04 ff 4c be 12 78 da be 84 b6 9d be
       -0.25424546 -0.20019156 -0.4266973 -0.3080331
000010 37 aa 74 3e 13 a3 2b 3e af 81 d4 3d ef a7 0e 3e
       0.23893057 0.16761427 0.10376298 0.13931249
000020 40 4b 11 3d 71 01 49 bc 58 92 4f bf f3 50 bd be
       0.035472155 -0.01226841 -0.8108268 -0.36975822
000030 a1 51 81 3e ab 17 24 be 44 5e 90 3e dd 8a e2 bd
       0.2525759 -0.16024654 0.2819692 -0.11061642
000040 a2 8c e4 bd 91 be 15 3e bb fb bc 3b 4b bf 74 3e
       -0.11159636 0.14623477 0.0057673133 0.23901097
000050 28 dc 09 3d 1c a5 98 3e ad 33 50 be 23 e0 e8 bd
       0.033657223 0.29813468 -0.20332213 -0.11370876
000060 f8 b3 f6 3c 6d a3 90 be 77 fe 14 3e 27 97 7b 3e
       0.030115113 -0.28249684 0.14550196 0.24569379
000070 50 d7 53 3e 3c a0 54 be 0f 14 f1 3d 19 07 2e 3e
       0.20687604 -0.2076425 0.11771404 0.16994895
000080 04 12 73 bd 60 24 1f be 36 2c 78 3e 7a bf d1 be
       -0.059343353 -0.1554122 0.24235615 -0.40966398
000090 89 11 63 bd f4 b4 bd 3d d8 5a a9 be 9a 10 d6 3e
       -0.055436645 0.0926303 -0.3307712 0.4180954
0000a0 f8 1e c5 3d e5 67 49 3d 49 16 60 3c 30 db 8a 3d
       0.096250474 0.049171347 0.013677188 0.06780088
0000b0 84 a1 46 bf 51 a5 8c be 8d 0b f5 3b bf e5 13 bd
       -0.77590203 -0.27469876 0.0074781836 -0.036107775
0000c0 91 d9 0d bd db 06 ca bd dd 73 8e 3e df de e5 bd
       -0.034631316 -0.09864589 0.27822772 -0.1122415
0000d0 c1 32 97 3e 4a 80 a9 bd 3c 26 e5 3d eb 92 05 be
       0.2953091 -0.08276422 0.11188933 -0.13044326
0000e0 94 ce 44 be 17 41 e3 3d 0e 4f ee 3c 4b d8 fc bc
       -0.19219428 0.11096399 0.02909043 -0.030864855
0000f0 a9 bb c9 3e e7 31 bb be 8a fa d3 3e 94 ef 0b be
       0.39400986 -0.3656151 0.41402084 -0.1366561
000100 51 c6 51 be 1d 57 52 be 67 74 7a 3e d5 84 03 bc
       -0.20485808 -0.20541044 0.24458466 -0.008027275
000110 37 bc 03 3f fa 40 9f bd f0 a3 1d be 74 50 a9 bd
       0.5145907 -0.07776065 -0.15394568 -0.08267298
000120 87 cb a1 3e 56 5d 24 bc 61 d5 08 3e 15 3d 15 be
       0.31600592 -0.010032019 0.13362648 -0.14574082
000130 f6 e2 57 be 8c e7 52 bd 62 19 49 be e0 7b 81 3e
       -0.21082672 -0.05149035 -0.19638589 0.25289822
000140 12 aa 33 3e 18 2b 88 be c0 ce cc be 00 36 13 3f
       0.17545345 -0.26595378 -0.40001488 0.5750427
000150 4a a4 e7 3e c0 b7 0d be 8c 04 b5 be bb 4e 2f bd
       0.4524253 -0.13839626 -0.35355031 -0.042799693
000160 3d a8 9c 3e ad 9a 11 3d de aa 7d bb 65 28 d6 bd
       0.30597106 0.0355479 -0.003870658 -0.104569234
000170 e6 66 28 be 86 81 38 3e 13 7b 45 3c 0e 36 cb 3e
       -0.16445503 0.1801816 0.012053269 0.39689678
000180 ca 83 4f be f8 eb ae be f5 27 28 be 7b e4 3f 3e
       -0.20265117 -0.34164405 -0.16421492 0.18739502
000190 05 84 cb be ff bb c8 be 15 5c 94 be ad f5 dd be
       -0.3974916 -0.3920593 -0.28976503 -0.43351498
0001a0 2c 37 b3 be 99 a3 3c bd 41 56 5e 3e 2a bc bc 3d
       -0.3500303 -0.046054456 0.21712591 0.09215577
0001b0 1d 98 b1 be c2 de 32 bd f6 56 97 3e 13 ad ae be
       -0.34686366 -0.04366947 0.29558533 -0.3411642
0001c0 47 e2 01 3d 1f 80 9c 3e a2 4b a0 bd 90 fb d9 bd
       0.031709936 0.305665 -0.07826926 -0.10643685
0001d0 bb 2f 5d 3e 18 ec 92 3e e1 d5 d1 be 84 91 50 be
       0.21600239 0.2869575 -0.4098349 -0.2036801
0001e0 87 6a a4 3e d3 d3 df bc 16 00 9d 3d 1c 8d 93 3e
       0.32112524 -0.027322685 0.07666032 0.28818595
0001f0 74 08 41 be 0f cb d5 bd 7e 12 d3 3c e7 aa 90 3b
       -0.18850881 -0.10439121 0.025765654 0.0044149044
000200 ac d9 b6 3e 22 dd c4 bd 59 d5 08 bd 7c 23 56 3d
       0.35712945 -0.0961249 -0.03340659 0.052279934
000210 f0 fb b5 3a ae bd 28 be 78 9d d0 3d 71 55 d7 bc
       0.0013884287 -0.16478607 0.10186285 -0.026285859
000220 6c 00 23 3f fa 76 1c 3f 25 45 a2 bd 7a 33 3c bc
       0.6367252 0.61119044 -0.079233445 -0.011486882
000230 21 18 5b 3d 69 e9 ad be 6d 9f e3 bd 38 2a 0e bf
       0.053489808 -0.3396714 -0.111143924 -0.5553317
000240 c2 6c 7b bd b8 f5 b6 3d 02 6a 29 bd e4 36 ae be
       -0.061383016 0.08933586 -0.041360863 -0.34026253
000250 3c 35 14 3e 45 ab 03 3e aa d7 1a 3e fe 84 8b bd
       0.14473432 0.12858303 0.15121332 -0.068124756
000260 3a db 89 3e 74 4e fb bd e9 25 31 3e 9c 71 53 be
       0.2692507 -0.12270823 0.17299618 -0.20648807
000270 e8 09 04 bd 0d ef df 3e b9 e0 5f 3e f7 92 44 3d
       -0.03223601 0.4373707 0.21863069 0.04799172
000280 9b 33 97 3e 71 c3 04 be ca ab d2 be b1 a2 8f 3e
       0.2953156 -0.1296518 -0.4114669 0.2805381
000290 f6 6d a6 3e 02 57 09 3f 38 30 7e be 5c a0 99 be
       0.3250577 0.5364839 -0.24823081 -0.30005157
0002a0 85 2c 72 3e 37 34 86 be f6 7f 99 3e 5d 65 7d 3e
       0.23649795 -0.26211712 0.2998044 0.24745698
0002b0 e3 88 0e 3e e6 70 88 be 15 e7 ad be c5 cd e8 bc
       0.13919406 -0.26648635 -0.33965364 -0.028418431
0002c0 7b 31 c4 3d b6 35 dd 3d d4 af 66 3e 41 5a a3 3d
       0.0957975 0.1080126 0.2252801 0.07976199
0002d0 8d e9 0f be b5 d9 cb 3d 27 d8 9a be 50 41 a6 3e
       -0.14053936 0.09953634 -0.30243036 0.32471704
0002e0 36 84 af 3d 55 6a 99 3c 75 e8 22 bd f1 fc 2f 3e
       0.08570139 0.01872746 -0.03977247 0.17186333
0002f0 c5 d0 1d 3e 2a dd 65 be d2 3e cb 3e ec 5b 5a be
       0.1541167 -0.22447649 0.39696366 -0.21324128
000300 df 3a 09 be 44 38 8e 3e 0c 50 4e 3c de 1c db 3e
       -0.13401364 0.27777302 0.012592327 0.4279546
000310 8b b6 e9 3d b0 a6 b0 3e c4 16 a3 be f2 35 d1 3e
       0.114117704 0.34502172 -0.31853306 0.4086147
000320 00 38 a9 bd 23 04 de 3e e5 53 16 3e e0 9e 89 be
       -0.08262634 0.4336253 0.1468044 -0.26879025
000330 5b aa 43 be f4 4b 86 3e 90 b6 26 3e fd 3f 51 be
       -0.19107954 0.26229823 0.1628058 -0.20434566
000340 eb ca e6 3d 1e d6 3f 3e 85 4d 2c be d0 05 7c 3d
       0.11269172 0.18734023 -0.16826446 0.06152898
000350 70 2d 96 bd 1d b5 b6 3e 94 15 d2 be 72 84 5d 3d
       -0.07332885 0.35685053 -0.41032088 0.054081388
000360 40 82 ff be 2a 1a 77 be 5b 52 5c be fa f4 8f be
       -0.4990406 -0.24131075 -0.21515791 -0.2811659
000370 30 e6 e1 bd 13 a0 13 3e d7 41 23 3d 7c cd b4 bd
       -0.11030233 0.14416532 0.03985771 -0.088282555
000380 70 96 15 be 10 2a 34 3e 0f d2 86 3e 37 7a 83 be
       -0.14608169 0.1759417 0.26332137 -0.2567918
000390 01 39 32 3d a2 41 90 3e e4 2a 9d 3e df 38 c1 3d
       0.043511394 0.28175074 0.30696785 0.094346754
0003a0 7e e1 bf bc 2a 0c 13 be 72 b7 65 3e 62 93 3a 3e
       -0.023422953 -0.14360109 0.2243326 0.18220285
0003b0 7a f8 86 3e 4f de 1a be 85 76 ed 3e 55 fe bd 3e
       0.26361448 -0.15123866 0.46379486 0.37108102
0003c0 cc e0 fb bc c7 e8 f9 3e fb 9a 1a be 92 8c 97 be
       -0.03074684 0.48810408 -0.15098183 -0.29599434
0003d0 94 9d 0e 3f 37 e7 88 3d 72 a5 af bd 32 66 60 3e
       0.55709195 0.06684726 -0.08576478 0.21913984
0003e0 2d 22 0b 3c 0a 3f 21 3c b8 6b 2b 3c c5 76 35 3e
       0.008492035 0.00984169 0.010462694 0.17721088
0003f0 52 db 0c be 8d 12 ba 3e da f0 ca 3e d7 87 0b be
       -0.13755539 0.36342278 0.3963688 -0.13626038

mlp_extractor.value_net.2.bias f4 [32]
000000 00 00 00 00 00 00 00 00 00 00 00 00 00 00 00 00
       0.0 0.0 0.0 0.0
000010 00 00 00 00 00 00 00 00 00 00 00 00 00 00 00 00
       0.0 0.0 0.0 0.0
000020 00 00 00 00 00 00 00 00 00 00 00 00 00 00 00 00
       0.0 0.0 0.0 0.0
000030 00 00 00 00 00 00 00 00 00 00 00 00 00 00 00 00
       0.0 0.0 0.0 0.0
000040 00 00 00 00 00 00 00 00 00 00 00 00 00 00 00 00
       0.0 0.0 0.0 0.0
000050 00 00 00 00 00 00 00 00 00 00 00 00 00 00 00 00
       0.0 0.0 0.0 0.0
000060 00 00 00 00 00 00 00 00 00 00 00 00 00 00 00 00
       0.0 0.0 0.0 0.0
000070 00 00 00 00 00 00 00 00 00 00 00 00 00 00 00 00
       0.0 0.0 0.0 0.0

action_net.weight f4 [5, 32]
000000 98 b8 ab 3e 68 63 f8 bd 3c df 76 3e 0e 61 19 bf
       0.3353927 -0.12128335 0.24108595 -0.5991372
000010 65 75 04 bf 5b 3c 7d be b0 e8 95 be 90 72 a4 3e
       -0.5174163 -0.24730055 -0.2927909 0.32118654
000020 a8 af 44 3d 3b b7 bd 3e 6e 36 e5 be 65 eb d6 3e
       0.04801908 0.37053856 -0.4476809 0.41976467
000030 04 4c 16 3e 12 1a 89 3e d7 64 d9 be 12 f9 20 3e
       0.14677435 0.26777703 -0.42459747 0.15720013
000040 22 1d 42 3e 86 65 a4 bd 37 f9 f2 be cd 6a 99 bd
       0.18956426 -0.080271766 -0.4745576 -0.07491074
000050 8c ee 29 bf 61 c1 58 bc 76 b5 9a be 5f 57 02 be
       -0.6637962 -0.013229699 -0.3021657 -0.12728642
000060 de fe 21 bf f9 b1 d6 3e 4a ac 82 3e a2 10 04 be
       -0.6327952 0.41932657 0.2552207 -0.1289697
000070 85 d0 75 3e ff da 2c 3e 54 3f c7 3e 48 6c fe be
       0.24005325 0.16880415 0.38915503 -0.49691987
000080 bf 57 9b be 6a 46 35 3c eb 93 05 3a d1 8c c6 be
       -0.30340382 0.011064151 0.0005095589 -0.3877931
000090 38 b5 3d 3f c9 f0 21 3f 9a 8f cf bd 77 d3 c7 3e
       0.7410464 0.63258034 -0.10134812 0.39028522
0000a0 b2 e6 a0 be 01 8f b4 be 3b 33 aa 3d ea 04 ac 3e
       -0.31426007 -0.35265353 0.08310553 0.335975
0000b0 34 63 0f bf 27 48 2f bf 34 1c aa be 54 cb 2a 3e
       -0.56010747 -0.6846947 -0.33224642 0.16679126
0000c0 5e 66 07 3e e9 2c 0d 3d 59 86 dd 3e 77 43 1d 3e
       0.13222644 0.034466658 0.43266562 0.15357767
0000d0 fa 48 a2 be a6 62 94 3e 24 0c 0b 3f b7 be 7e 3d
       -0.31696302 0.28981513 0.543154 0.0621936
0000e0 12 1d fc be a5 5c 68 3e 70 3b 75 3e 1d 6e 2e 3f
       -0.4924093 0.22691591 0.23948455 0.6813677
0000f0 7e ab 12 bf de 75 26 be d2 fa 9f be 52 ab cd 3e
       -0.57292926 -0.162559 -0.31246048 0.4016977
000100 54 3c 24 bf 9b 9b 96 3d 05 44 43 3d 1d ef d4 3e
       -0.64154553 0.07353898 0.04767229 0.4158868
000110 f1 fb 33 be bd ea f6 bd 40 26 19 bd ca ed 93 3e
       -0.17576577 -0.120564915 -0.037389994 0.28892356
000120 5a 35 8d 3e ff c5 15 bf 5e db e3 3e 9b d3 af be
       0.27579767 -0.58505243 0.445033 -0.3434113
000130 27 a6 10 3e ca 93 d1 3d 05 72 88 bc 14 fb c4 3d
       0.14125882 0.10233267 -0.016655931 0.09618202
000140 a0 0b b8 3d c6 f4 11 be 08 4a 02 be a2 ea a8 3d
       0.08986592 -0.1425353 -0.12723553 0.08247878
000150 63 85 dc 3e 45 e8 be 3e a2 5c 1e be 09 4e bb 3d
       0.43070516 0.37286583 -0.15465024 0.091457434
000160 f1 34 0b 3f c7 9f 9e be 72 a1 3e 3d 79 0e 88 be
       0.5437766 -0.30981275 0.046540685 -0.26573542
000170 79 0e e2 3d 77 0e ad bd 65 58 20 bf ec fa 0d 3e
       0.11037917 -0.084500246 -0.6263488 0.1386525
000180 75 4c bf 3e 2f d1 93 be 0b c9 0e bf 8a 89 49 be
       0.3736302 -0.28870532 -0.5577552 -0.19681373
000190 76 06 d6 3e 65 3e 34 bd 15 6e 42 3f 34 79 13 bf
       0.41801804 -0.044004817 0.7594922 -0.57606816
0001a0 cf d9 07 bf 5d 5a 10 bc 58 9e 0e 3f 44 0f da be
       -0.53066725 -0.008810607 0.55710363 -0.42589772
0001b0 36 a2 b3 bd 67 4b a4 3e d2 5f d2 3e 3e 8a e8 bd
       -0.08771174 0.32088777 0.4108873 -0.113544926
0001c0 c7 b9 d1 3d 05 6e 26 3f 0f 13 eb 3e f0 48 f0 be
       0.10240512 0.65011626 0.45912978 -0.46930647
0001d0 98 00 f1 3d 8c 26 fb be 6d 23 8b 3e 82 7e d0 be
       0.117676914 -0.49052846 0.27175465 -0.40721518
0001e0 c2 9d 86 bc 8f 3f a0 be 21 a6 e5 be 89 00 a4 be
       -0.016432647 -0.3129849 -0.4485331 -0.32031658
0001f0 32 17 31 3d 01 69 9b 3e 98 b7 6f 3e 53 5f 9e be
       0.04323501 0.3035355 0.23409879 -0.30932102
000200 70 84 e1 3e b1 63 08 3e 40 9e 95 bd 9e 2a e5 3e
       0.44046354 0.13319279 -0.073055744 0.44759077
000210 85 56 64 3d b0 6b 70 bc 2d 35 86 bd f9 a2 bf be
       0.055746574 -0.014674112 -0.06553111 -0.37429026
000220 8b 30 6d 3d 54 7a e9 3e 50 08 87 be e8 36 40 bd
       0.057907622 0.4560114 -0.2637353 -0.046927363
000230 b8 34 9d 3b 27 24 f2 bd 41 91 ba 3e 62 6e 87 be
       0.0047975443 -0.11823302 0.36438945 -0.26451403
000240 7e 42 0c bf 71 53 aa bd f2 96 1d 3e 35 7e bd 3d
       -0.5478896 -0.083166964 0.15389612 0.09252588
000250 ea 09 d9 3e 92 97 54 be e9 36 48 be 5a ce 2d 3e
       0.42390376 -0.20760944 -0.19552197 0.16973248
000260 8f f5 a8 3e 3f da 37 be ec 9e 2e be 08 bd fc 3d
       0.32999846 -0.17954348 -0.17052811 0.12340742
000270 91 aa 61 3d 91 94 2c be 26 0e a5 3e bb c1 9a 3e
       0.055094305 -0.16853549 0.32237357 0.3022593

action_net.bias f4 [5]
000000 4b 44 59 3d 82 58 33 3e 45 f6 91 bd 46 f5 85 3c
       0.053043645 0.17514232 -0.0712705 0.016352307
000010 bc 15 48 be
       -0.19539541

value_net.weight f4 [1, 32]
000000 00 ea 84 bd 6d 61 bb bd a6 9e 84 be e7 a0 5a 3b
       -0.064899445 -0.09149442 -0.2590229 0.0033360065
000010 6f 47 2d bd fe 86 36 3e 51 4b ed 3d cb af 96 3d
       -0.042304453 0.17824933 0.11586631 0.073577486
000020 fd 9d b3 bc 73 c9 37 3e 8f 93 34 be 25 7a 2c 3c
       -0.02192592 0.1794794 -0.17634414 0.010527168
000030 b9 13 7c 3c 59 2c 8a bd 79 bd 61 bb 31 94 7e 3e
       0.015385562 -0.0674674 -0.003444521 0.24861218
000040 76 29 04 be 62 b6 3c 3e 17 40 b4 bd fb 42 ce be
       -0.12906441 0.18428949 -0.08801287 -0.40285477
000050 27 6f b2 3e f8 62 7e bd 66 42 4d 3e 86 50 35 3d
       0.34850428 -0.062106103 0.2004486 0.044266246
000060 d9 96 6b be 10 9e 65 3e ec 96 47 be 51 18 be bd
       -0.23006763 0.22423577 -0.19491166 -0.09281982
000070 e9 cd 38 be 0e 77 7f 3d f4 49 b2 3e 78 3e 51 be
       -0.18047298 0.0623694 0.34822047 -0.20433986
