toy_its/train_logs/map_randompos/eval/bc_model_2000000.pth (torch, 38914 bytes, 11 tensors)

mlp_extractor.policy_net.0.weight f4 [32, 81]
00000000: 0c8f b7bd f8a1 34bd 4cb1 8bbd ff53 7a3d
00000010: 7815 48be cce3 e33e e7a3 893e 5d09 b0bd
00000020: a409 44be 0a7a 863d 0f87 243e f472 f13d
00000030: 1a11 77be 2e0c 8b3d 779a 95bd 7578 c13d
00000040: f3d4 14bd a51c bbbd 590a 2e3e 2514 553e
00000050: afa5 293d 91c7 813e a7bf 0dbe f491 7d3e
00000060: 9822 e13e 5649 40be a3bf f33d 2804 a2bd
00000070: 1bf5 823e 41bf e6be 3a84 9c3d e358 733e
00000080: 7417 04be 132a 18be 348f 3cbe fca3 9b3d
00000090: 4d87 063e 3c72 5abe fdd4 0abe 91fa 06be
000000a0: f972 3a3e e1fd e83e 38c3 c5be 144a 53bc
000000b0: e102 a8be 466e 943d aa29 813e b9c6 2abe
000000c0: 9dae 6fbe a7ec d83e 76cc 823e d82e 62be
000000d0: 5767 ac3e 1070 6b3e abf0 b53e 61f1 863e
000000e0: c822 993e 8be3 ee3e ba80 23bd 8b2a 033e
000000f0: cb0b 46bf 8ef8 483d f257 bcbc 3023 0f3e
00000100: 26c7 15be 0f91 4dbe ee05 a73d c6de fd3d
00000110: 003b 313e e6fb 253e f49c 4bbe 3135 6f3e
00000120: 437d e43d d5e6 a73e 7820 41be 8766 153e
00000130: 932f b63e 7992 073f 5a21 8cbe cf41 46be
00000140: 2f8a 50be 6b21 79bc 888a babd 03b1 d4bd
00000150: cf88 99bd 7ba2 6fbe 6e92 86be 0102 3ebe
00000160: d856 843c 012f 693d 858c 213e 5914 3dbd
00000170: fb5b 28bd 2d17 10be 7bb4 82bb 6e75 e9bd
00000180: fb75 9f3e afed 3c3e 5a21 973d 4270 4cbe
00000190: 8b71 28be 640c 8ebe eba4 72be a68a ab3d
000001a0: 41ea 54be 2b44 e2be f515 3ebe eeaa 683e
000001b0: f6bf 42be 8a71 9ebe 895b 863e 9e9b c9bd
000001c0: c2fb b1bd 83fb 333d c22b c03e 89e4 2e3e
000001d0: e13d 383e a9a7 663c 98f9 71be 5544 3bbd
000001e0: 58b0 213e 3b6d b43e 8356 2cbd b04f 1abe
000001f0: fdd4 9fbe 4f84 0b3e 6c3d 12be 48e3 b3be
00000200: 2300 fdbc 5248 5d3e 81aa a8be 0c2d f0bd
00000210: cc7f aabd e442 95bd c007 823e a510 3e3d
00000220: 3a0e 44be e884 7abe 7bc0 aabe b74c 633d
00000230: b19e 743e 43b8 5b3e 78d6 fc3b 0313 06bd
00000240: 34a4 933d f9b3 9f3e 0d1a a53e 4255 5cbe
00000250: 92fb 27bd a896 5a3d 879b 023d e4ef da3d
00000260: 154a 07be f49d 3ebc ade6 adbe f305 a63e
00000270: bdc3 573e fafc cabd 92e2 9abe 6950 9b3c
00000280: 230f b83e 911b 503d f758 27be 8205 253e
00000290: ddbb 12bd 8738 973d eb53 10bc 7cb6 03bc
000002a0: 148d 943e 1a12 323d 3df0 033e 5bea 08bd
000002b0: d006 4b3e c3c7 583d 0ab0 51be a7b3 40be
000002c0: f711 563e b1f2 48bd b9f9 da3c 6c5b 9cbe
000002d0: 5004 70be fb39 6fbd e7e3 8fbe 1347 99be
000002e0: bef1 0e3d 95f6 32be bc02 433e 2dc1 b23e
000002f0: 7893 243e 5b04 c13d 3a3b b1be 3c1f 39be
00000300: 6bcc 6d3e e3cc 5abe a586 e9bc faf1 3dbe
00000310: ee27 e13e b76b 633d 1b8d 9d3d 7eeb 65bd
00000320: 6bfa b73d 79aa d43d 57c4 ab3d fd99 e3bd
00000330: 9edf 383e 1219 4b3e 775e 41be ff5f 15be
00000340: 816c b1be d779 023e 065a 69bd 0835 afbe
00000350: cbe6 83be a3e8 123e 7eb6 653f fa11 55bd
00000360: 1e5e 87be db8d 24be f8c4 84be 0903 cdbd
00000370: 13b5 8e3d ed90 ecbb 7938 27bf 3576 9a3c
00000380: a807 f93d e86b 85bd 9264 953d 2e40 14bc
00000390: f558 a5bd 8a1f 9f3e 4498 013f d044 b7bc
000003a0: f0c7 c93d d07e 023e 817b 66be 4435 a0bd
000003b0: 0ed1 74be e493 a13e ff4f a6be 67e9 8dbe
000003c0: 2da8 ae3d f32a fa3e 948e c23d c3bb 663e
000003d0: f075 af3d 1308 a03c b685 8ebd 8112 cbbd
000003e0: 296d 8ebe 3771 b63d 2a5f c33d bba0 143e
000003f0: 0940 cabd e77a 10be 5abb 74bd e742 aa3c
-0.08962831 -0.044099778 -0.06820926 0.06111526 -0.1953944 0.44509733 0.2688286 -0.08595536
-0.19144303 0.06566246 0.16067146 0.11789504 -0.24127617 0.067894325 -0.073048525 0.094468035
-0.036335897 -0.09136323 0.16996135 0.20808466 0.041417774 0.2534757 -0.13842641 0.24762708
0.43971705 -0.18777975 0.11901786 -0.07910949 0.25577626 -0.4506779 0.07642408 0.23764376
-0.12899572 -0.148598 -0.18414003 0.07599637 0.1313755 -0.2133264 -0.13557811 -0.13181521
0.18207921 0.45506194 -0.38625503 -0.01289608 -0.32814696 0.072475955 0.252271 -0.16677369
-0.23406453 0.4236805 0.25546616 -0.22088182 0.33672592 0.22991967 0.35535178 0.26356032
0.29909348 0.46657977 -0.039917685 0.12809198 -0.77361745 0.049065165 -0.022991154 0.13978267
-0.1462675 -0.20074867 0.08155428 0.12396006 0.17307663 0.16209373 -0.19884092 0.23360135
0.11156704 0.32793298 -0.18860042 0.14589892 0.3558317 0.52957875 -0.27369195 -0.19361041
-0.20365213 -0.015205721 -0.09108454 -0.10385325 -0.07496797 -0.23401825 -0.26283592 -0.18555452
0.016154692 0.056929592 0.1577626 -0.046161983 -0.041103344 -0.14071341 -0.0039888 -0.11399351
0.311447 0.18450044 0.07379408 -0.19964698 -0.16449563 -0.27743828 -0.23695724 0.083760545
-0.20792486 -0.44192633 -0.18563063 0.22721455 -0.1901854 -0.30945998 0.2624171 -0.09844135
-0.08690597 0.043941032 0.37533385 0.17079367 0.17992355 0.014078059 -0.23630369 -0.045719463
0.15789926 0.35239586 -0.04207469 -0.15069461 -0.31217185 0.1362469 -0.14281243 -0.3513434
-0.030883854 0.2160962 -0.32942584 -0.11727342 -0.083251566 -0.07288149 0.25396538 0.046402592
-0.19146052 -0.24464762 -0.33349976 0.055493083 0.23888661 0.21457009 0.0077159964 -0.032732975
0.07209054 0.31191996 0.32246438 -0.21516898 -0.0410114 0.053366333 0.031886604 0.10690287
-0.13211854 -0.011634339 -0.33965054 0.32426414 0.21070762 -0.09911533 -0.30250984 0.018959241
0.35949048 0.05080754 -0.16342531 0.16115382 -0.03582369 0.073838286 -0.00880907 -0.008039113
0.29013884 0.043474294 0.12884612 -0.033426624 0.19826818 0.052924883 -0.2047731 -0.18818532
0.2090529 -0.049059574 0.026730405 -0.305385 -0.23439145 -0.058404904 -0.28103563 -0.29937038
0.034898512 -0.17476876 0.19044012 0.34913006 0.1607188 0.09424659 -0.346155 -0.18078321
0.2322251 -0.2136722 -0.028506586 -0.18549338 0.43975776 0.055522647 0.07692929 -0.056132786
0.0898331 0.103840776 0.08387058 -0.11113355 0.18054053 0.19833782 -0.18883692 -0.14587401
-0.34653094 0.1274179 -0.05697062 -0.34220147 -0.2576202 0.14346556 0.89731586 -0.052019097
-0.26438993 -0.16069739 -0.25931525 -0.100103445 0.06968131 -0.007219425 -0.65320545 0.018855194
0.121596634 -0.06514722 0.07294573 -0.009048505 -0.08073608 0.3107875 0.50622964 -0.02237168
0.09852588 0.12743688 -0.2250805 -0.078226596 -0.23907873 0.31558144 -0.32482907 -0.27717134
0.08528171 0.48860893 0.09499851 0.22532563 0.08567417 0.0195351 -0.06959097 -0.09915639
-0.27817658 0.08908313 0.095396355 0.14514439 -0.09875495 -0.14109384 -0.059748985 0.020783855

mlp_extractor.policy_net.0.bias f4 [32]
00000000: b3b8 26bd bcbe 3c3c c0ac e5bc 5fb0 ecbb
00000010: 62e1 4239 a054 23bd 2f0f a6bd 28ba 083d
00000020: cddd 973c f3b6 9dbc a2a2 933c 7d41 dfbd
00000030: 0e61 a13d 22fd dbbb ebf2 cc3c ae3c 12bd
00000040: d586 6e3d 4446 59bd 2f06 fdbd 20d6 2d3c
00000050: 81a7 3a3d 342c 16bd e6f8 80bd fd91 4a3d
00000060: dfdc a63d 49d3 013d 1e4c 84bd 3a97 39bb
00000070: e6e5 92bd 1877 983c 73ea 05bd 38da 733c
-0.040703487 0.011520084 -0.028036475 -0.0072231735 0.00018585243 -0.039875627 -0.08108365 0.033380657
0.01853838 -0.019252276 0.018021885 -0.10901163 0.0787984 -0.0067135254 0.025018176 -0.0357024
0.058234055 -0.053045526 -0.12354695 0.010610133 0.0455699 -0.03666325 -0.062974736 0.04945563
0.081475966 0.031695638 -0.06459831 -0.0028318898 -0.07172756 0.018611476 -0.03269429 0.01488357

mlp_extractor.policy_net.2.weight f4 [32, 32]
00000000: 7be9 7abd d45f a43d 67c1 963e c504 f93e
00000010: 8ee3 0ebd 559c 3cbf d92f 1c3d 80c6 0a3f
00000020: 8c85 55bd 0978 5c3d 3f80 413e f8e3 d33e
00000030: 36f5 483e 3cdd 8b3e eb28 e8be 6a59 943d
00000040: 095f 13bf 040c c23e e1db 923e 898e c8be
00000050: 17c9 93be 51ee 78bd f29f c73e 09cb b43d
00000060: cff3 ec3d f2d4 1fbe 06e7 ebbe 44ad 2b3f
00000070: 0849 b5bd b204 963d 710f 2a3f e734 fa3e
00000080: a6d7 b1be 2843 5abe eb75 d1be 3462 dbbe
00000090: 8e33 04bf ea44 183e e735 133e 454c a6be
000000a0: 48c9 d7bd aef3 263f 2753 c4bd dab9 8b3e
000000b0: 5df1 debe 2bf2 243e 9810 793e 8fb4 b43e
000000c0: f971 04be 047f f03e 4a2f dc3e c01e a53e
000000d0: b318 58be 2957 77be 78b4 8fbd ef34 09be
000000e0: 4bf6 0ebf ccb8 793e c9e2 113f ac10 46be
000000f0: eef8 0e3e fb76 cd3d 0b27 06bf 644c a53e
00000100: 07ab 4dbd fd76 79be 7f54 d23d e889 1abf
00000110: b13c c5be 985c 213e 7c5c 743e 7921 8ebd
00000120: 0110 d53d 66cd dcbe 2fd9 52be cc9e 293d
00000130: 0a4c 53be a2f3 00bf 5c2b 5ebe c176 2abe
00000140: ee22 de3c d31e f43e 5495 abbe b78d c13e
00000150: 43d9 88be 1913 4d3f f0df c0be 202e 41bf
00000160: ca47 02bf 0025 19bf 8303 593e 2d08 b5bd
00000170: a6d8 d03e 1fca 1e3f e8b8 0bbf 569b 25be
00000180: 329b 2ebe ee56 8d3e dfbf a83d 00c2 543e
00000190: c0c0 653e 875d 8e3e 5949 0e3e daa0 a8be
000001a0: 1e45 a73d 54e5 243f 6fa4 5f3e 42bd 6a3e
000001b0: 7c17 3f3f 9a3f e63d 14bb 29bf 80e5 563d
000001c0: 6429 3a3f 2b83 cb3d e93a 993d 2f76 9f3e
000001d0: a94b fa3c 2545 f9bc 3739 43be 61a4 013d
000001e0: 4838 4ebf 82ec dc3e 659d b43e c07c e1be
000001f0: 1231 7e3e 3040 85bd 9f46 4abf ec80 25be
00000200: 95a6 8d3f a541 88be e308 c5be 177b bcbc
00000210: 8ff7 b23e 82ca 88be b4d1 f4be 60ec 4dbd
00000220: 436e 153c 2ee0 663e ea43 b5be e5da 3c3e
00000230: 9fe5 74be 6e4f 653f 67ce 353f 7e59 00bf
00000240: 3e2f 7abe 1d73 a4be 30f3 d93c 8a0d e03d
00000250: b3f7 5bbe 08a6 2cbf 6826 41be 2f97 c53d
00000260: 7888 2c3e 8d60 d5be 1503 d43d 7d41 57bd
00000270: 64b1 bfbe e4a7 103e 441e e3bd ca91 b73b
00000280: d997 493e e4d3 86be c38e 23be a3f2 a2bb
00000290: 4933 463f e451 92be 97b4 9dbe 555f 9c3d
000002a0: aad7 a33e f767 bbbd ab48 5cbf 5aac c13d
000002b0: daa0 bbbe 6a1e 54be 7543 6c3e 51cb 20bc
000002c0: 5d18 fabe 0c24 a1be eab8 1d3e eeed a63e
000002d0: b40f 64be 5820 0cbf 13ab 59be db09 903d
000002e0: d77b 6abe dfd6 103c b426 cd3e 5001 503d
000002f0: 0e24 1cbe a17e adbe b3a5 e03c cc9f 23bf
00000300: f5aa 02bd d003 ab3e 42c8 40bd 79fe 1c3f
00000310: e83b 2f3c 93ec a93e 6fc8 593e 450e 003f
00000320: b009 a83e f810 8d3e 0e54 393d 1c82 933c
00000330: 98ad b23d 455e 1d3f 5239 ccbe 4676 acbe
00000340: 88cf 313e 21de a9be d1aa 5ebe 58b5 06bf
00000350: d185 dd3e a386 45bf 0fe9 933d 66ec 973f
00000360: 6ae2 d13e fb90 eebb e8df c9be 4c60 293f
00000370: 19b0 09be 21fd 4ebe b124 213f f95a 7bbe
00000380: ab49 04be e082 21bf 5a88 16be 362f e0be
00000390: fa4a 1f3e 9e3a f6bd ccb1 6d3e 8127 2fbf
000003a0: 029f 343e de65 e7bd 0500 d5bc 79ca b63d
000003b0: 6c44 5c3d 5f3d 19bf 3d75 073f b73e cfbd
000003c0: 3675 50be dcbe 5cbc 1a38 cdbe fc15 b4be
000003d0: 984d 19be d0da 133f d982 1cbf 5418 46bd
000003e0: 774a 90be d719 bc3d 5172 dd3e f3de 05bf
000003f0: 24cb 1f3f f904 313f d79c 2dbe 70cc 853c
-0.06125782 0.0802609 0.2944443 0.4863645 -0.03488498 -0.73676044 0.03813157 0.54209137
-0.052129313 0.053825412 0.18896578 0.41384864 0.1962479 0.27317226 -0.45343718 0.07243617
-0.5756689 0.37899792 0.2868338 -0.39171246 -0.28864357 -0.06077415 0.38989216 0.088277884
0.1156994 -0.15608576 -0.46074694 0.6706126 -0.0885182 0.07325114 0.6642981 0.48868486
-0.3473484 -0.2131468 -0.40910277 -0.4284836 -0.51641166 0.14870039 0.14376031 -0.32480064
-0.10536438 0.65215576 -0.095861726 0.2729023 -0.4354352 0.16108005 0.24322736 0.35294005
-0.12934102 0.46971905 0.4300483 0.32250023 -0.21103172 -0.24154343 -0.070168436 -0.13399099
-0.55844563 0.243869 0.5698667 -0.19342297 0.13962147 0.10032459 -0.52403325 0.32284844
-0.050211933 -0.24361797 0.102700226 -0.6036668 -0.38522866 0.15757978 0.23863405 -0.06939978
0.10403443 -0.43125457 -0.20590661 0.041411206 -0.20634475 -0.50371754 -0.21696228 -0.16646864
0.027116265 0.47679767 -0.33512366 0.37803432 -0.26728258 0.80107266 -0.3767085 -0.75461006
-0.5089079 -0.5982208 0.21192746 -0.0883945 0.4079029 0.6202716 -0.5457902 -0.16172537
-0.1705139 0.27605385 0.082397215 0.2077713 0.2243681 0.2780573 0.13895167 -0.3293522
0.0816748 0.64412427 0.2184007 0.22923759 0.7464521 0.112426 -0.66301084 0.052464962
0.7271941 0.09937128 0.07481939 0.31144854 0.030553656 -0.030428478 -0.19064794 0.031650905
-0.8055463 0.4314919 0.35276332 -0.4404049 0.24823406 -0.065063834 -0.7901401 -0.16162461
1.1066462 -0.26612583 -0.38483343 -0.023007913 0.34954497 -0.26717 -0.4781624 -0.050274253
0.009120527 0.22546455 -0.35403377 0.18442877 -0.23915718 0.89574325 0.7101807 -0.50136554
-0.24432084 -0.32119074 0.026605219 0.10940082 -0.21481209 -0.67440844 -0.18862307 0.096479766
0.16848934 -0.41675225 0.1035215 -0.05255269 -0.37440026 0.14126545 -0.11089757 0.005602096
0.19686832 -0.26333535 -0.15972428 -0.004972772 0.77422005 -0.28578103 -0.30801842 0.07635371
0.32000476 -0.09150689 -0.8604838 0.094567016 -0.36646158 -0.20714727 0.23072608 -0.009814099
-0.48846713 -0.31472814 0.1540257 0.326034 -0.22271615 -0.5473685 -0.21256666 0.0703313
-0.22898804 0.008840292 0.4006859 0.0507825 -0.15248129 -0.33885673 0.027422762 -0.63915706
-0.03190132 0.33401346 -0.04706598 0.61325794 0.010695435 0.33188304 0.21267866 0.50021774
0.3281989 0.2755201 0.045246176 0.018006377 0.08724517 0.6147197 -0.39887482 -0.33683985
0.17364323 -0.33177283 -0.21744849 -0.5262046 0.43266156 -0.77158564 0.07222187 1.1869018
0.40993053 -0.0072804666 -0.3942864 0.6616256 -0.13446082 -0.20213749 0.6294661 -0.24546422
-0.12918727 -0.63090324 -0.14700451 -0.4378602 0.15555945 -0.12022899 0.23212355 -0.68419653
0.17638782 -0.112987265 -0.026000986 0.08925337 0.05377619 -0.5985927 0.52913266 -0.10119384
-0.20357212 -0.013473239 -0.40081865 -0.35173023 -0.14971006 0.57755756 -0.6113716 -0.048363045
-0.28181812 0.09184616 0.4325128 -0.5229332 0.62419343 0.6914821 -0.16954361 0.016332835

mlp_extractor.policy_net.2.bias f4 [32]
00000000: 2eae 99bb cf6d c7bd 5ad3 36bc 50c1 58bd
00000010: 3e90 7f3d 8638 67bd c3d1 b3bd f8ca 583c
00000020: 67df 203d da61 a13c 327b fe3d f790 23bd
00000030: 4ea2 7d3b acf7 fc3d e61d 7cbb bf35 d43c
00000040: 75f8 653e 3a4c a8bd f8c9 e53d 745e ac3d
00000050: ade1 973d 6d1c 81bd 9d1d 983c 119c bc3d
00000060: 367a a5bd d095 383c 9a4c 2bbd 3d22 edbd
00000070: 12d3 7c3d 16a9 083b a204 993b 3990 da3c
-0.0046899533 -0.09737741 -0.011158789 -0.052918732 0.06239342 -0.05645039 -0.08780243 0.013231985
0.039275553 0.01969998 0.124258414 -0.03993317 0.0038701477 0.12351927 -0.003846997 0.025904534
0.2245806 -0.08217664 0.11220163 0.08416453 0.07416091 -0.0630425 0.018568808 0.09209455
-0.080799505 0.011266187 -0.0418211 -0.11578796 0.06172473 0.0020852736 0.0046697417 0.026680099

mlp_extractor.value_net.0.weight f4 [32, 81]
00000000: da90 92bc 0a75 50bd eebf f3bc 3d80 1bbe
00000010: e021 e6bd 85ff 893d 8ee8 d8bc 9ea3 dd3c
00000020: a143 e93d dfea 113d 5f69 2abd 431e afbd
00000030: c6ed 52bc 1f4f 2fbe 58aa 67be 472b 66bd
00000040: 6b9a 97be 73e5 9fbd ea48 9b3d b038 2d3c
00000050: 2a1c 4bbd c7f4 fabd 9659 7d3e 05e7 b53d
00000060: 6aac 7c3d 49ff a2bd f3f2 94be 654d 3cbe
00000070: dd58 64be 9fc6 623e 213d 533e b91e 12bc
00000080: d7dd bd3d 7b12 ad3e ae5b ebbe c4ee e0bd
00000090: aa30 9dbd 8d8b 613e fdad a0bd cd4f 2d3e
000000a0: b641 5c3d 3bbe ec3d 13c5 0e3c d58d c33e
000000b0: f6b3 98be cf55 9f3d f0b1 ca3d 804a 08be
000000c0: b0d3 803c da6f 51be 3e16 1bbe 23a8 52be
000000d0: 7845 c9be e01e 663c 8c5d 39bd 2362 fdbd
000000e0: cf33 0f3e 7b0a e6bc f3a9 e3bd 15db 9cbd
000000f0: bf7f 703e f009 f7bc 1471 ba3d 35e2 46be
00000100: f994 9bbd 7961 77bd 1abd 933d 5a03 a7bd
00000110: 18e7 56bd aac1 8fbd e12a 5dbe 3492 493e
00000120: c6fc 9c3c 8554 b53d 6b4e 85be 5bf0 b3bd
00000130: adfe f3bd 5cc0 cb3d 9dfe 5abd 526b f5bd
00000140: d5e0 dc3d 8c11 2d3e d103 d9bd 7e21 1abe
00000150: 0380 33be 696d 423d 16fa 3e3e 959d 89be
00000160: 5920 53be cb8a a3be dabc 69be 8512 08be
00000170: ef8e c8bc c13e 19bd ace6 2b3e 4441 c33d
00000180: 7c1c adbe fb5e 21bc 4b4a 8b3e aa49 9dbd
00000190: 6c9c 89bd a3df 533d c6c9 853e 1bdb 61be
000001a0: 191a 94bc 6fa2 993c a7d2 21bd e271 503d
000001b0: e42d 28bd 5c42 b73b 400f da3e c152 5dbd
000001c0: 2d65 cdbd 3cad 98bb ab3d 79bd 19de 943d
000001d0: 669b 53bc 254e d83d 86ac dfbd 7433 803d
000001e0: 6aa0 e63d 40c4 12be c3a0 fabc 8d19 df3e
000001f0: 2040 b5bc cfa3 13be 94a6 383e 5e68 6abe
00000200: a8f1 67be ce46 273d 587d 42be abfb d5bd
00000210: f470 2f3d 83df 3abe 377c d3bd 3b6f e0bd
00000220: 01f7 273e 829a 28be 3e26 d83d 49df 85bd
00000230: 5aac 51bc f8fa 9e3c cfbb efbd 9a50 ecbd
00000240: b0a3 20be 459f cf3e 7cd5 0f3d edd3 cb3b
00000250: 23e1 03be 41b6 13be 3e2d 693e e00d 40bd
00000260: 5870 ae3d 8d04 07bd 845b 133e 9d5d 743d
00000270: 6bee f5bd 19bf 253e 8091 0d3e 61a4 933d
00000280: 0979 193e c15f 28bd 9682 16be f2e0 303d
00000290: ba93 fdbd c5a5 a33d d05c 2cbd d047 83bd
000002a0: 9160 78bd 553a 35be b5d9 0f3d ca45 853d
000002b0: fbea 143e 0397 a4bd cf0f 5ebd 3295 ca3d
000002c0: 145a 043e 4625 f23d 4320 ef3d 9392 39be
000002d0: c412 ccbd 1325 68be 728b 043e 9443 35be
000002e0: ac30 0f3e add9 59bd 2fe5 febb f8ed 29be
000002f0: 6b7b d2bd 1ef1 4dbe 58ad 173e a1ea 41bd
00000300: dc6c 283d 70d7 0fbd 2b81 78be b68a 0d3e
00000310: 1db0 b7bc 461a d13e f144 0dbe 34df 9f3b
00000320: 89c8 fe3d 0d7a ffbc e2f2 653e f77d 77bb
00000330: 0369 c0bd c94f 8c3d 35d5 82bd e85a b63e
00000340: 3835 97be a1f3 87be 3cd9 553e 44d4 c8bd
00000350: 5c1c 9bbd e931 453e 5d91 15bc 0a2f 90bd
00000360: 421e 553e 92f8 f6bb cd31 323e 8746 96bd
00000370: ed86 4cbe 12d6 8fbd 53e9 783e 79ca 97bd
00000380: c1ca a7bc 274f af3e 427c 9e3d f0b1 00bb
00000390: adfd 0fbd 18bd 873d 3949 6a3e 88c9 3b3e
000003a0: 4336 14be 2f64 9f3e e089 c6bc 4335 d1bc
000003b0: 2b4b cc3e fac8 f33d dcd0 443e cef3 3ebe
000003c0: 7754 ed3d cb9f e6bd 7dbd 21be 4d0c 0b3e
000003d0: 8ece 11be 20ae 4fbd 68ac 3abd dd8d 493d
000003e0: b7be 0c3e 6ceb cebd c148 9cbd 299f 28be
000003f0: 990d 1c3e 8be3 a93d 7bdd 7b3c 420b 4bbe
-0.017891336 -0.050892867 -0.029754605 -0.15185638 -0.1123693 0.067381896 -0.026478078 0.027055558
0.11389852 0.03562438 -0.041604396 -0.08550694 -0.012874072 -0.17120026 -0.22623575 -0.056193616
-0.2961 -0.07807436 0.07582267 0.010572597 -0.049587406 -0.12253719 0.24741206 0.08881954
0.061687864 -0.07958848 -0.29091606 -0.18388899 -0.22299524 0.2214608 0.20628788 -0.008918458
0.09270828 0.33803162 -0.45968384 -0.10983041 -0.076752976 0.2202589 -0.07845686 0.16924973
0.053773604 0.11559721 0.008713978 0.38194147 -0.298248 0.077800386 0.0989722 -0.1330967
0.01572594 -0.20452824 -0.15145203 -0.20571952 -0.39310813 0.014045447 -0.04525523 -0.12372234
0.13984607 -0.02808117 -0.111163996 -0.07658974 0.23486231 -0.030156106 0.09103599 -0.19422229
-0.07596774 -0.06039569 0.07213803 -0.08154936 -0.052466482 -0.0701936 -0.21598388 0.19684678
0.0191635 0.088540114 -0.2603639 -0.087860785 -0.1191381 0.09948799 -0.053465474 -0.1198336
0.10785071 0.16901225 -0.10596431 -0.15051839 -0.17529301 0.047467623 0.18650088 -0.26878038
-0.20617808 -0.31941828 -0.22825947 -0.13288315 -0.024482219 -0.037413362 0.16787213 0.09533933
-0.33810794 -0.009849305 0.2720512 -0.07680066 -0.06719288 0.05172695 0.26130503 -0.22056238
-0.01807885 0.018754212 -0.039507534 0.050889857 -0.04105939 0.0055926275 0.4258976 -0.054034
-0.100290634 -0.004659323 -0.060849827 0.07268924 -0.012915468 0.1056178 -0.10921578 0.06259814
0.11261065 -0.14332676 -0.030594235 0.4357418 -0.022125304 -0.14417957 0.18032295 -0.22891375
-0.22650778 0.04083901 -0.18993127 -0.104483925 0.04283233 -0.18249325 -0.103264265 -0.109587155
0.16402818 -0.1646519 0.10554169 -0.06536729 -0.0127974395 0.01940678 -0.117057435 -0.11538811
-0.15687442 0.405512 0.035115704 0.006220332 -0.12878852 -0.14424993 0.22771165 -0.046888232
0.085175216 -0.032963324 0.14390379 0.05965959 -0.12008365 0.16186179 0.13825035 0.07209087
0.14987577 -0.041106943 -0.14698252 0.043183275 -0.12381692 0.079906024 -0.0420807 -0.064101815
-0.060638968 -0.17698033 0.03511973 0.06507452 0.14542763 -0.08036616 -0.054214295 0.09891738
0.12924987 0.118235156 0.11676075 -0.1812232 -0.09964517 -0.22670393 0.12943819 -0.1770156
0.1398341 -0.053186107 -0.0077787857 -0.16594684 -0.10277446 -0.2011151 0.14812219 -0.0473429
0.04111944 -0.035117567 -0.24268024 0.13822445 -0.022422845 0.40840358 -0.1379583 0.004878903
0.12440593 -0.031186128 0.22455934 -0.003776429 -0.093950294 0.06851155 -0.06388322 0.3561623
-0.2953279 -0.26553062 0.2088365 -0.098061115 -0.075737685 0.1925732 -0.009128896 -0.07040222
0.20812324 -0.007536956 0.1740181 -0.07337671 -0.19973345 -0.070232525 0.24307756 -0.074116655
-0.020482423 0.34240076 0.07738544 -0.001963731 -0.035154033 0.06627864 0.22879495 0.18338597
-0.14473824 0.31131122 -0.024235666 -0.025538092 0.399011 0.119035676 0.19220299 -0.18647692
0.11588376 -0.11260947 -0.1579494 0.13578911 -0.1423895 -0.050703168 -0.045574576 0.049207557
0.13744627 -0.10103497 -0.07631064 -0.16466965 0.15239562 0.082953535 0.015372629 -0.19828513

mlp_extractor.value_net.0.bias f4 [32]
00000000: 0000 0000 0000 0000 0000 0000 0000 0000
00000010: 0000 0000 0000 0000 0000 0000 0000 0000
00000020: 0000 0000 0000 0000 0000 0000 0000 0000
00000030: 0000 0000 0000 0000 0000 0000 0000 0000
00000040: 0000 0000 0000 0000 0000 0000 0000 0000
00000050: 0000 0000 0000 0000 0000 0000 0000 0000
00000060: 0000 0000 0000 0000 0000 0000 0000 0000
00000070: 0000 0000 0000 0000 0000 0000 0000 0000
0.0 0.0 0.0 0.0 0.0 0.0 0.0 0.0
0.0 0.0 0.0 0.0 0.0 0.0 0.0 0.0
0.0 0.0 0.0 0.0 0.0 0.0 0.0 0.0
0.0 0.0 0.0 0.0 0.0 0.0 0.0 0.0

mlp_extractor.value_net.2.weight f4 [32, 32]
00000000: 762c 82be 04ff 4cbe 1278 dabe 84b6 9dbe
00000010: 37aa 743e 13a3 2b3e af81 d43d efa7 0e3e
00000020: 404b 113d 7101 49bc 5892 4fbf f350 bdbe
00000030: a151 813e ab17 24be 445e 903e dd8a e2bd
00000040: a28c e4bd 91be 153e bbfb bc3b 4bbf 743e
00000050: 28dc 093d 1ca5 983e ad33 50be 23e0 e8bd
00000060: f8b3 f63c 6da3 90be 77fe 143e 2797 7b3e
00000070: 50d7 533e 3ca0 54be 0f14 f13d 1907 2e3e
00000080: 0412 73bd 6024 1fbe 362c 783e 7abf d1be
00000090: 8911 63bd f4b4 bd3d d85a a9be 9a10 d63e
000000a0: f81e c53d e567 493d 4916 603c 30db 8a3d
000000b0: 84a1 46bf 51a5 8cbe 8d0b f53b bfe5 13bd
000000c0: 91d9 0dbd db06 cabd dd73 8e3e dfde e5bd
000000d0: c132 973e 4a80 a9bd 3c26 e53d eb92 05be
000000e0: 94ce 44be 1741 e33d 0e4f ee3c 4bd8 fcbc
000000f0: a9bb c93e e731 bbbe 8afa d33e 94ef 0bbe
00000100: 51c6 51be 1d57 52be 6774 7a3e d584 03bc
00000110: 37bc 033f fa40 9fbd f0a3 1dbe 7450 a9bd
00000120: 87cb a13e 565d 24bc 61d5 083e 153d 15be
00000130: f6e2 57be 8ce7 52bd 6219 49be e07b 813e
00000140: 12aa 333e 182b 88be c0ce ccbe 0036 133f
00000150: 4aa4 e73e c0b7 0dbe 8c04 b5be bb4e 2fbd
00000160: 3da8 9c3e ad9a 113d deaa 7dbb 6528 d6bd
00000170: e666 28be 8681 383e 137b 453c 0e36 cb3e
00000180: ca83 4fbe f8eb aebe f527 28be 7be4 3f3e
00000190: 0584 cbbe ffbb c8be 155c 94be adf5 ddbe
000001a0: 2c37 b3be 99a3 3cbd 4156 5e3e 2abc bc3d
000001b0: 1d98 b1be c2de 32bd f656 973e 13ad aebe
000001c0: 47e2 013d 1f80 9c3e a24b a0bd 90fb d9bd
000001d0: bb2f 5d3e 18ec 923e e1d5 d1be 8491 50be
000001e0: 876a a43e d3d3 dfbc 1600 9d3d 1c8d 933e
000001f0: 7408 41be 0fcb d5bd 7e12 d33c e7aa 903b
00000200: acd9 b63e 22dd c4bd 59d5 08bd 7c23 563d
00000210: f0fb b53a aebd 28be 789d d03d 7155 d7bc
00000220: 6c00 233f fa76 1c3f 2545 a2bd 7a33 3cbc
00000230: 2118 5b3d 69e9 adbe 6d9f e3bd 382a 0ebf
00000240: c26c 7bbd b8f5 b63d 026a 29bd e436 aebe
00000250: 3c35 143e 45ab 033e aad7 1a3e fe84 8bbd
00000260: 3adb 893e 744e fbbd e925 313e 9c71 53be
00000270: e809 04bd 0def df3e b9e0 5f3e f792 443d
00000280: 9b33 973e 71c3 04be caab d2be b1a2 8f3e
00000290: f66d a63e 0257 093f 3830 7ebe 5ca0 99be
000002a0: 852c 723e 3734 86be f67f 993e 5d65 7d3e
000002b0: e388 0e3e e670 88be 15e7 adbe c5cd e8bc
000002c0: 7b31 c43d b635 dd3d d4af 663e 415a a33d
000002d0: 8de9 0fbe b5d9 cb3d 27d8 9abe 5041 a63e
000002e0: 3684 af3d 556a 993c 75e8 22bd f1fc 2f3e
000002f0: c5d0 1d3e 2add 65be d23e cb3e ec5b 5abe
00000300: df3a 09be 4438 8e3e 0c50 4e3c de1c db3e
00000310: 8bb6 e93d b0a6 b03e c416 a3be f235 d13e
00000320: 0038 a9bd 2304 de3e e553 163e e09e 89be
00000330: 5baa 43be f44b 863e 90b6 263e fd3f 51be
00000340: ebca e63d 1ed6 3f3e 854d 2cbe d005 7c3d
00000350: 702d 96bd 1db5 b63e 9415 d2be 7284 5d3d
00000360: 4082 ffbe 2a1a 77be 5b52 5cbe faf4 8fbe
00000370: 30e6 e1bd 13a0 133e d741 233d 7ccd b4bd
00000380: 7096 15be 102a 343e 0fd2 863e 377a 83be
00000390: 0139 323d a241 903e e42a 9d3e df38 c13d
000003a0: 7ee1 bfbc 2a0c 13be 72b7 653e 6293 3a3e
000003b0: 7af8 863e 4fde 1abe 8576 ed3e 55fe bd3e
000003c0: cce0 fbbc c7e8 f93e fb9a 1abe 928c 97be
000003d0: 949d 0e3f 37e7 883d 72a5 afbd 3266 603e
000003e0: 2d22 0b3c 0a3f 213c b86b 2b3c c576 353e
000003f0: 52db 0cbe 8d12 ba3e daf0 ca3e d787 0bbe
-0.25424546 -0.20019156 -0.4266973 -0.3080331 0.23893057 0.16761427 0.10376298 0.13931249
0.035472155 -0.01226841 -0.8108268 -0.36975822 0.2525759 -0.16024654 0.2819692 -0.11061642
-0.11159636 0.14623477 0.0057673133 0.23901097 0.033657223 0.29813468 -0.20332213 -0.11370876
0.030115113 -0.28249684 0.14550196 0.24569379 0.20687604 -0.2076425 0.11771404 0.16994895
-0.059343353 -0.1554122 0.24235615 -0.40966398 -0.055436645 0.0926303 -0.3307712 0.4180954
0.096250474 0.049171347 0.013677188 0.06780088 -0.77590203 -0.27469876 0.0074781836 -0.036107775
-0.034631316 -0.09864589 0.27822772 -0.1122415 0.2953091 -0.08276422 0.11188933 -0.13044326
-0.19219428 0.11096399 0.02909043 -0.030864855 0.39400986 -0.3656151 0.41402084 -0.1366561
-0.20485808 -0.20541044 0.24458466 -0.008027275 0.5145907 -0.07776065 -0.15394568 -0.08267298
0.31600592 -0.010032019 0.13362648 -0.14574082 -0.21082672 -0.05149035 -0.19638589 0.25289822
0.17545345 -0.26595378 -0.40001488 0.5750427 0.4524253 -0.13839626 -0.35355031 -0.042799693
0.30597106 0.0355479 -0.003870658 -0.104569234 -0.16445503 0.1801816 0.012053269 0.39689678
-0.20265117 -0.34164405 -0.16421492 0.18739502 -0.3974916 -0.3920593 -0.28976503 -0.43351498
-0.3500303 -0.046054456 0.21712591 0.09215577 -0.34686366 -0.04366947 0.29558533 -0.3411642
0.031709936 0.305665 -0.07826926 -0.10643685 0.21600239 0.2869575 -0.4098349 -0.2036801
0.32112524 -0.027322685 0.07666032 0.28818595 -0.18850881 -0.10439121 0.025765654 0.0044149044
0.35712945 -0.0961249 -0.03340659 0.052279934 0.0013884287 -0.16478607 0.10186285 -0.026285859
0.6367252 0.61119044 -0.079233445 -0.011486882 0.053489808 -0.3396714 -0.111143924 -0.5553317
-0.061383016 0.08933586 -0.041360863 -0.34026253 0.14473432 0.12858303 0.15121332 -0.068124756
0.2692507 -0.12270823 0.17299618 -0.20648807 -0.03223601 0.4373707 0.21863069 0.04799172
0.2953156 -0.1296518 -0.4114669 0.2805381 0.3250577 0.5364839 -0.24823081 -0.30005157
0.23649795 -0.26211712 0.2998044 0.24745698 0.13919406 -0.26648635 -0.33965364 -0.028418431
0.0957975 0.1080126 0.2252801 0.07976199 -0.14053936 0.09953634 -0.30243036 0.32471704
0.08570139 0.01872746 -0.03977247 0.17186333 0.1541167 -0.22447649 0.39696366 -0.21324128
-0.13401364 0.27777302 0.012592327 0.4279546 0.114117704 0.34502172 -0.31853306 0.4086147
-0.08262634 0.4336253 0.1468044 -0.26879025 -0.19107954 0.26229823 0.1628058 -0.20434566
0.11269172 0.18734023 -0.16826446 0.06152898 -0.07332885 0.35685053 -0.41032088 0.054081388
-0.4990406 -0.24131075 -0.21515791 -0.2811659 -0.11030233 0.14416532 0.03985771 -0.088282555
-0.14608169 0.1759417 0.26332137 -0.2567918 0.043511394 0.28175074 0.30696785 0.094346754
-0.023422953 -0.14360109 0.2243326 0.18220285 0.26361448 -0.15123866 0.46379486 0.37108102
-0.03074684 0.48810408 -0.15098183 -0.29599434 0.55709195 0.06684726 -0.08576478 0.21913984
0.008492035 0.00984169 0.010462694 0.17721088 -0.13755539 0.36342278 0.3963688 -0.13626038

mlp_extractor.value_net.2.bias f4 [32]
00000000: 0000 0000 0000 0000 0000 0000 0000 0000
00000010: 0000 0000 0000 0000 0000 0000 0000 0000
00000020: 0000 0000 0000 0000 0000 0000 0000 0000
00000030: 0000 0000 0000 0000 0000 0000 0000 0000
00000040: 0000 0000 0000 0000 0000 0000 0000 0000
00000050: 0000 0000 0000 0000 0000 0000 0000 0000
00000060: 0000 0000 0000 0000 0000 0000 0000 0000
00000070: 0000 0000 0000 0000 0000 0000 0000 0000
0.0 0.0 0.0 0.0 0.0 0.0 0.0 0.0
0.0 0.0 0.0 0.0 0.0 0.0 0.0 0.0
0.0 0.0 0.0 0.0 0.0 0.0 0.0 0.0
0.0 0.0 0.0 0.0 0.0 0.0 0.0 0.0

action_net.weight f4 [5, 32]
00000000: 23c0 513e a7bf 9cbd df6d d83d 880f 16bf
00000010: a7a1 c4be 48cb 17be 20f1 ddbd 14fd 523e
00000020: 8cdc ce3d 722e a73e 4d17 aebe e29c 2e3e
00000030: 71d3 4bbc 87b9 6e3e cbc7 89be 2a3a 38bd
00000040: 7e7a 2c3e 6657 7a3b c40e 06bf 4fda 1abd
00000050: 41e1 1fbf a3c2 ffbc e624 b9bd 71f6 10be
00000060: 81db 12bf 15e6 bb3e 6ecf 0c3e 50ff 7ebd
00000070: f59c 2b3e 2c48 773d fe0d 8c3e d9a5 c1be
00000080: 741d 91be 6baa 8b3c bc24 073d e981 acbe
00000090: 9d56 1e3f 782b fd3e fda6 f9bd 3ca4 8c3e
000000a0: fa17 3dbe bbba b1be 0cff 0bbd b0c8 503e
000000b0: 2ea7 ddbe 8351 04bf 7034 0abe 5751 3e3c
000000c0: e650 79bb 8727 53bd b00d 903e 64be 0b3e
000000d0: 47a1 7abe 6390 603e 021b d13e ad36 dc3d
000000e0: 7de2 d8be e1e0 0f3e f8ea 343e 7d87 0a3f
000000f0: 93e4 00bf cda0 00be 820c 92be 7a4a b13e
00000100: 43b7 23bf 80c4 173d 17e0 373d 76af c53e
00000110: 3989 73be 1299 01be 0427 0bbd 57ef cc3e
00000120: 01bf 673e 33d3 14bf 85d9 f73e a50e 9dbd
00000130: d7f3 1b3e f92f 8dbc 92e7 4bbe 0bf5 4e3e
00000140: 835c 3f3e 3ef6 e2bd a0fb 26be e72f 9b3d
00000150: 2a23 9d3e 3455 e73e e1de 35be b996 b73d
00000160: 36d4 df3e 8aba 1fbe b41d e83d eeda 82be
00000170: 8111 dc3d 3c1e 1e3d bf28 18bf 2af6 8b3d
00000180: ccd5 bc3e 1d73 92be 6005 f9be 286f 69be
00000190: fdb2 013f 05b8 a63c 07e0 203f ebe7 eabe
000001a0: 7448 1ebf f8d7 17bd 5a9c 063f 3de6 4fbe
000001b0: 6483 02bc b345 693e b4e1 323e c19f ee3d
000001c0: 09a0 0b3e 9e2f 1a3f b75c 193f 5c09 efbe
000001d0: 0b50 993d 70c0 dabe 12bc 443e 35e9 d7be
000001e0: 237d 34bd 9976 81be d19f a1be f76a 21be
000001f0: e8e4 d2bc f16a a63e b7c3 4a3e efbc 9dbe
00000200: bf05 f93e 6682 393e 319a 043b 265b ee3e
00000210: 3938 63bc f2d9 c0bd 88a6 18be 7dbd bbbe
00000220: fe1d bf3d 9fd1 ee3e 858c 89be a609 cabd
00000230: ab6f af3d 4af4 02bd 8682 da3e 3abe 73be
00000240: 8afd 08bf 0f77 1ebe e042 123e feff 0e3e
00000250: 7616 fc3e 780e 66be 0d9f 8abe 84fb 493e
00000260: ecc0 c03e 5d72 85be 340f 1ebe 4beb 1a3d
00000270: 604c 113e e103 3abe 0b64 b33e 6a34 b13e
0.2048345 -0.07653742 0.10567831 -0.5861745 -0.3840458 -0.1482364 -0.108370066 0.20604354
0.1010066 0.32652622 -0.34002152 0.17052034 -0.012440548 0.2331296 -0.26910242 -0.044977345
0.16843602 0.0038199066 -0.5236628 -0.03780585 -0.62453085 -0.03122074 -0.09040241 -0.1415651
-0.57366186 0.36698976 0.13751003 -0.062255204 0.16759093 0.060371563 0.27354425 -0.37821844
-0.28342783 0.017049035 0.032994017 -0.33692864 0.6185091 0.49447227 -0.121900536 0.2746905
-0.18466178 -0.34712777 -0.03417878 0.20389056 -0.4329161 -0.51686877 -0.13496566 0.011616073
-0.0038042604 -0.051551368 0.28135443 0.13646847 -0.24475585 0.21930079 0.40840918 0.10752616
-0.42360297 0.14050628 0.17667758 0.5411299 -0.50348777 -0.1256134 -0.28525168 0.34627134
-0.6395151 0.03705263 0.044891443 0.3861043 -0.23782815 -0.12656048 -0.033972755 0.40026352
0.22631456 -0.58134764 0.48408142 -0.07668809 0.15229736 -0.01723479 -0.19912556 0.20210664
0.18687634 -0.11082123 -0.16306925 0.07577496 0.3069089 0.45182192 -0.17760803 0.08964295
0.43716592 -0.15598503 0.113337904 -0.25557655 0.10745526 0.038603052 -0.59437174 0.068340614
0.36881864 -0.2860345 -0.48636913 -0.22796309 0.5066374 0.02035142 0.6284184 -0.45880064
-0.61829305 -0.0370712 0.52582324 -0.20302673 -0.007965896 0.22780494 0.17468911 0.116515644
0.13635267 0.6022891 0.59907097 -0.46686828 0.0748597 -0.42724943 0.19212368 -0.4217011
-0.044064652 -0.25285795 -0.31567243 -0.1576346 -0.025743917 0.32503465 0.19801222 -0.30808207
0.48637196 0.1811615 0.0020233507 0.46553916 -0.013868385 -0.0941657 -0.14907277 -0.36668006
0.093318924 0.46644303 -0.2686502 -0.098651215 0.08566221 -0.031971253 0.42677706 -0.23803034
-0.5351187 -0.15475105 0.14283323 0.13964841 0.49235886 -0.22466457 -0.2707447 0.19724852
0.37647188 -0.26063815 -0.15435487 0.03782205 0.14189291 -0.18165542 0.35037264 0.346103

action_net.bias f4 [5]
00000000: c388 ad3b 447e 303d 303a 3bbd 6fba 413d
00000010: dfd1 d7bd
0.0052958443 0.043089166 -0.04570979 0.047296938 -0.105380766

value_net.weight f4 [1, 32]
00000000: 00ea 84bd 6d61 bbbd a69e 84be e7a0 5a3b
00000010: 6f47 2dbd fe86 363e 514b ed3d cbaf 963d
00000020: fd9d b3bc 73c9 373e 8f93 34be 257a 2c3c
00000030: b913 7c3c 592c 8abd 79bd 61bb 3194 7e3e
00000040: 7629 04be 62b6 3c3e 1740 b4bd fb42 cebe
00000050: 276f b23e f862 7ebd 6642 4d3e 8650 353d
00000060: d996 6bbe 109e 653e ec96 47be 5118 bebd
00000070: e9cd 38be 0e77 7f3d f449 b23e 783e 51be
-0.064899445 -0.09149442 -0.2590229 0.0033360065 -0.042304453 0.17824933 0.11586631 0.073577486
-0.02192592 0.1794794 -0.17634414 0.010527168 0.015385562 -0.0674674 -0.003444521 0.24861218
-0.12906441 0.18428949 -0.08801287 -0.40285477 0.34850428 -0.062106103 0.2004486 0.044266246
-0.23006763 0.22423577 -0.19491166 -0.09281982 -0.18047298 0.0623694 0.34822047 -0.20433986
