toy_its/train_logs/map_randompos/eval/bc_model_3000000.pth (torch, 38914 bytes, 11 tensors)

mlp_extractor.policy_net.0.weight f4 [32, 81]
000000 0c 8f b7 bd f8 a1 34 bd 4c b1 8b bd 40 73 ad 3d
       -0.08962831 -0.044099778 -0.06820926 0.08469248
000010 78 15 48 be 51 92 f0 3e 59 01 a9 3e 84 77 43 39
       -0.1953944 0.4698663 0.3300884 0.00018641172
000020 a4 09 44 be 0a 7a 86 3d 0f 87 24 3e f4 72 f1 3d
       -0.19144303 0.06566246 0.16067146 0.11789504
000030 86 ec 5e be 2e 0c 8b 3d 4b bf 95 bd 09 f9 96 3d
       -0.21769914 0.067894325 -0.07311877 0.073717184
000040 13 72 28 bd a5 1c bb bd 59 0a 2e 3e 25 14 55 3e
       -0.041124415 -0.09136323 0.16996135 0.20808466
000050 af a5 29 3d 91 c7 81 3e a7 bf 0d be ea 5e 7f 3e
       0.041417774 0.2534757 -0.13842641 0.2493855
000060 ef 94 e0 3e 84 ae 9c be a3 bf f3 3d 28 04 a2 bd
       0.43863627 -0.30601895 0.11901786 -0.07910949
000070 1b f5 82 3e 41 bf e6 be 7c cd cc 3d e3 58 73 3e
       0.25577626 -0.4506779 0.100001305 0.23764376
000080 87 6b 0d be 0c 05 8c be 34 8f 3c be fc a3 9b 3d
       -0.1381055 -0.273476 -0.18414003 0.07599637
000090 e1 ab 1e 3e 3c 72 5a be bc 60 e5 bd e5 ab dd bd
       0.15495254 -0.2133264 -0.11200091 -0.10823802
0000a0 8d 97 52 3e 44 10 f5 3e 33 9f d1 be 41 00 2f 3c
       0.20565625 0.47863972 -0.40941772 0.010681213
0000b0 7e f0 9b be b9 26 94 3d aa 29 81 3e b9 c6 2a be
       -0.30456918 0.07233948 0.252271 -0.16677369
0000c0 09 8a 57 be cb f2 d8 3e 2e d5 82 3e e8 2a 67 be
       -0.2104875 0.42372736 0.25553268 -0.22574961
0000d0 7b 42 ac 3e e4 98 6b 3e 1d f2 b5 3e 5d fe 86 3e
       0.3364447 0.23007542 0.3553628 0.2636594
0000e0 94 25 99 3e 54 f8 ee 3e c8 81 23 bd e6 44 42 3e
       0.29911482 0.46673834 -0.03991869 0.18971595
0000f0 6c 07 69 bf db c8 77 3e f2 57 bc bc 30 23 0f 3e
       -0.9102695 0.24197714 -0.022991154 0.13978267
000100 26 c7 15 be 0f 91 4d be 30 4f d7 3d c6 de fd 3d
       -0.1462675 -0.20074867 0.10513151 0.12396006
000110 dc 39 31 3e 75 cf 28 3e ad 53 16 be 31 35 6f 3e
       0.17307228 0.16485389 -0.14680357 0.23360135
000120 43 7d e4 3d d5 e6 a7 3e 78 20 41 be 1b 8b 2d 3e
       0.11156704 0.32793298 -0.18860042 0.16947596
000130 93 2f b6 3e 51 9a 07 3f f9 7b 8c be cb 78 8c be
       0.3558317 0.52969843 -0.27438334 -0.27435908
000140 2f 8a 50 be 6b 21 79 bc 88 8a ba bd 03 b1 d4 bd
       -0.20365213 -0.015205721 -0.09108454 -0.10385325
000150 df 42 c4 bd 7b a2 6f be 2e 76 8c be 37 08 89 be
       -0.09583067 -0.23401825 -0.27433914 -0.2676408
000160 35 10 d6 3d 01 2f 69 3d 85 8c 21 3e 59 14 3d bd
       0.1045231 0.056929592 0.1577626 -0.046161983
000170 fb 5b 28 bd 40 74 25 be 7b b4 82 bb 59 ea e7 bd
       -0.041103344 -0.16157627 -0.0039888 -0.11323995
000180 6c 02 a3 3e 30 6f 43 3e 5a 21 97 3d 42 70 4c be
       0.31837785 0.19085383 0.07379408 -0.19964698
000190 8b 71 28 be 64 0c 8e be eb a4 72 be a6 8a ab 3d
       -0.16449563 -0.27743828 -0.23695724 0.083760545
0001a0 03 50 54 be e5 d2 12 bf bd be ea bd ee aa 68 3e
       -0.20733647 -0.5735305 -0.11462162 0.22721455
0001b0 f6 bf 42 be 8a 71 9e be 89 5b 86 3e b3 55 f4 bd
       -0.1901854 -0.30945998 0.2624171 -0.11930408
0001c0 c2 fb b1 bd 2e e5 9f 3d e6 55 fc 3e 89 e4 2e 3e
       -0.08690597 0.078073844 0.49284285 0.17079367
0001d0 e1 3d 38 3e a0 52 de bb 98 f9 71 be 3a 5c 88 bd
       0.17992355 -0.006784752 -0.23630369 -0.06658216
0001e0 46 53 0c 3e ac be a9 3e 51 e5 80 bd 69 7e 05 be
       0.13703641 0.33153284 -0.06293739 -0.13036503
0001f0 8c 83 aa be 90 4e ec 3d 64 1d 12 be 48 e3 b3 be
       -0.33303487 0.11538422 -0.14269024 -0.3513434
000200 23 00 fd bc 3e eb 47 3e a9 ad a8 be f3 3f f0 bd
       -0.030883854 0.19523332 -0.32944992 -0.11730947
000210 79 97 23 be 0c 35 20 be a4 0c 82 3e b1 d9 3d 3d
       -0.15975751 -0.15645236 0.2540027 0.046350185
000220 8c 19 44 be 02 88 7a be c8 c6 aa be 4d 7f 63 3d
       -0.1915037 -0.24465945 -0.33354783 0.055541325
000230 be 0d 88 3e 02 89 89 3e bb 06 dc ba 03 13 06 bd
       0.26572984 0.2686234 -0.0016786674 -0.032732975
000240 34 a4 93 3d f9 b3 9f 3e 0d 1a a5 3e 50 b2 71 be
       0.07209054 0.31191996 0.32246438 -0.23603177
000250 92 fb 27 bd 59 8e 5a 3d 6d 4b 91 3c 51 18 77 bc
       -0.0410114 0.05335841 0.017736161 -0.015081481
000260 15 4a 07 be f4 9d 3e bc ad e6 ad be f3 05 a6 3e
       -0.13211854 -0.011634339 -0.33965054 0.32426414
000270 aa 66 42 3e fa fc ca bd df e6 9a be fc 52 98 3c
       0.18984476 -0.09911533 -0.30254266 0.018594258
000280 63 79 01 3f 91 1b 50 3d f7 58 27 be 82 05 25 3e
       0.50575846 0.05080754 -0.16342531 0.16115382
000290 dd bb 12 bd 69 22 5e 3d eb 53 10 bc 69 29 94 bc
       -0.03582369 0.054232035 -0.00880907 -0.018086152
0002a0 2f 22 a2 3e 49 3d 65 bd 3d f0 03 3e 5b ea 08 bd
       0.31666705 -0.05596665 0.12884612 -0.033426624
0002b0 d0 06 4b 3e c3 c7 58 3d a9 c3 65 be a7 b3 40 be
       0.19826818 0.052924883 -0.2243792 -0.18818532
0002c0 c5 d7 55 3e b5 da 77 bd 5d 96 06 3c 6c 5b 9c be
       0.20883091 -0.06051131 0.00821456 -0.305385
0002d0 50 04 70 be fb 39 6f bd e7 e3 8f be 13 47 99 be
       -0.23439145 -0.058404904 -0.28103563 -0.29937038
0002e0 be f1 0e 3d 57 33 34 be 3b fc 38 3e c1 dd 98 3e
       0.034898512 -0.1759771 0.18064968 0.29856685
0002f0 78 93 24 3e 5b 04 c1 3d 3a 3b b1 be 3c 1f 39 be
       0.1607188 0.09424659 -0.346155 -0.18078321
000300 cf b8 59 3e e3 cc 5a be e9 17 5c bd 2b ab 19 be
       0.21261905 -0.2136722 -0.05373374 -0.15006702
000310 ee 27 e1 3e b7 6b 63 3d 8e cb 6a 3d 7e eb 65 bd
       0.43975776 0.055522647 0.05732303 -0.056132786
000320 1b d3 8f 3d 29 83 ac 3d 07 9d 83 3d 9f e0 05 be
       0.07022687 0.08423454 0.06426435 -0.13073967
000330 4f f9 47 3e 73 05 37 3e 16 72 55 be f3 92 13 be
       0.19528697 0.17873172 -0.20844302 -0.14411525
000340 81 6c b1 be d7 79 02 3e 4f d4 9c bd a3 36 af be
       -0.34653094 0.1274179 -0.07657682 -0.34221372
000350 08 e9 83 be 4e f9 c4 3d 33 e2 68 3f a6 17 55 bd
       -0.25763726 0.096178636 0.9097015 -0.052024506
000360 0e 5f 87 be ec 97 24 be 35 c6 84 be 2e 31 cd bd
       -0.26439708 -0.16073579 -0.2593247 -0.10019146
000370 b7 ba 8e 3d 01 d9 08 3e 29 0f 39 bf d5 c5 ff 3d
       0.06969207 0.1336403 -0.7228876 0.12488905
000380 a8 07 f9 3d e8 6b 85 bd 92 64 95 3d 2e 40 14 bc
       0.121596634 -0.06514722 0.07294573 -0.009048505
000390 43 80 cd bd 8a 1f 9f 3e ed 99 01 3f 2d a1 00 3d
       -0.100342296 0.3107875 0.506255 0.03140371
0003a0 af 2a 40 3e d0 7e 02 3e 81 7b 66 be 44 35 a0 bd
       0.18766282 0.12743688 -0.2250805 -0.078226596
0003b0 0e d1 74 be 08 8a 97 3e ff 4f a6 be d9 f2 8d be
       -0.23907873 0.29597497 -0.32482907 -0.2772434
0003c0 55 55 9f 3d 93 7a dc 3e 94 8e c2 3d c3 bb 66 3e
       0.07779948 0.43062267 0.09499851 0.22532563
0003d0 f0 75 af 3d 13 08 a0 3c bb a1 ad bd 81 12 cb bd
       0.08567417 0.0195351 -0.08478113 -0.09915639
0003e0 1d 23 8e be c7 35 fc bc ea 41 42 3e bb a0 14 3e
       -0.27761164 -0.030787362 0.18970457 0.14514439
0003f0 09 40 ca bd e7 7a 10 be 5a bb 74 bd 4e 4b b7 3b
       -0.09875495 -0.14109384 -0.059748985 0.005593694

mlp_extractor.policy_net.0.bias f4 [32]
000000 9a a5 83 bd eb a3 04 3d 3b 1f 0a bc 09 88 02 3c
       -0.0642807 0.032382887 -0.0084302975 0.007967004
000010 9d a0 85 3c 16 b8 01 be e2 4b 6b bd 29 b6 85 3d
       0.016311938 -0.1266788 -0.057445414 0.06528885
000020 c4 23 96 3c d1 e8 8b bd d9 9c 95 bc c0 96 45 be
       0.018327601 -0.068315156 -0.018263267 -0.19295788
000030 b9 ab f7 3b 95 99 5f 3b 4f 1c 6d bd 18 93 de bc
       0.0075583127 0.0034118642 -0.057888325 -0.02716975
000040 c2 81 5f 3d 6b e9 32 bd 30 38 69 be aa f5 25 bc
       0.054567106 -0.043679636 -0.2277534 -0.010129372
000050 a1 cb 9d 3d aa 5d 99 bd ce 72 c3 bd 04 af 0b 3d
       0.07704855 -0.07488568 -0.09543382 0.034102455
000060 7f 2f d3 3d 29 42 61 3d c6 42 35 bd 0a 1b 48 bc
       0.103117935 0.054994736 -0.044253133 -0.012213478
000070 2f 2a 03 be 92 f6 8e 3d a1 5a ce bc e2 5c 18 bb
       -0.1280906 0.06980623 -0.0251897 -0.0023248722

mlp_extractor.policy_net.2.weight f4 [32, 32]
000000 6e 49 0b 3d e7 5e 2e bd 3c be b4 3e 51 72 03 3f
       0.034005575 -0.042570975 0.35301387 0.5134631
000010 e9 53 b4 3c 3f 43 3f bf eb 8c 4f bd 91 f0 0b 3f
       0.022012668 -0.74711984 -0.0506715 0.5466395
000020 5c 7c 06 bd a9 a6 25 3d 86 48 20 3e 3f 60 c6 3e
       -0.032833442 0.040442143 0.15652665 0.38745305
000030 9d 4d 51 3e 04 9d 81 3e cb d9 a8 be ea bd bd 3d
       0.20439763 0.25315106 -0.32978663 0.09264739
000040 b6 11 20 bf d6 64 b1 3e 87 f6 7f 3e 80 17 d8 be
       -0.62527025 0.34647244 0.24996386 -0.4220543
000050 88 a1 88 be e8 ec 1b be 8e d3 9c 3e 2a f4 27 3e
       -0.2668574 -0.15227091 0.30630153 0.16401735
000060 5c 47 2d 3e 93 d6 02 be fc d5 d7 be cc 3b 2b 3f
       0.16921753 -0.12777166 -0.42155445 0.6688812
000070 b7 06 ca 3c 28 3f 95 3d b4 85 5a 3f f4 b4 f1 3e
       0.024661405 0.07287437 0.85360265 0.4720837
000080 21 14 bb be fe 45 27 be 77 f3 cc be f9 16 ff be
       -0.36538795 -0.16335294 -0.400295 -0.49822214
000090 3d 1c dd be 16 11 c7 3d 1f 25 65 3e 51 3e 8f be
       -0.43185607 0.09720056 0.22377442 -0.2797723
0000a0 f9 58 05 be 9b 22 0d 3f dd 97 3d be 26 4b 6a 3e
       -0.13022222 0.5513093 -0.18514962 0.2288023
0000b0 d2 2f 09 bf ac 9a 6a 3e 72 e4 3a 3e 4d 08 a3 3e
       -0.53588593 0.22910565 0.18251207 0.3184227
0000c0 10 66 e6 bd 6d 68 0d 3f 26 e1 ba 3e 6b eb b0 3e
       -0.112499356 0.55237466 0.364999 0.3455461
0000d0 95 56 03 bd 69 c9 66 be e7 c6 11 be 1b 6a 40 be
       -0.032064993 -0.2253777 -0.14236031 -0.18790476
0000e0 ff ce 02 bf 27 f7 42 3e ab c7 15 3f 53 b1 54 be
       -0.510971 0.19039594 0.58507794 -0.20770769
0000f0 81 70 ee 3d 77 1b 00 3e 61 c5 1d bf 97 a3 a2 3e
       0.11642552 0.12510477 -0.616293 0.31765434
000100 d6 00 82 3e 88 e1 e2 be 65 5f ab 3d 7a d4 11 bf
       0.25391263 -0.44312692 0.083678044 -0.5696484
000110 8a 3b b5 be 1e 24 16 3e cc 43 99 3e 3e ab 2a bd
       -0.35396987 0.14662215 0.29934537 -0.041667216
000120 01 31 2e 3d 94 82 cc be dc 63 82 be 80 1f 96 3d
       0.042527203 -0.39943373 -0.25466812 0.07330227
000130 a5 b3 2c be 11 16 0c bf 4e be bb bc 63 40 e9 bd
       -0.16865404 -0.5472117 -0.022917893 -0.11389234
000140 fc fa b6 3b 71 3a eb 3e ae 74 99 be 95 71 f1 3e
       0.005584119 0.45943025 -0.29971832 0.4715697
000150 ae e8 a4 be 63 86 46 3f cd be e3 be 25 4f 20 bf
       -0.3220877 0.7754881 -0.44481507 -0.62620765
000160 cc 0c 04 bf da c2 22 bf 1e 09 6e 3e e1 69 36 bd
       -0.51582026 -0.6357857 0.23245665 -0.044534568
000170 0e fb 0f 3f 47 81 0e 3f 4e 16 1f bf 3d ef 85 bd
       0.56242454 0.5566601 -0.6214341 -0.06539772
000180 cb 1e 71 be 64 f4 92 3e dc 30 38 3e 45 da e4 3d
       -0.23546903 0.2870208 0.17987388 0.11174444
000190 58 e8 6a 3e 76 29 8b 3e 4d c9 48 3e 21 61 9c be
       0.22940195 0.2718007 0.1960804 -0.30542853
0001a0 d6 82 a2 3d 41 1e 0d 3f 52 b3 1c 3e 52 b7 4b 3e
       0.07935111 0.5512429 0.1530278 0.1989415
0001b0 6d 4c 3d 3f 06 b8 16 3e 57 2e 2f bf 84 7d 74 bb
       0.7394474 0.14718637 -0.68430084 -0.0037306258
0001c0 22 28 65 3f 4b 00 35 3e bf be 00 bc 8e 0b 9a 3e
       0.8951436 0.17675893 -0.007857977 0.3008694
0001d0 64 90 ea 3d db 75 16 bb a9 a7 55 be b4 8d a1 bc
       0.114533216 -0.002295843 -0.20864739 -0.01972089
0001e0 c7 71 5a bf c7 9b cf 3e 4a 57 c6 3e ca e3 0a bf
       -0.8532986 0.40548536 0.3873847 -0.5425383
0001f0 b3 48 6f 3e 81 43 11 bd 86 eb 66 bf 6d a9 b8 bd
       0.23367576 -0.035464767 -0.9020313 -0.090166904
000200 d0 34 84 3f 57 fe 83 be 19 14 93 be 6a 2b 2f bd
       1.0328617 -0.25779983 -0.2872627 -0.042766012
000210 38 e9 ef 3e 07 d1 85 be 8d 8b 2c bf 23 69 c0 bd
       0.4685762 -0.26136038 -0.6740044 -0.09395053
000220 3b 0e 7b 3d c3 4c 29 3e 3f 4b ce be 9c aa 31 3e
       0.061292868 0.16533189 -0.40291783 0.17350239
000230 e6 ca b8 be 5a 0f 81 3f 9d 26 1e 3f fd 3d ff be
       -0.360923 1.008281 0.6177767 -0.4985198
000240 1a 0b c6 be 28 c8 d4 be b9 bb bb 3c 49 93 53 3d
       -0.38680345 -0.41558957 0.022916662 0.051654134
000250 28 34 7d be 8a ea 3c bf 85 f3 1c be 21 6d e5 bb
       -0.24726927 -0.7379538 -0.1532727 -0.0070015346
000260 b3 c6 42 3e 57 72 0b bf 14 df 9d 3d c2 bf f0 bc
       0.1902111 -0.54471344 0.077085644 -0.029388312
000270 00 60 d5 be aa da 13 3e 40 23 55 bd a1 42 2a be
       -0.41674805 0.14438882 -0.05203557 -0.1662698
000280 84 fb 96 3e 4a 7a aa be 1b e8 d9 bc 79 16 9c 3d
       0.29488766 -0.33296424 -0.026599934 0.07621474
000290 4a eb 4b 3f dc cd 84 be 04 1d 06 bf a7 9e 81 3c
       0.796559 -0.25938308 -0.52388024 0.015822722
0002a0 db 1f a2 3e 92 bc af bd 72 52 65 bf c4 2b ca 3d
       0.3166493 -0.08580889 -0.89578927 0.09871629
0002b0 30 ed 62 be 62 ee 00 be 7a 3f a3 3e ca 25 4d bd
       -0.22160792 -0.12590936 0.31884366 -0.050084867
0002c0 9d 76 16 bf be c1 e1 be 08 cb 23 3e 09 bb 87 3e
       -0.5877474 -0.44093126 0.15995419 0.26509884
0002d0 af 5e b0 be 24 1b 29 bf 88 da 9f bd cd f1 1c 3e
       -0.34447238 -0.6605704 -0.078053534 0.15326615
0002e0 1c 3d 68 be c4 78 fc bd 8a a0 af 3e 20 29 07 3e
       -0.22679561 -0.12327722 0.3430217 0.13199282
0002f0 8d 9e aa bd 21 da bb be 18 6d 01 3e ea 32 25 bf
       -0.083310224 -0.36689857 0.12639272 -0.64530814
000300 02 29 91 be 7f 23 08 3f 3a d3 83 bd 19 24 0d 3f
       -0.283516 0.5317916 -0.06436773 0.55133206
000310 05 46 da bd fa bd df 3e dd 52 42 3e 58 af cd 3e
       -0.106578864 0.43699628 0.18976922 0.4017284
000320 77 00 d6 3e 80 d1 b1 3e d7 83 1a 3e 52 f2 a2 3d
       0.4179723 0.34730148 0.15089355 0.07956375
000330 aa 8c 37 3e 84 e2 21 3f 53 de 0d bf 5f 68 db be
       0.17924753 0.6323626 -0.55417365 -0.42853066
000340 22 c4 90 3e 6b 28 8e be f6 2c 25 be ad 0b 2c bf
       0.28274637 -0.2776521 -0.16130432 -0.67205316
000350 28 61 ba 3e 2c 39 3e bf 5e 02 52 3e 6a 78 80 3f
       0.3640225 -0.7430599 0.20508716 1.0036747
000360 a0 9d ae 3e 90 d0 a4 3d a0 ee b8 be 96 7a 13 3f
       0.34104633 0.08047593 -0.36119556 0.57608926
000370 5d f1 72 be 52 b1 61 be b9 25 26 3f b8 0f b2 be
       -0.23724885 -0.22040299 0.6490131 -0.34777617
000380 a9 c0 c2 3c 0e 99 38 bf ea c6 6e be 19 6b c3 be
       0.023773508 -0.7210854 -0.23318067 -0.38167647
000390 1c 3c 3a 3e 5f d8 68 be 4d b8 b0 3e f0 2f 12 bf
       0.18186992 -0.22738789 0.3451561 -0.57104397
0003a0 e8 da 89 3d ac 2c 08 be 52 88 f0 ba 81 c5 0d 3d
       0.06731206 -0.13298291 -0.0018351173 0.034612183
0003b0 69 f7 63 bd f8 ba 20 bf 50 a9 15 3f 8d 6a 75 3c
       -0.05565587 -0.6278529 0.58461475 0.014979017
0003c0 27 e1 9a be b9 2d 91 bb 61 dd e4 be a2 bb 45 be
       -0.30249903 -0.0044304994 -0.4470015 -0.19309857
0003d0 6e 2f af bd 0b 72 23 3f 8b 61 4d bf 23 b9 4c bb
       -0.08553968 0.6384589 -0.80226964 -0.003123828
0003e0 d4 cd 5f be 06 62 03 3e 9b 68 c7 3e b0 e7 ed be
       -0.21855861 0.12830362 0.38946995 -0.46465826
0003f0 7c 04 1d 3f b7 3f 44 3f c4 62 93 be ee 81 f8 3d
       0.6133497 0.7665972 -0.2878629 0.12134157

mlp_extractor.policy_net.2.bias f4 [32]
000000 be 98 93 bc 6c e5 bc bd e1 84 e4 bc cf e4 46 bd
       -0.01801717 -0.09223446 -0.027895393 -0.048558053
000010 d5 06 8c 3d e8 46 87 bd ef 04 11 be 05 a0 c8 3d
       0.068372406 -0.06605321 -0.14162038 0.09796146
000020 d3 de 74 3b 08 c0 6c 3c 68 25 43 3e ee d2 43 bd
       0.003736426 0.014450081 0.19057238 -0.04780858
000030 f9 a3 4e 3d 9a 83 82 3d 47 09 04 bd 98 21 f2 3d
       0.050449345 0.06372757 -0.03223541 0.11822814
000040 b3 d0 9c 3e 05 1a 8b bc 9c c1 ca 3d 56 5d b0 3d
       0.30627975 -0.01698018 0.09900209 0.086115524
000050 8a 0b ab 3d 60 ba 5e 3c 2c a9 4e 3d 6a 98 1a 3d
       0.0835181 0.01359424 0.050454304 0.03774301
000060 86 df 07 be db ee 86 bd 89 45 04 3d b7 0f a4 bd
       -0.13268861 -0.06588527 0.032292876 -0.0801081
000070 78 3c fb 3c ed 60 4c 3d 51 67 36 bb b3 98 a2 bc
       0.030668482 0.049897123 -0.0027832577 -0.019848203

mlp_extractor.value_net.0.weight f4 [32, 81]
000000 da 90 92 bc 0a 75 50 bd ee bf f3 bc 3d 80 1b be
       -0.017891336 -0.050892867 -0.029754605 -0.15185638
000010 e0 21 e6 bd 85 ff 89 3d 8e e8 d8 bc 9e a3 dd 3c
       -0.1123693 0.067381896 -0.026478078 0.027055558
000020 a1 43 e9 3d df ea 11 3d 5f 69 2a bd 43 1e af bd
       0.11389852 0.03562438 -0.041604396 -0.08550694
000030 c6 ed 52 bc 1f 4f 2f be 58 aa 67 be 47 2b 66 bd
       -0.012874072 -0.17120026 -0.22623575 -0.056193616
000040 6b 9a 97 be 73 e5 9f bd ea 48 9b 3d b0 38 2d 3c
       -0.2961 -0.07807436 0.07582267 0.010572597
000050 2a 1c 4b bd c7 f4 fa bd 96 59 7d 3e 05 e7 b5 3d
       -0.049587406 -0.12253719 0.24741206 0.08881954
000060 6a ac 7c 3d 49 ff a2 bd f3 f2 94 be 65 4d 3c be
       0.061687864 -0.07958848 -0.29091606 -0.18388899
000070 dd 58 64 be 9f c6 62 3e 21 3d 53 3e b9 1e 12 bc
       -0.22299524 0.2214608 0.20628788 -0.008918458
000080 d7 dd bd 3d 7b 12 ad 3e ae 5b eb be c4 ee e0 bd
       0.09270828 0.33803162 -0.45968384 -0.10983041
000090 aa 30 9d bd 8d 8b 61 3e fd ad a0 bd cd 4f 2d 3e
       -0.076752976 0.2202589 -0.07845686 0.16924973
0000a0 b6 41 5c 3d 3b be ec 3d 13 c5 0e 3c d5 8d c3 3e
       0.053773604 0.11559721 0.008713978 0.38194147
0000b0 f6 b3 98 be cf 55 9f 3d f0 b1 ca 3d 80 4a 08 be
       -0.298248 0.077800386 0.0989722 -0.1330967
0000c0 b0 d3 80 3c da 6f 51 be 3e 16 1b be 23 a8 52 be
       0.01572594 -0.20452824 -0.15145203 -0.20571952
0000d0 78 45 c9 be e0 1e 66 3c 8c 5d 39 bd 23 62 fd bd
       -0.39310813 0.014045447 -0.04525523 -0.12372234
0000e0 cf 33 0f 3e 7b 0a e6 bc f3 a9 e3 bd 15 db 9c bd
       0.13984607 -0.02808117 -0.111163996 -0.07658974
0000f0 bf 7f 70 3e f0 09 f7 bc 14 71 ba 3d 35 e2 46 be
       0.23486231 -0.030156106 0.09103599 -0.19422229
000100 f9 94 9b bd 79 61 77 bd 1a bd 93 3d 5a 03 a7 bd
       -0.07596774 -0.06039569 0.07213803 -0.08154936
000110 18 e7 56 bd aa c1 8f bd e1 2a 5d be 34 92 49 3e
       -0.052466482 -0.0701936 -0.21598388 0.19684678
000120 c6 fc 9c 3c 85 54 b5 3d 6b 4e 85 be 5b f0 b3 bd
       0.0191635 0.088540114 -0.2603639 -0.087860785
000130 ad fe f3 bd 5c c0 cb 3d 9d fe 5a bd 52 6b f5 bd
       -0.1191381 0.09948799 -0.053465474 -0.1198336
000140 d5 e0 dc 3d 8c 11 2d 3e d1 03 d9 bd 7e 21 1a be
       0.10785071 0.16901225 -0.10596431 -0.15051839
000150 03 80 33 be 69 6d 42 3d 16 fa 3e 3e 95 9d 89 be
       -0.17529301 0.047467623 0.18650088 -0.26878038
000160 59 20 53 be cb 8a a3 be da bc 69 be 85 12 08 be
       -0.20617808 -0.31941828 -0.22825947 -0.13288315
000170 ef 8e c8 bc c1 3e 19 bd ac e6 2b 3e 44 41 c3 3d
       -0.024482219 -0.037413362 0.16787213 0.09533933
000180 7c 1c ad be fb 5e 21 bc 4b 4a 8b 3e aa 49 9d bd
       -0.33810794 -0.009849305 0.2720512 -0.07680066
000190 6c 9c 89 bd a3 df 53 3d c6 c9 85 3e 1b db 61 be
       -0.06719288 0.05172695 0.26130503 -0.22056238
0001a0 19 1a 94 bc 6f a2 99 3c a7 d2 21 bd e2 71 50 3d
       -0.01807885 0.018754212 -0.039507534 0.050889857
0001b0 e4 2d 28 bd 5c 42 b7 3b 40 0f da 3e c1 52 5d bd
       -0.04105939 0.0055926275 0.4258976 -0.054034
0001c0 2d 65 cd bd 3c ad 98 bb ab 3d 79 bd 19 de 94 3d
       -0.100290634 -0.004659323 -0.060849827 0.07268924
0001d0 66 9b 53 bc 25 4e d8 3d 86 ac df bd 74 33 80 3d
       -0.012915468 0.1056178 -0.10921578 0.06259814
0001e0 6a a0 e6 3d 40 c4 12 be c3 a0 fa bc 8d 19 df 3e
       0.11261065 -0.14332676 -0.030594235 0.4357418
0001f0 20 40 b5 bc cf a3 13 be 94 a6 38 3e 5e 68 6a be
       -0.022125304 -0.14417957 0.18032295 -0.22891375
000200 a8 f1 67 be ce 46 27 3d 58 7d 42 be ab fb d5 bd
       -0.22650778 0.04083901 -0.18993127 -0.104483925
000210 f4 70 2f 3d 83 df 3a be 37 7c d3 bd 3b 6f e0 bd
       0.04283233 -0.18249325 -0.103264265 -0.109587155
000220 01 f7 27 3e 82 9a 28 be 3e 26 d8 3d 49 df 85 bd
       0.16402818 -0.1646519 0.10554169 -0.06536729
000230 5a ac 51 bc f8 fa 9e 3c cf bb ef bd 9a 50 ec bd
       -0.0127974395 0.01940678 -0.117057435 -0.11538811
000240 b0 a3 20 be 45 9f cf 3e 7c d5 0f 3d ed d3 cb 3b
       -0.15687442 0.405512 0.035115704 0.006220332
000250 23 e1 03 be 41 b6 13 be 3e 2d 69 3e e0 0d 40 bd
       -0.12878852 -0.14424993 0.22771165 -0.046888232
000260 58 70 ae 3d 8d 04 07 bd 84 5b 13 3e 9d 5d 74 3d
       0.085175216 -0.032963324 0.14390379 0.05965959
000270 6b ee f5 bd 19 bf 25 3e 80 91 0d 3e 61 a4 93 3d
       -0.12008365 0.16186179 0.13825035 0.07209087
000280 09 79 19 3e c1 5f 28 bd 96 82 16 be f2 e0 30 3d
       0.14987577 -0.041106943 -0.14698252 0.043183275
000290 ba 93 fd bd c5 a5 a3 3d d0 5c 2c bd d0 47 83 bd
       -0.12381692 0.079906024 -0.0420807 -0.064101815
0002a0 91 60 78 bd 55 3a 35 be b5 d9 0f 3d ca 45 85 3d
       -0.060638968 -0.17698033 0.03511973 0.06507452
0002b0 fb ea 14 3e 03 97 a4 bd cf 0f 5e bd 32 95 ca 3d
       0.14542763 -0.08036616 -0.054214295 0.09891738
0002c0 14 5a 04 3e 46 25 f2 3d 43 20 ef 3d 93 92 39 be
       0.12924987 0.118235156 0.11676075 -0.1812232
0002d0 c4 12 cc bd 13 25 68 be 72 8b 04 3e 94 43 35 be
       -0.09964517 -0.22670393 0.12943819 -0.1770156
0002e0 ac 30 0f 3e ad d9 59 bd 2f e5 fe bb f8 ed 29 be
       0.1398341 -0.053186107 -0.0077787857 -0.16594684
0002f0 6b 7b d2 bd 1e f1 4d be 58 ad 17 3e a1 ea 41 bd
       -0.10277446 -0.2011151 0.14812219 -0.0473429
000300 dc 6c 28 3d 70 d7 0f bd 2b 81 78 be b6 8a 0d 3e
       0.04111944 -0.035117567 -0.24268024 0.13822445
000310 1d b0 b7 bc 46 1a d1 3e f1 44 0d be 34 df 9f 3b
       -0.022422845 0.40840358 -0.1379583 0.004878903
000320 89 c8 fe 3d 0d 7a ff bc e2 f2 65 3e f7 7d 77 bb
       0.12440593 -0.031186128 0.22455934 -0.003776429
000330 03 69 c0 bd c9 4f 8c 3d 35 d5 82 bd e8 5a b6 3e
       -0.093950294 0.06851155 -0.06388322 0.3561623
000340 38 35 97 be a1 f3 87 be 3c d9 55 3e 44 d4 c8 bd
       -0.2953279 -0.26553062 0.2088365 -0.098061115
000350 5c 1c 9b bd e9 31 45 3e 5d 91 15 bc 0a 2f 90 bd
       -0.075737685 0.1925732 -0.009128896 -0.07040222
000360 42 1e 55 3e 92 f8 f6 bb cd 31 32 3e 87 46 96 bd
       0.20812324 -0.007536956 0.1740181 -0.07337671
000370 ed 86 4c be 12 d6 8f bd 53 e9 78 3e 79 ca 97 bd
       -0.19973345 -0.070232525 0.24307756 -0.074116655
000380 c1 ca a7 bc 27 4f af 3e 42 7c 9e 3d f0 b1 00 bb
       -0.020482423 0.34240076 0.07738544 -0.001963731
000390 ad fd 0f bd 18 bd 87 3d 39 49 6a 3e 88 c9 3b 3e
       -0.035154033 0.06627864 0.22879495 0.18338597
0003a0 43 36 14 be 2f 64 9f 3e e0 89 c6 bc 43 35 d1 bc
       -0.14473824 0.31131122 -0.024235666 -0.025538092
0003b0 2b 4b cc 3e fa c8 f3 3d dc d0 44 3e ce f3 3e be
       0.399011 0.119035676 0.19220299 -0.18647692
0003c0 77 54 ed 3d cb 9f e6 bd 7d bd 21 be 4d 0c 0b 3e
       0.11588376 -0.11260947 -0.1579494 0.13578911
0003d0 8e ce 11 be 20 ae 4f bd 68 ac 3a bd dd 8d 49 3d
       -0.1423895 -0.050703168 -0.045574576 0.049207557
0003e0 b7 be 0c 3e 6c eb ce bd c1 48 9c bd 29 9f 28 be
       0.13744627 -0.10103497 -0.07631064 -0.16466965
0003f0 99 0d 1c 3e 8b e3 a9 3d 7b dd 7b 3c 42 0b 4b be
       0.15239562 0.082953535 0.015372629 -0.19828513

mlp_extractor.value_net.0.bias f4 [32]
000000 00 00 00 00 00 00 00 00 00 00 00 00 00 00 00 00
       0.0 0.0 0.0 0.0
000010 00 00 00 00 00 00 00 00 00 00 00 00 00 00 00 00
       0.0 0.0 0.0 0.0
000020 00 00 00 00 00 00 00 00 00 00 00 00 00 00 00 00
       0.0 0.0 0.0 0.0
000030 00 00 00 00 00 00 00 00 00 00 00 00 00 00 00 00
       0.0 0.0 0.0 0.0
000040 00 00 00 00 00 00 00 00 00 00 00 00 00 00 00 00
       0.0 0.0 0.0 0.0
000050 00 00 00 00 00 00 00 00 00 00 00 00 00 00 00 00
       0.0 0.0 0.0 0.0
000060 00 00 00 00 00 00 00 00 00 00 00 00 00 00 00 00
       0.0 0.0 0.0 0.0
000070 00 00 00 00 00 00 00 00 00 00 00 00 00 00 00 00
       0.0 0.0 0.0 0.0

mlp_extractor.value_net.2.weight f4 [32, 32]
000000 76 2c 82 be 04 ff 4c be 12 78 da be 84 b6 9d be
       -0.25424546 -0.20019156 -0.4266973 -0.3080331
000010 37 aa 74 3e 13 a3 2b 3e af 81 d4 3d ef a7 0e 3e
       0.23893057 0.16761427 0.10376298 0.13931249
000020 40 4b 11 3d 71 01 49 bc 58 92 4f bf f3 50 bd be
       0.035472155 -0.01226841 -0.8108268 -0.36975822
000030 a1 51 81 3e ab 17 24 be 44 5e 90 3e dd 8a e2 bd
       0.2525759 -0.16024654 0.2819692 -0.11061642
000040 a2 8c e4 bd 91 be 15 3e bb fb bc 3b 4b bf 74 3e
       -0.11159636 0.14623477 0.0057673133 0.23901097
000050 28 dc 09 3d 1c a5 98 3e ad 33 50 be 23 e0 e8 bd
       0.033657223 0.29813468 -0.20332213 -0.11370876
000060 f8 b3 f6 3c 6d a3 90 be 77 fe 14 3e 27 97 7b 3e
       0.030115113 -0.28249684 0.14550196 0.24569379
000070 50 d7 53 3e 3c a0 54 be 0f 14 f1 3d 19 07 2e 3e
       0.20687604 -0.2076425 0.11771404 0.16994895
000080 04 12 73 bd 60 24 1f be 36 2c 78 3e 7a bf d1 be
       -0.059343353 -0.1554122 0.24235615 -0.40966398
000090 89 11 63 bd f4 b4 bd 3d d8 5a a9 be 9a 10 d6 3e
       -0.055436645 0.0926303 -0.3307712 0.4180954
0000a0 f8 1e c5 3d e5 67 49 3d 49 16 60 3c 30 db 8a 3d
       0.096250474 0.049171347 0.013677188 0.06780088
0000b0 84 a1 46 bf 51 a5 8c be 8d 0b f5 3b bf e5 13 bd
       -0.77590203 -0.27469876 0.0074781836 -0.036107775
0000c0 91 d9 0d bd db 06 ca bd dd 73 8e 3e df de e5 bd
       -0.034631316 -0.09864589 0.27822772 -0.1122415
0000d0 c1 32 97 3e 4a 80 a9 bd 3c 26 e5 3d eb 92 05 be
       0.2953091 -0.08276422 0.11188933 -0.13044326
0000e0 94 ce 44 be 17 41 e3 3d 0e 4f ee 3c 4b d8 fc bc
       -0.19219428 0.11096399 0.02909043 -0.030864855
0000f0 a9 bb c9 3e e7 31 bb be 8a fa d3 3e 94 ef 0b be
       0.39400986 -0.3656151 0.41402084 -0.1366561
000100 51 c6 51 be 1d 57 52 be 67 74 7a 3e d5 84 03 bc
       -0.20485808 -0.20541044 0.24458466 -0.008027275
000110 37 bc 03 3f fa 40 9f bd f0 a3 1d be 74 50 a9 bd
       0.5145907 -0.07776065 -0.15394568 -0.08267298
000120 87 cb a1 3e 56 5d 24 bc 61 d5 08 3e 15 3d 15 be
       0.31600592 -0.010032019 0.13362648 -0.14574082
000130 f6 e2 57 be 8c e7 52 bd 62 19 49 be e0 7b 81 3e
       -0.21082672 -0.05149035 -0.19638589 0.25289822
000140 12 aa 33 3e 18 2b 88 be c0 ce cc be 00 36 13 3f
       0.17545345 -0.26595378 -0.40001488 0.5750427
000150 4a a4 e7 3e c0 b7 0d be 8c 04 b5 be bb 4e 2f bd
       0.4524253 -0.13839626 -0.35355031 -0.042799693
000160 3d a8 9c 3e ad 9a 11 3d de aa 7d bb 65 28 d6 bd
       0.30597106 0.0355479 -0.003870658 -0.104569234
000170 e6 66 28 be 86 81 38 3e 13 7b 45 3c 0e 36 cb 3e
       -0.16445503 0.1801816 0.012053269 0.39689678
000180 ca 83 4f be f8 eb ae be f5 27 28 be 7b e4 3f 3e
       -0.20265117 -0.34164405 -0.16421492 0.18739502
000190 05 84 cb be ff bb c8 be 15 5c 94 be ad f5 dd be
       -0.3974916 -0.3920593 -0.28976503 -0.43351498
0001a0 2c 37 b3 be 99 a3 3c bd 41 56 5e 3e 2a bc bc 3d
       -0.3500303 -0.046054456 0.21712591 0.09215577
0001b0 1d 98 b1 be c2 de 32 bd f6 56 97 3e 13 ad ae be
       -0.34686366 -0.04366947 0.29558533 -0.3411642
0001c0 47 e2 01 3d 1f 80 9c 3e a2 4b a0 bd 90 fb d9 bd
       0.031709936 0.305665 -0.07826926 -0.10643685
0001d0 bb 2f 5d 3e 18 ec 92 3e e1 d5 d1 be 84 91 50 be
       0.21600239 0.2869575 -0.4098349 -0.2036801
0001e0 87 6a a4 3e d3 d3 df bc 16 00 9d 3d 1c 8d 93 3e
       0.32112524 -0.027322685 0.07666032 0.28818595
0001f0 74 08 41 be 0f cb d5 bd 7e 12 d3 3c e7 aa 90 3b
       -0.18850881 -0.10439121 0.025765654 0.0044149044
000200 ac d9 b6 3e 22 dd c4 bd 59 d5 08 bd 7c 23 56 3d
       0.35712945 -0.0961249 -0.03340659 0.052279934
000210 f0 fb b5 3a ae bd 28 be 78 9d d0 3d 71 55 d7 bc
       0.0013884287 -0.16478607 0.10186285 -0.026285859
000220 6c 00 23 3f fa 76 1c 3f 25 45 a2 bd 7a 33 3c bc
       0.6367252 0.61119044 -0.079233445 -0.011486882
000230 21 18 5b 3d 69 e9 ad be 6d 9f e3 bd 38 2a 0e bf
       0.053489808 -0.3396714 -0.111143924 -0.5553317
000240 c2 6c 7b bd b8 f5 b6 3d 02 6a 29 bd e4 36 ae be
       -0.061383016 0.08933586 -0.041360863 -0.34026253
000250 3c 35 14 3e 45 ab 03 3e aa d7 1a 3e fe 84 8b bd
       0.14473432 0.12858303 0.15121332 -0.068124756
000260 3a db 89 3e 74 4e fb bd e9 25 31 3e 9c 71 53 be
       0.2692507 -0.12270823 0.17299618 -0.20648807
000270 e8 09 04 bd 0d ef df 3e b9 e0 5f 3e f7 92 44 3d
       -0.03223601 0.4373707 0.21863069 0.04799172
000280 9b 33 97 3e 71 c3 04 be ca ab d2 be b1 a2 8f 3e
       0.2953156 -0.1296518 -0.4114669 0.2805381
000290 f6 6d a6 3e 02 57 09 3f 38 30 7e be 5c a0 99 be
       0.3250577 0.5364839 -0.24823081 -0.30005157
0002a0 85 2c 72 3e 37 34 86 be f6 7f 99 3e 5d 65 7d 3e
       0.23649795 -0.26211712 0.2998044 0.24745698
0002b0 e3 88 0e 3e e6 70 88 be 15 e7 ad be c5 cd e8 bc
       0.13919406 -0.26648635 -0.33965364 -0.028418431
0002c0 7b 31 c4 3d b6 35 dd 3d d4 af 66 3e 41 5a a3 3d
       0.0957975 0.1080126 0.2252801 0.07976199
0002d0 8d e9 0f be b5 d9 cb 3d 27 d8 9a be 50 41 a6 3e
       -0.14053936 0.09953634 -0.30243036 0.32471704
0002e0 36 84 af 3d 55 6a 99 3c 75 e8 22 bd f1 fc 2f 3e
       0.08570139 0.01872746 -0.03977247 0.17186333
0002f0 c5 d0 1d 3e 2a dd 65 be d2 3e cb 3e ec 5b 5a be
       0.1541167 -0.22447649 0.39696366 -0.21324128
000300 df 3a 09 be 44 38 8e 3e 0c 50 4e 3c de 1c db 3e
       -0.13401364 0.27777302 0.012592327 0.4279546
000310 8b b6 e9 3d b0 a6 b0 3e c4 16 a3 be f2 35 d1 3e
       0.114117704 0.34502172 -0.31853306 0.4086147
000320 00 38 a9 bd 23 04 de 3e e5 53 16 3e e0 9e 89 be
       -0.08262634 0.4336253 0.1468044 -0.26879025
000330 5b aa 43 be f4 4b 86 3e 90 b6 26 3e fd 3f 51 be
       -0.19107954 0.26229823 0.1628058 -0.20434566
000340 eb ca e6 3d 1e d6 3f 3e 85 4d 2c be d0 05 7c 3d
       0.11269172 0.18734023 -0.16826446 0.06152898
000350 70 2d 96 bd 1d b5 b6 3e 94 15 d2 be 72 84 5d 3d
       -0.07332885 0.35685053 -0.41032088 0.054081388
000360 40 82 ff be 2a 1a 77 be 5b 52 5c be fa f4 8f be
       -0.4990406 -0.24131075 -0.21515791 -0.2811659
000370 30 e6 e1 bd 13 a0 13 3e d7 41 23 3d 7c cd b4 bd
       -0.11030233 0.14416532 0.03985771 -0.088282555
000380 70 96 15 be 10 2a 34 3e 0f d2 86 3e 37 7a 83 be
       -0.14608169 0.1759417 0.26332137 -0.2567918
000390 01 39 32 3d a2 41 90 3e e4 2a 9d 3e df 38 c1 3d
       0.043511394 0.28175074 0.30696785 0.094346754
0003a0 7e e1 bf bc 2a 0c 13 be 72 b7 65 3e 62 93 3a 3e
       -0.023422953 -0.14360109 0.2243326 0.18220285
0003b0 7a f8 86 3e 4f de 1a be 85 76 ed 3e 55 fe bd 3e
       0.26361448 -0.15123866 0.46379486 0.37108102
0003c0 cc e0 fb bc c7 e8 f9 3e fb 9a 1a be 92 8c 97 be
       -0.03074684 0.48810408 -0.15098183 -0.29599434
0003d0 94 9d 0e 3f 37 e7 88 3d 72 a5 af bd 32 66 60 3e
       0.55709195 0.06684726 -0.08576478 0.21913984
0003e0 2d 22 0b 3c 0a 3f 21 3c b8 6b 2b 3c c5 76 35 3e
       0.008492035 0.00984169 0.010462694 0.17721088
0003f0 52 db 0c be 8d 12 ba 3e da f0 ca 3e d7 87 0b be
       -0.13755539 0.36342278 0.3963688 -0.13626038

mlp_extractor.value_net.2.bias f4 [32]
000000 00 00 00 00 00 00 00 00 00 00 00 00 00 00 00 00
       0.0 0.0 0.0 0.0
000010 00 00 00 00 00 00 00 00 00 00 00 00 00 00 00 00
       0.0 0.0 0.0 0.0
000020 00 00 00 00 00 00 00 00 00 00 00 00 00 00 00 00
       0.0 0.0 0.0 0.0
000030 00 00 00 00 00 00 00 00 00 00 00 00 00 00 00 00
       0.0 0.0 0.0 0.0
000040 00 00 00 00 00 00 00 00 00 00 00 00 00 00 00 00
       0.0 0.0 0.0 0.0
000050 00 00 00 00 00 00 00 00 00 00 00 00 00 00 00 00
       0.0 0.0 0.0 0.0
000060 00 00 00 00 00 00 00 00 00 00 00 00 00 00 00 00
       0.0 0.0 0.0 0.0
000070 00 00 00 00 00 00 00 00 00 00 00 00 00 00 00 00
       0.0 0.0 0.0 0.0

action_net.weight f4 [5, 32]
000000 bb 0a 4c 3e 2e 07 55 bc b0 13 29 3e 02 42 14 bf
       0.19925968 -0.0130022 0.16511416 -0.5791322
000010 fb 55 fa be d5 00 7d be ee 8d 4b be 4f ae 77 3e
       -0.48893723 -0.24707349 -0.1987836 0.24187587
000020 9a 28 ae 3d dc 65 92 3e 0f 50 b6 be 5a de 8c 3e
       0.08503838 0.28593338 -0.35607955 0.2751339
000030 f0 0f 23 3e 8b 58 87 3e c7 47 9f be 24 db 87 3d
       0.15924048 0.2643474 -0.3110945 0.06633595
000040 fe a6 e0 3d 43 cb 0a be a3 7f f5 be 9d bb c8 3c
       0.10969351 -0.135541 -0.47948942 0.024503523
000050 4b ed 1d bf eb 97 23 3d eb 0b 88 be 8e 10 a4 bd
       -0.61690205 0.039939802 -0.26571593 -0.0801097
000060 d0 58 12 bf 5a f9 bd 3e 37 d7 1c 3e 78 af d7 bd
       -0.5716677 0.37104303 0.15316473 -0.10531515
000070 9a a0 74 3e cb f0 a2 3c b6 e8 87 3e ea df b6 be
       0.2388939 0.01989021 0.26544732 -0.35717708
000080 0e b2 35 be 76 b9 01 be a5 74 30 bd 13 7b f8 be
       -0.17743704 -0.12668404 -0.04307999 -0.48531398
000090 d3 66 56 3f b2 f9 37 3f 2d 54 a9 bd 48 e2 ac 3e
       0.8375065 0.7186538 -0.082680084 0.3376639
0000a0 9b fb d7 be e8 08 67 be 09 e7 e9 bc 29 36 9a 3e
       -0.42184147 -0.22561991 -0.028552549 0.30119446
0000b0 e6 be 2b bf c7 06 31 bf 7f b9 96 be 10 0a 23 3e
       -0.6708816 -0.69150966 -0.29438397 0.15921807
0000c0 4d ce 06 3e a6 9b 1d 3e 90 b7 ff 3e 03 ba 6f 3c
       0.13164635 0.15391406 0.49944735 0.014631751
0000d0 04 64 b6 be 76 91 27 3e 59 f6 1a 3f 82 01 74 bd
       -0.3562318 0.16364083 0.60532147 -0.05957175
0000e0 76 7f 14 bf 4d 0f 7b 3e 01 44 6c 3e 61 b6 3e 3f
       -0.5800699 0.24517556 0.23072816 0.7449704
0000f0 90 29 25 bf 64 16 a2 bc 55 49 34 be eb d6 86 3e
       -0.64516544 -0.019786067 -0.17606099 0.26335844
000100 89 9d 2f bf 40 4e ec 3d 99 76 d6 3d b9 60 ff 3e
       -0.68599755 0.115383625 0.104718395 0.4987848
000110 89 e3 8f be 9e 7f 45 be aa bf bf bd 89 bd b1 3e
       -0.28103283 -0.19286963 -0.09362729 0.34714916
000120 8a 04 b2 3e 35 ee 20 bf 6f 98 fc 3e 9b 4b 47 be
       0.34769088 -0.62863475 0.49335048 -0.19462435
000130 6e bd 59 3e 61 1e ab 3d 11 e1 f9 bd 01 a3 1b 3e
       0.21263668 0.08355404 -0.12201131 0.151989
000140 d5 ba 14 3e 7b 55 51 be e8 1d 30 be 2e bc 12 3e
       0.14524396 -0.20442764 -0.17198908 0.14329597
000150 5c f5 d4 3e c5 71 e3 3e 0d ca 61 be cd 6c 20 3e
       0.41593444 0.44422737 -0.22049733 0.15666504
000160 d9 4d 14 3f 85 25 8c be c6 15 d1 3d 95 38 a8 be
       0.57931286 -0.27372375 0.10209231 -0.3285567
000170 12 89 28 3e d2 7d 5c 3c a4 e0 2a bf 5e c1 2d 3e
       0.16458538 0.013457732 -0.66749024 0.16968295
000180 d1 11 c3 3e e7 47 96 be a9 87 fc be 62 d8 54 be
       0.3809953 -0.29351732 -0.4932225 -0.20785668
000190 15 80 d2 3e 5f d6 70 bd 76 c5 31 3f dc dc 04 bf
       0.41113344 -0.05879819 0.69441926 -0.51899505
0001a0 b5 9b 08 bf 47 ce 84 bb ee b7 02 3f 0d c8 af be
       -0.5336259 -0.0040529105 0.51061904 -0.34332314
0001b0 b4 20 5f bd 1f c7 a8 3e f2 0a b2 3e 83 0a 83 bd
       -0.054474548 0.32964417 0.34773976 -0.06398489
0001c0 ea c7 ee 3d 39 6a 22 3f 13 e3 e9 3e 50 0a f1 be
       0.11659224 0.6344333 0.45681056 -0.4707818
0001d0 a7 f2 e0 3d 81 7b fa be 20 03 71 3e 9a 74 d2 be
       0.10983782 -0.4892235 0.23536348 -0.41104585
0001e0 de 04 de bc 44 9a 9e be d9 0a c0 be 21 de 9b be
       -0.02710193 -0.3097707 -0.37508276 -0.30442908
0001f0 c5 cb 5e 3d a0 76 9e 3e e2 3e 79 3e a9 50 a3 be
       0.05439355 0.3094988 0.24340394 -0.31897476
000200 f0 e9 d6 3e 28 bf 13 3e 1b a1 5f bd eb 0f e2 3e
       0.41975355 0.14428389 -0.054597 0.4415277
000210 d8 26 5b 3d c3 b9 ec bc d2 dd b0 bd 00 9b b2 be
       0.05350384 -0.028897172 -0.08636059 -0.3488388
000220 8a db 8f 3d b6 c0 e2 3e 8e fa 7b be 4f 39 7e bd
       0.07024296 0.44287652 -0.24607298 -0.062066372
000230 16 c7 dd 3c a4 a7 c8 bd 0e 68 bb 3e 23 f4 78 be
       0.02707247 -0.097976 0.36602825 -0.24311881
000240 51 b4 06 bf 7e 62 ce bd 66 00 08 3e bb 7b d5 3d
       -0.5261889 -0.1007738 0.13281402 0.1042399
000250 59 63 de 3e 64 bb 45 be fd 37 55 be d7 3a 39 3e
       0.4343517 -0.19309765 -0.20822139 0.18088852
000260 e1 9d ae 3e 21 12 48 be 4b a3 15 be 8b 67 d4 3d
       0.34104827 -0.19538166 -0.14613073 0.10371312
000270 70 f0 9b 3d fc cb 33 be 0d 5c 9e 3e 8c 44 a1 3e
       0.07614219 -0.17558283 0.30929604 0.3149761

action_net.bias f4 [5]
000000 e9 c7 c2 bc 57 d3 31 3e b5 bf 95 bc fc ca e7 3c
       -0.023776965 0.17365776 -0.01827989 0.028295033
000010 40 fa 31 be
       -0.17380619

value_net.weight f4 [1, 32]
000000 00 ea 84 bd 6d 61 bb bd a6 9e 84 be e7 a0 5a 3b
       -0.064899445 -0.09149442 -0.2590229 0.0033360065
000010 6f 47 2d bd fe 86 36 3e 51 4b ed 3d cb af 96 3d
       -0.042304453 0.17824933 0.11586631 0.073577486
000020 fd 9d b3 bc 73 c9 37 3e 8f 93 34 be 25 7a 2c 3c
       -0.02192592 0.1794794 -0.17634414 0.010527168
000030 b9 13 7c 3c 59 2c 8a bd 79 bd 61 bb 31 94 7e 3e
       0.015385562 -0.0674674 -0.003444521 0.24861218
000040 76 29 04 be 62 b6 3c 3e 17 40 b4 bd fb 42 ce be
       -0.12906441 0.18428949 -0.08801287 -0.40285477
000050 27 6f b2 3e f8 62 7e bd 66 42 4d 3e 86 50 35 3d
       0.34850428 -0.062106103 0.2004486 0.044266246
000060 d9 96 6b be 10 9e 65 3e ec 96 47 be 51 18 be bd
       -0.23006763 0.22423577 -0.19491166 -0.09281982
000070 e9 cd 38 be 0e 77 7f 3d f4 49 b2 3e 78 3e 51 be
       -0.18047298 0.0623694 0.34822047 -0.20433986
