toy_its/train_logs/map_randompos/eval/bc_model_1000000.pth (torch, 38914 bytes, 11 tensors)

mlp_extractor.policy_net.0.weight f4 [32, 81]
000000 0c 8f b7 bd ad 59 35 bd 4c b1 8b bd 2b 2b f4 3c
       -0.08962831 -0.044274975 -0.06820926 0.02980574
000010 4e 75 47 be 01 76 44 3e 29 a1 30 3e 90 3a ae bd
       -0.19478342 0.1918564 0.17248978 -0.08507264
000020 6c 0a 44 be 16 7d 86 3d 4b 9a 24 3e f4 72 f1 3d
       -0.191446 0.06566827 0.16074483 0.11789504
000030 5b 90 8b be d3 aa 89 3d 76 5b 94 bd 5c 82 8a 3d
       -0.27258572 0.06722035 -0.07244007 0.06763145
000040 09 cf 15 bd a5 1c bb bd 15 aa 2d 3e f1 52 56 3e
       -0.036574397 -0.09136323 0.16959412 0.20930077
000050 79 73 28 3d e9 9d 81 3e e7 a3 0d be ec 47 4e 3e
       0.04112575 0.25315788 -0.13832055 0.20144624
000060 df dd 48 3e b5 67 52 be 9e c9 f5 3d 32 9b 9f bd
       0.19615887 -0.20547374 0.12001346 -0.07793273
000070 e0 53 82 3e 0d ae e6 be fa c9 38 3d ef 1b 73 3e
       0.25454617 -0.45054665 0.045114495 0.23741125
000080 61 a0 20 bd d6 14 8e bb ad 2b 3c be fc a3 9b 3d
       -0.03921545 -0.00433598 -0.18376036 0.07599637
000090 62 ef cc 3d 60 6c 5b be 8f e4 2a be 23 0a 27 be
       0.10006596 -0.2142806 -0.1668875 -0.1631246
0000a0 68 63 1a 3e 19 f6 d8 3e 5e 61 b8 be f6 10 35 bd
       0.15076983 0.42375258 -0.36011785 -0.04420563
0000b0 a9 0a b8 be f2 b7 86 3e 3c a8 81 3e d1 7a 2b be
       -0.35945633 0.26312214 0.25323665 -0.1674607
0000c0 19 df 87 be e4 82 b3 3e 59 8e 2e 3e e6 c8 ae bd
       -0.26537398 0.350608 0.17046489 -0.08534412
0000d0 a2 4c b4 3d cf cf 92 bc ee 57 5f 3e a1 b1 92 3c
       0.08803679 -0.017921356 0.21810886 0.017906966
0000e0 b3 3a 81 3e df 4e dd 3e bf 11 11 bd d2 bf 59 3e
       0.25240096 0.43224236 -0.035417315 0.2126458
0000f0 16 af c0 be e9 ed 1d 3e 0a 62 bd bc 30 23 0f 3e
       -0.3763358 0.15422787 -0.023118038 0.13978267
000100 26 c7 15 be e8 59 4d be 64 cd 4d 3d 63 03 fd 3d
       -0.1462675 -0.20053828 0.050244704 0.123541616
000110 89 76 13 3d b5 71 5c 3e 79 b4 61 bd b6 97 6e 3e
       0.036001716 0.21527751 -0.055103753 0.2330006
000120 8f df e3 3d 35 cd a7 3e 14 cf 40 be ee ad ea 3d
       0.11126625 0.32773748 -0.18828994 0.11458956
000130 ec 00 b6 3e e4 78 b8 3e c6 ac 8b be a6 39 81 be
       0.35547578 0.36029732 -0.27280253 -0.25239295
000140 b5 66 50 be 6b 21 79 bc b4 f8 ba bd 03 b1 d4 bd
       -0.2035168 -0.015205721 -0.091294676 -0.10385325
000150 85 fe 70 bd ba 47 70 be cd 64 fc bd 64 d8 31 bd
       -0.05883648 -0.23464862 -0.12323914 -0.043419257
000160 d0 bf 7c 3c 3b d9 68 3d da 89 21 3e cb 5e 3e bd
       0.015426591 0.056847792 0.15775242 -0.04647712
000170 fb 5b 28 bd bb 24 ff bd 79 a7 5a bb 84 2c a6 bd
       -0.041103344 -0.12458178 -0.0033363982 -0.081139594
000180 ce f0 79 3e c5 2d 3d 3e 5a 21 97 3d 80 0e 4c be
       0.24408266 0.18474491 0.07379408 -0.19927406
000190 6a 69 29 be af ff 8d be 6e 79 72 be 46 83 ab 3d
       -0.16544119 -0.27734134 -0.23679134 0.08374648
0001a0 f9 7d 68 be 76 09 62 be e7 7e f5 3d 10 76 68 3e
       -0.22704305 -0.22073922 0.11987095 0.22701287
0001b0 be f6 43 be d4 d7 9d be cd 4a 86 3e 12 92 a8 bd
       -0.19137093 -0.30828726 0.26228943 -0.08230986
0001c0 a8 a4 b1 bd f3 22 8e bd 38 cf 4a 3e 86 b6 2e 3e
       -0.08673984 -0.0694026 0.1980561 0.17061815
0001d0 e1 3d 38 3e cc 79 f7 3c 6b f8 70 be 9f 62 f2 bc
       0.17992355 0.030209444 -0.23532264 -0.029588042
0001e0 28 35 32 3e 8c af bc 3e fa 86 d4 bc b0 ce 01 be
       0.1740309 0.36852682 -0.025943268 -0.12676501
0001f0 ac 92 97 be 1f 09 1c 3e 02 1a 95 be cc 51 b4 be
       -0.2960409 0.15237854 -0.29121405 -0.35218656
000200 b7 5c f7 bc 22 cd 6d 3e d5 a7 90 be e7 e4 8a bd
       -0.030195577 0.23222783 -0.28253046 -0.06781941
000210 40 e6 d1 bd af 69 1d 3e 7e da 16 3e e5 c8 81 3e
       -0.10248995 0.15372346 0.14731786 0.25348583
000220 e8 36 b9 bc 46 72 5e be 33 15 a4 be 30 8b 44 3d
       -0.02260919 -0.2172328 -0.32047424 0.047984302
000230 0d 86 4b be 26 84 fe 3e 4d 05 cd bd 2c b2 07 bd
       -0.19875355 0.49710196 -0.10010777 -0.033128902
000240 34 a4 93 3d f9 b3 9f 3e 70 0a a5 3e 72 d0 4b be
       0.07209054 0.31191996 0.32234526 -0.19903734
000250 3b ad 29 bd 94 cb 17 3e de b0 d2 3d d1 e0 c2 bd
       -0.04142497 0.14823753 0.10287641 -0.095155366
000260 d5 4c 07 be 8f a0 3a bc 0d d5 ad be b5 e6 a5 3e
       -0.13212903 -0.011390819 -0.33951607 0.32402578
000270 8d 48 68 3e 1d 86 ca bd ac 6d 82 be 3c fb b2 3d
       0.22683926 -0.09888861 -0.25474298 0.087393254
000280 72 56 e3 3e 94 a9 4f 3d f7 58 27 be bc d3 24 3e
       0.4440189 0.05069883 -0.16342531 0.16096395
000290 dd bb 12 bd 56 f9 98 3d c8 ed 1b bc cb e5 0b 3e
       -0.03582369 0.07469432 -0.009517141 0.13661878
0002a0 bf 99 25 3e 4a 5e 2d 3d 80 1d 04 3e e7 91 09 bd
       0.1617193 0.04232625 0.12901878 -0.03358641
0002b0 67 d9 4a 3e c3 c7 58 3d ac cf 50 be 3a 23 40 be
       0.19809495 0.052924883 -0.2039172 -0.18763438
0002c0 27 5a 7b 3e f6 3a ff bc b2 02 d8 3c 6c 5b 9c be
       0.24546109 -0.031156044 0.026368473 -0.305385
0002d0 5b b3 6f be 36 1c 74 bd 93 d1 8f be ab 2f 99 be
       -0.23408262 -0.059597217 -0.2808958 -0.2991918
0002e0 69 94 0e 3d 26 d4 98 bd 76 d7 a1 3e 22 f5 55 3e
       0.034809504 -0.07462339 0.31609696 0.20894292
0002f0 27 97 24 3e 79 d4 be 3d 13 ab b0 be e6 29 39 be
       0.16073285 0.0931787 -0.3450552 -0.18082389
000300 c9 ac 6e 3e 92 98 5a be fb 8b de 3b aa 29 c4 bd
       0.233081 -0.21347263 0.0067915893 -0.09578259
000310 1c ab e0 3e b7 6b 63 3d eb 4d 9f 3d 51 7f 6a bd
       0.43880546 0.055522647 0.077785335 -0.057250325
000320 3b bb b9 3d 48 6b d6 3d 26 85 ad 3d 2e d9 e1 bd
       0.090689145 0.10469681 0.08472662 -0.11027752
000330 11 61 30 3e 70 f9 4b 3e 19 7e 40 be a6 4e 1e bf
       0.17224528 0.19919372 -0.18798102 -0.6183876
000340 b4 db b1 be 98 d6 02 3e 78 d8 65 bd 03 84 a6 be
       -0.34737933 0.12777174 -0.056114644 -0.32522592
000350 07 69 75 be 79 a1 4e 3d 54 4f fe 3e 42 2a 43 bd
       -0.23965846 0.05044696 0.49669898 -0.047647722
000360 ce fc 2a be 8a f7 39 3b e8 ce 75 be 5b c9 9b bd
       -0.16698 0.0028376305 -0.2400471 -0.07606765
000370 b8 08 69 3d d7 94 8b be 74 71 41 be 05 1d ad 3e
       0.05689308 -0.27261993 -0.18890935 0.33811203
000380 7a 69 f8 3d e8 6b 85 bd 92 64 95 3d 48 bb 11 bc
       0.12129493 -0.06514722 0.07294573 -0.008894749
000390 25 98 a3 bd 95 e0 9e 3e bb f2 70 3e 0c 2a fd bb
       -0.07988004 0.31030717 0.23530094 -0.0077259596
0003a0 0d 07 72 3e 7f 13 02 3e 3e 52 66 be d8 8a 9f bd
       0.23635502 0.1270275 -0.2249231 -0.07790154
0003b0 81 57 74 be f5 03 a2 3e 13 41 a6 be fa f8 18 be
       -0.23861505 0.31643644 -0.32471523 -0.14938727
0003c0 a0 9a 66 bd 29 61 97 3e 11 48 c2 3d c3 bb 66 3e
       -0.056299806 0.29566315 0.09486402 0.22532563
0003d0 e1 57 af 3d 13 08 a0 3c 09 7c f2 bd b2 97 cc bd
       0.085616834 0.0195351 -0.11840064 -0.09989871
0003e0 b8 bc 6b be 0f a2 0a bd d0 92 c1 3d 01 8c 14 3e
       -0.23021209 -0.033845957 0.094518304 0.14506532
0003f0 20 87 ca bd 12 56 10 be 5a bb 74 bd aa 96 e5 bc
       -0.09889054 -0.14095333 -0.059748985 -0.028025944

mlp_extractor.policy_net.0.bias f4 [32]
000000 1e e9 19 bc 6b 1a 97 bb c4 af ec bc c7 56 2a 3d
       -0.009393958 -0.0046113036 -0.028892405 0.041586664
000010 b2 97 e0 3c 21 4b 7a 3c 57 a6 7b bd 05 49 38 3d
       0.027416084 0.015276701 -0.06143793 0.04499151
000020 59 e1 dc 3c 90 73 94 bb 34 dd 3d 3b 95 3f 38 bd
       0.026962923 -0.0045303777 0.0028970959 -0.04498251
000030 4e 57 29 3d ae 02 24 3d 75 c7 0f bd e0 97 3f bd
       0.041343026 0.040041618 -0.035102326 -0.0467757
000040 32 f0 1b 3d d0 18 fe 3b 10 b9 1a bd 93 a0 2f bd
       0.038070865 0.0077544227 -0.037774146 -0.042877745
000050 ee 18 97 3c b5 f7 50 bd cb 95 44 bd 18 3c b9 3c
       0.018444505 -0.05101748 -0.047994416 0.022611663
000060 d2 03 7a 3d f9 13 ab bb 78 e9 2f bd 5a e6 49 3c
       0.0610388 -0.005220887 -0.042947263 0.0123229865
000070 a9 04 97 bd f7 76 b4 3c 52 17 bc bb eb 3d a1 bb
       -0.07373936 0.022029383 -0.0057400847 -0.0049207113

mlp_extractor.policy_net.2.weight f4 [32, 32]
000000 67 f8 05 bc 0a 1f 56 3d 1a c1 b4 3e ff f6 b1 3e
       -0.0081768995 0.052275695 0.35303575 0.34758756
000010 2c 96 4a 3b 4a 2b 35 bf 2f c3 0d 3d 80 d6 01 3f
       0.0030912263 -0.7076918 0.03460997 0.50717926
000020 21 90 c5 bc d4 6f f8 3c 81 9c 02 3e 5d e3 d7 3e
       -0.024116578 0.030326761 0.12755014 0.42165652
000030 e8 f5 48 3e a1 8a 76 3e 78 31 b3 be 8a af ae 3d
       0.19625056 0.2407632 -0.3499868 0.08529575
000040 e5 05 ff be e7 13 c8 3e 67 79 d8 3d 47 26 db be
       -0.49809185 0.39077684 0.10570031 -0.4280264
000050 69 bb 28 be 21 f9 95 bd 68 c9 5d 3e de aa e3 3d
       -0.16477741 -0.07322908 0.21658862 0.11116575
000060 82 22 a0 3d 81 29 e8 bd af a8 b0 be e2 79 09 3f
       0.07819082 -0.11336041 -0.34503695 0.53701603
000070 55 de 7d 3d 50 17 90 3d 52 44 1f 3f c3 a2 dc 3e
       0.06197961 0.070356965 0.62213624 0.43092927
000080 7a 67 e0 be 04 7c 44 be 12 05 a3 be 2f 60 ae be
       -0.43828946 -0.19187933 -0.31839806 -0.34057757
000090 85 c1 22 bf c1 d6 0c 3e 04 2a 90 3e 14 61 84 be
       -0.6357654 0.13753797 0.28157055 -0.25855315
0000a0 a8 07 7f be 17 ef 29 3f c7 b2 46 bb b5 ed 85 3d
       -0.24905264 0.6638045 -0.0030318962 0.0653948
0000b0 ff 2f 9c be 1c ff cd 3d dc 0e 95 3e e0 08 c6 3e
       -0.30505368 0.10058424 0.291129 0.38678646
0000c0 86 43 42 be ed 04 d7 3e c8 d4 68 3e 83 25 c7 3e
       -0.1897107 0.41995946 0.2273742 0.38895807
0000d0 e9 a4 4a be 92 8c 1c be de f0 24 3d 2c ab 92 bc
       -0.1978947 -0.15287998 0.04026877 -0.017903887
0000e0 99 f8 92 be 20 ac 92 3e 8d 18 d2 3e 06 eb a2 bd
       -0.2870529 0.28646946 0.41034356 -0.079549834
0000f0 90 c3 76 3e eb 16 38 3e 08 f9 bd be a7 b8 e8 3e
       0.24098039 0.17977493 -0.37104058 0.4545338
000100 b5 b5 45 3e 09 ac 3a 3e 19 8c 86 be b2 2a ac be
       0.19307597 0.18229689 -0.2627876 -0.33626324
000110 1c ed a3 be f7 80 00 bd 2b f5 9a 3e 0c 25 1e 3e
       -0.32016838 -0.03137299 0.30265173 0.1544382
000120 1a 07 06 3d 59 c3 30 3e ff 87 07 bd 58 42 d9 3c
       0.032721616 0.17262019 -0.03308868 0.026520893
000130 c6 2b a2 3c 29 54 98 be ab ae 01 bf 07 17 2a be
       0.019796263 -0.2975171 -0.5065715 -0.16610347
000140 91 e8 f9 bc 6b 5b 8c 3e bc 01 be be 24 ef 15 3f
       -0.030506404 0.27413496 -0.37110698 0.58568025
000150 92 1b 7f be a6 3a 09 3f 88 d7 9d be ec c3 07 bf
       -0.24912861 0.53605115 -0.308285 -0.5303333
000160 af 2d d7 be 23 72 bc be 9f f5 d1 3d c2 ba 1b bc
       -0.4202704 -0.3680583 0.10251927 -0.009504976
000170 4f a0 78 bd 0e cb f4 3e 5f 6c 13 bf 50 69 3f be
       -0.060699757 0.47811168 -0.57587236 -0.18692517
000180 36 f7 f1 bd 53 02 19 3e 1d 23 e5 3d be 20 96 3e
       -0.1181473 0.14942293 0.11188338 0.29321855
000190 25 c7 80 3e 29 95 70 3e dd 25 43 3d 2b 04 95 be
       0.25151935 0.234944 0.04764353 -0.29104742
0001a0 2a 19 83 3d 7e 86 11 3f 0e b0 35 3e e6 f6 df 3d
       0.06401284 0.56845844 0.17742941 0.10935764
0001b0 72 cd 38 3f b4 f5 7c 3e a1 c2 28 bf 38 08 ee bd
       0.72188485 0.24703103 -0.6592198 -0.11622661
0001c0 af b6 e9 3e 9b 48 59 bd ec 88 b2 3d 16 d2 94 3e
       0.4564719 -0.053047758 0.08717522 0.29066533
0001d0 b7 53 94 bd ea 13 a8 bd f1 8b 27 3d 62 18 16 3e
       -0.0724253 -0.08206923 0.040904943 0.14657739
0001e0 f2 73 20 bf 68 e2 b3 3e 04 c8 88 3e 68 c4 a8 be
       -0.6267692 0.35133672 0.267151 -0.32962346
0001f0 74 cf 58 3e 3c 36 06 be 4b c2 25 bf d4 98 90 bd
       0.21172887 -0.13106626 -0.6474959 -0.070604
000200 e7 db 45 3f 11 7c 6d be f3 8f 92 be 2f 82 10 be
       0.7728867 -0.23191859 -0.2862545 -0.14112161
000210 c5 99 99 3e 06 17 dc bd b1 09 7e be 26 2a c4 bd
       0.3000013 -0.10746579 -0.24808384 -0.09578352
000220 f0 a1 58 3c 1d fd 64 3d f1 0d b7 be 81 73 90 3e
       0.013222203 0.05590545 -0.35752824 0.28213122
000230 f5 0d a5 be 7d 63 24 3f 36 9c 2a 3f e9 7d fa be
       -0.3223721 0.6421431 0.6664461 -0.48924187
000240 dd 0f c5 bd 76 4e 26 be b2 c0 e9 3d 92 87 bf 3d
       -0.09622166 -0.16240868 0.11413707 0.0935203
000250 d5 88 45 be a7 1d ca be ed 3a 55 be 08 b1 16 bd
       -0.19290479 -0.39475748 -0.2082326 -0.036789924
000260 b5 24 89 3d 6f 45 db be 79 c8 96 3c 20 c4 37 bd
       0.066964544 -0.4282641 0.01840614 -0.044864774
000270 d6 7c 97 be 62 fa 7e 3e e3 18 27 be 39 ca 47 3c
       -0.2958743 0.24900201 -0.16318087 0.01219421
000280 ca 0e de bd e6 bc 2a be c8 27 da bc d1 9e 03 bb
       -0.108426645 -0.16673622 -0.026630297 -0.0020083676
000290 96 4c 37 3f 38 8e 21 be ce d3 bb bc df 4c 58 3e
       0.71601236 -0.15776908 -0.022928145 0.21123074
0002a0 36 52 a5 3e 87 9f 7a be 07 04 7c bf f3 cb d4 bc
       0.32289284 -0.24474917 -0.98443645 -0.025976157
0002b0 a7 13 38 be d8 bc ac be 02 61 b8 3e 67 9d 50 bd
       -0.17976247 -0.33737826 0.3601151 -0.05093136
0002c0 cb 8b c4 be c3 f3 90 bd 61 9e 96 3c d4 30 ac 3e
       -0.38387904 -0.07077744 0.018386068 0.33631003
0002d0 08 1f 07 be f6 e9 e0 be 38 65 76 be e3 c3 c4 3d
       -0.13195431 -0.43928498 -0.2406205 0.09607675
0002e0 b0 06 50 be 11 7e c2 bc dd 35 99 3e b0 8e bb 3d
       -0.20315051 -0.023741754 0.29923907 0.09158075
0002f0 fb c8 30 be 5e 93 28 be 28 36 8a bd 1b 69 15 bf
       -0.17264168 -0.16462466 -0.06748611 -0.58363503
000300 6e 26 b7 bd b3 60 16 3d e4 53 cf 3d a3 a0 aa 3e
       -0.08942877 0.036713313 0.10123423 0.3332568
000310 05 9e 59 bd 2e ea b9 3e a1 c7 27 3e 03 a4 98 3e
       -0.053129215 0.36311477 0.16384746 0.2981263
000320 9c f8 ce 3e 36 59 d9 3b 94 c7 bb bc 51 59 09 bd
       0.4042405 0.006632949 -0.022922315 -0.033532444
000330 ae 44 85 bd aa 21 9d 3e 05 52 50 be 41 e1 d8 be
       -0.0650724 0.30689746 -0.20343788 -0.42359355
000340 4d 55 56 3e b9 b2 ff bd 7d 12 52 be 63 b7 14 bf
       0.20930977 -0.124852605 -0.20514865 -0.58092326
000350 28 3c 8a 3e e2 55 15 bf 6b 91 63 bd 1d 50 6d 3f
       0.2699902 -0.5833417 -0.055558603 0.9270037
000360 54 ec 6b 3e 30 9b 2c be a8 d9 8d be d9 b4 10 3f
       0.23039371 -0.16856074 -0.2770512 0.5652595
000370 58 70 82 bd 93 af 37 be 15 ae ee 3e 2f cb 7d be
       -0.06369084 -0.1793807 0.4661719 -0.2478454
000380 de 78 96 bc 31 ac e9 be 48 8a 0a bf bd 6b 2e be
       -0.01836818 -0.45639184 -0.5411725 -0.17033286
000390 98 49 7e 3e 88 4b 96 bd 06 be 82 3e c9 57 13 bf
       0.24832761 -0.07338625 0.255356 -0.57555825
0003a0 7a a1 7c 3e 0c 1a 01 3e d5 54 6a bc 7c 4d 57 3e
       0.24670973 0.12607592 -0.014302452 0.21025652
0003b0 69 e2 57 bd bd 26 b6 be 88 91 8d 3e 55 cb 08 be
       -0.052706156 -0.3557643 0.27650094 -0.13358815
0003c0 68 a6 24 be f2 5f 64 bd d4 9f a1 bc 1a 3a 99 be
       -0.16079104 -0.055755563 -0.019729532 -0.2992714
0003d0 29 56 66 be 8c cd e3 3e 3c 3c ea be 69 a8 df bc
       -0.22493805 0.44492757 -0.4574908 -0.027301984
0003e0 78 fe c9 be 7b 4f 1f 3e 5d 42 15 3f f5 68 0d bf
       -0.39451957 0.15557663 0.5830439 -0.55238277
0003f0 ec e1 e0 3d c8 aa 13 3f 63 e0 bb be a8 8b b4 bd
       0.10980591 0.57682467 -0.3669463 -0.088157

mlp_extractor.policy_net.2.bias f4 [32]
000000 53 7f 7f bc d3 9c 45 3b bf 12 8c 3d 76 e7 53 bd
       -0.015594321 0.003015329 0.06839513 -0.05173441
000010 94 6e e7 3c b8 f1 5a 3d 7d aa fc bd 58 c1 9b ba
       0.02825097 0.053453177 -0.123372056 -0.0011883182
000020 7f f6 44 3d 78 eb a4 3c 57 9e b6 3d ca 1c 59 3d
       0.04808664 0.020131811 0.0891692 0.05300597
000030 34 e2 95 3c 14 61 0b 3d 12 10 12 bd 7f cb 97 3d
       0.018296339 0.034028128 -0.035659857 0.07411861
000040 21 10 94 3e 9a 96 4d 3b 26 c7 31 3c 85 a9 c1 3c
       0.28918555 0.0031370283 0.010850703 0.023640404
000050 98 e8 4e 3c 0b 35 1c 3d 93 0a b7 3c 81 ed 0b 3e
       0.012628697 0.038136523 0.02234391 0.1366482
000060 bd 91 0b 3c f1 b9 25 3e 7b 59 aa bc 7e 02 88 bc
       0.008518633 0.16184212 -0.02079462 -0.01660275
000070 86 cd 02 bd 96 ae 93 bd 01 46 36 3c c6 0a 48 3b
       -0.031934284 -0.07211034 0.011125089 0.0030524

mlp_extractor.value_net.0.weight f4 [32, 81]
000000 da 90 92 bc 0a 75 50 bd ee bf f3 bc 3d 80 1b be
       -0.017891336 -0.050892867 -0.029754605 -0.15185638
000010 e0 21 e6 bd 85 ff 89 3d 8e e8 d8 bc 9e a3 dd 3c
       -0.1123693 0.067381896 -0.026478078 0.027055558
000020 a1 43 e9 3d df ea 11 3d 5f 69 2a bd 43 1e af bd
       0.11389852 0.03562438 -0.041604396 -0.08550694
000030 c6 ed 52 bc 1f 4f 2f be 58 aa 67 be 47 2b 66 bd
       -0.012874072 -0.17120026 -0.22623575 -0.056193616
000040 6b 9a 97 be 73 e5 9f bd ea 48 9b 3d b0 38 2d 3c
       -0.2961 -0.07807436 0.07582267 0.010572597
000050 2a 1c 4b bd c7 f4 fa bd 96 59 7d 3e 05 e7 b5 3d
       -0.049587406 -0.12253719 0.24741206 0.08881954
000060 6a ac 7c 3d 49 ff a2 bd f3 f2 94 be 65 4d 3c be
       0.061687864 -0.07958848 -0.29091606 -0.18388899
000070 dd 58 64 be 9f c6 62 3e 21 3d 53 3e b9 1e 12 bc
       -0.22299524 0.2214608 0.20628788 -0.008918458
000080 d7 dd bd 3d 7b 12 ad 3e ae 5b eb be c4 ee e0 bd
       0.09270828 0.33803162 -0.45968384 -0.10983041
000090 aa 30 9d bd 8d 8b 61 3e fd ad a0 bd cd 4f 2d 3e
       -0.076752976 0.2202589 -0.07845686 0.16924973
0000a0 b6 41 5c 3d 3b be ec 3d 13 c5 0e 3c d5 8d c3 3e
       0.053773604 0.11559721 0.008713978 0.38194147
0000b0 f6 b3 98 be cf 55 9f 3d f0 b1 ca 3d 80 4a 08 be
       -0.298248 0.077800386 0.0989722 -0.1330967
0000c0 b0 d3 80 3c da 6f 51 be 3e 16 1b be 23 a8 52 be
       0.01572594 -0.20452824 -0.15145203 -0.20571952
0000d0 78 45 c9 be e0 1e 66 3c 8c 5d 39 bd 23 62 fd bd
       -0.39310813 0.014045447 -0.04525523 -0.12372234
0000e0 cf 33 0f 3e 7b 0a e6 bc f3 a9 e3 bd 15 db 9c bd
       0.13984607 -0.02808117 -0.111163996 -0.07658974
0000f0 bf 7f 70 3e f0 09 f7 bc 14 71 ba 3d 35 e2 46 be
       0.23486231 -0.030156106 0.09103599 -0.19422229
000100 f9 94 9b bd 79 61 77 bd 1a bd 93 3d 5a 03 a7 bd
       -0.07596774 -0.06039569 0.07213803 -0.08154936
000110 18 e7 56 bd aa c1 8f bd e1 2a 5d be 34 92 49 3e
       -0.052466482 -0.0701936 -0.21598388 0.19684678
000120 c6 fc 9c 3c 85 54 b5 3d 6b 4e 85 be 5b f0 b3 bd
       0.0191635 0.088540114 -0.2603639 -0.087860785
000130 ad fe f3 bd 5c c0 cb 3d 9d fe 5a bd 52 6b f5 bd
       -0.1191381 0.09948799 -0.053465474 -0.1198336
000140 d5 e0 dc 3d 8c 11 2d 3e d1 03 d9 bd 7e 21 1a be
       0.10785071 0.16901225 -0.10596431 -0.15051839
000150 03 80 33 be 69 6d 42 3d 16 fa 3e 3e 95 9d 89 be
       -0.17529301 0.047467623 0.18650088 -0.26878038
000160 59 20 53 be cb 8a a3 be da bc 69 be 85 12 08 be
       -0.20617808 -0.31941828 -0.22825947 -0.13288315
000170 ef 8e c8 bc c1 3e 19 bd ac e6 2b 3e 44 41 c3 3d
       -0.024482219 -0.037413362 0.16787213 0.09533933
000180 7c 1c ad be fb 5e 21 bc 4b 4a 8b 3e aa 49 9d bd
       -0.33810794 -0.009849305 0.2720512 -0.07680066
000190 6c 9c 89 bd a3 df 53 3d c6 c9 85 3e 1b db 61 be
       -0.06719288 0.05172695 0.26130503 -0.22056238
0001a0 19 1a 94 bc 6f a2 99 3c a7 d2 21 bd e2 71 50 3d
       -0.01807885 0.018754212 -0.039507534 0.050889857
0001b0 e4 2d 28 bd 5c 42 b7 3b 40 0f da 3e c1 52 5d bd
       -0.04105939 0.0055926275 0.4258976 -0.054034
0001c0 2d 65 cd bd 3c ad 98 bb ab 3d 79 bd 19 de 94 3d
       -0.100290634 -0.004659323 -0.060849827 0.07268924
0001d0 66 9b 53 bc 25 4e d8 3d 86 ac df bd 74 33 80 3d
       -0.012915468 0.1056178 -0.10921578 0.06259814
0001e0 6a a0 e6 3d 40 c4 12 be c3 a0 fa bc 8d 19 df 3e
       0.11261065 -0.14332676 -0.030594235 0.4357418
0001f0 20 40 b5 bc cf a3 13 be 94 a6 38 3e 5e 68 6a be
       -0.022125304 -0.14417957 0.18032295 -0.22891375
000200 a8 f1 67 be ce 46 27 3d 58 7d 42 be ab fb d5 bd
       -0.22650778 0.04083901 -0.18993127 -0.104483925
000210 f4 70 2f 3d 83 df 3a be 37 7c d3 bd 3b 6f e0 bd
       0.04283233 -0.18249325 -0.103264265 -0.109587155
000220 01 f7 27 3e 82 9a 28 be 3e 26 d8 3d 49 df 85 bd
       0.16402818 -0.1646519 0.10554169 -0.06536729
000230 5a ac 51 bc f8 fa 9e 3c cf bb ef bd 9a 50 ec bd
       -0.0127974395 0.01940678 -0.117057435 -0.11538811
000240 b0 a3 20 be 45 9f cf 3e 7c d5 0f 3d ed d3 cb 3b
       -0.15687442 0.405512 0.035115704 0.006220332
000250 23 e1 03 be 41 b6 13 be 3e 2d 69 3e e0 0d 40 bd
       -0.12878852 -0.14424993 0.22771165 -0.046888232
000260 58 70 ae 3d 8d 04 07 bd 84 5b 13 3e 9d 5d 74 3d
       0.085175216 -0.032963324 0.14390379 0.05965959
000270 6b ee f5 bd 19 bf 25 3e 80 91 0d 3e 61 a4 93 3d
       -0.12008365 0.16186179 0.13825035 0.07209087
000280 09 79 19 3e c1 5f 28 bd 96 82 16 be f2 e0 30 3d
       0.14987577 -0.041106943 -0.14698252 0.043183275
000290 ba 93 fd bd c5 a5 a3 3d d0 5c 2c bd d0 47 83 bd
       -0.12381692 0.079906024 -0.0420807 -0.064101815
0002a0 91 60 78 bd 55 3a 35 be b5 d9 0f 3d ca 45 85 3d
       -0.060638968 -0.17698033 0.03511973 0.06507452
0002b0 fb ea 14 3e 03 97 a4 bd cf 0f 5e bd 32 95 ca 3d
       0.14542763 -0.08036616 -0.054214295 0.09891738
0002c0 14 5a 04 3e 46 25 f2 3d 43 20 ef 3d 93 92 39 be
       0.12924987 0.118235156 0.11676075 -0.1812232
0002d0 c4 12 cc bd 13 25 68 be 72 8b 04 3e 94 43 35 be
       -0.09964517 -0.22670393 0.12943819 -0.1770156
0002e0 ac 30 0f 3e ad d9 59 bd 2f e5 fe bb f8 ed 29 be
       0.1398341 -0.053186107 -0.0077787857 -0.16594684
0002f0 6b 7b d2 bd 1e f1 4d be 58 ad 17 3e a1 ea 41 bd
       -0.10277446 -0.2011151 0.14812219 -0.0473429
000300 dc 6c 28 3d 70 d7 0f bd 2b 81 78 be b6 8a 0d 3e
       0.04111944 -0.035117567 -0.24268024 0.13822445
000310 1d b0 b7 bc 46 1a d1 3e f1 44 0d be 34 df 9f 3b
       -0.022422845 0.40840358 -0.1379583 0.004878903
000320 89 c8 fe 3d 0d 7a ff bc e2 f2 65 3e f7 7d 77 bb
       0.12440593 -0.031186128 0.22455934 -0.003776429
000330 03 69 c0 bd c9 4f 8c 3d 35 d5 82 bd e8 5a b6 3e
       -0.093950294 0.06851155 -0.06388322 0.3561623
000340 38 35 97 be a1 f3 87 be 3c d9 55 3e 44 d4 c8 bd
       -0.2953279 -0.26553062 0.2088365 -0.098061115
000350 5c 1c 9b bd e9 31 45 3e 5d 91 15 bc 0a 2f 90 bd
       -0.075737685 0.1925732 -0.009128896 -0.07040222
000360 42 1e 55 3e 92 f8 f6 bb cd 31 32 3e 87 46 96 bd
       0.20812324 -0.007536956 0.1740181 -0.07337671
000370 ed 86 4c be 12 d6 8f bd 53 e9 78 3e 79 ca 97 bd
       -0.19973345 -0.070232525 0.24307756 -0.074116655
000380 c1 ca a7 bc 27 4f af 3e 42 7c 9e 3d f0 b1 00 bb
       -0.020482423 0.34240076 0.07738544 -0.001963731
000390 ad fd 0f bd 18 bd 87 3d 39 49 6a 3e 88 c9 3b 3e
       -0.035154033 0.06627864 0.22879495 0.18338597
0003a0 43 36 14 be 2f 64 9f 3e e0 89 c6 bc 43 35 d1 bc
       -0.14473824 0.31131122 -0.024235666 -0.025538092
0003b0 2b 4b cc 3e fa c8 f3 3d dc d0 44 3e ce f3 3e be
       0.399011 0.119035676 0.19220299 -0.18647692
0003c0 77 54 ed 3d cb 9f e6 bd 7d bd 21 be 4d 0c 0b 3e
       0.11588376 -0.11260947 -0.1579494 0.13578911
0003d0 8e ce 11 be 20 ae 4f bd 68 ac 3a bd dd 8d 49 3d
       -0.1423895 -0.050703168 -0.045574576 0.049207557
0003e0 b7 be 0c 3e 6c eb ce bd c1 48 9c bd 29 9f 28 be
       0.13744627 -0.10103497 -0.07631064 -0.16466965
0003f0 99 0d 1c 3e 8b e3 a9 3d 7b dd 7b 3c 42 0b 4b be
       0.15239562 0.082953535 0.015372629 -0.19828513

mlp_extractor.value_net.0.bias f4 [32]
000000 00 00 00 00 00 00 00 00 00 00 00 00 00 00 00 00
       0.0 0.0 0.0 0.0
000010 00 00 00 00 00 00 00 00 00 00 00 00 00 00 00 00
       0.0 0.0 0.0 0.0
000020 00 00 00 00 00 00 00 00 00 00 00 00 00 00 00 00
       0.0 0.0 0.0 0.0
000030 00 00 00 00 00 00 00 00 00 00 00 00 00 00 00 00
       0.0 0.0 0.0 0.0
000040 00 00 00 00 00 00 00 00 00 00 00 00 00 00 00 00
       0.0 0.0 0.0 0.0
000050 00 00 00 00 00 00 00 00 00 00 00 00 00 00 00 00
       0.0 0.0 0.0 0.0
000060 00 00 00 00 00 00 00 00 00 00 00 00 00 00 00 00
       0.0 0.0 0.0 0.0
000070 00 00 00 00 00 00 00 00 00 00 00 00 00 00 00 00
       0.0 0.0 0.0 0.0

mlp_extractor.value_net.2.weight f4 [32, 32]
000000 76 2c 82 be 04 ff 4c be 12 78 da be 84 b6 9d be
       -0.25424546 -0.20019156 -0.4266973 -0.3080331
000010 37 aa 74 3e 13 a3 2b 3e af 81 d4 3d ef a7 0e 3e
       0.23893057 0.16761427 0.10376298 0.13931249
000020 40 4b 11 3d 71 01 49 bc 58 92 4f bf f3 50 bd be
       0.035472155 -0.01226841 -0.8108268 -0.36975822
000030 a1 51 81 3e ab 17 24 be 44 5e 90 3e dd 8a e2 bd
       0.2525759 -0.16024654 0.2819692 -0.11061642
000040 a2 8c e4 bd 91 be 15 3e bb fb bc 3b 4b bf 74 3e
       -0.11159636 0.14623477 0.0057673133 0.23901097
000050 28 dc 09 3d 1c a5 98 3e ad 33 50 be 23 e0 e8 bd
       0.033657223 0.29813468 -0.20332213 -0.11370876
000060 f8 b3 f6 3c 6d a3 90 be 77 fe 14 3e 27 97 7b 3e
       0.030115113 -0.28249684 0.14550196 0.24569379
000070 50 d7 53 3e 3c a0 54 be 0f 14 f1 3d 19 07 2e 3e
       0.20687604 -0.2076425 0.11771404 0.16994895
000080 04 12 73 bd 60 24 1f be 36 2c 78 3e 7a bf d1 be
       -0.059343353 -0.1554122 0.24235615 -0.40966398
000090 89 11 63 bd f4 b4 bd 3d d8 5a a9 be 9a 10 d6 3e
       -0.055436645 0.0926303 -0.3307712 0.4180954
0000a0 f8 1e c5 3d e5 67 49 3d 49 16 60 3c 30 db 8a 3d
       0.096250474 0.049171347 0.013677188 0.06780088
0000b0 84 a1 46 bf 51 a5 8c be 8d 0b f5 3b bf e5 13 bd
       -0.77590203 -0.27469876 0.0074781836 -0.036107775
0000c0 91 d9 0d bd db 06 ca bd dd 73 8e 3e df de e5 bd
       -0.034631316 -0.09864589 0.27822772 -0.1122415
0000d0 c1 32 97 3e 4a 80 a9 bd 3c 26 e5 3d eb 92 05 be
       0.2953091 -0.08276422 0.11188933 -0.13044326
0000e0 94 ce 44 be 17 41 e3 3d 0e 4f ee 3c 4b d8 fc bc
       -0.19219428 0.11096399 0.02909043 -0.030864855
0000f0 a9 bb c9 3e e7 31 bb be 8a fa d3 3e 94 ef 0b be
       0.39400986 -0.3656151 0.41402084 -0.1366561
000100 51 c6 51 be 1d 57 52 be 67 74 7a 3e d5 84 03 bc
       -0.20485808 -0.20541044 0.24458466 -0.008027275
000110 37 bc 03 3f fa 40 9f bd f0 a3 1d be 74 50 a9 bd
       0.5145907 -0.07776065 -0.15394568 -0.08267298
000120 87 cb a1 3e 56 5d 24 bc 61 d5 08 3e 15 3d 15 be
       0.31600592 -0.010032019 0.13362648 -0.14574082
000130 f6 e2 57 be 8c e7 52 bd 62 19 49 be e0 7b 81 3e
       -0.21082672 -0.05149035 -0.19638589 0.25289822
000140 12 aa 33 3e 18 2b 88 be c0 ce cc be 00 36 13 3f
       0.17545345 -0.26595378 -0.40001488 0.5750427
000150 4a a4 e7 3e c0 b7 0d be 8c 04 b5 be bb 4e 2f bd
       0.4524253 -0.13839626 -0.35355031 -0.042799693
000160 3d a8 9c 3e ad 9a 11 3d de aa 7d bb 65 28 d6 bd
       0.30597106 0.0355479 -0.003870658 -0.104569234
000170 e6 66 28 be 86 81 38 3e 13 7b 45 3c 0e 36 cb 3e
       -0.16445503 0.1801816 0.012053269 0.39689678
000180 ca 83 4f be f8 eb ae be f5 27 28 be 7b e4 3f 3e
       -0.20265117 -0.34164405 -0.16421492 0.18739502
000190 05 84 cb be ff bb c8 be 15 5c 94 be ad f5 dd be
       -0.3974916 -0.3920593 -0.28976503 -0.43351498
0001a0 2c 37 b3 be 99 a3 3c bd 41 56 5e 3e 2a bc bc 3d
       -0.3500303 -0.046054456 0.21712591 0.09215577
0001b0 1d 98 b1 be c2 de 32 bd f6 56 97 3e 13 ad ae be
       -0.34686366 -0.04366947 0.29558533 -0.3411642
0001c0 47 e2 01 3d 1f 80 9c 3e a2 4b a0 bd 90 fb d9 bd
       0.031709936 0.305665 -0.07826926 -0.10643685
0001d0 bb 2f 5d 3e 18 ec 92 3e e1 d5 d1 be 84 91 50 be
       0.21600239 0.2869575 -0.4098349 -0.2036801
0001e0 87 6a a4 3e d3 d3 df bc 16 00 9d 3d 1c 8d 93 3e
       0.32112524 -0.027322685 0.07666032 0.28818595
0001f0 74 08 41 be 0f cb d5 bd 7e 12 d3 3c e7 aa 90 3b
       -0.18850881 -0.10439121 0.025765654 0.0044149044
000200 ac d9 b6 3e 22 dd c4 bd 59 d5 08 bd 7c 23 56 3d
       0.35712945 -0.0961249 -0.03340659 0.052279934
000210 f0 fb b5 3a ae bd 28 be 78 9d d0 3d 71 55 d7 bc
       0.0013884287 -0.16478607 0.10186285 -0.026285859
000220 6c 00 23 3f fa 76 1c 3f 25 45 a2 bd 7a 33 3c bc
       0.6367252 0.61119044 -0.079233445 -0.011486882
000230 21 18 5b 3d 69 e9 ad be 6d 9f e3 bd 38 2a 0e bf
       0.053489808 -0.3396714 -0.111143924 -0.5553317
000240 c2 6c 7b bd b8 f5 b6 3d 02 6a 29 bd e4 36 ae be
       -0.061383016 0.08933586 -0.041360863 -0.34026253
000250 3c 35 14 3e 45 ab 03 3e aa d7 1a 3e fe 84 8b bd
       0.14473432 0.12858303 0.15121332 -0.068124756
000260 3a db 89 3e 74 4e fb bd e9 25 31 3e 9c 71 53 be
       0.2692507 -0.12270823 0.17299618 -0.20648807
000270 e8 09 04 bd 0d ef df 3e b9 e0 5f 3e f7 92 44 3d
       -0.03223601 0.4373707 0.21863069 0.04799172
000280 9b 33 97 3e 71 c3 04 be ca ab d2 be b1 a2 8f 3e
       0.2953156 -0.1296518 -0.4114669 0.2805381
000290 f6 6d a6 3e 02 57 09 3f 38 30 7e be 5c a0 99 be
       0.3250577 0.5364839 -0.24823081 -0.30005157
0002a0 85 2c 72 3e 37 34 86 be f6 7f 99 3e 5d 65 7d 3e
       0.23649795 -0.26211712 0.2998044 0.24745698
0002b0 e3 88 0e 3e e6 70 88 be 15 e7 ad be c5 cd e8 bc
       0.13919406 -0.26648635 -0.33965364 -0.028418431
0002c0 7b 31 c4 3d b6 35 dd 3d d4 af 66 3e 41 5a a3 3d
       0.0957975 0.1080126 0.2252801 0.07976199
0002d0 8d e9 0f be b5 d9 cb 3d 27 d8 9a be 50 41 a6 3e
       -0.14053936 0.09953634 -0.30243036 0.32471704
0002e0 36 84 af 3d 55 6a 99 3c 75 e8 22 bd f1 fc 2f 3e
       0.08570139 0.01872746 -0.03977247 0.17186333
0002f0 c5 d0 1d 3e 2a dd 65 be d2 3e cb 3e ec 5b 5a be
       0.1541167 -0.22447649 0.39696366 -0.21324128
000300 df 3a 09 be 44 38 8e 3e 0c 50 4e 3c de 1c db 3e
       -0.13401364 0.27777302 0.012592327 0.4279546
000310 8b b6 e9 3d b0 a6 b0 3e c4 16 a3 be f2 35 d1 3e
       0.114117704 0.34502172 -0.31853306 0.4086147
000320 00 38 a9 bd 23 04 de 3e e5 53 16 3e e0 9e 89 be
       -0.08262634 0.4336253 0.1468044 -0.26879025
000330 5b aa 43 be f4 4b 86 3e 90 b6 26 3e fd 3f 51 be
       -0.19107954 0.26229823 0.1628058 -0.20434566
000340 eb ca e6 3d 1e d6 3f 3e 85 4d 2c be d0 05 7c 3d
       0.11269172 0.18734023 -0.16826446 0.06152898
000350 70 2d 96 bd 1d b5 b6 3e 94 15 d2 be 72 84 5d 3d
       -0.07332885 0.35685053 -0.41032088 0.054081388
000360 40 82 ff be 2a 1a 77 be 5b 52 5c be fa f4 8f be
       -0.4990406 -0.24131075 -0.21515791 -0.2811659
000370 30 e6 e1 bd 13 a0 13 3e d7 41 23 3d 7c cd b4 bd
       -0.11030233 0.14416532 0.03985771 -0.088282555
000380 70 96 15 be 10 2a 34 3e 0f d2 86 3e 37 7a 83 be
       -0.14608169 0.1759417 0.26332137 -0.2567918
000390 01 39 32 3d a2 41 90 3e e4 2a 9d 3e df 38 c1 3d
       0.043511394 0.28175074 0.30696785 0.094346754
0003a0 7e e1 bf bc 2a 0c 13 be 72 b7 65 3e 62 93 3a 3e
       -0.023422953 -0.14360109 0.2243326 0.18220285
0003b0 7a f8 86 3e 4f de 1a be 85 76 ed 3e 55 fe bd 3e
       0.26361448 -0.15123866 0.46379486 0.37108102
0003c0 cc e0 fb bc c7 e8 f9 3e fb 9a 1a be 92 8c 97 be
       -0.03074684 0.48810408 -0.15098183 -0.29599434
0003d0 94 9d 0e 3f 37 e7 88 3d 72 a5 af bd 32 66 60 3e
       0.55709195 0.06684726 -0.08576478 0.21913984
0003e0 2d 22 0b 3c 0a 3f 21 3c b8 6b 2b 3c c5 76 35 3e
       0.008492035 0.00984169 0.010462694 0.17721088
0003f0 52 db 0c be 8d 12 ba 3e da f0 ca 3e d7 87 0b be
       -0.13755539 0.36342278 0.3963688 -0.13626038

mlp_extractor.value_net.2.bias f4 [32]
000000 00 00 00 00 00 00 00 00 00 00 00 00 00 00 00 00
       0.0 0.0 0.0 0.0
000010 00 00 00 00 00 00 00 00 00 00 00 00 00 00 00 00
       0.0 0.0 0.0 0.0
000020 00 00 00 00 00 00 00 00 00 00 00 00 00 00 00 00
       0.0 0.0 0.0 0.0
000030 00 00 00 00 00 00 00 00 00 00 00 00 00 00 00 00
       0.0 0.0 0.0 0.0
000040 00 00 00 00 00 00 00 00 00 00 00 00 00 00 00 00
       0.0 0.0 0.0 0.0
000050 00 00 00 00 00 00 00 00 00 00 00 00 00 00 00 00
       0.0 0.0 0.0 0.0
000060 00 00 00 00 00 00 00 00 00 00 00 00 00 00 00 00
       0.0 0.0 0.0 0.0
000070 00 00 00 00 00 00 00 00 00 00 00 00 00 00 00 00
       0.0 0.0 0.0 0.0

action_net.weight f4 [5, 32]
000000 96 af 9c 3e 92 5f d3 3d d7 98 ac 3d f2 cf 9c be
       0.3060271 0.10320963 0.084275894 -0.306274
000010 8d 44 3b be bd 89 71 be db b7 f1 bd 30 33 36 bd
       -0.18287869 -0.23587699 -0.11802646 -0.04448241
000020 8f be ad 3d ad a8 ae 3e da 61 5f be b5 ea 4c 3e
       0.08483612 0.34113064 -0.21814671 0.20011409
000030 aa a2 15 3e a2 60 76 3e 5b 23 ed bd 21 3f b1 3d
       0.14612833 0.240603 -0.11579009 0.08654619
000040 f2 97 9b 3d 88 7a 8d bd 4b ba 09 be 30 aa db 3d
       0.07597341 -0.069081366 -0.13449971 0.1072582
000050 e1 db 92 be ec 31 58 bd 31 ca 7c be 72 5c b9 3d
       -0.2868338 -0.052781984 -0.24686505 0.09050836
000060 6c 6c 9f be 2a b7 13 3e e0 f4 a0 3d 31 33 1e be
       -0.31137407 0.1442534 0.07859206 -0.15449215
000070 9b 46 69 3e fa 84 05 be c6 00 9e 3e 57 cf 84 be
       0.2278084 -0.13039008 0.30859965 -0.25939438
000080 bc c5 81 be 5d 95 14 3d 82 a8 9c 3d ca 6a 79 be
       -0.25346172 0.036275256 0.07649328 -0.24357143
000090 73 89 9c 3e 8a c3 97 3e ca 1c dc bd f2 b1 4e 3e
       0.30573615 0.29641372 -0.107476786 0.20185068
0000a0 5d 61 de bc 99 39 7e be 1a 88 cd bd 5a 0b 0b 3e
       -0.027146036 -0.2482666 -0.10035725 0.13578549
0000b0 c3 cd 37 be e2 18 a4 be 93 55 f4 bd 99 99 17 3d
       -0.17949586 -0.32050234 -0.119303845 0.037011717
0000c0 7b ee 8a 3c e8 31 c6 bd 05 a3 6e 3e e3 cd e2 3d
       0.01695942 -0.096774876 0.23304375 0.11074426
0000d0 e0 03 24 be 8b ce 23 3e 3a 44 a4 3e 64 3e e7 3d
       -0.16017103 0.15996759 0.32083303 0.11291197
0000e0 74 4f 71 be c9 47 c9 3d 38 7f c3 3d 6d c2 a8 3e
       -0.23565465 0.09828145 0.095457494 0.32960835
0000f0 1b 46 9b be c2 10 92 bd e2 5f 7c be 94 0e 8a 3e
       -0.30326924 -0.071321025 -0.24645951 0.26964247
000100 fb 41 a2 be 3b b6 c4 3d a3 d3 e9 3d 80 f1 c1 3e
       -0.31690964 0.0960507 0.114173196 0.37879562
000110 e3 0f 60 be 31 bc 18 be bb b0 c0 bd 89 21 28 3e
       -0.2188106 -0.1491554 -0.09408709 0.16419043
000120 98 50 4a 3e 6d 3d a2 be 0c 4b 43 3e e8 c7 d5 bd
       0.19757307 -0.3168749 0.19071597 -0.1043852
000130 77 3e 22 3e 91 2b c3 3d 3f 5e 09 3d 87 f8 ec 3d
       0.15844141 0.09529794 0.033537146 0.1157084
000140 6f 2c ca 3d fa 73 0f be 22 e2 16 be 0f 0f bd 3d
       0.09871756 -0.14009085 -0.147347 0.09231388
000150 80 d7 ab 3e eb 62 5f 3e 73 f4 5c be 6e 31 e7 3d
       0.3356285 0.21815078 -0.21577625 0.11288725
000160 42 fb bb 3e b0 87 58 bd 4b 41 d9 3d 45 8c 6a be
       0.36715132 -0.052863777 0.10608157 -0.22905071
000170 80 fb 17 3e 53 e6 ac bd e2 4c 97 be 29 6f ac 3d
       0.14842033 -0.08442368 -0.29550844 0.084196396
000180 8d 03 a2 3e f4 10 5d be 78 61 4e be a7 42 51 be
       0.31643334 -0.21588498 -0.20154369 -0.20435582
000190 50 6f 40 3d 7b 63 a0 3d 7a cf 8f 3e a9 10 89 be
       0.046981156 0.078314744 0.2808798 -0.26770523
0001a0 fa 85 9c be e5 12 41 bc bd 2a 15 3e 9b 60 64 be
       -0.30570966 -0.01178429 0.14567085 -0.22302477
0001b0 66 98 2d be 49 14 60 3e a4 e0 fd 3d 79 ff 1f be
       -0.16952667 0.21882738 0.123963624 -0.15624799
0001c0 56 73 55 3d 15 d8 9c 3e df a4 b0 bd ed 0f 95 be
       0.052111946 0.30633608 -0.08625197 -0.29113713
0001d0 f9 66 09 be 2d dc 8b be 2f a8 5c 3e 4d 34 99 be
       -0.13418187 -0.27316418 0.21548532 -0.29922715
0001e0 bc 02 03 3d a7 ae c3 3b e4 84 83 be cb 5b 46 be
       0.03198503 0.005971748 -0.25687325 -0.19370954
0001f0 04 b0 74 bd ad b3 8e 3e 28 73 65 3e bc f6 08 be
       -0.059738174 0.27871457 0.2240721 -0.13375372
000200 1d e8 8d 3b bf 5d e6 bd 6f f8 56 be e0 e2 0a 3e
       0.0043306486 -0.112483494 -0.20993207 0.13563108
000210 a2 76 1d 3e db 89 b5 3d 43 bd db 3d e5 f5 b8 bd
       0.15377286 0.088641845 0.10729458 -0.09031276
000220 9e 95 f5 bd d2 8c 39 3e 50 5c b9 3d 6e 8f bf bd
       -0.11991428 0.18120125 0.0905081 -0.09353529
000230 5b cc c7 bd eb a7 62 be 77 fc 0c 3e ad 03 4f be
       -0.097557746 -0.22134368 0.13768183 -0.20216246
000240 75 ec c7 be f0 bb 08 3e 2b 7c 42 3e ee 59 02 be
       -0.3904759 0.13352942 0.18992679 -0.12729618
000250 2e d2 52 3e 02 76 e6 bd 0b 08 c7 bc d4 40 02 be
       0.2058799 -0.11252977 -0.024295827 -0.12720042
000260 e8 89 ba 3d f8 5c 8b be 01 8f f4 bd 30 fa 5a 3e
       0.09108335 -0.27219367 -0.11941338 0.21384501
000270 e9 e7 33 bd 96 77 f7 3d 5e 60 58 3d 65 0b 08 3e
       -0.04392234 0.12083356 0.052826278 0.13285597

action_net.bias f4 [5]
000000 05 4a 70 3d 98 f9 79 3d 31 e6 8e 3d 03 a3 16 3d
       0.05866434 0.061029047 0.06977499 0.036776554
000010 d7 91 79 be
       -0.2437204

value_net.weight f4 [1, 32]
000000 00 ea 84 bd 6d 61 bb bd a6 9e 84 be e7 a0 5a 3b
       -0.064899445 -0.09149442 -0.2590229 0.0033360065
000010 6f 47 2d bd fe 86 36 3e 51 4b ed 3d cb af 96 3d
       -0.042304453 0.17824933 0.11586631 0.073577486
000020 fd 9d b3 bc 73 c9 37 3e 8f 93 34 be 25 7a 2c 3c
       -0.02192592 0.1794794 -0.17634414 0.010527168
000030 b9 13 7c 3c 59 2c 8a bd 79 bd 61 bb 31 94 7e 3e
       0.015385562 -0.0674674 -0.003444521 0.24861218
000040 76 29 04 be 62 b6 3c 3e 17 40 b4 bd fb 42 ce be
       -0.12906441 0.18428949 -0.08801287 -0.40285477
000050 27 6f b2 3e f8 62 7e bd 66 42 4d 3e 86 50 35 3d
       0.34850428 -0.062106103 0.2004486 0.044266246
000060 d9 96 6b be 10 9e 65 3e ec 96 47 be 51 18 be bd
       -0.23006763 0.22423577 -0.19491166 -0.09281982
000070 e9 cd 38 be 0e 77 7f 3d f4 49 b2 3e 78 3e 51 be
       -0.18047298 0.0623694 0.34822047 -0.20433986
